checkpoints/dubins3d-discrete-v0__hj_dqn__1__1638911814_evalFalse/dqn_checkpoint_10180.pth (torch, 72343 bytes, 6 tensors)

fc1.weight f4 [256, 3]
0	0x3ebe30b3	0.3714653
1	0xbebc66fb	-0.36797318
2	0xbdf532c9	-0.11972577
3	0x3ec7b66f	0.39006373
4	0xbf1d3a67	-0.6141724
5	0x3edd0b51	0.43172696
6	0xbdf3409a	-0.11877556
7	0x3e9662ea	0.2937234
8	0x3da46023	0.08026149
9	0xbd13a1b7	-0.036042895
10	0x3e568cf0	0.20952201
11	0xbe444f37	-0.19170843
12	0x3eb49153	0.35267124
13	0xbe4e749d	-0.20161672
14	0x3b0064d3	0.0019591346
15	0xbd93a605	-0.072094
16	0x3e0793df	0.13240002
17	0xbe3e521a	-0.18586007
18	0x3f01f075	0.50757533
19	0x3d434930	0.04767722
20	0xbe891994	-0.26777327
21	0xbeb28872	-0.34869725
22	0xbdc630e4	-0.09677294
23	0xbe7f02f1	-0.24903466
24	0xbe3d7388	-0.18501103
25	0x3ce276a0	0.027644455
26	0x3eb037a4	0.3441745
27	0x3efc0680	0.4922371
28	0xbf09e956	-0.5387167
29	0x3eb8607f	0.3601112
30	0x3e48a5e3	0.19594531
31	0x3f00035c	0.50005126
32	0x3e85e0f3	0.26148185
33	0xbf06aaec	-0.52604556
34	0xbf0c87f4	-0.5489495
35	0xbe8e9438	-0.27847457
36	0x3f0f75cf	0.56039137
37	0xbe5f3856	-0.21798834
38	0x3e839243	0.25697526
39	0xbec293db	-0.3800343
40	0x3f2a6967	0.6656708
41	0xbdd1b374	-0.10239306
42	0x3ed3065c	0.4121579
43	0xbe44b31d	-0.19208951
44	0xbe77ea11	-0.24210383
45	0x3eba5787	0.36394903
46	0xbed7fb5e	-0.42183965
47	0x3e0a82ff	0.13526534
48	0xbe2ab716	-0.16671404
49	0xbd81a218	-0.06329745
50	0xbf0e1843	-0.5550577
51	0xbe8cf032	-0.27527004
52	0x3ea06788	0.31328988
53	0xbe0fb57b	-0.14034073
54	0x3f2445e2	0.6416913
55	0x3ebef404	0.37295544
56	0xbdbcb8c7	-0.09214931
57	0xbec54f6b	-0.38537154
58	0x3eb402e1	0.35158446
59	0x3e377c35	0.17918475
60	0xbeca3339	-0.39492205
61	0x3f09e321	0.53862196
62	0x3f05bda9	0.52242523
63	0x3f1597e6	0.58434904
64	0xbedc7f68	-0.43065953
65	0xbddd7328	-0.1081298
66	0xbc373e93	-0.011184352
67	0x3dacb348	0.08432633
68	0xbee056ba	-0.43816167
69	0xbed1c449	-0.40970066
70	0x3ea0cf3f	0.31408116
71	0xbe0aa219	-0.13538398
72	0x3ea8c225	0.3296062
73	0xbda49973	-0.080370806
74	0x3e28af81	0.164732
75	0x3e1472c7	0.14496909
76	0x3e0ddd9b	0.13854067
77	0x3d9765b2	0.07392444
78	0xbed1dddd	-0.4098958
79	0x3f07dfa8	0.5307565
80	0xbe490a39	-0.19632806
81	0xbedf090e	-0.43561596
82	0x3d0fd0c3	0.0351112
83	0xbdc97de1	-0.098384626
84	0x3ecf9715	0.40544954
85	0xbee53e04	-0.44773877
86	0xbf123261	-0.5710812
87	0x3ef63244	0.48085225
88	0xbe48e16f	-0.19617246
89	0x3eb1b4b4	0.34708178
90	0x3ead9251	0.33900693
91	0xbedc7c8d	-0.43063775
92	0x3de8f001	0.11373902
93	0x3e76d840	0.2410593
94	0xbebfb5c4	-0.37443364
95	0xbed8f19f	-0.42371842
96	0x3e63a53a	0.22230998
97	0xbd0618d0	-0.032738507
98	0xbea83786	-0.3285486
99	0xbe0d4f4e	-0.13799784
100	0x3f111d51	0.5668536
101	0xbed5b501	-0.41739658
102	0x3ebe0e8d	0.37120476
103	0x3e1949d3	0.14969568
104	0xbf006cda	-0.50166094
105	0xbf03ca88	-0.51480913
106	0x3f31dc0f	0.6947641
107	0x3e865e52	0.26243836
108	0x3ed486c8	0.4150908
109	0xbcee068e	-0.02905586
110	0x3e25c5d6	0.1618875
111	0x3ef67d45	0.48142448
112	0x3ee7be20	0.4526224
113	0xbef56336	-0.47927254
114	0x3dc3dfd8	0.09564179
115	0x3ecacd50	0.39609766
116	0x3e63fee5	0.22265203
117	0x3ec70fdd	0.3887929
118	0xbf124950	-0.57143116
119	0xbed67b8c	-0.41891134
120	0xbeb2c5c3	-0.34916505
121	0x3d948b6d	0.07253156
122	0x3f134f09	0.57542473
123	0xbebab9b5	-0.36469808
124	0x3e9d8579	0.30765894
125	0xbea39ce9	-0.3195565
126	0xbf0af728	-0.5428338
127	0xbdfb4f4b	-0.12270983
128	0x3eaa516b	0.33265242
129	0x3f119faa	0.56884253
130	0xbf04517d	-0.5168684
131	0x3e187a59	0.14890422
132	0x3edbd272	0.42933995
133	0x3e618e9e	0.2202706
134	0x3e5fa73f	0.21841143
135	0x3eebe5ce	0.46073765
136	0x3e898d5d	0.26865664
137	0x3d25b018	0.04045114
138	0xbeca23b7	-0.39480373
139	0xbef83c44	-0.4848348
140	0xbe877398	-0.2645538
141	0xbd89afeb	-0.06723007
142	0xbeb530d3	-0.35388812
143	0x3e584b8d	0.2112257
144	0x3e635e05	0.22203834
145	0xbe7fa2cc	-0.24964446
146	0x3e1aea25	0.15128382
147	0x3e45618c	0.19275492
148	0x3e97faa2	0.29683405
149	0x3e410306	0.1884881
150	0xbe642163	-0.22278361
151	0x3f26dede	0.6518382
152	0xbe2cc864	-0.16873318
153	0xbca27df1	-0.019835444
154	0xbf0b81ce	-0.5449494
155	0xbebe414e	-0.371592
156	0xbeacb147	-0.33729002
157	0xbe7cdf66	-0.24694595
158	0x3ed22a3c	0.41047847
159	0xbe4131f4	-0.18866712
160	0xbedce618	-0.43144298
161	0x3e63777a	0.22213545
162	0x3e0e4418	0.13893163
163	0x3e3f8ec9	0.18706812
164	0xbe997747	-0.29973814
165	0x3e4f351f	0.20235108
166	0xbe9ebef3	-0.31005058
167	0xbe3c658d	-0.18398114
168	0xbeeb925d	-0.46010104
169	0xbe86b976	-0.2631337
170	0xbe350fc6	-0.17681798
171	0x3e9f4aeb	0.31111845
172	0x3bbd6afc	0.005780576
173	0x3dcdc833	0.100479506
174	0x3f205546	0.62630117
175	0x3ef43a3a	0.47700673
176	0x3e900cf5	0.28134885
177	0x3c969be2	0.018384878
178	0xbecc7ef0	-0.39940596
179	0x3ee70451	0.4512048
180	0xbe13d6d3	-0.14437418
181	0xbd3f2f6d	-0.046676088
182	0xbefea976	-0.49738663
183	0xbde98f7a	-0.11404319
184	0xbebea91a	-0.3723839
185	0x3f07d0da	0.5305306
186	0xbeff8e28	-0.49913144
187	0xbee66aee	-0.45003456
188	0xbca099fa	-0.019604672
189	0xbe7ed856	-0.24887213
190	0x3ecfbab8	0.40572143
191	0xbe68bb3d	-0.22727676
192	0xbe8ad75a	-0.27117425
193	0x3d05f02f	0.03269976
194	0x3ed5fc95	0.41794267
195	0xbecfef35	-0.40612188
196	0x3e8ad133	0.2711273
197	0x3ebde867	0.3709137
198	0x3f1b7cf1	0.6073752
199	0xbf0d2e92	-0.55149186
200	0x3dbed435	0.09317819
201	0xbeda93b9	-0.42690828
202	0x3efc5f15	0.49291292
203	0xbe655532	-0.2239578
204	0x3ecb3719	0.39690474
205	0xbda9021c	-0.082523555
206	0xbdf40732	-0.11915435
207	0xbc96e9ae	-0.018421974
208	0x3dc900f5	0.09814636
209	0x3e8b58a4	0.27216065
210	0x3e1dc6a7	0.15407811
211	0x3da47bc5	0.0803142
212	0xbf1fc4e5	-0.6240981
213	0x3ec31654	0.38102973
214	0x3ec44254	0.38331854
215	0x3e90512f	0.28186938
216	0x3ee5e274	0.44899333
217	0xbf1661b3	-0.5874283
218	0xbe6f1e3f	-0.23351382
219	0x3f1224ba	0.5708729
220	0xbf11fa4a	-0.57022536
221	0x3f13c89b	0.57727975
222	0xbee87da8	-0.45408368
223	0xbed039bb	-0.40669045
224	0x3e908394	0.28225386
225	0xbed46344	-0.41481984
226	0xbe077224	-0.13227135
227	0x3ed70c8c	0.4200176
228	0x3f026373	0.50933
229	0x3eeb08f8	0.4590528
230	0xbe4d812c	-0.20068806
231	0xbee5c2c9	-0.44875172
232	0x3f1186f2	0.56846535
233	0xbdfbe28e	-0.12299071
234	0xbe733e42	-0.23754218
235	0x3e101ee7	0.14074288
236	0xbeceb900	-0.4037552
237	0x3ee38910	0.44440508
238	0x3e8a7d76	0.27048844
239	0xbf0d7614	-0.552583
240	0xbef2cce8	-0.47421956
241	0xbd4f267d	-0.050573815
242	0x3e785265	0.24250181
243	0x3dd3d1b8	0.10342735
244	0xbe90ea8d	-0.28303948
245	0xbab90db9	-0.001411847
246	0xbf0aec6e	-0.54267013
247	0xbed0ebc1	-0.40804866
248	0xbec4c7ad	-0.3843359
249	0x3f04f8f0	0.5194235
250	0x3ed1bc7f	0.40964124
251	0xbe9cf610	-0.3065648
252	0x3db10076	0.08642666
253	0x3e53d868	0.20688021
254	0xbc18d949	-0.009329149
255	0xbe8fc4a2	-0.28079706

fc1.bias f4 [256]
0	0xbe7caae9	-0.24674572
1	0x3dfbcc8d	0.12294874
2	0xbee2d755	-0.4430491
3	0x3e5b875e	0.21438357
4	0xbf0e31cc	-0.55544734
5	0x3ef6d966	0.48212737
6	0x3eccb953	0.3998514
7	0xbe5303cc	-0.20606917
8	0x3daed7fb	0.08537289
9	0xbea14839	-0.31500414
10	0xbec45214	-0.3834387
11	0xbe95b5c6	-0.29240245
12	0xbee21f66	-0.4416458
13	0x3e5b0e24	0.21392113
14	0xbe9cab19	-0.30599287
15	0xbdeabe31	-0.114620574
16	0xbee287af	-0.44244143
17	0xbeb9b761	-0.3627272
18	0xbf1e12cc	-0.6174743
19	0xbed4768b	-0.4149669
20	0x3f26b1e1	0.6511517
21	0x3d8ee880	0.069779396
22	0xbf0cf553	-0.55061835
23	0xbdc5598a	-0.09636219
24	0xbdd36702	-0.103223816
25	0x3e8eefc5	0.27917305
26	0x3f45e73c	0.7730596
27	0x3e0ec315	0.13941605
28	0x3e85730d	0.2606434
29	0xbeb4cdc1	-0.35313228
30	0xbd688fba	-0.056777693
31	0xbe7b7f39	-0.2456025
32	0xbce91345	-0.028451571
33	0x3f290dab	0.6603648
34	0x3e7bd7e9	0.24594082
35	0x3f351da2	0.7074834
36	0xbee65f87	-0.44994757
37	0xbe3e3bb1	-0.18577458
38	0x3e1c4832	0.15261915
39	0x3e8a3e43	0.27000627
40	0xbf07dd88	-0.53072405
41	0xbe912c8f	-0.28354308
42	0x3dab8582	0.08375074
43	0xbf09a7e5	-0.5377181
44	0x3d6899db	0.056787353
45	0xbe18df61	-0.14928962
46	0xbe1932bc	-0.1496076
47	0x3e9e88d8	0.30963778
48	0x3e87b1eb	0.26502928
49	0x3f137f07	0.57615703
50	0x3ed11aaa	0.40840656
51	0xbc8157e7	-0.015788985
52	0x3ef1aff0	0.47204542
53	0x3eeb40f7	0.45948002
54	0xbf01889b	-0.5059907
55	0x3e03be2d	0.12865515
56	0x3d8a8d4c	0.067652315
57	0xbec704f6	-0.38870972
58	0xbe784267	-0.2424408
59	0xbe0b9a6f	-0.1363313
60	0xbecedafb	-0.40401444
61	0xbe3468fd	-0.17618175
62	0x3e46f204	0.19428259
63	0x3f2d11f5	0.67605525
64	0x3d33a205	0.043855686
65	0xbf0f21a1	-0.5591069
66	0x3dfcdb62	0.123465315
67	0xbe32e3e4	-0.17469746
68	0x3ec97a34	0.39351046
69	0xbf0ed15b	-0.557882
70	0xbe81be0a	-0.253403
71	0x3ebd2197	0.3693969
72	0x3d209aa3	0.039209973
73	0xbeedf5f7	-0.4647672
74	0xbefff70e	-0.49993175
75	0xbbcb321b	-0.0062010414
76	0x3dfdf614	0.12400451
77	0xbef568b6	-0.4793145
78	0xbef75ca4	-0.48312867
79	0xbdfe0fa3	-0.12405326
80	0xbdf27f96	-0.11840741
81	0x3eb15d49	0.34641483
82	0xbf0f35cb	-0.55941457
83	0xbe59c7fd	-0.21267696
84	0xbf0262e9	-0.50932175
85	0x3dbda737	0.09260409
86	0xbe9707cd	-0.2949814
87	0x3ce97131	0.028496357
88	0xbef749da	-0.48298532
89	0xbee88a27	-0.45417902
90	0xbeeaa854	-0.4583155
91	0xbf2aeccd	-0.6676758
92	0x3eba9ad6	0.36446255
93	0xbda93759	-0.0826251
94	0xbf06904d	-0.52563936
95	0x3ecf2340	0.4045658
96	0xbe06218c	-0.13098735
97	0x3e88b5c4	0.26701176
98	0xbe374491	-0.1789725
99	0xbef750fa	-0.48303968
100	0x3e01d85d	0.12680192
101	0x3eb811d2	0.35951096
102	0xbf101c80	-0.5629349
103	0xbdd33175	-0.103121676
104	0x3debab0c	0.11507234
105	0x3d87b645	0.06626562
106	0xbe07b008	-0.13250744
107	0xbe37c612	-0.17946652
108	0xbf02db3f	-0.51115793
109	0x3d9bd062	0.07608105
110	0xbf05be35	-0.5224336
111	0xbef43dd5	-0.47703424
112	0xbe3dcf02	-0.18535998
113	0xbed1fd4c	-0.41013563
114	0x3eb8ca1e	0.36091703
115	0x3ec7ddf8	0.39036536
116	0x3ee5bbe4	0.44869912
117	0xbebdcb03	-0.37068948
118	0x3e6bf52b	0.23042743
119	0x3eae6037	0.3405778
120	0x3bd4393d	0.00647655
121	0x3ed1f7ba	0.41009313
122	0x3ea743bb	0.32668862
123	0x3ee22e22	0.44175822
124	0x3e82813f	0.25489232
125	0x3dfaa2cd	0.12238083
126	0xbeb47347	-0.352442
127	0xbea4cf60	-0.32189465
128	0xbe8c2bae	-0.27377075
129	0x3eb511a3	0.35365018
130	0xbe11b0ce	-0.14227602
131	0x3e5a642e	0.21327278
132	0xbf2ce84d	-0.6754196
133	0xbe4fa371	-0.20277192
134	0xbe26c785	-0.16287048
135	0xbebebc0e	-0.3725285
136	0x3e5afa53	0.21384554
137	0xbf2007e6	-0.6251205
138	0xbe64a954	-0.22330219
139	0xbe59d8a4	-0.21274048
140	0xbf05ce30	-0.5226774
141	0x3e6a2817	0.22866856
142	0xbe3c1d61	-0.18370582
143	0x3e3511b6	0.17682537
144	0x3ec4187c	0.3829993
145	0x3f362ced	0.711623
146	0xbd15f707	-0.036612537
147	0x3e26e09d	0.1629662
148	0x3efc1a27	0.49238703
149	0xbd1b3230	-0.03788966
150	0xbe16dc91	-0.14732577
151	0xbd1dbf8f	-0.038512763
152	0x3dbf8fa9	0.09353573
153	0x3ef1fc47	0.47262785
154	0xbf2fd811	-0.68689066
155	0x3e87ccc9	0.26523426
156	0x3e42304c	0.18963736
157	0xbec7c789	-0.3901942
158	0x3d796267	0.06088486
159	0x3e85097d	0.259838
160	0x3d8d5dfd	0.069026925
161	0x3ed58dee	0.41709846
162	0x3e5698b7	0.20956694
163	0xbf21fe16	-0.6327833
164	0xbde4d9e3	-0.11174371
165	0x3ea920e7	0.33032915
166	0xbe8e2e41	-0.27769664
167	0x3e7c2afa	0.2462577
168	0x3e084811	0.13308741
169	0xbdbfd8e1	-0.09367538
170	0x3b867350	0.004103102
171	0x3e0963d9	0.13416995
172	0xbeca48a3	-0.39508542
173	0x3edf8b89	0.43661144
174	0x3e7f50e5	0.24933203
175	0x3ea5e05b	0.32397732
176	0x3f13b1b9	0.5769306
177	0xbde3156f	-0.110880725
178	0xbed0bcac	-0.40768945
179	0x3cd7f7a3	0.0263632
180	0xbe6fb262	-0.23407891
181	0x3e50b3f0	0.2038114
182	0x3f363bba	0.71184886
183	0xbefb2e4b	-0.49058756
184	0xbddf9efe	-0.10918997
185	0x3f0e0499	0.55475765
186	0xbeebfab4	-0.4608971
187	0xbdcc0a80	-0.0996294
188	0x3ee5794d	0.44819108
189	0x3ece8c8f	0.40341613
190	0xbd8e5c34	-0.0695118
191	0xbe7efcf4	-0.24901181
192	0xbe2702fc	-0.16309732
193	0xbf048992	-0.51772416
194	0xbec53aa7	-0.3852131
195	0xbf0a7b03	-0.5409395
196	0x3ef5fe10	0.48045397
197	0x3e9ec833	0.31012115
198	0x3ea7fa33	0.32808074
199	0xbe147eed	-0.14501543
200	0x3ec406fc	0.3828658
201	0xbe522064	-0.20520169
202	0x3ea15f1c	0.31517875
203	0xbe378dc5	-0.17925175
204	0xbe8b0e02	-0.27159125
205	0xbe9e872a	-0.30962497
206	0xbe98ae16	-0.29820317
207	0xbf0749ca	-0.5284697
208	0x3da31b85	0.07964233
209	0xbebdf1e2	-0.37098604
210	0x3df73d2b	0.12072214
211	0x3ebc78df	0.36810967
212	0xbd595222	-0.053056844
213	0x3e8f5c96	0.28000325
214	0x3c3ffebd	0.011718449
215	0x3e6eebb4	0.23332101
216	0xbebea31c	-0.37233818
217	0xbd3f639a	-0.046725847
218	0xbe4501fb	-0.19239037
219	0x3eab8c4e	0.3350548
220	0xbf04aa68	-0.5182252
221	0xbea62696	-0.32451314
222	0xbda858df	-0.08220076
223	0x3f36c455	0.7139333
224	0x3ec8021a	0.39064103
225	0xbf02dce7	-0.5111832
226	0xbf0f5aab	-0.55997723
227	0x3ebf89b0	0.37409735
228	0x3dac51e4	0.08414057
229	0xbefd2fab	-0.4945043
230	0xbe6cc360	-0.23121405
231	0x3e813bc7	0.2524092
232	0xbe8e6f7c	-0.2781943
233	0xbf0808cb	-0.53138417
234	0xbeb6829c	-0.35646522
235	0xbe2470d2	-0.16058663
236	0xbe391c27	-0.18077146
237	0x3e9b2ef2	0.30309254
238	0x3e8ded77	0.27720234
239	0xbedbaa91	-0.4290357
240	0xbe5e8f29	-0.21734299
241	0xbee43b2e	-0.445764
242	0x3e7941b0	0.24341464
243	0x3f3d6a3c	0.73990226
244	0x3f0fa8c8	0.56116915
245	0x3e042cd2	0.12907723
246	0xbe397e71	-0.1811464
247	0xbc6bce4d	-0.014392448
248	0x3e554c41	0.2082987
249	0xbf335cf0	-0.70063686
250	0xbd8ef434	-0.06980172
251	0xbef04859	-0.46930197
252	0xbf475d07	-0.77876323
253	0xbc9e14ef	-0.019297091
254	0xbe9ea0e0	-0.30982113
255	0xbebb40c3	-0.36572847

fc2.weight f4 [64, 256]
0	0x3e378422	0.17921498
1	0x3e808957	0.25104782
2	0x3c1c4350	0.009537533
3	0xbe17f8ac	-0.14840955
4	0x3e81c2f2	0.25344044
5	0xbe12ebef	-0.14347814
6	0x3aa4c142	0.0012569802
7	0xbcac9d20	-0.021071017
8	0x3d3c76ae	0.04601162
9	0x3ea9d52f	0.3317046
10	0x3cbdd402	0.023172382
11	0xbc8f16f8	-0.017467007
12	0x3d87a31e	0.06622909
13	0xbe92c906	-0.28668994
14	0x3d83173a	0.064009145
15	0x3e320414	0.17384368
16	0xbd47c9c4	-0.048776403
17	0x3d40ff06	0.04711821
18	0x3c0f1592	0.00873317
19	0x3d5e3f9c	0.05425988
20	0xbe7244f0	-0.2365911
21	0x3e18028d	0.14844723
22	0x3d199c6a	0.037502684
23	0x3c6d03c8	0.014466234
24	0x3d6197f6	0.055076562
25	0xbc96638b	-0.018358013
26	0xbeef0582	-0.4668389
27	0xbd6b5076	-0.05744978
28	0x3e1cd8e1	0.15317108
29	0x3ddfa1b7	0.109195165
30	0x3e90bdcc	0.28269804
31	0xbe5ade48	-0.21373856
32	0x3d826712	0.06367315
33	0xbe1ae3c5	-0.1512595
34	0xbcedcf17	-0.029029412
35	0xbea33b12	-0.31881005
36	0x3de2e0ff	0.11078071
37	0x3d5fa44e	0.054600053
38	0xbdcb7461	-0.09934307
39	0x3e05c8ae	0.13064834
40	0xbd6ec8f2	-0.058297105
41	0xbbea5df0	-0.0071523115
42	0xbb588840	-0.0033040196
43	0x3e212c28	0.157395
44	0xbd234453	-0.03986008
45	0x3ce215bf	0.02759826
46	0x3d66387a	0.056206204
47	0x3d66b6aa	0.056326546
48	0x3adcb07e	0.0016837267
49	0xbd1711fc	-0.036882386
50	0xbe52f3bb	-0.20600788
51	0xbd47ec96	-0.04880961
52	0xbc8c6228	-0.017136648
53	0x3d788a34	0.060678676
54	0x3d1dc65d	0.038519252
55	0x3ddacf57	0.10684078
56	0x3d70d5f4	0.05879779
57	0x3db79a4d	0.089649774
58	0x3d9689e4	0.07350519
59	0x3d2a1c18	0.0415307
60	0x3d700dd2	0.05860693
61	0x3c2f9b18	0.01071813
62	0xbd4f05ce	-0.050542645
63	0xbeb85215	-0.36000124
64	0xbd0444fe	-0.03229236
65	0x3d534bd8	0.051586002
66	0x3e14f6e0	0.145473
67	0x3c95d9ac	0.01829227
68	0xbca2cfa0	-0.019874394
69	0xbd3c8b92	-0.046031542
70	0x3ddd6e83	0.10812094
71	0xbc05f361	-0.008175702
72	0x3da716f4	0.08158675
73	0x3e5d2c0a	0.21598831
74	0xbc75d620	-0.015004665
75	0x3a772300	0.00094275177
76	0x3d1855fb	0.037191372
77	0x3cc502c8	0.024049178
78	0xbd43e2c0	-0.047823668
79	0x3d075eba	0.033049323
80	0xbcfdbbb0	-0.030973285
81	0x3de608c5	0.112321414
82	0x3cfd8898	0.030948922
83	0x3d7d8dbb	0.061902743
84	0x3dc68296	0.09692876
85	0xbe8a9b91	-0.27071813
86	0xbd7fd198	-0.062455744
87	0x3df1cf0f	0.118070714
88	0xbd2fa9da	-0.042886592
89	0x3c08bef0	0.008346304
90	0x3d934930	0.07191694
91	0x3e7fa67f	0.24965857
92	0xbd2ee7ac	-0.04270141
93	0xbd7ad1a2	-0.061235078
94	0x3d95cc93	0.0731441
95	0x3c250308	0.0100715235
96	0x3d3b8802	0.045784004
97	0x3a3edf1d	0.0007281171
98	0x3d45284c	0.048134133
99	0x3ca19fe8	0.01972957
100	0xbc9251d0	-0.017861277
101	0xbc588480	-0.013215184
102	0xbd0bffdc	-0.034179553
103	0x3dc2dad1	0.09514392
104	0xbd320866	-0.04346504
105	0x3cb00760	0.021487892
106	0x3da8169e	0.08207439
107	0x3d593bb4	0.053035453
108	0x3e22f0e1	0.159122
109	0x3e809288	0.25111794
110	0x3ca16024	0.019699164
111	0xbba73810	-0.0051031187
112	0x3d69b21e	0.05705463
113	0x3d3903f3	0.045169782
114	0xbeb23a90	-0.34810305
115	0x3d425922	0.047448285
116	0xbd78feb8	-0.060789794
117	0x3e91aaf1	0.2845073
118	0x3d76867d	0.06018685
119	0xbc7c74e9	-0.015408733
120	0x3c288770	0.010286197
121	0xbe2f6118	-0.17126882
122	0xbd220fc0	-0.0395658
123	0xbce79588	-0.028269544
124	0x3d44732c	0.0479614
125	0x3d8e931e	0.06961654
126	0x3d1560a8	0.03646913
127	0x3be0c320	0.006859198
128	0xbd26929c	-0.04066716
129	0xba820ce8	-0.0009922059
130	0xbc8ec98a	-0.017430086
131	0xbe8eded5	-0.27904382
132	0x3e15270e	0.1456568
133	0x3e1d68d7	0.15372024
134	0xbd0e57fe	-0.034751885
135	0xbc88667c	-0.01665043
136	0x3c8ca028	0.017166212
137	0x3e055fb4	0.13024789
138	0x3dcc0927	0.09962683
139	0x3ddae6ad	0.10688529
140	0xbcbe553c	-0.023234002
141	0x3dc42c09	0.095787115
142	0xbd39305c	-0.045212135
143	0x3d5264c1	0.051365618
144	0xbde3710a	-0.11105545
145	0xbedbc7d5	-0.42925897
146	0x3cea4c99	0.028600978
147	0x3df6abff	0.120445244
148	0xbb79ab3a	-0.0038096444
149	0x3dd96878	0.10615629
150	0x3b7cfeee	0.0038604098
151	0xbdf1e8d3	-0.11811986
152	0x3cd26610	0.025683433
153	0xbe9aa58b	-0.30204424
154	0x3db5184b	0.08842524
155	0x3da8ee31	0.082485564
156	0xbeba1b84	-0.36349118
157	0xbe8caa63	-0.27473745
158	0x3d55d7a5	0.052207608
159	0x3d0fbfb4	0.03509493
160	0x3e15d410	0.14631677
161	0x3c46637c	0.01210868
162	0xbeb76e70	-0.35826445
163	0x3e048802	0.12942508
164	0x3e7f2795	0.24917443
165	0x3bee1461	0.007265613
166	0x3d5c80a8	0.053833634
167	0x3d1f2f9c	0.038863763
168	0xbafac5c0	-0.001913242
169	0xbce4aef0	-0.027915448
170	0x3b87c360	0.0041431636
171	0x3d9af6ea	0.07566626
172	0x3d222ba6	0.039592408
173	0x3da6cee2	0.081449285
174	0x3d6787b5	0.056525905
175	0x3ccb48e0	0.024815023
176	0x3cc0e970	0.023548812
177	0x3d8b947a	0.06815429
178	0x3cf89edc	0.030349188
179	0x3ca31db4	0.019911624
180	0x3e61b244	0.22040659
181	0xbd7096a4	-0.058737412
182	0xbea67924	-0.32514298
183	0x3e08e9b1	0.13370396
184	0x3df6c997	0.12050169
185	0xbdc7cde8	-0.097560704
186	0x3d2cbe94	0.042173937
187	0x3cae225c	0.021256618
188	0xbd071c0a	-0.032985725
189	0x3b731b20	0.0037095025
190	0x3e09274d	0.13393898
191	0x3d1379a4	0.036004677
192	0x3eb5dd56	0.35520428
193	0xbcca7244	-0.02471269
194	0xbe56b797	-0.20968471
195	0xbd4fa9a4	-0.05069889
196	0xbca9195d	-0.020641977
197	0xbcdaa616	-0.026690524
198	0xbddffe2e	-0.10937153
199	0x3d11bc92	0.035580225
200	0x3d6b4c8d	0.05744605
201	0x3e1689dd	0.14701028
202	0xbc852472	-0.01625273
203	0x3d8ecc78	0.06972593
204	0xbcc2c74c	-0.023776673
205	0x3c77398c	0.015089404
206	0x3ddac675	0.10682384
207	0x3d30f468	0.043201834
208	0x3d6e8317	0.058230486
209	0x3dc4523f	0.09586
210	0x3e01344a	0.12617603
211	0xbc9b411c	-0.018951945
212	0x3dd3816c	0.1032742
213	0xbc89d90c	-0.016827129
214	0x3c0adaa1	0.008474977
215	0x3df568d9	0.11982889
216	0x3c0c0a40	0.008547366
217	0x3e2a24f0	0.16615653
218	0x3cd29458	0.025705501
219	0xbbc83a8f	-0.0061104964
220	0xbcb99ca8	-0.022657707
221	0xbd32cdfe	-0.04365348
222	0x3e2d5c8e	0.16929838
223	0xbeb9e02a	-0.36303836
224	0xbd4b9c72	-0.049709745
225	0x3e4fdb1e	0.2029843
226	0x3e92c923	0.2866908
227	0x3de8b234	0.113621145
228	0x3d30467c	0.04303597
229	0xbd4443a0	-0.047916055
230	0x3e5bae3d	0.21453185
231	0x3d22f454	0.03978379
232	0x3e8be7f7	0.27325413
233	0x3e55a574	0.20863897
234	0x3d3aab72	0.04557366
235	0xbe954ffd	-0.2916259
236	0x3e4d139b	0.2002701
237	0xbdbcb104	-0.092134506
238	0xbcd5c0d8	-0.026092932
239	0x3d9597ad	0.073043205
240	0x3dc18aa6	0.09450273
241	0xbba1c9f0	-0.004937403
242	0x3e1e64e3	0.15468173
243	0xbd98f7dc	-0.074691504
244	0xbd05dd7c	-0.032681927
245	0x3cc0156f	0.02344772
246	0x3e20decb	0.15709989
247	0xba94bec0	-0.0011348352
248	0x3d28b834	0.041191295
249	0x3de70139	0.1127953
250	0xbcb454a1	-0.02201301
251	0xbcfd57d4	-0.030925669
252	0x3d16f24c	0.036852166
253	0xbd595a94	-0.053064898
254	0x3e7092e0	0.23493528
255	0xbd1e2fe6	-0.0386199

fc2.bias f4 [64]
0	0xbd6f9149	-0.058488164
1	0xbcdce666	-0.026965331
2	0xbcb16724	-0.021655627
3	0x3cdb9954	0.026806511
4	0xbcf2d57c	-0.029642813
5	0x3c93cd70	0.018042296
6	0x3d4d67ee	0.050147943
7	0x3d5a4c90	0.053295672
8	0xbdb4ff4c	-0.088377565
9	0x3c374570	0.011185989
10	0x3d000081	0.03125048
11	0xbd24c3ac	-0.04022567
12	0xbc380578	-0.011231773
13	0xbe053c3f	-0.13011263
14	0xbd7454e1	-0.05965126
15	0x3caac044	0.020843633
16	0x3d4c013a	0.049805857
17	0xbd957053	-0.07296815
18	0xbdff7db7	-0.1247515
19	0xbdd0360d	-0.10166559
20	0xbdf9e9d0	-0.12202799
21	0xbce0781b	-0.02740102
22	0x3c53e7f8	0.012933724
23	0xbdee1b6a	-0.116263226
24	0x3bd5d400	0.0065255165
25	0x3c52c9c0	0.012865484
26	0xbd152508	-0.03641227
27	0x3bda5ac0	0.0066636503
28	0xbd678d69	-0.056531344
29	0x3d236eff	0.039900776
30	0xbd58a1dc	-0.052888736
31	0xbb81ceb0	-0.0039614066
32	0xbb2bf757	-0.0026239955
33	0xbd549b3d	-0.05190586
34	0xbd6120cc	-0.05496292
35	0x3c372630	0.011178538
36	0xbd241622	-0.04006017
37	0xbca1fe44	-0.019774564
38	0xbd112082	-0.035431392
39	0xba52f500	-0.0008047372
40	0xbd5fc024	-0.0546266
41	0xbd73de18	-0.059537977
42	0x3d6dbc04	0.058040634
43	0x3d348432	0.044071384
44	0xbdfb75e6	-0.12278347
45	0x3ca48d09	0.020086782
46	0xbddc1c55	-0.107475914
47	0xbddf6bcb	-0.10909232
48	0xbc765e7c	-0.015037175
49	0x3d0a1888	0.0337148
50	0x3c3cda60	0.011526674
51	0xbe230d65	-0.15923078
52	0xbd1f4507	-0.03888419
53	0x3d03e1d2	0.03219778
54	0x3ccc238d	0.024919296
55	0x3ce3db80	0.027814627
56	0xbd15be73	-0.03655858
57	0xbdd716d7	-0.10502403
58	0xba81eb7b	-0.0009912098
59	0xbd1185d0	-0.035528004
60	0xbd014fbf	-0.031570192
61	0x3cd00544	0.025393136
62	0x3d0ce110	0.034394324
63	0xbd8012ed	-0.0625361

fc3.weight f4 [2, 64]
0	0xbe1cb805	-0.15304573
1	0x3db7c086	0.08972268
2	0x3df0bd70	0.11754882
3	0xbcd381a0	-0.025818646
4	0xbe60186b	-0.21884315
5	0xbc9009b0	-0.017582744
6	0x3c1b15d0	0.00946565
7	0xbd57c4ac	-0.052677795
8	0xbe00114a	-0.12506595
9	0x3d33b978	0.04387805
10	0xbd8901df	-0.0668981
11	0x3d06cec4	0.03291203
12	0x3d18ac84	0.0372739
13	0xbdff1a18	-0.12456149
14	0xbe3bf007	-0.18353282
15	0x3c62bb15	0.013838549
16	0xbc896f80	-0.0167768
17	0xbe744f64	-0.2385841
18	0xbe6f8c0f	-0.23393272
19	0xbe9200a4	-0.28516114
20	0xbe7e6f69	-0.24847187
21	0xbc8ec2e3	-0.017426914
22	0x3d14b688	0.036306888
23	0xbe4e3ff6	-0.20141587
24	0xbdaf30ac	-0.08554205
25	0xbdc72dfa	-0.09725566
26	0xbd7c1ee8	-0.061552912
27	0x3d6aa8c8	0.05728987
28	0xbd88199a	-0.06645508
29	0xbd425780	-0.047446728
30	0x3d743928	0.05962482
31	0x3d2db528	0.042409092
32	0x3cbc9213	0.023018872
33	0x3ca72e7a	0.020407904
34	0xbe4f42a9	-0.20240273
35	0x3bbb86e0	0.0057228655
36	0x3d583741	0.05278707
37	0x3d5bd164	0.053666487
38	0xbe0938c1	-0.13400556
39	0xbd800a56	-0.062519714
40	0xbdbfeaca	-0.09370954
41	0xbd870af6	-0.065938875
42	0xbd9225f0	-0.07136142
43	0x3d88bf5e	0.066771254
44	0xbe4e621a	-0.2015461
45	0x3db330c8	0.08749539
46	0xbe8aab59	-0.27083853
47	0xbdc9d4b9	-0.09855027
48	0x3dde38bc	0.10850665
49	0xbc2a6cab	-0.010401885
50	0x3cef00c1	0.029175164
51	0xbe6930fb	-0.22772591
52	0x3d3bf590	0.045888484
53	0x3ddcd608	0.10783011
54	0xbb4644ab	-0.0030253332
55	0x3cd4dac8	0.02598323
56	0x3b7265d4	0.0036986964
57	0xbe03edbf	-0.12883662
58	0x3d1827b3	0.037147235
59	0x3d81fdfc	0.06347272
60	0xbe880e4d	-0.2657341
61	0xbd92427c	-0.07141587
62	0xbdffbba6	-0.12486963
63	0xbe57d3de	-0.21076915
64	0xbe5c6d99	-0.21526183
65	0xbe0c8967	-0.1372429
66	0x3da354b6	0.07975142
67	0xbc379ce0	-0.0112068355
68	0xbe625c4c	-0.22105521
69	0x3dce95e2	0.10087182
70	0xbda5e50a	-0.08100326
71	0x3dae3166	0.08505516
72	0xbe876a57	-0.26448318
73	0x3dbba2aa	0.09161885
74	0x3d1eb325	0.038745064
75	0x3d8cbdf2	0.06872167
76	0x3c93f238	0.018059835
77	0xbe7a9fd8	-0.24475038
78	0xbe2dea0d	-0.16983815
79	0x3b5618aa	0.003266851
80	0xbd41f56c	-0.047353193
81	0xbde62ec8	-0.112393916
82	0xbe10bd16	-0.1413463
83	0xbd165e85	-0.036711235
84	0xbd0689a3	-0.032846104
85	0xbc821cd0	-0.01588288
86	0x3b804200	0.003914118
87	0xbe3f7040	-0.18695164
88	0x3df483a8	0.11939174
89	0xbdb57c64	-0.08861616
90	0x3d86af6c	0.06576428
91	0x3d679310	0.056536734
92	0xbc48d46e	-0.012257678
93	0x3dc83ee5	0.09777621
94	0x3d894c98	0.06704062
95	0xbdf91ef6	-0.121641085
96	0xbd654e16	-0.05598267
97	0x3d82e262	0.06390835
98	0xbde6e19e	-0.11273502
99	0xbca0b2d0	-0.019616514
100	0x3ddee868	0.10884172
101	0x3c9478eb	0.018124064
102	0xbe647cfe	-0.22313306
103	0xbd9f3210	-0.077732205
104	0xbdde5512	-0.108560696
105	0x3c994678	0.01871036
106	0xbdad02d6	-0.084478065
107	0xbce95f48	-0.028487816
108	0xbd62ca8b	-0.05536894
109	0x3d48e4be	0.04904627
110	0xbcd8fa85	-0.026486645
111	0xbe9bc745	-0.30425468
112	0x3dcabe18	0.09899539
113	0x3cfaea5c	0.03062933
114	0x3d35bb31	0.044367973
115	0xbdc9ed5b	-0.09859725
116	0x3ddc1647	0.107464366
117	0x3de375ae	0.1110643
118	0xbc50e7f7	-0.012750617
119	0xbdccee62	-0.100064054
120	0x3d8c6a9f	0.06856274
121	0xbe81b57f	-0.25333783
122	0xbc999d0a	-0.01875164
123	0xbbba2c46	-0.0056815473
124	0xbde88481	-0.11353398
125	0xbc78a690	-0.01517643
126	0xbdfe184c	-0.12406978
127	0xbdc705ec	-0.097179264

fc3.bias f4 [2]
0	0x3e226083	0.15857129
1	0x3e104645	0.14089306
