checkpoints/dubins3d-discrete-v0__hj_dqn__1__1638911814_evalFalse/dqn_checkpoint_10369.pth (torch, 72343 bytes, 6 tensors)

fc1.weight f4 [256, 3]
0	0x3ebd6747	0.36992857
1	0xbeb80a08	-0.35945153
2	0xbcaea4bc	-0.021318786
3	0x3ec82811	0.39093068
4	0xbf1a3bfa	-0.60247767
5	0x3f1567ab	0.5836131
6	0xbdf3409a	-0.11877556
7	0x3e9662ea	0.2937234
8	0x3da46023	0.08026149
9	0xbd4806aa	-0.04883448
10	0x3e3cf619	0.18453254
11	0xbea2cdd7	-0.31797668
12	0x3eb499db	0.35273632
13	0xbe42fa03	-0.19040684
14	0x3dee7445	0.116432704
15	0xbda87e97	-0.0822727
16	0x3de035ce	0.109477624
17	0xbea8afa3	-0.329465
18	0x3eed33de	0.46328634
19	0x3c8bb2aa	0.017052967
20	0xbe786e3d	-0.24260803
21	0xbeb28872	-0.34869725
22	0xbdc630e4	-0.09677294
23	0xbe7f02f1	-0.24903466
24	0xbe3d7388	-0.18501103
25	0x3ce276a0	0.027644455
26	0x3eb037a4	0.3441745
27	0x3efc801f	0.493165
28	0xbf06d5c1	-0.5266991
29	0x3efb248f	0.4905133
30	0x3e2ba4bb	0.16762058
31	0x3ef3c9d3	0.47614917
32	0x3ed19084	0.4093057
33	0xbf06aaec	-0.52604556
34	0xbf0c87f4	-0.5489495
35	0xbe8e9438	-0.27847457
36	0x3f0e7232	0.55643
37	0xbe58aa35	-0.21158679
38	0x3ec6cc55	0.38827768
39	0xbed23b4b	-0.41060862
40	0x3f33dc49	0.70258003
41	0xbd0e6b3d	-0.03477024
42	0x3ecf4cdc	0.40488327
43	0xbe4270fc	-0.18988413
44	0xbe144654	-0.14479953
45	0x3eb9bb6b	0.362758
46	0xbed35b5f	-0.41280648
47	0x3e7e9129	0.24860062
48	0xbe2ab716	-0.16671404
49	0xbd81a218	-0.06329745
50	0xbf0e1843	-0.5550577
51	0xbe8cf032	-0.27527004
52	0x3ea06788	0.31328988
53	0xbe0fb57b	-0.14034073
54	0x3f21dc6a	0.6322695
55	0x3ebe9627	0.37223932
56	0x3c0aa529	0.008462229
57	0xbec54f6b	-0.38537154
58	0x3eb402e1	0.35158446
59	0x3e377c35	0.17918475
60	0xbee61a7e	-0.44942087
61	0x3f0d1771	0.55113894
62	0x3f09e94d	0.53871614
63	0x3f13fdd6	0.578092
64	0xbedb1027	-0.4278576
65	0xbc6701d2	-0.014099555
66	0xbc373e93	-0.011184352
67	0x3dacb348	0.08432633
68	0xbee056ba	-0.43816167
69	0xbed1c449	-0.40970066
70	0x3ea0cf3f	0.31408116
71	0xbe0aa219	-0.13538398
72	0x3ea3d273	0.31996498
73	0xbda57cb4	-0.08080426
74	0x3e926c8d	0.28598443
75	0x3dca4dd9	0.098781295
76	0x3dbe8850	0.09303343
77	0x3c931f22	0.017959181
78	0xbef35dd2	-0.47532517
79	0x3f0da3d6	0.5532812
80	0xbdbebb4c	-0.09313068
81	0xbedf090e	-0.43561596
82	0x3d0fd0c3	0.0351112
83	0xbdc97de1	-0.098384626
84	0x3eca22fc	0.39479816
85	0xbee65728	-0.4498837
86	0xbf0e3a0e	-0.55557334
87	0x3ef42f39	0.47692278
88	0xbe4266f6	-0.18984589
89	0x3f017373	0.50566787
90	0x3ead43e3	0.33840856
91	0xbed78cfa	-0.42099744
92	0x3e5ff3ee	0.21870396
93	0x3e8fead3	0.28108844
94	0xbee56a71	-0.4480777
95	0xbf21bbbc	-0.63177085
96	0x3e4b443f	0.19850253
97	0xbd3ea1d6	-0.046541058
98	0xbeba10f6	-0.36341065
99	0xbe19f2cd	-0.15034027
100	0x3f0ac29a	0.5420319
101	0xbf129ea8	-0.5727334
102	0x3eab9b58	0.33516955
103	0x3e00f7b2	0.12594488
104	0xbf0c9f68	-0.54930735
105	0xbf0ea599	-0.5572143
106	0x3f399468	0.72492075
107	0x3e983c9a	0.29733735
108	0x3ed0dc05	0.40792862
109	0xbcd070a0	-0.025444329
110	0x3e8f2091	0.27954534
111	0x3ee4d283	0.44691858
112	0x3edba908	0.42902398
113	0xbeea11bd	-0.45716658
114	0x3d7d9298	0.06190738
115	0x3eb625a0	0.3557558
116	0x3e7b0084	0.24511915
117	0x3ec2cd2e	0.38047165
118	0xbf120846	-0.57043874
119	0xbed2546f	-0.41080043
120	0xbeb2c5c3	-0.34916505
121	0x3d948b6d	0.07253156
122	0x3f134f09	0.57542473
123	0xbebab9b5	-0.36469808
124	0x3e9d8579	0.30765894
125	0xbea39ce9	-0.3195565
126	0xbf0af728	-0.5428338
127	0xbdfb4f4b	-0.12270983
128	0x3eaa516b	0.33265242
129	0x3f1177ee	0.56823623
130	0xbf01a9ff	-0.5065002
131	0x3e8cd7c0	0.27508354
132	0x3eb609f7	0.35554478
133	0x3e2cf601	0.16890718
134	0x3e7a14ce	0.24421999
135	0x3ee0bfca	0.43896323
136	0x3e82faaf	0.2558188
137	0x3dc0aca4	0.094079286
138	0xbeca23b7	-0.39480373
139	0xbef83c44	-0.4848348
140	0xbe877398	-0.2645538
141	0xbd89afeb	-0.06723007
142	0xbeb530d3	-0.35388812
143	0x3e584b8d	0.2112257
144	0x3e511c75	0.20421012
145	0xbe84a286	-0.25905246
146	0x3e834455	0.2563807
147	0x3e2247ea	0.15847746
148	0x3e81aebe	0.2532863
149	0x3e2ab618	0.16671026
150	0xbe6d5a19	-0.23178901
151	0x3f21a012	0.6313487
152	0xbe940d3e	-0.28916353
153	0xbca27df1	-0.019835444
154	0xbf0b81ce	-0.5449494
155	0xbebe414e	-0.371592
156	0xbeacb147	-0.33729002
157	0xbe7cdf66	-0.24694595
158	0x3ed22a3c	0.41047847
159	0xbe4131f4	-0.18866712
160	0xbedce618	-0.43144298
161	0x3e63777a	0.22213545
162	0x3df11d57	0.11773174
163	0x3e35faa6	0.17771396
164	0xbea0f4e6	-0.31436843
165	0x3e48f636	0.19625172
166	0xbe9d5665	-0.30729976
167	0xbe1dd192	-0.15411976
168	0xbeeb925d	-0.46010104
169	0xbe86b976	-0.2631337
170	0xbe350fc6	-0.17681798
171	0x3e9ba2dc	0.3039769
172	0x3c12b235	0.008953621
173	0x3e67fcb8	0.22654998
174	0x3f1a623e	0.60306156
175	0x3eecfdb0	0.46287298
176	0x3ebccb5f	0.3687391
177	0x3c969be2	0.018384878
178	0xbecc7ef0	-0.39940596
179	0x3ee70451	0.4512048
180	0xbe13d6d3	-0.14437418
181	0xbd3f2f6d	-0.046676088
182	0xbefea976	-0.49738663
183	0xbde98f7a	-0.11404319
184	0xbebea91a	-0.3723839
185	0x3f07d0da	0.5305306
186	0xbeff8e28	-0.49913144
187	0xbee66aee	-0.45003456
188	0xbca099fa	-0.019604672
189	0xbe82d566	-0.25553435
190	0x3ec68194	0.38770735
191	0xbeb98e96	-0.36241597
192	0xbe8ad75a	-0.27117425
193	0x3d05f02f	0.03269976
194	0x3ed5fc95	0.41794267
195	0xbecfef35	-0.40612188
196	0x3e8ad133	0.2711273
197	0x3ebde867	0.3709137
198	0x3f198125	0.59962684
199	0xbf0ca8d5	-0.5494512
200	0x3e3da171	0.18518616
201	0xbeda93b9	-0.42690828
202	0x3efc5f15	0.49291292
203	0xbe655532	-0.2239578
204	0x3eb8ca2f	0.36091754
205	0xbdd9e503	-0.10639384
206	0xbda72de3	-0.08163049
207	0xbc96e9ae	-0.018421974
208	0x3dc900f5	0.09814636
209	0x3e8b58a4	0.27216065
210	0x3e0d0a61	0.1377349
211	0x3d947e3a	0.07250638
212	0xbf3b5a8f	-0.73185056
213	0x3e98dcdb	0.29856
214	0x3ea25b86	0.31710452
215	0x3e897bcd	0.26852265
216	0x3ee383d2	0.44436508
217	0xbf150668	-0.582129
218	0xbe2ed181	-0.17072107
219	0x3f12468a	0.57138884
220	0xbf0ef385	-0.5584033
221	0x3f3c69b9	0.7359882
222	0xbee87da8	-0.45408368
223	0xbed039bb	-0.40669045
224	0x3e908394	0.28225386
225	0xbed46344	-0.41481984
226	0xbe077224	-0.13227135
227	0x3ed70c8c	0.4200176
228	0x3ef206a8	0.47270703
229	0x3edd8bb4	0.43270648
230	0xbe173546	-0.14766416
231	0xbee5c2c9	-0.44875172
232	0x3f1186f2	0.56846535
233	0xbdfbe28e	-0.12299071
234	0xbe733e42	-0.23754218
235	0x3e101ee7	0.14074288
236	0xbeceb900	-0.4037552
237	0x3ed9692c	0.42463052
238	0x3e84bcd7	0.25925323
239	0xbf084dea	-0.5324389
240	0xbef2cce8	-0.47421956
241	0xbd4f267d	-0.050573815
242	0x3e785265	0.24250181
243	0x3d984e42	0.074368015
244	0xbea02a47	-0.31282255
245	0xbd93fa56	-0.07225482
246	0xbf0aec6e	-0.54267013
247	0xbed0ebc1	-0.40804866
248	0xbec4c7ad	-0.3843359
249	0x3efa6b71	0.48910096
250	0x3ec78613	0.38969478
251	0xbe9281fa	-0.2861479
252	0x3ddc6d0b	0.10762986
253	0x3e6289e9	0.22122921
254	0x3de079ab	0.10960706
255	0xbea12e5a	-0.31480676

fc1.bias f4 [256]
0	0xbe9a98bb	-0.3019465
1	0x3d89c802	0.067276016
2	0xbee2d755	-0.4430491
3	0x3e87e186	0.26539248
4	0xbf1dbf60	-0.6162014
5	0x3f09c846	0.5382122
6	0x3eaf2136	0.34205025
7	0xbe5303cc	-0.20606917
8	0x3daed7fb	0.08537289
9	0xbebf7b92	-0.37398964
10	0xbee89eca	-0.45433646
11	0xbe95b5c6	-0.29240245
12	0xbf012f06	-0.5046238
13	0x3e85ce98	0.2613418
14	0xbebb5b66	-0.3659317
15	0xbe2fe24b	-0.17176168
16	0xbee287af	-0.44244143
17	0xbeb9b761	-0.3627272
18	0xbf2e196a	-0.6800753
19	0xbed4768b	-0.4149669
20	0x3f2c815a	0.67384875
21	0x3c539361	0.012913556
22	0xbf0cf553	-0.55061835
23	0xbdc5598a	-0.09636219
24	0xbe2c843c	-0.16847318
25	0x3e8c3fd7	0.27392456
26	0x3f4e58ea	0.8060442
27	0x3e0ec315	0.13941605
28	0x3e5dd4de	0.21663234
29	0xbed45a2d	-0.4147505
30	0xbde7f7c9	-0.11326558
31	0xbe523850	-0.20529294
32	0xbda0a010	-0.078430295
33	0x3f35eed5	0.71067554
34	0x3e4c6b8c	0.19962901
35	0x3f3fe764	0.7496245
36	0xbf04f7bc	-0.5194051
37	0xbe807d8a	-0.2509578
38	0x3e223e76	0.1584414
39	0x3e6451b9	0.222968
40	0xbf07dd88	-0.53072405
41	0xbe912c8f	-0.28354308
42	0x3dab8582	0.08375074
43	0xbf19094f	-0.5977983
44	0xbd41346e	-0.04716914
45	0xbe60b093	-0.21942358
46	0xbe1932bc	-0.1496076
47	0x3e9e88d8	0.30963778
48	0x3e5365f1	0.20644356
49	0x3f194885	0.5987628
50	0x3eeae0e2	0.45874697
51	0xbc8157e7	-0.015788985
52	0x3ef1aff0	0.47204542
53	0x3eeb40f7	0.45948002
54	0xbf1515e2	-0.58236516
55	0x3db23511	0.08701528
56	0x3d8a8d4c	0.067652315
57	0xbee9faaf	-0.4569907
58	0xbea2afe9	-0.31774834
59	0xbe0b9a6f	-0.1363313
60	0xbecedafb	-0.40401444
61	0xbe3468fd	-0.17618175
62	0x3e46f204	0.19428259
63	0x3f3ade86	0.72995794
64	0x3d33a205	0.043855686
65	0xbf0f21a1	-0.5591069
66	0x3d804148	0.062624514
67	0xbe32e3e4	-0.17469746
68	0x3ead3430	0.33828878
69	0xbf0ed15b	-0.557882
70	0xbe92e050	-0.28686762
71	0x3ea2d07d	0.3179969
72	0xbc5dd4af	-0.013539477
73	0xbf068ae0	-0.52555656
74	0xbefff70e	-0.49993175
75	0xbbcb321b	-0.0062010414
76	0x3d755455	0.05989488
77	0xbef568b6	-0.4793145
78	0xbef75ca4	-0.48312867
79	0xbe3a8846	-0.18216047
80	0xbdf27f96	-0.11840741
81	0x3ea2d89a	0.3180588
82	0xbf0f35cb	-0.55941457
83	0xbe917994	-0.2841307
84	0xbf119b70	-0.56877804
85	0x3e0e76f7	0.13912569
86	0xbe9707cd	-0.2949814
87	0xbd10d430	-0.035358608
88	0xbef749da	-0.48298532
89	0xbee88a27	-0.45417902
90	0xbf07ca9a	-0.5304352
91	0xbf39ed22	-0.7262746
92	0x3eba9ad6	0.36446255
93	0xbda93759	-0.0826251
94	0xbf177015	-0.591554
95	0x3ecf2340	0.4045658
96	0xbe06218c	-0.13098735
97	0x3e88b5bf	0.2670116
98	0xbe374491	-0.1789725
99	0xbef750fa	-0.48303968
100	0x3e01d85d	0.12680192
101	0x3eb811d2	0.35951096
102	0xbf101c80	-0.5629349
103	0xbe26a625	-0.16274317
104	0x3debab0c	0.11507234
105	0x3d87b645	0.06626562
106	0xbe47a766	-0.19497451
107	0xbe37c612	-0.17946652
108	0xbf11b1ab	-0.56911725
109	0x3cc4cf28	0.024024561
110	0xbf19450a	-0.5987097
111	0xbef43dd5	-0.47703424
112	0xbe3dcf02	-0.18535998
113	0xbed1fd4c	-0.41013563
114	0x3ed174be	0.4090938
115	0x3ec7ddf8	0.39036536
116	0x3ee5bbe4	0.44869912
117	0xbedaf08a	-0.42761642
118	0x3e28f037	0.16497885
119	0x3eb14356	0.34621686
120	0x3bd4393d	0.00647655
121	0x3eeb4459	0.45950583
122	0x3ea743bb	0.32668862
123	0x3ee22e22	0.44175822
124	0x3e618c3a	0.22026148
125	0x3db26126	0.08709936
126	0xbed35fe1	-0.41284087
127	0xbea4cf60	-0.32189465
128	0xbe8c2bae	-0.27377075
129	0x3ea4fbc3	0.3222333
130	0xbe0b3c2a	-0.1359717
131	0x3e3d3c98	0.18480146
132	0xbf3eb545	-0.74495345
133	0xbe87a46a	-0.26492625
134	0xbe26c785	-0.16287048
135	0xbebebc0e	-0.3725285
136	0x3e215a0c	0.15757006
137	0xbf2fcfc3	-0.68676394
138	0xbe8cc933	-0.27497253
139	0xbe89ec38	-0.26938033
140	0xbf05ce30	-0.5226774
141	0x3e2e2cb1	0.17009236
142	0xbe3c1d61	-0.18370582
143	0x3e508b30	0.20365596
144	0x3edb0f25	0.42784992
145	0x3f3f92d7	0.74833435
146	0xbdc7fb67	-0.09764748
147	0x3dd63f89	0.10461337
148	0x3f069169	0.5256563
149	0xbdb283c0	-0.087165356
150	0xbe60f79a	-0.21969453
151	0xbcada88e	-0.021198537
152	0x3dbf8fa9	0.09353573
153	0x3f073032	0.52807915
154	0xbf400f08	-0.75022936
155	0x3e5f3028	0.21795714
156	0x3e7cf086	0.24701127
157	0xbeb03745	-0.34417167
158	0x3b0f16c9	0.002183365
159	0x3e66063a	0.22463313
160	0x3c7c97f3	0.015417087
161	0x3ee54897	0.44781944
162	0x3e81492b	0.25251135
163	0xbf31f492	-0.6951381
164	0xbe2c75ab	-0.16841762
165	0x3e951409	0.29116848
166	0xbe8e2e41	-0.27769664
167	0x3e7c2afa	0.2462577
168	0x3e084811	0.13308741
169	0xbdbfd8e1	-0.09367538
170	0x3b867350	0.004103102
171	0x3da87f2f	0.08227383
172	0xbeca48a3	-0.39508542
173	0x3ed27877	0.41107532
174	0x3e4e257b	0.20131485
175	0x3ea5e05b	0.32397732
176	0x3f13b1b9	0.5769306
177	0xbe3f460c	-0.18679065
178	0xbed0bcac	-0.40768945
179	0x3cd7f7a3	0.0263632
180	0xbe940951	-0.28913358
181	0x3e50b3f0	0.2038114
182	0x3f2fecee	0.687209
183	0xbf0d28bd	-0.55140287
184	0xbe25efa1	-0.16204692
185	0x3f18140b	0.59405583
186	0xbeebfab4	-0.4608971
187	0xbdcc0a80	-0.0996294
188	0x3ed8ecd2	0.4236818
189	0x3ece8c8f	0.40341613
190	0xbdfd27ff	-0.12361144
191	0xbe7efcf4	-0.24901181
192	0xbe66d88b	-0.22543542
193	0xbf048992	-0.51772416
194	0xbebd2fa4	-0.3695041
195	0xbf0a7b03	-0.5409395
196	0x3ef09195	0.4698607
197	0x3e7ecb83	0.24882321
198	0x3ebe62b6	0.37184685
199	0xbe147eed	-0.14501543
200	0x3ea25873	0.31708106
201	0xbe83d022	-0.2574473
202	0x3e8ad5c6	0.2711622
203	0xbe76183a	-0.24032679
204	0xbe8b0e02	-0.27159125
205	0xbec23e10	-0.37937975
206	0xbebbe8cc	-0.36701047
207	0xbf0749ca	-0.5284697
208	0x3c724680	0.014787316
209	0xbee01651	-0.43767026
210	0x3d81f4b5	0.06345502
211	0x3ebc78df	0.36810967
212	0xbdadbcff	-0.08483314
213	0x3e8f5c96	0.28000325
214	0xbd611975	-0.05495592
215	0x3e33dfa0	0.17565775
216	0xbebea31c	-0.37233818
217	0xbdcbc9ed	-0.09950624
218	0xbe4501fb	-0.19239037
219	0x3e89f154	0.2694193
220	0xbf04aa68	-0.5182252
221	0xbea62696	-0.32451314
222	0xbe0a1839	-0.13485803
223	0x3f42f6e6	0.7615799
224	0x3ec8021a	0.39064103
225	0xbf11285b	-0.567022
226	0xbf1f1ede	-0.62156475
227	0x3ea491f3	0.321426
228	0x3dac51e4	0.08414057
229	0xbefd2fab	-0.4945043
230	0xbe921c5d	-0.28537264
231	0x3e813bc7	0.2524092
232	0xbeaf4858	-0.3423488
233	0xbf16c86e	-0.5889958
234	0xbeb6829c	-0.35646522
235	0xbde545b9	-0.11194939
236	0xbe735fe7	-0.23767053
237	0x3eb4a97b	0.35285553
238	0x3e8ded77	0.27720234
239	0xbef965d1	-0.48710492
240	0xbe933f8c	-0.2875942
241	0xbee43b2e	-0.445764
242	0x3e4b5761	0.19857551
243	0x3f4916fc	0.78550696
244	0x3f0fa8c8	0.56116915
245	0x3da96515	0.08271233
246	0xbe6e5cbe	-0.23277566
247	0xbc6bce4d	-0.014392448
248	0x3e554c41	0.2082987
249	0xbf4583e0	-0.7715435
250	0xbe1f66dc	-0.15566581
251	0xbef04859	-0.46930197
252	0xbf59838f	-0.8496637
253	0xbc9e14ef	-0.019297091
254	0xbebb570b	-0.36589846
255	0xbebb40c3	-0.36572847

fc2.weight f4 [64, 256]
0	0x3e3a7a18	0.18210638
1	0x3e5e3f8d	0.2170393
2	0x3c1c4350	0.009537533
3	0xbe1bb768	-0.15206683
4	0x3e98a09a	0.2981003
5	0xbe35f8a9	-0.17770638
6	0xbbc3ff66	-0.0059813736
7	0xbcac9d20	-0.021071017
8	0x3d3c76ae	0.04601162
9	0x3eae66bb	0.34062752
10	0x3d28594a	0.041100778
11	0xbc8f16f8	-0.017467007
12	0x3da202f1	0.07910717
13	0xbec71c43	-0.3888875
14	0x3d916106	0.07098584
15	0x3e2abb4e	0.16673014
16	0xbd47c9c4	-0.048776403
17	0x3d40ff06	0.04711821
18	0x3cb8d11f	0.022560654
19	0x3d5e3f9c	0.05425988
20	0xbea6136a	-0.32436687
21	0x3e0fb330	0.14033198
22	0x3d199c6a	0.037502684
23	0x3c6d03c8	0.014466234
24	0x3d6726b1	0.056433383
25	0xbcbaad4b	-0.02278771
26	0xbf31cdbb	-0.69454545
27	0xbd6b5076	-0.05744978
28	0x3e085f8e	0.13317701
29	0x3df6ea67	0.120564274
30	0x3e88d30a	0.2672351
31	0xbec54ce6	-0.3853523
32	0x3d7e3074	0.062057927
33	0xbe298391	-0.16554095
34	0xbd0c1c80	-0.034206867
35	0xbee501e5	-0.44728008
36	0x3e029059	0.12750377
37	0x3d763bf3	0.060115766
38	0xbdc3b9ad	-0.09556899
39	0x3dd5ae2a	0.1043361
40	0xbd6ec8f2	-0.058297105
41	0xbbea5df0	-0.0071523115
42	0xbb588840	-0.0033040196
43	0x3e334784	0.1750775
44	0xbd203ddb	-0.03912149
45	0x3d065abf	0.032801386
46	0x3d66387a	0.056206204
47	0x3d66b6aa	0.056326546
48	0xbccb4d84	-0.024817236
49	0xbd34ee47	-0.04417255
50	0xbe5775ab	-0.2104098
51	0xbd47ec96	-0.04880961
52	0xbc8c6228	-0.017136648
53	0x3d788a34	0.060678676
54	0x3d9ddb3d	0.07707832
55	0x3d9c0d0b	0.07619675
56	0x3d70d5f4	0.05879779
57	0x3ddca037	0.10772746
58	0x3da50cd5	0.08059088
59	0x3d2a1c18	0.0415307
60	0x3d700dd2	0.05860693
61	0x3c2f9b18	0.01071813
62	0xbd4f05ce	-0.050542645
63	0xbecbf43a	-0.39834768
64	0xbd0444fe	-0.03229236
65	0x3d534bd8	0.051586002
66	0x3e0a021a	0.13477364
67	0x3c95d9ac	0.01829227
68	0xbcfeffd4	-0.031127848
69	0xbd3c8b92	-0.046031542
70	0x3dff76c5	0.12473825
71	0xbc1dd5e8	-0.009633519
72	0x3d86d1f1	0.06583012
73	0x3e6ea9c6	0.23306951
74	0xbc75d620	-0.015004665
75	0x3a772300	0.00094275177
76	0x3d1aa4c9	0.037754808
77	0x3cc502c8	0.024049178
78	0xbd43e2c0	-0.047823668
79	0x3d13dac1	0.03609729
80	0xbcfdbbb0	-0.030973285
81	0x3cd1096d	0.02551719
82	0x3cfd8898	0.030948922
83	0x3d8b12ad	0.067906715
84	0x3e26bdda	0.1628336
85	0xbeb8b64b	-0.36076578
86	0xbd7fd198	-0.062455744
87	0x3de6549f	0.11246609
88	0xbd2fa9da	-0.042886592
89	0x3c08bef0	0.008346304
90	0x3dd28fe1	0.10281349
91	0x3e8b7233	0.27235565
92	0xbd2ee7ac	-0.04270141
93	0xbd7ad1a2	-0.061235078
94	0x3db4098a	0.08790882
95	0x3c250308	0.0100715235
96	0x3d3b8802	0.045784004
97	0x3a3edf02	0.00072811556
98	0x3d45284c	0.048134133
99	0x3ca19fe8	0.01972957
100	0xbc9251d0	-0.017861277
101	0xbc588480	-0.013215184
102	0xbd0bffdc	-0.034179553
103	0x3dc1ccdb	0.09462901
104	0xbd320866	-0.04346504
105	0x3cb00760	0.021487892
106	0x3daeda24	0.08537701
107	0x3d593bb4	0.053035453
108	0x3e39953e	0.18123338
109	0x3e666bca	0.22502056
110	0x3d34439d	0.044009794
111	0xbba73810	-0.0051031187
112	0x3d69b21e	0.05705463
113	0x3d3903f3	0.045169782
114	0xbeea0025	-0.45703235
115	0x3d425922	0.047448285
116	0xbd78feb8	-0.060789794
117	0x3e9b91cb	0.3038467
118	0x3d71afa2	0.059005387
119	0xbca653df	-0.020303665
120	0x3c288770	0.010286197
121	0xbe3ce69c	-0.18447345
122	0xbd220fc0	-0.0395658
123	0xbce79588	-0.028269544
124	0xbd0d0e50	-0.034437478
125	0x3d11499f	0.0354706
126	0x3d47711b	0.04869185
127	0x3be0c320	0.006859198
128	0xbd26929c	-0.04066716
129	0xbcd6798e	-0.026181009
130	0x3b07e1b1	0.0020733888
131	0xbeae5ee3	-0.34056768
132	0x3e2d9194	0.16950065
133	0x3e1ee190	0.15515733
134	0xbd0e57fe	-0.034751885
135	0xbc88667c	-0.01665043
136	0x3b11ea64	0.0022264952
137	0x3e226236	0.15857777
138	0x3ddd784e	0.10813962
139	0x3dd90841	0.105972774
140	0xbcbe553c	-0.023234002
141	0x3db9de9c	0.090756625
142	0xbd39305c	-0.045212135
143	0x3c0bc7b0	0.008531496
144	0xbdfdaa49	-0.12385995
145	0xbf15c230	-0.5849943
146	0x3cfd4beb	0.03091999
147	0x3dc50ebe	0.096219525
148	0xbc86e335	-0.016465763
149	0x3dc5c57b	0.09656807
150	0x3c4bd590	0.012441054
151	0xbdd0c74c	-0.10194263
152	0x3cd26610	0.025683433
153	0xbea7c13d	-0.32764617
154	0x3de4d4a8	0.111733735
155	0x3d4433f4	0.04790111
156	0xbefe9288	-0.4972117
157	0xbeba1125	-0.36341205
158	0x3d560551	0.052251164
159	0x3ce491e2	0.027901594
160	0x3dfbfd54	0.12304178
161	0x3c05a78f	0.008157625
162	0xbef6df20	-0.48217106
163	0x3e240e35	0.16021045
164	0x3e761682	0.24032024
165	0x3b248648	0.0025104452
166	0x3d5c80a8	0.053833634
167	0x3d1f2f9c	0.038863763
168	0xbafac5c0	-0.001913242
169	0xbce4aef0	-0.027915448
170	0x3b87c360	0.0041431636
171	0x3d95b668	0.07310182
172	0x3d222ba6	0.039592408
173	0x3d07ece6	0.03318491
174	0x3d19ee9f	0.037581082
175	0x3ccb48e0	0.024815023
176	0x3cc0e970	0.023548812
177	0x3d96ceb7	0.073636465
178	0x3cf89edc	0.030349188
179	0x3ca31db4	0.019911624
180	0x3e608f80	0.21929741
181	0xbd7096a4	-0.058737412
182	0xbecbf3de	-0.39834493
183	0x3e1c0e89	0.1523992
184	0x3de686df	0.11256193
185	0xbddb23e2	-0.107002035
186	0x3d2cbe94	0.042173937
187	0x3cae225c	0.021256618
188	0xbd4fad3a	-0.05070231
189	0x3b731b20	0.0037095025
190	0x3e042142	0.12903312
191	0x3d1379a4	0.036004677
192	0x3ebbb18d	0.36658898
193	0xbcca7244	-0.02471269
194	0xbe873724	-0.26409256
195	0xbd4fa9a4	-0.05069889
196	0xbcd07e19	-0.025450753
197	0xbcfac700	-0.030612469
198	0xbde19dbb	-0.11016413
199	0x3d11bc92	0.035580225
200	0x3d40bad1	0.047053162
201	0x3e153368	0.14570391
202	0xbc991b5d	-0.018689806
203	0x3d9661b3	0.073428534
204	0xbcc2c74c	-0.023776673
205	0x3cce0a7f	0.02515149
206	0x3dea272c	0.11433253
207	0x3d30f468	0.043201834
208	0x3d742f5e	0.059615485
209	0x3de33dcf	0.110957734
210	0x3df10b92	0.11769785
211	0xbc9b411c	-0.018951945
212	0x3db3e98f	0.08784782
213	0xbc89d90c	-0.016827129
214	0x3c3b3e94	0.011428494
215	0x3d99d88b	0.075120054
216	0x3c0c0a40	0.008547366
217	0x3e1c9cd3	0.15294199
218	0x3cd29458	0.025705501
219	0xbc6bc556	-0.01439031
220	0xbcb99ca8	-0.022657707
221	0xbd32cdfe	-0.04365348
222	0x3e27242b	0.1632239
223	0xbf1739e2	-0.590727
224	0xbd4b9c72	-0.049709745
225	0x3e656efb	0.22405617
226	0x3ea29665	0.31755367
227	0x3dbd22bc	0.09235141
228	0x3d30467c	0.04303597
229	0xbd4443a0	-0.047916055
230	0x3e5abf77	0.213621
231	0x3d22f454	0.03978379
232	0x3e9512e5	0.29115978
233	0x3e648b4f	0.22318767
234	0x3d3aab72	0.04557366
235	0xbec0bc7c	-0.37643802
236	0x3e48d0f6	0.19610962
237	0xbdc42209	-0.09576804
238	0xbcd5c0d8	-0.026092932
239	0x3dbfa305	0.093572654
240	0x3dceeb3e	0.10103463
241	0xbba1c9f0	-0.004937403
242	0x3dcfea6a	0.10152133
243	0xbdb1ddc8	-0.086848795
244	0xbd05dd7c	-0.032681927
245	0x3cb1653b	0.021654716
246	0x3e1edfc8	0.15515053
247	0xba94bec0	-0.0011348352
248	0x3d28b834	0.041191295
249	0x3e0c0904	0.13675314
250	0xbc9093f6	-0.017648678
251	0xbcfd57d4	-0.030925669
252	0x3d80c8ac	0.06288275
253	0xbd595a94	-0.053064898
254	0x3e73487a	0.23758116
255	0xbd1e2fe6	-0.0386199

fc2.bias f4 [64]
0	0xbdd695eb	-0.10477813
1	0xbcdce666	-0.026965331
2	0xbcb16724	-0.021655627
3	0x3cdb9954	0.026806511
4	0xbd8ad98f	-0.06779777
5	0x3c93cd70	0.018042296
6	0x3d4d67ee	0.050147943
7	0x3d5a4c90	0.053295672
8	0xbe0f47b3	-0.13992195
9	0x3c374570	0.011185989
10	0x3d00007a	0.031250454
11	0xbd24c3ac	-0.04022567
12	0xbc380578	-0.011231773
13	0xbe3763e2	-0.17909196
14	0xbdcd3cb2	-0.10021342
15	0x3caac044	0.020843633
16	0x3d4c013a	0.049805857
17	0xbde00df5	-0.10940162
18	0xbe24de05	-0.16100319
19	0xbe068fc1	-0.13140775
20	0xbe17aad4	-0.1481126
21	0xbce0781b	-0.02740102
22	0x3c53e7f8	0.012933724
23	0xbe1fda67	-0.15610658
24	0x3bd5d400	0.0065255165
25	0x3c52c9c0	0.012865484
26	0xbd152508	-0.03641227
27	0x3bda5ac0	0.0066636503
28	0xbd678d69	-0.056531344
29	0x3d236eff	0.039900776
30	0xbd58a1dc	-0.052888736
31	0xbb81ceb0	-0.0039614066
32	0xbb2bf757	-0.0026239955
33	0xbd549b3d	-0.05190586
34	0xbdc0ffea	-0.09423812
35	0xbd25bb69	-0.04046193
36	0xbd241622	-0.04006017
37	0xbca1fe44	-0.019774564
38	0xbdad2ef5	-0.08456222
39	0xba52f500	-0.0008047372
40	0xbd5fc024	-0.0546266
41	0xbd73de25	-0.059538025
42	0x3d6dbc04	0.058040634
43	0x3d348432	0.044071384
44	0xbe1c0f71	-0.15240265
45	0x3c9fa1d4	0.019486345
46	0xbe0a9c6d	-0.13536234
47	0xbe250ab2	-0.16117361
48	0xbc765e7c	-0.015037175
49	0x3d0a1888	0.0337148
50	0x3c3cda60	0.011526674
51	0xbe45ecd9	-0.19328631
52	0xbd1f4507	-0.03888419
53	0x3d03e1d2	0.03219778
54	0x3ccc238d	0.024919296
55	0x3ce3db80	0.027814627
56	0xbd15be73	-0.03655858
57	0xbe1bfdbc	-0.1523351
58	0xba81eb7b	-0.0009912098
59	0xbd1185d0	-0.035528004
60	0xbd86c01c	-0.06579611
61	0x3cd00544	0.025393136
62	0x3d0ce110	0.034394324
63	0xbdca79fe	-0.098865494

fc3.weight f4 [2, 64]
0	0xbe3eeb1c	-0.18644375
1	0x3db7c086	0.08972268
2	0x3df0bd70	0.11754882
3	0xbcd381a0	-0.025818646
4	0xbe81d9e6	-0.25361556
5	0xbc9009b0	-0.017582744
6	0x3c1b15d0	0.00946565
7	0xbd57c4ac	-0.052677795
8	0xbe1d3170	-0.1535089
9	0x3d33b978	0.04387805
10	0xbd8901e0	-0.06689811
11	0x3d06cec4	0.03291203
12	0x3d18ac84	0.0372739
13	0xbe1a0239	-0.1503991
14	0xbe6197a6	-0.22030506
15	0x3c62bb15	0.013838549
16	0xbc896f80	-0.0167768
17	0xbe919b03	-0.28438577
18	0xbe8cd9eb	-0.27510008
19	0xbecfee75	-0.40611616
20	0xbebd560e	-0.36979717
21	0xbc8ec2e3	-0.017426914
22	0x3d14b688	0.036306888
23	0xbe71e3b8	-0.23622024
24	0xbdaf30ac	-0.08554205
25	0xbdc72dfa	-0.09725566
26	0xbd7c1ee8	-0.061552912
27	0x3d6aa8c8	0.05728987
28	0xbd88199a	-0.06645508
29	0xbd425780	-0.047446728
30	0x3d743928	0.05962482
31	0x3d2db528	0.042409092
32	0x3cbc9213	0.023018872
33	0x3ca72e7a	0.020407904
34	0xbe7ef68a	-0.24898735
35	0xbdb560f0	-0.0885638
36	0x3d583741	0.05278707
37	0x3d5bd164	0.053666487
38	0xbe2c7b83	-0.16843991
39	0xbd800a56	-0.062519714
40	0xbdbfeaca	-0.09370954
41	0xbd870af6	-0.065938875
42	0xbd9225f0	-0.07136142
43	0x3d88bf5e	0.066771254
44	0xbea492cc	-0.32143247
45	0x3db2e003	0.08734133
46	0xbeb16b4c	-0.34652174
47	0xbe025311	-0.12727
48	0x3dde38bc	0.10850665
49	0xbc2a6cab	-0.010401885
50	0x3cef00c1	0.029175164
51	0xbe992145	-0.29908195
52	0x3d3bf590	0.045888484
53	0x3ddcd608	0.10783011
54	0xbb4644ab	-0.0030253332
55	0x3cd4dac8	0.02598323
56	0x3b7265d4	0.0036986964
57	0xbe248058	-0.16064584
58	0x3d1827b3	0.037147235
59	0x3d81fdfc	0.06347272
60	0xbe9fd589	-0.31217602
61	0xbd92427c	-0.07141587
62	0xbdffbba6	-0.12486963
63	0xbe87dd50	-0.26536036
64	0xbe716930	-0.23575282
65	0xbe0c8967	-0.1372429
66	0x3da354b6	0.07975142
67	0xbc379ce0	-0.0112068355
68	0xbe76b975	-0.24094184
69	0x3dce95e2	0.10087182
70	0xbda5e50a	-0.08100326
71	0x3dae3166	0.08505516
72	0xbe970ae4	-0.29500496
73	0x3dbba2aa	0.09161885
74	0x3d1eb31e	0.03874504
75	0x3d8cbdf2	0.06872167
76	0x3c93f238	0.018059835
77	0xbe8b9b56	-0.2726695
78	0xbe39a499	-0.18129195
79	0x3b5618aa	0.003266851
80	0xbd41f56c	-0.047353193
81	0xbdf66ef8	-0.12032884
82	0xbe1bcf05	-0.1521569
83	0x3b4a2fed	0.003085132
84	0x3ba5ea7f	0.0050633545
85	0xbc821cd0	-0.01588288
86	0x3b804200	0.003914118
87	0xbe524633	-0.20534591
88	0x3df483a8	0.11939174
89	0xbdb57c64	-0.08861616
90	0x3d86af6c	0.06576428
91	0x3d679310	0.056536734
92	0xbc48d46e	-0.012257678
93	0x3dc83ee5	0.09777621
94	0x3d894c98	0.06704062
95	0xbdf91ef6	-0.121641085
96	0xbd654e16	-0.05598267
97	0x3d82e262	0.06390835
98	0xbdf64a20	-0.12025857
99	0x3d452192	0.04812772
100	0x3ddee868	0.10884172
101	0x3c9478eb	0.018124064
102	0xbe7d57f7	-0.24740587
103	0xbd9f3210	-0.077732205
104	0xbdde5512	-0.108560696
105	0x3c994678	0.01871036
106	0xbdad02d6	-0.084478065
107	0xbce95f48	-0.028487816
108	0xbc8e731c	-0.017388873
109	0x3d47d5b6	0.048787795
110	0xbc2dfe74	-0.010619748
111	0xbead9812	-0.33905083
112	0x3dcabe18	0.09899539
113	0x3cfaea5c	0.03062933
114	0x3d35bb31	0.044367973
115	0xbdb6a7ba	-0.0891871
116	0x3ddc1647	0.107464366
117	0x3de375ae	0.1110643
118	0xbc50e7f7	-0.012750617
119	0xbdccee62	-0.100064054
120	0x3d8c6a9f	0.06856274
121	0xbe8e215b	-0.27759823
122	0xbc999d0a	-0.01875164
123	0xbbba2c46	-0.0056815473
124	0xbdf2f6f1	-0.118635066
125	0xbc78a690	-0.01517643
126	0xbdfe184c	-0.12406978
127	0xbdc90bc3	-0.098166965

fc3.bias f4 [2]
0	0x3f0bddde	0.5463542
1	0x3f037ad2	0.51359284
