checkpoints/dubins3d-discrete-v0__hj_dqn__1__1638911814_evalFalse/dqn_checkpoint_10245.pth (torch, 72343 bytes, 6 tensors)

fc1.weight f4 [256, 3]
0	0x3ebdc298	0.37062526
1	0xbeb88b44	-0.3604375
2	0xbd23e4ca	-0.040013112
3	0x3ec85195	0.39124742
4	0xbf1a4c2e	-0.6027249
5	0x3f089143	0.5334665
6	0xbdf3409a	-0.11877556
7	0x3e9662ea	0.2937234
8	0x3da46023	0.08026149
9	0xbd1f9791	-0.038962904
10	0x3e492087	0.19641314
11	0xbe9245d6	-0.28568906
12	0x3eb433fc	0.3519591
13	0xbe45a404	-0.19300848
14	0x3dbf9e09	0.09356315
15	0xbd9910e6	-0.07473926
16	0x3df36372	0.11884202
17	0xbe9548e8	-0.29157186
18	0x3efed915	0.49774995
19	0x3d3046df	0.043036338
20	0xbe77896c	-0.24173516
21	0xbeb28872	-0.34869725
22	0xbdc630e4	-0.09677294
23	0xbe7f02f1	-0.24903466
24	0xbe3d7388	-0.18501103
25	0x3ce276a0	0.027644455
26	0x3eb037a4	0.3441745
27	0x3efc1951	0.49238065
28	0xbf075dbf	-0.5287742
29	0x3ee96f18	0.4559257
30	0x3e47f045	0.1952525
31	0x3f016571	0.5054541
32	0x3ea4ede1	0.32212737
33	0xbf06aaec	-0.52604556
34	0xbf0c87f4	-0.5489495
35	0xbe8e9438	-0.27847457
36	0x3f0f4d8e	0.55977714
37	0xbe561d1a	-0.20909539
38	0x3eb37ff5	0.3505856
39	0xbec9d8bd	-0.3942317
40	0x3f2e5afa	0.6810757
41	0xbdb020f5	-0.08600036
42	0x3ed1ffe4	0.41015542
43	0xbe3e7487	-0.18599139
44	0xbe2790b6	-0.16363797
45	0x3eba00ab	0.36328635
46	0xbed3c634	-0.41362154
47	0x3e61c71d	0.22048612
48	0xbe2ab716	-0.16671404
49	0xbd81a218	-0.06329745
50	0xbf0e1843	-0.5550577
51	0xbe8cf032	-0.27527004
52	0x3ea06788	0.31328988
53	0xbe0fb57b	-0.14034073
54	0x3f23be0f	0.6396188
55	0x3ec1d6e8	0.37859273
56	0xbca24ebc	-0.019812934
57	0xbec54f6b	-0.38537154
58	0x3eb402e1	0.35158446
59	0x3e377c35	0.17918475
60	0xbee154b2	-0.4400993
61	0x3f05d9cf	0.52285475
62	0x3f052587	0.5201039
63	0x3f15288a	0.5826498
64	0xbed9625b	-0.42457852
65	0xbd0d9737	-0.034568038
66	0xbc373e93	-0.011184352
67	0x3dacb348	0.08432633
68	0xbee056ba	-0.43816167
69	0xbed1c449	-0.40970066
70	0x3ea0cf3f	0.31408116
71	0xbe0aa219	-0.13538398
72	0x3ea7cbfd	0.32772818
73	0xbd96a8b0	-0.07356393
74	0x3e7cc128	0.24683058
75	0x3e07a6c2	0.13247207
76	0x3dfbdbab	0.12297758
77	0x3d14363e	0.036184542
78	0xbee22a54	-0.4417292
79	0x3f09d591	0.538415
80	0xbe30402a	-0.17211977
81	0xbedf090e	-0.43561596
82	0x3d0fd0c3	0.0351112
83	0xbdc97de1	-0.098384626
84	0x3ecd399c	0.40083015
85	0xbee50bcf	-0.44735572
86	0xbf07e076	-0.53076875
87	0x3ef6562f	0.48112628
88	0xbe3e4857	-0.18582283
89	0x3ee6f1f8	0.45106483
90	0x3ead1b35	0.3380982
91	0xbed88a92	-0.4229322
92	0x3e497757	0.19674431
93	0x3e90e0fc	0.2829665
94	0xbec8a34e	-0.39187092
95	0xbf12c320	-0.5732899
96	0x3e5a9d3c	0.21349043
97	0xbd1a88a1	-0.037727956
98	0xbea044f5	-0.3130261
99	0xbe11894f	-0.14212535
100	0x3f0d2b0f	0.5514383
101	0xbf06785b	-0.525274
102	0x3eb80ac4	0.35945714
103	0x3e107ce0	0.14110136
104	0xbf0063bd	-0.5015219
105	0xbf0a79c3	-0.54092044
106	0x3f335c55	0.7006276
107	0x3e88acac	0.26694238
108	0x3ed35c5b	0.412814
109	0xbcb3ca78	-0.02194713
110	0x3e7ff2de	0.2499499
111	0x3ef21f80	0.47289658
112	0x3ee6029d	0.4492387
113	0xbee63ea4	-0.44969666
114	0x3dbcb876	0.09214871
115	0x3ec70bdf	0.38876244
116	0x3e4feb08	0.20304501
117	0x3ec49cd7	0.3840091
118	0xbf122a36	-0.5709566
119	0xbec15d9a	-0.37766725
120	0xbeb2c5c3	-0.34916505
121	0x3d948b6d	0.07253156
122	0x3f134f09	0.57542473
123	0xbebab9b5	-0.36469808
124	0x3e9d8579	0.30765894
125	0xbea39ce9	-0.3195565
126	0xbf0af728	-0.5428338
127	0xbdfb4f4b	-0.12270983
128	0x3eaa516b	0.33265242
129	0x3f118b00	0.5685272
130	0xbf01ee24	-0.50754
131	0x3e7946e9	0.24343456
132	0x3ed14a0a	0.408768
133	0x3e55d43d	0.20881744
134	0x3e71c972	0.23612002
135	0x3ee88be6	0.45419234
136	0x3e897589	0.26847485
137	0x3db17c94	0.086663395
138	0xbeca23b7	-0.39480373
139	0xbef83c44	-0.4848348
140	0xbe877398	-0.2645538
141	0xbd89afeb	-0.06723007
142	0xbeb530d3	-0.35388812
143	0x3e584b8d	0.2112257
144	0x3e5fc4f1	0.21852471
145	0xbe7b77e5	-0.24557455
146	0x3e5cd3f3	0.21565227
147	0x3e3fdfdd	0.18737741
148	0x3e9216c8	0.28533006
149	0x3e14f6a0	0.14547205
150	0xbe65e4b8	-0.2245053
151	0x3f23f962	0.640524
152	0xbe863b06	-0.26216906
153	0xbca27df1	-0.019835444
154	0xbf0b81ce	-0.5449494
155	0xbebe414e	-0.371592
156	0xbeacb147	-0.33729002
157	0xbe7cdf66	-0.24694595
158	0x3ed22a3c	0.41047847
159	0xbe4131f4	-0.18866712
160	0xbedce618	-0.43144298
161	0x3e63777a	0.22213545
162	0x3e043134	0.12909395
163	0x3e3b93a5	0.1831804
164	0xbe86b39b	-0.26308903
165	0x3e4ba34c	0.19886512
166	0xbe9db1d3	-0.30799732
167	0xbe0e30d0	-0.13885808
168	0xbeeb925d	-0.46010104
169	0xbe86b976	-0.2631337
170	0xbe350fc6	-0.17681798
171	0x3e9e6d6d	0.3094286
172	0x3c5df17a	0.013546342
173	0x3e42e8f3	0.19034176
174	0x3f1efe6b	0.6210696
175	0x3ef57fd6	0.47949094
176	0x3eadc841	0.33941844
177	0x3c969be2	0.018384878
178	0xbecc7ef0	-0.39940596
179	0x3ee70451	0.4512048
180	0xbe13d6d3	-0.14437418
181	0xbd3f2f6d	-0.046676088
182	0xbefea976	-0.49738663
183	0xbde98f7a	-0.11404319
184	0xbebea91a	-0.3723839
185	0x3f07d0da	0.5305306
186	0xbeff8e28	-0.49913144
187	0xbee66aee	-0.45003456
188	0xbca099fa	-0.019604672
189	0xbe805d25	-0.25071064
190	0x3ec9b303	0.39394388
191	0xbea72149	-0.32642582
192	0xbe8ad75a	-0.27117425
193	0x3d05f02f	0.03269976
194	0x3ed5fc95	0.41794267
195	0xbecfef35	-0.40612188
196	0x3e8ad133	0.2711273
197	0x3ebde867	0.3709137
198	0x3f1ac853	0.6046192
199	0xbf0bd4ea	-0.54621756
200	0x3e2c0051	0.16796996
201	0xbeda93b9	-0.42690828
202	0x3efc5f15	0.49291292
203	0xbe655532	-0.2239578
204	0x3ec7053c	0.3887118
205	0xbdaedb22	-0.0853789
206	0xbdb17e62	-0.08666684
207	0xbc96e9ae	-0.018421974
208	0x3dc900f5	0.09814636
209	0x3e8b58a4	0.27216065
210	0x3e13941b	0.14411967
211	0x3d931a60	0.07182765
212	0xbf22744d	-0.6345871
213	0x3ebb12c1	0.36537746
214	0x3ebcce8f	0.36876342
215	0x3e86223e	0.26198
216	0x3ee48c98	0.44638515
217	0xbf15319e	-0.58278835
218	0xbe2cbce4	-0.16868931
219	0x3f1265db	0.5718667
220	0xbf0ef895	-0.55848056
221	0x3f2f916a	0.6858126
222	0xbee87da8	-0.45408368
223	0xbed039bb	-0.40669045
224	0x3e908394	0.28225386
225	0xbed46344	-0.41481984
226	0xbe077224	-0.13227135
227	0x3ed70c8c	0.4200176
228	0x3f0095d4	0.5022862
229	0x3eea1728	0.45720792
230	0xbe29b1da	-0.16571751
231	0xbee5c2c9	-0.44875172
232	0x3f1186f2	0.56846535
233	0xbdfbe28e	-0.12299071
234	0xbe733e42	-0.23754218
235	0x3e101ee7	0.14074288
236	0xbeceb900	-0.4037552
237	0x3ee081c8	0.43849015
238	0x3e8a0bef	0.2696223
239	0xbf048aab	-0.5177409
240	0xbef2cce8	-0.47421956
241	0xbd4f267d	-0.050573815
242	0x3e785265	0.24250181
243	0x3dc3fb68	0.09569436
244	0xbe942da9	-0.28941086
245	0xbc146eb3	-0.009059596
246	0xbf0aec6e	-0.54267013
247	0xbed0ebc1	-0.40804866
248	0xbec4c7ad	-0.3843359
249	0x3f02a2d8	0.5102973
250	0x3ecfe1b8	0.40601897
251	0xbe8ca4a9	-0.27469376
252	0x3dd0bf63	0.10192754
253	0x3e63c75f	0.22244023
254	0x3da253b7	0.079261236
255	0xbe9db406	-0.3080141

fc1.bias f4 [256]
0	0xbe8bd0c1	-0.27307704
1	0x3dc593c6	0.09647326
2	0xbee2d755	-0.4430491
3	0x3e782c74	0.24235708
4	0xbf15c518	-0.58503866
5	0x3f02ebfd	0.5114134
6	0x3ec2c2ca	0.38039237
7	0xbe5303cc	-0.20606917
8	0x3daed7fb	0.08537289
9	0xbeb0002b	-0.34375128
10	0xbecb987f	-0.39764783
11	0xbe95b5c6	-0.29240245
12	0xbef0bed4	-0.4702059
13	0x3e6ee22c	0.23328465
14	0xbeaa5487	-0.33267614
15	0xbe117236	-0.14203724
16	0xbee287af	-0.44244143
17	0xbeb9b761	-0.3627272
18	0xbf24cbff	-0.64373773
19	0xbed4768b	-0.4149669
20	0x3f23781d	0.63855153
21	0x3d344017	0.044006433
22	0xbf0cf553	-0.55061835
23	0xbdc5598a	-0.09636219
24	0xbe063abb	-0.13108341
25	0x3e915f57	0.2839305
26	0x3f49425c	0.7861688
27	0x3e0ec315	0.13941605
28	0x3e744744	0.2385531
29	0xbec29f9f	-0.38012406
30	0xbdad2675	-0.08454601
31	0xbe502d07	-0.20329677
32	0xbd50dbe7	-0.050990965
33	0x3f2fc40b	0.6865851
34	0x3e67ef97	0.2264999
35	0x3f37ca1e	0.7179278
36	0xbef6869a	-0.48149568
37	0xbe551fc5	-0.208129
38	0x3e2cc938	0.16873634
39	0x3e7ad0a3	0.24493651
40	0xbf07dd88	-0.53072405
41	0xbe912c8f	-0.28354308
42	0x3dab8582	0.08375074
43	0xbf110013	-0.5664074
44	0x3cc74c9f	0.024328528
45	0xbe356339	-0.17713632
46	0xbe1932bc	-0.1496076
47	0x3e9e88d8	0.30963778
48	0x3e767c7b	0.24070923
49	0x3f18defd	0.59715253
50	0x3edee3c6	0.43533152
51	0xbc8157e7	-0.015788985
52	0x3ef1aff0	0.47204542
53	0x3eeb40f7	0.45948002
54	0xbf096d30	-0.5368223
55	0x3dda3a5d	0.10655663
56	0x3d8a8d4c	0.067652315
57	0xbed67418	-0.41885448
58	0xbe8a7baa	-0.27047473
59	0xbe0b9a6f	-0.1363313
60	0xbecedafb	-0.40401444
61	0xbe3468fd	-0.17618175
62	0x3e46f204	0.19428259
63	0x3f3403e3	0.7031843
64	0x3d33a205	0.043855686
65	0xbf0f21a1	-0.5591069
66	0x3dc2f92b	0.09520181
67	0xbe32e3e4	-0.17469746
68	0x3ebf32a2	0.37343317
69	0xbf0ed15b	-0.557882
70	0xbe8be2ad	-0.27321377
71	0x3ebb962d	0.36638013
72	0x3c56351b	0.013074185
73	0xbefc921d	-0.49330226
74	0xbefff70e	-0.49993175
75	0xbbcb321b	-0.0062010414
76	0x3dd55eb1	0.104184516
77	0xbef568b6	-0.4793145
78	0xbef75ca4	-0.48312867
79	0xbe1713ed	-0.14753695
80	0xbdf27f96	-0.11840741
81	0x3eaa9769	0.33318642
82	0xbf0f35cb	-0.55941457
83	0xbe759f46	-0.23986539
84	0xbf082342	-0.531788
85	0x3dcd744a	0.10031946
86	0xbe9707cd	-0.2949814
87	0xbabdad0c	-0.0014471128
88	0xbef749da	-0.48298532
89	0xbee88a27	-0.45417902
90	0xbefaf2a7	-0.49013254
91	0xbf322ea9	-0.6960245
92	0x3eba9ad6	0.36446255
93	0xbda93759	-0.0826251
94	0xbf0e29d8	-0.555326
95	0x3ecf2340	0.4045658
96	0xbe06218c	-0.13098735
97	0x3e88b5c4	0.26701176
98	0xbe374491	-0.1789725
99	0xbef750fa	-0.48303968
100	0x3e01d85d	0.12680192
101	0x3eb811d2	0.35951096
102	0xbf101c80	-0.5629349
103	0xbe041121	-0.12897159
104	0x3debab0c	0.11507234
105	0x3d87b645	0.06626562
106	0xbe2370e8	-0.15961039
107	0xbe37c612	-0.17946652
108	0xbf0a36d2	-0.539899
109	0x3d4c7c7e	0.049923413
110	0xbf0e375e	-0.55553234
111	0xbef43dd5	-0.47703424
112	0xbe3dcf02	-0.18535998
113	0xbed1fd4c	-0.41013563
114	0x3ebf9a42	0.37422377
115	0x3ec7ddf8	0.39036536
116	0x3ee5bbe4	0.44869912
117	0xbecc302d	-0.39880505
118	0x3e565e37	0.20934378
119	0x3eb3fd46	0.3515417
120	0x3bd4393d	0.00647655
121	0x3edf73f5	0.43643156
122	0x3ea743bb	0.32668862
123	0x3ee22e22	0.44175822
124	0x3e84ff8d	0.2597622
125	0x3de96a0a	0.113971785
126	0xbec2561d	-0.37956324
127	0xbea4cf60	-0.32189465
128	0xbe8c2bae	-0.27377075
129	0x3ead2029	0.338136
130	0xbe05debf	-0.13073252
131	0x3e3c42c1	0.1838484
132	0xbf34e626	-0.7066368
133	0xbe6dc849	-0.23220934
134	0xbe26c785	-0.16287048
135	0xbebebc0e	-0.3725285
136	0x3e428e8a	0.18999687
137	0xbf2755fb	-0.6536557
138	0xbe7c7ac3	-0.24656205
139	0xbe750e9d	-0.23931356
140	0xbf05ce30	-0.5226774
141	0x3e52958b	0.20564859
142	0xbe3c1d61	-0.18370582
143	0x3e3bed55	0.18352254
144	0x3ed22a08	0.41047692
145	0x3f38eec0	0.72239304
146	0xbd75df3b	-0.060027342
147	0x3e0a6231	0.1351402
148	0x3f021819	0.5081802
149	0xbd7fb029	-0.06242386
150	0xbe23e8c0	-0.16006756
151	0xbce09b95	-0.027417937
152	0x3dbf8fa9	0.09353573
153	0x3f0027bb	0.50060624
154	0xbf36fe50	-0.714818
155	0x3e77a377	0.2418345
156	0x3e725342	0.23664573
157	0xbec79733	-0.38982543
158	0x3d18fbec	0.037349626
159	0x3e7aca87	0.2449132
160	0x3d325c99	0.04354534
161	0x3edfc3c7	0.43704054
162	0x3e59a4fe	0.21254346
163	0xbf28e6c6	-0.6597713
164	0xbe0eb7e3	-0.13937335
165	0x3ea218e3	0.31659612
166	0xbe8e2e41	-0.27769664
167	0x3e7c2afa	0.2462577
168	0x3e084811	0.13308741
169	0xbdbfd8e1	-0.09367538
170	0x3b867350	0.004103102
171	0x3de85d45	0.11345915
172	0xbeca48a3	-0.39508542
173	0x3ed5f845	0.41790977
174	0x3e68c4bb	0.22731297
175	0x3ea5e05b	0.32397732
176	0x3f13b1b9	0.5769306
177	0xbe0a0c2a	-0.13481203
178	0xbed0bcac	-0.40768945
179	0x3cd7f7a3	0.0263632
180	0xbe859135	-0.26087347
181	0x3e50b3f0	0.2038114
182	0x3f317398	0.6931701
183	0xbf05016a	-0.5195528
184	0xbe0a5e9f	-0.13512658
185	0x3f1358bd	0.5755728
186	0xbeebfab4	-0.4608971
187	0xbdcc0a80	-0.0996294
188	0x3edf5de7	0.4362633
189	0x3ece8c8f	0.40341613
190	0xbdc19aae	-0.09453331
191	0xbe7efcf4	-0.24901181
192	0xbe408872	-0.1880205
193	0xbf048992	-0.51772416
194	0xbece1f09	-0.40258053
195	0xbf0a7b03	-0.5409395
196	0x3ef75795	0.48309007
197	0x3e98794e	0.29780048
198	0x3eb40d35	0.35166326
199	0xbe147eed	-0.14501543
200	0x3eb6b34f	0.35683677
201	0xbe6ca835	-0.23111041
202	0x3e9ab652	0.30217224
203	0xbe54bf9b	-0.20776217
204	0xbe8b0e02	-0.27159125
205	0xbeace2c3	-0.33766755
206	0xbea768db	-0.32697186
207	0xbf0749ca	-0.5284697
208	0x3d73fb05	0.059565563
209	0xbecdcf9d	-0.4019746
210	0x3dc1c2b8	0.09460968
211	0x3ebc78df	0.36810967
212	0xbd9c173e	-0.076216206
213	0x3e8f5c96	0.28000325
214	0xbbc5b210	-0.0060331896
215	0x3e52f997	0.20603023
216	0xbebea31c	-0.37233818
217	0xbd95ce50	-0.073147416
218	0xbe4501fb	-0.19239037
219	0x3e9dcf0f	0.30822036
220	0xbf04aa68	-0.5182252
221	0xbea62696	-0.32451314
222	0xbddb973f	-0.10722207
223	0x3f3841ff	0.719757
224	0x3ec8021a	0.39064103
225	0xbf09f320	-0.53886604
226	0xbf16db48	-0.58928347
227	0x3eb27ff7	0.34863254
228	0x3dac51e4	0.08414057
229	0xbefd2fab	-0.4945043
230	0xbe8430cf	-0.25818488
231	0x3e813bc7	0.2524092
232	0xbe9d54f3	-0.30728874
233	0xbf0f381f	-0.5594501
234	0xbeb6829c	-0.35646522
235	0xbe1c56aa	-0.15267435
236	0xbe55b11f	-0.20868348
237	0x3ea8631a	0.32888108
238	0x3e8ded77	0.27720234
239	0xbee9982e	-0.45623916
240	0xbe7bedf6	-0.24602494
241	0xbee43b2e	-0.445764
242	0x3e619914	0.22031051
243	0x3f43ec25	0.765322
244	0x3f0fa8c8	0.56116915
245	0x3de1b475	0.110207476
246	0xbe543dfb	-0.20726769
247	0xbc6bce4d	-0.014392448
248	0x3e554c41	0.2082987
249	0xbf3b37af	-0.7313184
250	0xbdc79525	-0.09745244
251	0xbef04859	-0.46930197
252	0xbf4f2524	-0.8091605
253	0xbc9e14ef	-0.019297091
254	0xbeac7354	-0.33681738
255	0xbebb40c3	-0.36572847

fc2.weight f4 [64, 256]
0	0x3e3523ed	0.17689486
1	0x3e7f55e7	0.24935113
2	0x3c1c4350	0.009537533
3	0xbe273d5b	-0.16331999
4	0x3e8cb305	0.2748033
5	0xbe3203d1	-0.17384268
6	0xbbdcfacf	-0.006743766
7	0xbcac9d20	-0.021071017
8	0x3d3c76ae	0.04601162
9	0x3eb09ce6	0.34494704
10	0x3d0b4514	0.034001425
11	0xbc8f16f8	-0.017467007
12	0x3d96a85f	0.07356333
13	0xbea91cd8	-0.3302982
14	0x3d7e550d	0.06209283
15	0x3e3218a1	0.17392208
16	0xbd47c9c4	-0.048776403
17	0x3d40ff06	0.04711821
18	0x3c48da52	0.012259083
19	0x3d5e3f9c	0.05425988
20	0xbe8b9d51	-0.2726846
21	0x3e108710	0.14114022
22	0x3d199c6a	0.037502684
23	0x3c6d03c8	0.014466234
24	0x3d6a08ae	0.057137184
25	0xbcbdc408	-0.023164764
26	0xbf10a496	-0.5650114
27	0xbd6b5076	-0.05744978
28	0x3e08c40b	0.13356034
29	0x3df1b7f2	0.11802663
30	0x3e8ee9cd	0.2791275
31	0xbeb385da	-0.35063058
32	0x3d5cd321	0.053912286
33	0xbe2b3be2	-0.16722062
34	0xbd1e9c1f	-0.038723107
35	0xbebeea46	-0.3728811
36	0x3df4caf5	0.119527735
37	0x3d52f601	0.05150414
38	0xbdc8020b	-0.09766015
39	0x3ddfa48c	0.10920057
40	0xbd6ec8f2	-0.058297105
41	0xbbea5df0	-0.0071523115
42	0xbb588840	-0.0033040196
43	0x3e2af984	0.16696745
44	0xbd2400b8	-0.040039748
45	0x3ce5d18b	0.02805402
46	0x3d66387a	0.056206204
47	0x3d66b6aa	0.056326546
48	0xbc009c78	-0.007849805
49	0xbd2c1656	-0.04201349
50	0xbe5bf290	-0.21479249
51	0xbd47ec96	-0.04880961
52	0xbc8c6228	-0.017136648
53	0x3d788a34	0.060678676
54	0x3d42e787	0.047584083
55	0x3dae3931	0.08507002
56	0x3d70d5f4	0.05879779
57	0x3dcb71e1	0.0993383
58	0x3d9b9aae	0.07597862
59	0x3d2a1c18	0.0415307
60	0x3d700dd2	0.05860693
61	0x3c2f9b18	0.01071813
62	0xbd4f05ce	-0.050542645
63	0xbec75fb1	-0.38940194
64	0xbd0444fe	-0.03229236
65	0x3d534bd8	0.051586002
66	0x3e0e7db8	0.13915145
67	0x3c95d9ac	0.01829227
68	0xbced10fd	-0.028938765
69	0xbd3c8b92	-0.046031542
70	0x3dc41117	0.09573572
71	0xbc23a5f2	-0.009988295
72	0x3d8c9041	0.06863452
73	0x3e70b160	0.23505163
74	0xbc75d620	-0.015004665
75	0x3a772300	0.00094275177
76	0x3d0a59e2	0.033777125
77	0x3cc502c8	0.024049178
78	0xbd43e2c0	-0.047823668
79	0x3ce25d6f	0.027632443
80	0xbcfdbbb0	-0.030973285
81	0x3d84da03	0.06486895
82	0x3cfd8898	0.030948922
83	0x3d7695ee	0.060201578
84	0x3e09643f	0.13417147
85	0xbe9d9761	-0.30779555
86	0xbd7fd198	-0.062455744
87	0x3df4ecb6	0.119592115
88	0xbd2fa9da	-0.042886592
89	0x3c08bef0	0.008346304
90	0x3db713ce	0.08939324
91	0x3e81eb21	0.25374702
92	0xbd2ee7ac	-0.04270141
93	0xbd7ad1a2	-0.061235078
94	0x3d9b744b	0.075905405
95	0x3c250308	0.0100715235
96	0x3d3b8802	0.045784004
97	0x3a3edf02	0.00072811556
98	0x3d45284c	0.048134133
99	0x3ca19fe8	0.01972957
100	0xbc9251d0	-0.017861277
101	0xbc588480	-0.013215184
102	0xbd0bffdc	-0.034179553
103	0x3dbb1268	0.0913437
104	0xbd320866	-0.04346504
105	0x3cb00760	0.021487892
106	0x3da22d3c	0.07918784
107	0x3d593bb4	0.053035453
108	0x3e23fd96	0.16014704
109	0x3e6f1651	0.23348357
110	0x3d1be2fc	0.038058266
111	0xbba73810	-0.0051031187
112	0x3d69b21e	0.05705463
113	0x3d3903f3	0.045169782
114	0xbec9d187	-0.3941767
115	0x3d425922	0.047448285
116	0xbd78feb8	-0.060789794
117	0x3e92287c	0.28546512
118	0x3d775b65	0.060389895
119	0xbcc01e74	-0.023452021
120	0x3c288770	0.010286197
121	0xbe3c896f	-0.18411802
122	0xbd220fc0	-0.0395658
123	0xbce79588	-0.028269544
124	0x3d5123e9	0.051059637
125	0x3db6248a	0.08893688
126	0x3d1b7e98	0.037962526
127	0x3be0c320	0.006859198
128	0xbd26929c	-0.04066716
129	0xbcad16fb	-0.021129122
130	0xbc82a5c9	-0.015948193
131	0xbe98c4af	-0.29837558
132	0x3e24966c	0.16073006
133	0x3e297fc6	0.16552648
134	0xbd0e57fe	-0.034751885
135	0xbc88667c	-0.01665043
136	0x3bf57c74	0.0074916426
137	0x3e09a96a	0.13443533
138	0x3dbd1dd2	0.092342034
139	0x3dcfe2d0	0.10150683
140	0xbcbe553c	-0.023234002
141	0x3dbe8ae2	0.093038335
142	0xbd39305c	-0.045212135
143	0x3aab4967	0.001306814
144	0xbdf7e8db	-0.121049605
145	0xbefd8462	-0.49515063
146	0x3cb5d3c3	0.022195702
147	0x3dedbc98	0.11608237
148	0xbcab262a	-0.020892221
149	0x3db9db04	0.09074977
150	0x3c842594	0.0161312
151	0xbde37c48	-0.11107689
152	0x3cd26610	0.025683433
153	0xbeacc9ae	-0.3374762
154	0x3dc5da86	0.09660821
155	0x3d7f6993	0.062356543
156	0xbeed2989	-0.4632075
157	0xbea004a7	-0.3125355
158	0x3d3ac9a9	0.045602474
159	0x3cb98d7a	0.02265047
160	0x3e0c3785	0.13693054
161	0x3b367e16	0.002784615
162	0xbed25bce	-0.41085666
163	0x3e0f3309	0.13984312
164	0x3e7b3b54	0.2453435
165	0xbaa5f43e	-0.0012661291
166	0x3d5c80a8	0.053833634
167	0x3d1f2f9c	0.038863763
168	0xbafac5c0	-0.001913242
169	0xbce4aef0	-0.027915448
170	0x3b87c360	0.0041431636
171	0x3d898c2f	0.06716191
172	0x3d222ba6	0.039592408
173	0x3d2e5532	0.042561717
174	0x3d2785cb	0.04089908
175	0x3ccb48e0	0.024815023
176	0x3cc0e970	0.023548812
177	0x3d9025c3	0.070384525
178	0x3cf89edc	0.030349188
179	0x3ca31db4	0.019911624
180	0x3e5aea57	0.21378456
181	0xbd7096a4	-0.058737412
182	0xbeb1ec6b	-0.34750685
183	0x3e0a73df	0.13520764
184	0x3ddfff6f	0.10937392
185	0xbde3851d	-0.11109374
186	0x3d2cbe94	0.042173937
187	0x3cae225c	0.021256618
188	0xbd51b331	-0.05119628
189	0x3b731b20	0.0037095025
190	0x3dfc768d	0.12327299
191	0x3d1379a4	0.036004677
192	0x3ec97b3b	0.3935183
193	0xbcca7244	-0.02471269
194	0xbe6d7b46	-0.23191556
195	0xbd4fa9a4	-0.05069889
196	0xbce50fc3	-0.027961617
197	0xbcfe66d3	-0.03105489
198	0xbdedf4a9	-0.11618931
199	0x3d11bc92	0.035580225
200	0x3d600d38	0.054700106
201	0x3e0a20cb	0.13489072
202	0xbcbf58dc	-0.023357801
203	0x3d8767ca	0.06611593
204	0xbcc2c74c	-0.023776673
205	0x3cac5abe	0.021039363
206	0x3ddf4783	0.10902312
207	0x3d30f468	0.043201834
208	0x3d60482e	0.054756336
209	0x3de5fbcc	0.11229667
210	0x3df49302	0.11942102
211	0xbc9b411c	-0.018951945
212	0x3d9b4cb8	0.07582992
213	0xbc89d90c	-0.016827129
214	0x3c2331a6	0.009960568
215	0x3df20ad0	0.118184686
216	0x3c0c0a40	0.008547366
217	0x3e1b1b5d	0.15147157
218	0x3cd29458	0.025705501
219	0xbc3caaff	-0.011515378
220	0xbcb99ca8	-0.022657707
221	0xbd32cdfe	-0.04365348
222	0x3e21d51c	0.15803951
223	0xbeec7538	-0.4618318
224	0xbd4b9c72	-0.049709745
225	0x3e4e4eb8	0.20147216
226	0x3e9f251c	0.31083
227	0x3dc738d9	0.0972764
228	0x3d30467c	0.04303597
229	0xbd4443a0	-0.047916055
230	0x3e505f04	0.20348746
231	0x3d22f454	0.03978379
232	0x3e9cbb94	0.3061186
233	0x3e5514dc	0.20808738
234	0x3d3aab72	0.04557366
235	0xbea6f37d	-0.32607642
236	0x3e46dd90	0.19420457
237	0xbdddb4d5	-0.108255066
238	0xbcd5c0d8	-0.026092932
239	0x3d940d1d	0.07229064
240	0x3dc38a8c	0.0954791
241	0xbba1c9f0	-0.004937403
242	0x3e096a0e	0.13419363
243	0xbda3a778	-0.079909265
244	0xbd05dd7c	-0.032681927
245	0x3c6ce786	0.014459496
246	0x3e12ff79	0.14355268
247	0xba94bec0	-0.0011348352
248	0x3d28b834	0.041191295
249	0x3df90737	0.12159579
250	0xbcacdea5	-0.021102259
251	0xbcfd57d4	-0.030925669
252	0x3d37cdc7	0.04487398
253	0xbd595a94	-0.053064898
254	0x3e6d9982	0.2320309
255	0xbd1e2fe6	-0.0386199

fc2.bias f4 [64]
0	0xbda992bb	-0.0827994
1	0xbcdce666	-0.026965331
2	0xbcb16724	-0.021655627
3	0x3cdb9954	0.026806511
4	0xbd4cfd3b	-0.050046187
5	0x3c93cd70	0.018042296
6	0x3d4d67ee	0.050147943
7	0x3d5a4c90	0.053295672
8	0xbdee2264	-0.11627653
9	0x3c374570	0.011185989
10	0x3d00007a	0.031250454
11	0xbd24c3ac	-0.04022567
12	0xbc380578	-0.011231773
13	0xbe206e09	-0.15666975
14	0xbda48b1c	-0.080343455
15	0x3caac044	0.020843633
16	0x3d4c013a	0.049805857
17	0xbdb6731e	-0.089086756
18	0xbe111f5d	-0.1417212
19	0xbddd6e46	-0.108120486
20	0xbe01cbe8	-0.1267544
21	0xbce0781b	-0.02740102
22	0x3c53e7f8	0.012933724
23	0xbe0c266e	-0.13686535
24	0x3bd5d400	0.0065255165
25	0x3c52c9c0	0.012865484
26	0xbd152508	-0.03641227
27	0x3bda5ac0	0.0066636503
28	0xbd678d69	-0.056531344
29	0x3d236eff	0.039900776
30	0xbd58a1dc	-0.052888736
31	0xbb81ceb0	-0.0039614066
32	0xbb2bf757	-0.0026239955
33	0xbd549b3d	-0.05190586
34	0xbd954775	-0.0728902
35	0x3c372630	0.011178538
36	0xbd241622	-0.04006017
37	0xbca1fe44	-0.019774564
38	0xbd7acf65	-0.061232943
39	0xba52f500	-0.0008047372
40	0xbd5fc024	-0.0546266
41	0xbd73de25	-0.059538025
42	0x3d6dbc04	0.058040634
43	0x3d348432	0.044071384
44	0xbe05bcf9	-0.13060369
45	0x3c9fa357	0.019487066
46	0xbde92f6a	-0.11385997
47	0xbe0dcc4f	-0.13847469
48	0xbc765e7c	-0.015037175
49	0x3d0a1888	0.0337148
50	0x3c3cda60	0.011526674
51	0xbe3051ab	-0.17218654
52	0xbd1f4507	-0.03888419
53	0x3d03e1d2	0.03219778
54	0x3ccc238d	0.024919296
55	0x3ce3db80	0.027814627
56	0xbd15be73	-0.03655858
57	0xbe05e45b	-0.13075392
58	0xba81eb7b	-0.0009912098
59	0xbd1185d0	-0.035528004
60	0xbd41ed72	-0.047345586
61	0x3cd00544	0.025393136
62	0x3d0ce110	0.034394324
63	0xbda04657	-0.07825916

fc3.weight f4 [2, 64]
0	0xbe269338	-0.16267097
1	0x3db7c086	0.08972268
2	0x3df0bd70	0.11754882
3	0xbcd381a0	-0.025818646
4	0xbe6a7b0d	-0.22898503
5	0xbc9009b0	-0.017582744
6	0x3c1b15d0	0.00946565
7	0xbd57c4ac	-0.052677795
8	0xbe075cdb	-0.13219015
9	0x3d33b978	0.04387805
10	0xbd8901e0	-0.06689811
11	0x3d06cec4	0.03291203
12	0x3d18ac84	0.0372739
13	0xbe05d83c	-0.13070768
14	0xbe46dc41	-0.19419958
15	0x3c62bb15	0.013838549
16	0xbc896f80	-0.0167768
17	0xbe814d23	-0.25254163
18	0xbe7c1646	-0.24617872
19	0xbea94bb3	-0.33065566
20	0xbe967ab2	-0.29390484
21	0xbc8ec2e3	-0.017426914
22	0x3d14b688	0.036306888
23	0xbe58abbf	-0.21159266
24	0xbdaf30ac	-0.08554205
25	0xbdc72dfa	-0.09725566
26	0xbd7c1ee8	-0.061552912
27	0x3d6aa8c8	0.05728987
28	0xbd88199a	-0.06645508
29	0xbd425780	-0.047446728
30	0x3d743928	0.05962482
31	0x3d2db528	0.042409092
32	0x3cbc9213	0.023018872
33	0x3ca72e7a	0.020407904
34	0xbe5e022c	-0.21680516
35	0x3bbb86e0	0.0057228655
36	0x3d583741	0.05278707
37	0x3d5bd164	0.053666487
38	0xbe13b441	-0.1442423
39	0xbd800a56	-0.062519714
40	0xbdbfeaca	-0.09370954
41	0xbd870af6	-0.065938875
42	0xbd9225f0	-0.07136142
43	0x3d88bf5e	0.066771254
44	0xbe7d4714	-0.24734145
45	0x3db2e016	0.08734147
46	0xbe97cbe5	-0.29647747
47	0xbdd9a1d1	-0.10626567
48	0x3dde38bc	0.10850665
49	0xbc2a6cab	-0.010401885
50	0x3cef00c1	0.029175164
51	0xbe813cea	-0.25241786
52	0x3d3bf590	0.045888484
53	0x3ddcd608	0.10783011
54	0xbb4644ab	-0.0030253332
55	0x3cd4dac8	0.02598323
56	0x3b7265d4	0.0036986964
57	0xbe0d29c6	-0.13785467
58	0x3d1827b3	0.037147235
59	0x3d81fdfc	0.06347272
60	0xbe8f3ba0	-0.27975178
61	0xbd92427c	-0.07141587
62	0xbdffbba6	-0.12486963
63	0xbe6993ea	-0.22810331
64	0xbe69e72a	-0.22842088
65	0xbe0c8967	-0.1372429
66	0x3da354b6	0.07975142
67	0xbc379ce0	-0.0112068355
68	0xbe6ff68c	-0.23433894
69	0x3dce95e2	0.10087182
70	0xbda5e50a	-0.08100326
71	0x3dae3166	0.08505516
72	0xbe8faac1	-0.28059962
73	0x3dbba2aa	0.09161885
74	0x3d1eb31e	0.03874504
75	0x3d8cbdf2	0.06872167
76	0x3c93f238	0.018059835
77	0xbe84a03a	-0.25903493
78	0xbe390ec3	-0.18072037
79	0x3b5618aa	0.003266851
80	0xbd41f56c	-0.047353193
81	0xbdfe6d42	-0.12423183
82	0xbe1ce06d	-0.15319987
83	0xbd414762	-0.047187217
84	0xbd34532a	-0.044024624
85	0xbc821cd0	-0.01588288
86	0x3b804200	0.003914118
87	0xbe4c6e73	-0.19964008
88	0x3df483a8	0.11939174
89	0xbdb57c64	-0.08861616
90	0x3d86af6c	0.06576428
91	0x3d679310	0.056536734
92	0xbc48d46e	-0.012257678
93	0x3dc83ee5	0.09777621
94	0x3d894c98	0.06704062
95	0xbdf91ef6	-0.121641085
96	0xbd654e16	-0.05598267
97	0x3d82e262	0.06390835
98	0xbdff1f3b	-0.124571286
99	0xbca0b2d0	-0.019616514
100	0x3ddee868	0.10884172
101	0x3c9478eb	0.018124064
102	0xbe736054	-0.23767215
103	0xbd9f3210	-0.077732205
104	0xbdde5512	-0.108560696
105	0x3c994678	0.01871036
106	0xbdad02d6	-0.084478065
107	0xbce95f48	-0.028487816
108	0xbd88a7fa	-0.06672664
109	0x3d47d601	0.048788074
110	0xbd164665	-0.036688227
111	0xbea4a9fd	-0.3216094
112	0x3dcabe18	0.09899539
113	0x3cfaea5c	0.03062933
114	0x3d35bb31	0.044367973
115	0xbde05cc6	-0.10955195
116	0x3ddc1647	0.107464366
117	0x3de375ae	0.1110643
118	0xbc50e7f7	-0.012750617
119	0xbdccee62	-0.100064054
120	0x3d8c6a9f	0.06856274
121	0xbe88d3d1	-0.26724103
122	0xbc999d0a	-0.01875164
123	0xbbba2c46	-0.0056815473
124	0xbdff474a	-0.12464769
125	0xbc78a690	-0.01517643
126	0xbdfe184c	-0.12406978
127	0xbddeba67	-0.10875397

fc3.bias f4 [2]
0	0x3e991bbd	0.29903975
1	0x3e8aab32	0.27083737
