checkpoints/dubins3d-discrete-v0__hj_dqn__1__1638911814_evalFalse/dqn_checkpoint_10039.pth (torch, 72343 bytes, 6 tensors)

fc1.weight f4 [256, 3]
0	0x3eba4b9d	0.36385813
1	0xbe6e52a6	-0.23273715
2	0xbe45bdc4	-0.19310671
3	0x3e9acbd6	0.3023364
4	0xbf0d13f8	-0.55108595
5	0x3ea0cd57	0.31406662
6	0xbdf3409a	-0.11877556
7	0x3e9662ea	0.2937234
8	0x3da46023	0.08026149
9	0x3bc21972	0.0059234435
10	0x3e449e45	0.19201
11	0xbcbbfcd9	-0.022947716
12	0x3e8580a6	0.26074713
13	0xbe36643b	-0.17811672
14	0xbdc4544a	-0.09586389
15	0xbcfa2512	-0.030535255
16	0x3d88483d	0.06654403
17	0xbcb4027a	-0.021973837
18	0x3f0930f9	0.5359035
19	0x3e360dbe	0.1777868
20	0xbe84e7e9	-0.25958183
21	0xbeb28872	-0.34869725
22	0xbdc630e4	-0.09677294
23	0xbe7f02f1	-0.24903466
24	0xbe3d7388	-0.18501103
25	0x3ce276a0	0.027644455
26	0x3eb037a4	0.3441745
27	0x3ed1ae84	0.40953457
28	0xbef35d58	-0.47532153
29	0x3e836de4	0.25669777
30	0x3e71fd11	0.23631693
31	0x3f13fc95	0.57807285
32	0x3ea203c5	0.316435
33	0xbf06aaec	-0.52604556
34	0xbf0c87f4	-0.5489495
35	0xbe8e9438	-0.27847457
36	0x3f0f9441	0.5608559
37	0xbdad2f72	-0.08456315
38	0x3e3b9ec9	0.1832229
39	0xbe85aa92	-0.26106697
40	0x3f1690b1	0.5881453
41	0xbe1cb7c7	-0.1530448
42	0x3ed2c721	0.41167548
43	0xbd5323ab	-0.051547688
44	0xbea14d26	-0.31504172
45	0x3eb90ad3	0.3614107
46	0xbe926f6e	-0.2860064
47	0x3d8897ea	0.066696
48	0xbe2ab716	-0.16671404
49	0xbd81a218	-0.06329745
50	0xbf0e1843	-0.5550577
51	0xbe8cf032	-0.27527004
52	0x3ea06788	0.31328988
53	0xbe0fb57b	-0.14034073
54	0x3f266902	0.6500398
55	0x3efddc23	0.49582013
56	0xbdffa13e	-0.124819264
57	0xbec54f6b	-0.38537154
58	0x3eb402e1	0.35158446
59	0x3e377c35	0.17918475
60	0xbe8edc98	-0.27902675
61	0x3eef6c00	0.46762085
62	0x3ed9639f	0.42458817
63	0x3f15b1f0	0.58474636
64	0xbe976ec3	-0.29576692
65	0xbe28ed2d	-0.16496725
66	0xbc373e93	-0.011184352
67	0x3dacb348	0.08432633
68	0xbee056ba	-0.43816167
69	0xbed1c449	-0.40970066
70	0x3ea0cf3f	0.31408116
71	0xbe0aa219	-0.13538398
72	0x3eabd6d2	0.33562332
73	0x3d3158cd	0.043297578
74	0x3df34a58	0.11879414
75	0x3e492269	0.19642033
76	0x3e6adb8a	0.2293531
77	0x3e409d82	0.18810084
78	0xbf02fd10	-0.5116739
79	0x3ea089dd	0.3135518
80	0xbed5f762	-0.417903
81	0xbedf090e	-0.43561596
82	0x3d0fd0c3	0.0351112
83	0xbdc97de1	-0.098384626
84	0x3ed1f3cb	0.41006312
85	0xbe9d9f83	-0.3078576
86	0xbf1b84e2	-0.6074964
87	0x3efadb88	0.48995614
88	0xbd74e806	-0.059791587
89	0x3e87cc51	0.2652307
90	0x3e870632	0.26371914
91	0xbebc195e	-0.36738104
92	0x3c83529a	0.016030598
93	0x3e1a20d5	0.15051587
94	0xbec13c44	-0.37741292
95	0xbe92ba7c	-0.286579
96	0x3e708e0e	0.2349169
97	0x3dbf3ba4	0.093375474
98	0xbea9583c	-0.3307513
99	0xbdcb3ac3	-0.09923317
100	0x3f0fbea2	0.5615026
101	0xbe4e7e9b	-0.20165484
102	0x3ec81b88	0.39083505
103	0x3e8ab90e	0.2709431
104	0xbef37dcb	-0.4755691
105	0xbee77af6	-0.45211
106	0x3f17bfad	0.5927685
107	0x3d8f3b39	0.06993718
108	0x3ed87e13	0.42283687
109	0x3dcbce44	0.099514514
110	0x3dde51e7	0.108554654
111	0x3f00f3b6	0.50371873
112	0x3f134cf0	0.5753927
113	0xbef009dc	-0.46882522
114	0x3e116098	0.14197004
115	0x3eea4780	0.45757675
116	0x3eaeb2db	0.3412083
117	0x3eac09c0	0.3360119
118	0xbef50a96	-0.4785964
119	0xbefa1c0e	-0.4884953
120	0xbeb2c5c3	-0.34916505
121	0x3d948b6d	0.07253156
122	0x3f134f09	0.57542473
123	0xbebab9b5	-0.36469808
124	0x3e9d8579	0.30765894
125	0xbea39ce9	-0.3195565
126	0xbf0af728	-0.5428338
127	0xbdfb4f4b	-0.12270983
128	0x3eaa516b	0.33265242
129	0x3f10f0a0	0.56617165
130	0xbebeaf8e	-0.37243313
131	0x3d8821c0	0.06647062
132	0x3efc0320	0.49221134
133	0x3eaa4886	0.33258456
134	0x3e96d452	0.29458863
135	0x3ef5b224	0.47987473
136	0x3ec55e31	0.38548425
137	0x3d4b0219	0.049562547
138	0xbeca23b7	-0.39480373
139	0xbef83c44	-0.4848348
140	0xbe877398	-0.2645538
141	0xbd89afeb	-0.06723007
142	0xbeb530d3	-0.35388812
143	0x3e584b8d	0.2112257
144	0x3e7236b5	0.23653682
145	0xbdff64a6	-0.12470369
146	0x3dfd96a7	0.1238225
147	0x3e818b1d	0.25301448
148	0x3ebf1edf	0.3732824
149	0x3ea566e0	0.3230505
150	0xbe3cd543	-0.18440728
151	0x3f0b281c	0.5435808
152	0xbd903be0	-0.0704267
153	0xbca27df1	-0.019835444
154	0xbf0b81ce	-0.5449494
155	0xbebe414e	-0.371592
156	0xbeacb147	-0.33729002
157	0xbe7cdf66	-0.24694595
158	0x3ed22a3c	0.41047847
159	0xbe4131f4	-0.18866712
160	0xbedce618	-0.43144298
161	0x3e63777a	0.22213545
162	0x3e3069d8	0.17227876
163	0x3ea4e005	0.32202163
164	0xbe9f8484	-0.3115579
165	0x3e48a3e9	0.19593777
166	0xbe3a9adb	-0.18223135
167	0xbe6c9394	-0.23103172
168	0xbeeb925d	-0.46010104
169	0xbe86b976	-0.2631337
170	0xbe350fc6	-0.17681798
171	0x3ea3cf69	0.3199418
172	0x3e089376	0.13337502
173	0x3d3b7fe9	0.04577628
174	0x3f26da2b	0.6517665
175	0x3f180556	0.5938314
176	0x3e94fd52	0.29099518
177	0x3c969be2	0.018384878
178	0xbecc7ef0	-0.39940596
179	0x3ee70451	0.4512048
180	0xbe13d6d3	-0.14437418
181	0xbd3f2f6d	-0.046676088
182	0xbefea976	-0.49738663
183	0xbde98f7a	-0.11404319
184	0xbebea91a	-0.3723839
185	0x3f07d0da	0.5305306
186	0xbeff8e28	-0.49913144
187	0xbee66aee	-0.45003456
188	0xbca099fa	-0.019604672
189	0xbe7eaef4	-0.24871427
190	0x3e8a3a22	0.26997477
191	0xbe2f55e9	-0.17122616
192	0xbe8ad75a	-0.27117425
193	0x3d05f02f	0.03269976
194	0x3ed5fc95	0.41794267
195	0xbecfef35	-0.40612188
196	0x3e8ad133	0.2711273
197	0x3ebde867	0.3709137
198	0x3f1ce9dc	0.6129434
199	0xbed33471	-0.41250947
200	0x3d21c9ae	0.039498977
201	0xbeda93b9	-0.42690828
202	0x3efc5f15	0.49291292
203	0xbe655532	-0.2239578
204	0x3ed79245	0.42103782
205	0x3d3bdabe	0.045862906
206	0xbdf22e2f	-0.11825215
207	0xbc96e9ae	-0.018421974
208	0x3dc900f5	0.09814636
209	0x3e8b58a4	0.27216065
210	0x3e243053	0.16034059
211	0x3e511f3b	0.2042207
212	0xbf1e2fbf	-0.61791605
213	0x3ee14177	0.43995258
214	0x3ef10b8d	0.47079125
215	0x3ec9eed7	0.39440033
216	0x3ee2a8c3	0.4426938
217	0xbee6f593	-0.45109233
218	0xbe9729dc	-0.29524124
219	0x3f110cc4	0.56660104
220	0xbeda7605	-0.42668167
221	0x3ef35834	0.4752823
222	0xbee87da8	-0.45408368
223	0xbed039bb	-0.40669045
224	0x3e908394	0.28225386
225	0xbed46344	-0.41481984
226	0xbe077224	-0.13227135
227	0x3ed70c8c	0.4200176
228	0x3f081d04	0.53169274
229	0x3f138a4c	0.576329
230	0xbe3e6b2c	-0.1859557
231	0xbee5c2c9	-0.44875172
232	0x3f1186f2	0.56846535
233	0xbdfbe28e	-0.12299071
234	0xbe733e42	-0.23754218
235	0x3e101ee7	0.14074288
236	0xbeceb900	-0.4037552
237	0x3ee89fdd	0.45434466
238	0x3ec91393	0.39272746
239	0xbf0ed666	-0.55795896
240	0xbef2cce8	-0.47421956
241	0xbd4f267d	-0.050573815
242	0x3e785265	0.24250181
243	0xb9ec416d	-0.00045062174
244	0xbe8dcc76	-0.27695054
245	0xbcc28a0a	-0.023747463
246	0xbf0aec6e	-0.54267013
247	0xbed0ebc1	-0.40804866
248	0xbec4c7ad	-0.3843359
249	0x3f0a10df	0.53931993
250	0x3f078fdc	0.52953887
251	0xbe9612f8	-0.29311347
252	0x3dd0abcc	0.10189018
253	0x3e947167	0.2899277
254	0xbcce7f0e	-0.025207069
255	0xbe41fed6	-0.18944868

fc1.bias f4 [256]
0	0xbd7137a5	-0.058890957
1	0x3e6e6df1	0.23284127
2	0xbee2d755	-0.4430491
3	0x3dfd6f63	0.12374761
4	0xbef3fc7f	-0.47653577
5	0x3eb2a022	0.34887797
6	0x3f0faa2d	0.5611904
7	0xbe5303cc	-0.20606917
8	0x3daed7fb	0.08537289
9	0xbe52d9fb	-0.20590965
10	0xbea75fff	-0.32690427
11	0xbe95b5c6	-0.29240245
12	0xbe820e64	-0.25401604
13	0x3e040fa3	0.1289659
14	0xbdece586	-0.115672156
15	0x3d97852a	0.07398446
16	0xbee287af	-0.44244143
17	0xbeb9b761	-0.3627272
18	0xbee84b1a	-0.45369798
19	0xbed4768b	-0.4149669
20	0x3f13a55c	0.57674193
21	0x3e8260a2	0.2546435
22	0xbf0cf553	-0.55061835
23	0xbdc5598a	-0.09636219
24	0x3d8b04b6	0.06788008
25	0x3eaedefd	0.34154502
26	0x3f0e87e0	0.5567608
27	0x3e0ec315	0.13941605
28	0x3ee40153	0.4453226
29	0xbe2ae39c	-0.16688389
30	0x3d509404	0.05092241
31	0xbeac623e	-0.33668703
32	0x3e0c286b	0.13687293
33	0x3f1400b3	0.57813567
34	0x3ecaf6d8	0.39641452
35	0x3f1cf5ae	0.6131238
36	0xbe88bbbe	-0.26705736
37	0xbd048c4b	-0.032360356
38	0x3e226600	0.15859222
39	0x3ed38ad9	0.4131687
40	0xbf07dd88	-0.53072405
41	0xbe912c8f	-0.28354308
42	0x3dab8582	0.08375074
43	0xbeac8052	-0.3369165
44	0x3e35c400	0.1775055
45	0x39ae8174	0.00033284316
46	0xbe1932bc	-0.1496076
47	0x3e9e88d8	0.30963778
48	0x3edea97a	0.43488675
49	0x3f184a91	0.5948878
50	0x3e7e9579	0.24861707
51	0xbc8157e7	-0.015788985
52	0x3ef1aff0	0.47204542
53	0x3eeb40f7	0.45948002
54	0xbeaacc42	-0.3335896
55	0x3e9b4163	0.30323324
56	0x3d8a8d4c	0.067652315
57	0xbe56b1c2	-0.20966247
58	0xbdbffffc	-0.09374997
59	0xbe0b9a6f	-0.1363313
60	0xbecedafb	-0.40401444
61	0xbe3468fd	-0.17618175
62	0x3e46f204	0.19428259
63	0x3ef94d10	0.48691607
64	0x3d33a205	0.043855686
65	0xbf0f21a1	-0.5591069
66	0x3ea15f8b	0.31518206
67	0xbe32e3e4	-0.17469746
68	0x3f0e44e3	0.5557386
69	0xbf0ed15b	-0.557882
70	0xbdc1d056	-0.09463565
71	0x3edbbe08	0.4291842
72	0x3e6a3d00	0.22874832
73	0xbe871197	-0.26380607
74	0xbefff70e	-0.49993175
75	0xbbcb321b	-0.0062010414
76	0x3e885b47	0.2663214
77	0xbef568b6	-0.4793145
78	0xbef75ca4	-0.48312867
79	0x3d140f88	0.036147624
80	0xbdf27f96	-0.11840741
81	0x3ec650d6	0.38733548
82	0xbf0f35cb	-0.55941457
83	0xbd6faea4	-0.05851616
84	0xbecdde34	-0.4020859
85	0x3c7f3db8	0.01557868
86	0xbe9707cd	-0.2949814
87	0x3e56788f	0.20944427
88	0xbef749da	-0.48298532
89	0xbee88a27	-0.45417902
90	0xbe92be78	-0.2866094
91	0xbef554fb	-0.47916397
92	0x3eba9ad6	0.36446255
93	0xbda93759	-0.0826251
94	0xbeafe056	-0.34350842
95	0x3ecf2340	0.4045658
96	0xbe06218c	-0.13098735
97	0x3e893c5e	0.2680387
98	0xbe374491	-0.1789725
99	0xbef750fa	-0.48303968
100	0x3e01d85d	0.12680192
101	0x3eb811d2	0.35951096
102	0xbf101c80	-0.5629349
103	0x3daafe8c	0.08349332
104	0x3debab0c	0.11507234
105	0x3d87b645	0.06626562
106	0x3cd70361	0.026246728
107	0xbe37c612	-0.17946652
108	0xbece13d5	-0.40249506
109	0x3e359c86	0.1773549
110	0xbeb639bf	-0.35590932
111	0xbef43dd5	-0.47703424
112	0xbe3dcf02	-0.18535998
113	0xbecd56a1	-0.40105155
114	0x3e918088	0.28418374
115	0x3ec9432d	0.39309064
116	0x3ee5bbe4	0.44869912
117	0xbe8a1822	-0.26971537
118	0x3eb7323b	0.3578051
119	0x3eda834c	0.42678297
120	0x3bd4393d	0.00647655
121	0x3e651b0e	0.22373602
122	0x3ea743bb	0.32668862
123	0x3ee22e22	0.44175822
124	0x3e9855c3	0.2975293
125	0x3e7c235f	0.24622868
126	0xbe3465f0	-0.17617011
127	0xbea4cf60	-0.32189465
128	0xbe8c2bae	-0.27377075
129	0x3f042330	0.5161619
130	0xbe1a954b	-0.15096013
131	0x3db9509f	0.090485804
132	0xbefdc9ee	-0.49568123
133	0xbb515719	-0.0031942783
134	0xbe26c785	-0.16287048
135	0xbebebc0e	-0.3725285
136	0x3ecdfdb7	0.40232632
137	0xbee48118	-0.4462974
138	0xbd75c8eb	-0.060006063
139	0xbcabb8ec	-0.020962201
140	0xbf05ce30	-0.5226774
141	0x3ec849ad	0.3911871
142	0xbe3c1d61	-0.18370582
143	0x3e981a46	0.29707545
144	0x3ea9c908	0.33161187
145	0x3f0cc641	0.5499001
146	0x3dee3355	0.116308846
147	0x3eba7e0f	0.364243
148	0x3f13d39f	0.57744783
149	0x3e131cad	0.14366408
150	0xbe01e188	-0.1268369
151	0xbe1156d0	-0.14193273
152	0x3dbf8fa9	0.09353573
153	0x3e833a62	0.2563048
154	0xbf00ef50	-0.5036516
155	0x3ee974e4	0.45596993
156	0x3de0eaf3	0.10982313
157	0xbefe1637	-0.49626324
158	0x3e5ca38e	0.21546766
159	0x3ecfef5f	0.40612313
160	0x3e836d5a	0.25669366
161	0x3efb2436	0.49051064
162	0x3db75574	0.08951846
163	0xbee5dbc0	-0.44894218
164	0x3d1d2602	0.038366325
165	0x3eed48d6	0.46344632
166	0xbe8e2e41	-0.27769664
167	0x3e7c2afa	0.2462577
168	0x3e084811	0.13308741
169	0xbdbfd8e1	-0.09367538
170	0x3b867350	0.004103102
171	0x3e943292	0.28944832
172	0xbeca48a3	-0.39508542
173	0x3ec789bf	0.3897228
174	0x3edad497	0.42740318
175	0x3ea5e05b	0.32397732
176	0x3f13b1b9	0.5769306
177	0x3c4db9e8	0.012556531
178	0xbed0bcac	-0.40768945
179	0x3cd7f7a3	0.0263632
180	0xbdeba74a	-0.11506517
181	0x3e50b3f0	0.2038114
182	0x3f107b1c	0.5643785
183	0xbe9b134a	-0.30288154
184	0x3d8271b3	0.06369343
185	0x3f15540f	0.5833139
186	0xbeebfab4	-0.4608971
187	0xbdcc0a80	-0.0996294
188	0x3f1a2020	0.6020527
189	0x3ece8c8f	0.40341613
190	0x3df367f0	0.11885059
191	0xbe7efcf4	-0.24901181
192	0xbd174b92	-0.036937304
193	0xbf048992	-0.51772416
194	0xbeec75ce	-0.46183628
195	0xbf0a7b03	-0.5409395
196	0x3f11ec91	0.57001597
197	0x3eda456e	0.42631096
198	0x3e8dec7c	0.27719486
199	0xbe147eed	-0.14501543
200	0x3f09f08f	0.5388269
201	0xbdf79929	-0.1208976
202	0x3ee421c8	0.44557023
203	0xbb52b5b5	-0.0032151763
204	0xbe8b0e02	-0.27159125
205	0xbe0fa3b2	-0.14027289
206	0xbdf629f5	-0.120197214
207	0xbf0749ca	-0.5284697
208	0x3e5dc7aa	0.21658197
209	0xbe362902	-0.1778908
210	0x3e98b92c	0.29828775
211	0x3ebc78df	0.36810967
212	0xbcdad5b4	-0.02671323
213	0x3e8f5c96	0.28000325
214	0x3e0db5e3	0.13838916
215	0x3edb6ff5	0.42858854
216	0xbebea31c	-0.37233818
217	0x3d3ca1ec	0.04605286
218	0xbe4501fb	-0.19239037
219	0x3f0231b8	0.50857115
220	0xbf04aa68	-0.5182252
221	0xbea62696	-0.32451314
222	0x3dd90449	0.105965205
223	0x3f062dc9	0.5241361
224	0x3ec8021a	0.39064103
225	0xbedea691	-0.43486455
226	0xbebab7cb	-0.36468348
227	0x3f0e7438	0.55646086
228	0x3dac51e4	0.08414057
229	0xbefd2fab	-0.4945043
230	0xbdfc51aa	-0.12320264
231	0x3e813bc7	0.2524092
232	0xbe09e8bf	-0.13467692
233	0xbed1ea26	-0.40998954
234	0xbeb6829c	-0.35646522
235	0xbe7a355c	-0.24434417
236	0xbc90e3ae	-0.017686691
237	0x3e8a4dbf	0.2701244
238	0x3e8ded77	0.27720234
239	0xbe7771af	-0.2416446
240	0xbd81d42f	-0.06339299
241	0xbee43b2e	-0.445764
242	0x3ed19b82	0.40938956
243	0x3f1e5ee6	0.61863554
244	0x3f0fa8c8	0.56116915
245	0x3e8ddac8	0.2770598
246	0xbda79457	-0.081825905
247	0xbc6bce4d	-0.014392448
248	0x3e554c41	0.2082987
249	0xbf038ae6	-0.5138382
250	0x3d54521c	0.051836118
251	0xbef04859	-0.46930197
252	0xbf173ef8	-0.5908046
253	0xbc9e14ef	-0.019297091
254	0xbe11cacb	-0.14237516
255	0xbebb40c3	-0.36572847

fc2.weight f4 [64, 256]
0	0x3db9e847	0.090775065
1	0x3db93a1b	0.09044286
2	0x3c1c4350	0.009537533
3	0xbccd811b	-0.025085976
4	0x3c9b89ef	0.01898667
5	0x3ca25b6d	0.019818986
6	0x3d0ed3d4	0.034869984
7	0xbcac9d20	-0.021071017
8	0x3d3c76ae	0.04601162
9	0x3de5494e	0.111956224
10	0x3d907e9b	0.07055398
11	0xbc8f16f8	-0.017467007
12	0x3c8f5e01	0.01750088
13	0xbdb34bf7	-0.087547235
14	0x3ce56dd6	0.028006475
15	0x3dadf204	0.084934264
16	0xbd47c9c4	-0.048776403
17	0x3d40ff06	0.04711821
18	0x3c92e26f	0.017930238
19	0x3d5e3f9c	0.05425988
20	0xbd7d35b1	-0.061818782
21	0x3df3e421	0.119087465
22	0x3d199c6a	0.037502684
23	0x3c6d03c8	0.014466234
24	0x3d68ef05	0.05686857
25	0x3d3f5eb7	0.046721186
26	0xbd23bfff	-0.039978024
27	0xbd6b5076	-0.05744978
28	0x3e094bac	0.13407773
29	0x3d8c071c	0.068372935
30	0x3e03ead7	0.12882553
31	0x3cf03055	0.029319922
32	0x3da83b41	0.08214427
33	0xbc074e7b	-0.008258457
34	0x3c4d93a1	0.0125474045
35	0xbd54c76b	-0.051947992
36	0x3daf3918	0.08555812
37	0x3db8565f	0.09000849
38	0xbcc725f3	-0.024310088
39	0x3dac5e1b	0.08416387
40	0xbd6ec8f2	-0.058297105
41	0xbbea5df0	-0.0071523115
42	0xbb588840	-0.0033040196
43	0x3d0dd0b9	0.03462288
44	0xbbf55fae	-0.0074882125
45	0x3d69edff	0.057111736
46	0x3d66387a	0.056206204
47	0x3d66b6aa	0.056326546
48	0x3cb1e7e5	0.021717021
49	0x3d1039e0	0.035211444
50	0xbd488fb4	-0.04896517
51	0xbd47ec96	-0.04880961
52	0xbc8c6228	-0.017136648
53	0x3d788a34	0.060678676
54	0x3d2be01b	0.04196177
55	0x3da66c2f	0.08126103
56	0x3d70d5f4	0.05879779
57	0x3d94810e	0.07251178
58	0x3dd75d5b	0.10515853
59	0x3d2a1c18	0.0415307
60	0x3d700dd2	0.05860693
61	0x3c2f9b18	0.01071813
62	0xbd4f05ce	-0.050542645
63	0xbde571f6	-0.11203377
64	0xbd0444fe	-0.03229236
65	0x3d534bd8	0.051586002
66	0x3ddbd082	0.10733129
67	0x3c95d9ac	0.01829227
68	0x3c5b7e5a	0.013396824
69	0xbd3c8b92	-0.046031542
70	0x3df9ea6a	0.12202914
71	0x3d3383d8	0.043826908
72	0x3c8604fc	0.016359799
73	0x3d8d32ee	0.0689448
74	0xbc75d620	-0.015004665
75	0x3a772300	0.00094275177
76	0x3da8a635	0.082348265
77	0x3cc502c8	0.024049178
78	0xbd43e2c0	-0.047823668
79	0x3d7c1911	0.061547343
80	0xbcfdbbb0	-0.030973285
81	0x3dda8d03	0.10671427
82	0x3cfd8898	0.030948922
83	0x3dbe57ce	0.09294091
84	0x3db7f2d0	0.0898186
85	0xbd8db443	-0.06919148
86	0xbd7fd198	-0.062455744
87	0x3da7f6e9	0.08201391
88	0xbd2fa9da	-0.042886592
89	0x3c08bef0	0.008346304
90	0x3d6d33e3	0.05791081
91	0x3e13a261	0.14417411
92	0xbd2ee7ac	-0.04270141
93	0xbd7ad1a2	-0.061235078
94	0x3d49f0bb	0.049301844
95	0x3c250308	0.0100715235
96	0x3d3b8802	0.045784004
97	0x3b4f6610	0.0031646527
98	0x3d45284c	0.048134133
99	0x3ca19fe8	0.01972957
100	0xbc9251d0	-0.017861277
101	0xbc588480	-0.013215184
102	0xbd0bffdc	-0.034179553
103	0x3da3a480	0.0799036
104	0xbd320866	-0.04346504
105	0x3cb00760	0.021487892
106	0x3dd08db4	0.10183278
107	0x3d593bb4	0.053035453
108	0x3d106553	0.03525288
109	0x3e1bb7ca	0.15206829
110	0x3c5693d7	0.013096771
111	0xbba73810	-0.0051031187
112	0x3d69b21e	0.05705463
113	0x3d51a256	0.051180206
114	0xbe039e25	-0.12853296
115	0x3d41ff79	0.04736278
116	0xbd78feb8	-0.060789794
117	0x3e1846ee	0.14870808
118	0x3de2b503	0.110696815
119	0x3d498d79	0.049207184
120	0x3c288770	0.010286197
121	0xbc6ea988	-0.014566787
122	0xbd220fc0	-0.0395658
123	0xbce79588	-0.028269544
124	0x3cd69b4c	0.026197098
125	0xbc24bd56	-0.010054907
126	0x3c89b6aa	0.016810734
127	0x3be0c320	0.006859198
128	0xbd26929c	-0.04066716
129	0x3d05b5c2	0.03264404
130	0x3d30a6d7	0.04312786
131	0xbe003923	-0.12521796
132	0x3df0d4fa	0.11759372
133	0x3d4a6c85	0.0494199
134	0xbd0e57fe	-0.034751885
135	0xbc88667c	-0.01665043
136	0x3c6cb672	0.014447795
137	0x3dcf6d48	0.101282656
138	0x3df3ab89	0.11897952
139	0x3d28443e	0.041080706
140	0xbcbe553c	-0.023234002
141	0x3df0eb51	0.11763633
142	0xbd39305c	-0.045212135
143	0x3dcc113d	0.099642254
144	0xbc8699a8	-0.01643069
145	0xbdc28cea	-0.094995335
146	0x3d77c7ad	0.06049316
147	0x3d1aae0f	0.03776365
148	0x3db31a63	0.08745267
149	0x3d7a1264	0.061052695
150	0x3d22d62e	0.03975504
151	0xbcb982d4	-0.022645392
152	0x3cd26610	0.025683433
153	0x3c22db08	0.009939916
154	0x3d69069a	0.05689106
155	0x3d224166	0.03961315
156	0xbd839ec5	-0.06426767
157	0xbd12faf0	-0.035883844
158	0x3db357a4	0.087569505
159	0x3db14a58	0.08656758
160	0x3db1fa7a	0.08690353
161	0x3dac2a3d	0.08406494
162	0xbd968445	-0.07349447
163	0x3dc5d832	0.096603766
164	0x3e01f8e8	0.12692606
165	0x3d862bd0	0.06551325
166	0x3d5c80a8	0.053833634
167	0x3d1f2f9c	0.038863763
168	0xbafac5c0	-0.001913242
169	0xbce4aef0	-0.027915448
170	0x3b87c360	0.0041431636
171	0x3de3b0d0	0.11117709
172	0x3d222ba6	0.039592408
173	0x3d3aea3e	0.045633547
174	0x3d6c10da	0.05763326
175	0x3ccb48e0	0.024815023
176	0x3cc0e970	0.023548812
177	0x3de226a5	0.11042527
178	0x3cf89edc	0.030349188
179	0x3ca31db4	0.019911624
180	0x3ddd4844	0.10804799
181	0xbd7096a4	-0.058737412
182	0xbe013ce2	-0.12620881
183	0x3da3ccf0	0.07998073
184	0x3d2733e8	0.040820986
185	0xbbac1351	-0.005251326
186	0x3d2cbe94	0.042173937
187	0x3cae225c	0.021256618
188	0x3c657b40	0.014006436
189	0x3b731b20	0.0037095025
190	0x3dddd204	0.10831073
191	0x3d1379a4	0.036004677
192	0x3df0baf9	0.11754412
193	0xbcca7244	-0.02471269
194	0xbda16006	-0.07879643
195	0xbd4fa9a4	-0.05069889
196	0x3d372bac	0.044719383
197	0x3c76ec34	0.015070964
198	0x3c600b7b	0.013674612
199	0x3d11bc92	0.035580225
200	0x3db27dcc	0.087154
201	0x3d58ac02	0.052898414
202	0x3d2700e6	0.04077234
203	0x3d615799	0.05501518
204	0xbcc2c74c	-0.023776673
205	0x3cbb5101	0.022865774
206	0x3ddb2ad7	0.107015304
207	0x3d30f468	0.043201834
208	0x3ddc4cfd	0.10756872
209	0x3ceda057	0.02900712
210	0x3de9a159	0.11407728
211	0xbc9b411c	-0.018951945
212	0x3d5b3bdf	0.053523894
213	0xbc89d90c	-0.016827129
214	0x3d49df5a	0.04928527
215	0x3d31345d	0.04326283
216	0x3c0c0a40	0.008547366
217	0x3d79178c	0.06081347
218	0x3cd29458	0.025705501
219	0x3c15cca7	0.009143031
220	0xbcb99ca8	-0.022657707
221	0xbd32cdfe	-0.04365348
222	0x3df75971	0.120776065
223	0x3c9a687a	0.018848646
224	0xbd4b9c72	-0.049709745
225	0x3d8c6e5a	0.068569854
226	0x3e08cbd3	0.13359003
227	0x3dbc292b	0.0918754
228	0x3d30467c	0.04303597
229	0xbd4443a0	-0.047916055
230	0x3dfb5078	0.122712076
231	0x3d22f454	0.03978379
232	0x3d726bc5	0.05918481
233	0x3db48820	0.08815026
234	0x3d3aab72	0.04557366
235	0xbda3d70b	-0.080000006
236	0x3dcf9d5c	0.10137436
237	0x3d1f4150	0.038880646
238	0xbcd5c0d8	-0.026092932
239	0x3d10182c	0.035179302
240	0x3df56897	0.119828396
241	0xbba1c9f0	-0.004937403
242	0x3dfd412d	0.12365947
243	0x3d59044d	0.052982617
244	0xbd05dd7c	-0.032681927
245	0x3d85bf16	0.065305874
246	0x3d99c40a	0.075080946
247	0xba94bec0	-0.0011348352
248	0x3d28b834	0.041191295
249	0x3dc4f173	0.09616365
250	0x3c8f4800	0.017490387
251	0xbcfd57d4	-0.030925669
252	0x3c987097	0.018608375
253	0xbd595a94	-0.053064898
254	0x3e00b53e	0.12569138
255	0xbd1e2fe6	-0.0386199

fc2.bias f4 [64]
0	0x3d8a631e	0.06757186
1	0xbcd9be24	-0.026579924
2	0xbcb16724	-0.021655627
3	0x3cdb9954	0.026806511
4	0x3db70f7a	0.08938499
5	0x3c93cd70	0.018042296
6	0x3d4d67ee	0.050147943
7	0x3d5a4c90	0.053295672
8	0x3c86cdd7	0.016455574
9	0x3c374570	0.011185989
10	0x3d53785e	0.051628463
11	0xbd24c3ac	-0.04022567
12	0xbc380578	-0.011231773
13	0xbc7256bd	-0.014791188
14	0x3d9fb66c	0.07798466
15	0x3cade883	0.021229034
16	0x3d4c013a	0.049805857
17	0x3d75421f	0.05987751
18	0x3bb9e905	0.00567353
19	0xbce12b96	-0.027486604
20	0xbd47e60b	-0.04880337
21	0xbcdd5082	-0.027015928
22	0x3c53e7f8	0.012933724
23	0x3c460f7f	0.0120886555
24	0x3bd5d400	0.0065255165
25	0x3c52c9c0	0.012865484
26	0xbd152508	-0.03641227
27	0x3bda5ac0	0.0066636503
28	0xbd65f956	-0.05614599
29	0x3d250315	0.040286142
30	0xbd58a1dc	-0.052888736
31	0xbb81ceb0	-0.0039614066
32	0xbad638ed	-0.001634387
33	0xbd5291c3	-0.05140854
34	0x3dbadafe	0.09123801
35	0x3c372630	0.011178538
36	0xbd21dfb6	-0.039519988
37	0xbc9ed602	-0.019389156
38	0x3db0aa71	0.08626259
39	0xba52f500	-0.0008047372
40	0xbd5fc024	-0.0546266
41	0xbd666a59	-0.056253765
42	0x3d6dbc04	0.058040634
43	0x3d348432	0.044071384
44	0xbd203e8f	-0.03912216
45	0x3d49a95c	0.04923378
46	0xbad0c747	-0.001592853
47	0xbcac61cb	-0.021042725
48	0xbc7029f5	-0.014658441
49	0x3d0bac9f	0.03410017
50	0x3c432ae1	0.011912079
51	0xbd16aee6	-0.03678789
52	0xbd1d5aa3	-0.038416516
53	0x3d03e1d2	0.03219778
54	0x3ccf4bc3	0.02530468
55	0x3ce3db80	0.027814627
56	0xbd142a59	-0.0361732
57	0x3c15dd11	0.009146945
58	0xba1ecef0	-0.0006058058
59	0xbd0ff1b8	-0.03514263
60	0x3dc3ff74	0.09570208
61	0x3cd00544	0.025393136
62	0x3d0ce110	0.034394324
63	0x3d9f2490	0.077706456

fc3.weight f4 [2, 64]
0	0xbda12d6a	-0.0786999
1	0x3db88a8e	0.09010802
2	0x3df0bd70	0.11754882
3	0xbcd381a0	-0.025818646
4	0xbe1b4108	-0.15161526
5	0xbc9009b0	-0.017582744
6	0x3c1b15d0	0.00946565
7	0xbd57c4ac	-0.052677795
8	0xbcabf722	-0.020991866
9	0x3d33b978	0.04387805
10	0xbd3b93b8	-0.045795172
11	0x3d06cec4	0.03291203
12	0x3d18ac84	0.0372739
13	0xbd3f5206	-0.046709083
14	0xbde2e424	-0.110786706
15	0x3c690b9b	0.014223958
16	0xbc896f80	-0.0167768
17	0xbe2aa176	-0.16663155
18	0xbe2926c9	-0.16518702
19	0xbe1efbc7	-0.15525733
20	0xbe0a6f6b	-0.13519065
21	0xbc8b9aa1	-0.017041506
22	0x3d14b688	0.036306888
23	0xbe0b4a46	-0.13602552
24	0xbdaf30ac	-0.08554205
25	0xbdc72dfa	-0.09725566
26	0xbd7c1ee8	-0.061552912
27	0x3d6aa8c8	0.05728987
28	0xbd88e38a	-0.06684025
29	0xbd40c36d	-0.047061373
30	0x3d743928	0.05962482
31	0x3d2db528	0.042409092
32	0x3cbc4ca9	0.022985773
33	0x3caa56fe	0.020793434
34	0xbe0386ba	-0.12844363
35	0x3bbb86e0	0.0057228655
36	0x3d5a29aa	0.05326239
37	0x3d5d657e	0.05405187
38	0xbd4d6a03	-0.05014993
39	0xbd800a56	-0.062519714
40	0xbdbfeaca	-0.09370954
41	0xbd855daf	-0.06512009
42	0xbd9225f0	-0.07136142
43	0x3d88bf5e	0.066771254
44	0xbdb61613	-0.08890929
45	0x3dc3b514	0.09556022
46	0xbe42378e	-0.18966505
47	0x3c547355	0.01296695
48	0x3dded644	0.10880712
49	0xbc241c22	-0.010016473
50	0x3cf22907	0.029560579
51	0xbdff167d	-0.12455461
52	0x3d3d89c5	0.046273965
53	0x3ddcd608	0.10783011
54	0xbb2d028e	-0.0026399228
55	0x3cd4dac8	0.02598323
56	0x3b85d3e7	0.0040840986
57	0xbd36d118	-0.044633
58	0x3d19bbcd	0.037532616
59	0x3d82c7f8	0.06385797
60	0xbe4a31bb	-0.19745533
61	0xbd92427c	-0.07141587
62	0xbdffbba6	-0.12486963
63	0xbe0460e5	-0.12927587
64	0xbe16e4b9	-0.14735688
65	0xbe0c2461	-0.13685752
66	0x3da354b6	0.07975142
67	0xbc379ce0	-0.0112068355
68	0xbe23ed7a	-0.16008559
69	0x3dce95e2	0.10087182
70	0xbda5e50a	-0.08100326
71	0x3dae3166	0.08505516
72	0xbe18f042	-0.14935401
73	0x3dbba2aa	0.09161885
74	0x3d7491b0	0.05970925
75	0x3d8cbdf2	0.06872167
76	0x3c93f238	0.018059835
77	0xbe2953e3	-0.16535906
78	0xbddb7aed	-0.107168056
79	0x3b6f5aa5	0.0036522534
80	0xbd41f56c	-0.047353193
81	0xbd49bebf	-0.049254175
82	0xbda5cfd6	-0.08096282
83	0x3d8f5dda	0.07000323
84	0x3d76610c	0.060151145
85	0xbc7de996	-0.015497586
86	0x3b804200	0.003914118
87	0xbe032a6e	-0.12809154
88	0x3df483a8	0.11939174
89	0xbdb57c64	-0.08861616
90	0x3d86af6c	0.06576428
91	0x3d679310	0.056536734
92	0xbc4f2459	-0.012642943
93	0x3dc908e2	0.098161474
94	0x3d894c98	0.06704062
95	0xbdf91ef6	-0.121641085
96	0xbd68a4fc	-0.056797966
97	0x3d83b29c	0.064305514
98	0xbd330721	-0.04370797
99	0xbca0b2d0	-0.019616514
100	0x3ddfca93	0.1092731
101	0x3c97a127	0.01850946
102	0xbe125981	-0.14291956
103	0xbd9f3210	-0.077732205
104	0xbdde5512	-0.108560696
105	0x3c9fe942	0.019520406
106	0xbdad02d6	-0.084478065
107	0xbce95f48	-0.028487816
108	0x3d14621a	0.03622637
109	0x3d7f5120	0.062333226
110	0x3d2d5169	0.042313967
111	0xbe3b179f	-0.1827073
112	0x3dcb6f50	0.099333405
113	0x3cfe129f	0.031014739
114	0x3d374f4b	0.044753354
115	0xbb7566af	-0.0037445237
116	0x3ddca72c	0.10774073
117	0x3de375ae	0.1110643
118	0xbc4a9770	-0.012365207
119	0xbdccee62	-0.100064054
120	0x3d8d34a5	0.06894807
121	0xbe3181b1	-0.1733463
122	0xbc9674c8	-0.018366233
123	0xbbad8bae	-0.005296192
124	0xbd5e4c8b	-0.054272216
125	0xbc78a690	-0.01517643
126	0xbdfe184c	-0.12406978
127	0xbcb21fd6	-0.021743696

fc3.bias f4 [2]
0	0xbd40ac1b	-0.047039133
1	0xbdc4ca09	-0.09608848
