checkpoints/dubins3d-discrete-v0__hj_dqn__1__1638911814_evalFalse/dqn_checkpoint_10150.pth (torch, 72343 bytes, 6 tensors)

fc1.weight f4 [256, 3]
0	0x3eb9abe3	0.36263952
1	0xbeba9c4a	-0.36447364
2	0xbe1c06ae	-0.15236923
3	0x3ec306dd	0.38091174
4	0xbf1bdfca	-0.6088835
5	0x3ec90911	0.3926473
6	0xbdf3409a	-0.11877556
7	0x3e9662ea	0.2937234
8	0x3da46023	0.08026149
9	0xbcbf82e9	-0.023377853
10	0x3e54b16b	0.20770805
11	0xbe2248e2	-0.15848115
12	0x3eafac17	0.34310982
13	0xbe49f826	-0.19723567
14	0xbd0a5a9c	-0.033777818
15	0xbd71cd12	-0.05903346
16	0x3e04ceeb	0.12969558
17	0xbe16cef4	-0.14727384
18	0x3f01feb4	0.5077927
19	0x3d5b8d34	0.05360146
20	0xbe9066ab	-0.2820333
21	0xbeb28872	-0.34869725
22	0xbdc630e4	-0.09677294
23	0xbe7f02f1	-0.24903466
24	0xbe3d7388	-0.18501103
25	0x3ce276a0	0.027644455
26	0x3eb037a4	0.3441745
27	0x3ef71c3e	0.48263735
28	0xbf08a523	-0.5337698
29	0x3ea5b5aa	0.3236516
30	0x3e4fc49b	0.20289843
31	0x3f02cf9c	0.51098037
32	0x3e81f718	0.2538383
33	0xbf06aaec	-0.52604556
34	0xbf0c87f4	-0.5489495
35	0xbe8e9438	-0.27847457
36	0x3f0d5482	0.55207074
37	0xbe590bda	-0.21195927
38	0x3e63efeb	0.2225949
39	0xbeac1075	-0.33606306
40	0x3f2e9256	0.6819204
41	0xbdd5a15c	-0.104311675
42	0x3ecf65c7	0.40507337
43	0xbe3f6b83	-0.18693356
44	0xbe8c35ea	-0.27384883
45	0x3eb5ec71	0.35531953
46	0xbed5a378	-0.4172628
47	0x3dd2590f	0.10270893
48	0xbe2ab716	-0.16671404
49	0xbd81a218	-0.06329745
50	0xbf0e1843	-0.5550577
51	0xbe8cf032	-0.27527004
52	0x3ea06788	0.31328988
53	0xbe0fb57b	-0.14034073
54	0x3f22a9d7	0.63540405
55	0x3ec1e155	0.37867227
56	0xbdf25bbb	-0.118339024
57	0xbec54f6b	-0.38537154
58	0x3eb402e1	0.35158446
59	0x3e377c35	0.17918475
60	0xbeb76570	-0.35819578
61	0x3f0d0d13	0.55098075
62	0x3f04054d	0.5157059
63	0x3f13c5c9	0.5772367
64	0xbed9eeaf	-0.42564914
65	0xbe0ccf41	-0.13750936
66	0xbc373e93	-0.011184352
67	0x3dacb348	0.08432633
68	0xbee056ba	-0.43816167
69	0xbed1c449	-0.40970066
70	0x3ea0cf3f	0.31408116
71	0xbe0aa219	-0.13538398
72	0x3ea55553	0.3229166
73	0xbd97acba	-0.07405992
74	0x3e0b428c	0.13599604
75	0x3e207a0a	0.15671554
76	0x3e119c82	0.14219859
77	0x3db1deac	0.086850494
78	0xbed9a8f5	-0.42511716
79	0x3ef7c765	0.48394313
80	0xbe7495de	-0.23885295
81	0xbedf090e	-0.43561596
82	0x3d0fd0c3	0.0351112
83	0xbdc97de1	-0.098384626
84	0x3ecc81cd	0.3994278
85	0xbee3d6e3	-0.44499883
86	0xbf1820ef	-0.5942525
87	0x3ef20f0d	0.47277108
88	0xbe42358a	-0.18965736
89	0x3e9e087d	0.3086585
90	0x3ea909b1	0.33015206
91	0xbeda6bcf	-0.42660376
92	0x3da5529d	0.08072398
93	0x3e694595	0.2278045
94	0xbebd240c	-0.36941564
95	0xbec230a8	-0.37927747
96	0x3e609d32	0.21934965
97	0xbcef8acf	-0.029240994
98	0xbeaeea63	-0.34163198
99	0xbe005c99	-0.12535323
100	0x3f1056db	0.5638253
101	0xbec1416e	-0.3774523
102	0x3ebd94dc	0.37027633
103	0x3e1c8caa	0.15288034
104	0xbf0257e2	-0.5091535
105	0xbf074689	-0.52842003
106	0x3f27b427	0.65509266
107	0x3e69ef29	0.22845139
108	0x3ed08262	0.40724474
109	0xbcb8bd59	-0.022551225
110	0x3e06dcaa	0.13170114
111	0x3ef61bcc	0.48068082
112	0x3eead05f	0.458621
113	0xbefc5927	-0.49286768
114	0x3ddc9ec3	0.10772469
115	0x3ecd4846	0.40094203
116	0x3e700299	0.23438491
117	0x3ec3a77a	0.38213712
118	0xbf119ec6	-0.56882894
119	0xbee24ccc	-0.44199216
120	0xbeb2c5c3	-0.34916505
121	0x3d948b6d	0.07253156
122	0x3f134f09	0.57542473
123	0xbebab9b5	-0.36469808
124	0x3e9d8579	0.30765894
125	0xbea39ce9	-0.3195565
126	0xbf0af728	-0.5428338
127	0xbdfb4f4b	-0.12270983
128	0x3eaa516b	0.33265242
129	0x3f0f2a6e	0.5592412
130	0xbf032b45	-0.512379
131	0x3de6cd01	0.1126957
132	0x3ee0604a	0.43823463
133	0x3e6b5b74	0.22984105
134	0x3e601b2e	0.21885368
135	0x3eea1daf	0.45725772
136	0x3e8c85da	0.2744587
137	0x3ccb7523	0.024836129
138	0xbeca23b7	-0.39480373
139	0xbef83c44	-0.4848348
140	0xbe877398	-0.2645538
141	0xbd89afeb	-0.06723007
142	0xbeb530d3	-0.35388812
143	0x3e584b8d	0.2112257
144	0x3e5f7592	0.21822193
145	0xbe78e789	-0.24307074
146	0x3e03b654	0.12862521
147	0x3e54faa6	0.2079874
148	0x3e9a7f73	0.3017536
149	0x3e51eb49	0.2049991
150	0xbe583589	-0.21114172
151	0x3f263a58	0.64932775
152	0xbe0754b5	-0.13215907
153	0xbca27df1	-0.019835444
154	0xbf0b81ce	-0.5449494
155	0xbebe414e	-0.371592
156	0xbeacb147	-0.33729002
157	0xbe7cdf66	-0.24694595
158	0x3ed22a3c	0.41047847
159	0xbe4131f4	-0.18866712
160	0xbedce618	-0.43144298
161	0x3e63777a	0.22213545
162	0x3e0b6371	0.13612153
163	0x3e446e15	0.19182618
164	0xbea25ec6	-0.3171293
165	0x3e479048	0.19488633
166	0xbe9e1783	-0.30877313
167	0xbe557f22	-0.20849279
168	0xbeeb925d	-0.46010104
169	0xbe86b976	-0.2631337
170	0xbe350fc6	-0.17681798
171	0x3e9b7bbe	0.30367845
172	0x3c4d2230	0.012520358
173	0x3d8e46b1	0.06947077
174	0x3f1fe8f3	0.6246483
175	0x3ef8a6b9	0.485647
176	0x3e878491	0.26468328
177	0x3c969be2	0.018384878
178	0xbecc7ef0	-0.39940596
179	0x3ee70451	0.4512048
180	0xbe13d6d3	-0.14437418
181	0xbd3f2f6d	-0.046676088
182	0xbefea976	-0.49738663
183	0xbde98f7a	-0.11404319
184	0xbebea91a	-0.3723839
185	0x3f07d0da	0.5305306
186	0xbeff8e28	-0.49913144
187	0xbee66aee	-0.45003456
188	0xbca099fa	-0.019604672
189	0xbe7374a7	-0.23774968
190	0x3ecdddec	0.40208375
191	0xbe41841b	-0.1889805
192	0xbe8ad75a	-0.27117425
193	0x3d05f02f	0.03269976
194	0x3ed5fc95	0.41794267
195	0xbecfef35	-0.40612188
196	0x3e8ad133	0.2711273
197	0x3ebde867	0.3709137
198	0x3f199910	0.5999918
199	0xbf0be145	-0.5464061
200	0x3d8307ca	0.0639797
201	0xbeda93b9	-0.42690828
202	0x3efc5f15	0.49291292
203	0xbe655532	-0.2239578
204	0x3eca8079	0.39551142
205	0xbd9e45fa	-0.07728191
206	0xbe0ae712	-0.13564709
207	0xbc96e9ae	-0.018421974
208	0x3dc900f5	0.09814636
209	0x3e8b58a4	0.27216065
210	0x3e1930e7	0.14960061
211	0x3da47248	0.0802961
212	0xbf221f45	-0.63328964
213	0x3ecbd638	0.39811873
214	0x3ec8d90d	0.39228097
215	0x3e96df5b	0.29467282
216	0x3ee17ceb	0.44040617
217	0xbf15ca7c	-0.5851209
218	0xbe869169	-0.26282814
219	0x3f0f9e08	0.5610051
220	0xbf108418	-0.5645156
221	0x3f0979bd	0.5370138
222	0xbee87da8	-0.45408368
223	0xbed039bb	-0.40669045
224	0x3e908394	0.28225386
225	0xbed46344	-0.41481984
226	0xbe077224	-0.13227135
227	0x3ed70c8c	0.4200176
228	0x3f026836	0.50940263
229	0x3eee69fc	0.46565235
230	0xbe5b3212	-0.21405819
231	0xbee5c2c9	-0.44875172
232	0x3f1186f2	0.56846535
233	0xbdfbe28e	-0.12299071
234	0xbe733e42	-0.23754218
235	0x3e101ee7	0.14074288
236	0xbeceb900	-0.4037552
237	0x3ee1c1c6	0.4409315
238	0x3e8d024c	0.27540815
239	0xbf118bbc	-0.5685384
240	0xbef2cce8	-0.47421956
241	0xbd4f267d	-0.050573815
242	0x3e785265	0.24250181
243	0x3dcf5c5c	0.10125038
244	0xbe9054f2	-0.28189808
245	0xbc50423e	-0.012711106
246	0xbf0aec6e	-0.54267013
247	0xbed0ebc1	-0.40804866
248	0xbec4c7ad	-0.3843359
249	0x3f0460ab	0.51710004
250	0x3ed48cfd	0.41513816
251	0xbea386e3	-0.31938848
252	0x3d94ec41	0.07271624
253	0x3e5bf4fb	0.21480171
254	0xbd0295c3	-0.031881105
255	0xbe8faa79	-0.28059748

fc1.bias f4 [256]
0	0xbe6d67a8	-0.23184073
1	0x3e101b26	0.14072856
2	0xbee2d755	-0.4430491
3	0x3e4c39ed	0.19943972
4	0xbf09e523	-0.5386526
5	0x3eee7453	0.46573123
6	0x3ed30bc6	0.4121992
7	0xbe5303cc	-0.20606917
8	0x3daed7fb	0.08537289
9	0xbe984775	-0.29742017
10	0xbebdee7c	-0.37096012
11	0xbe95b5c6	-0.29240245
12	0xbed8ee2f	-0.4236922
13	0x3e6bcf6c	0.23028344
14	0xbe946893	-0.28986034
15	0xbdc98bc2	-0.0984111
16	0xbee287af	-0.44244143
17	0xbeb9b761	-0.3627272
18	0xbf1a0737	-0.6016726
19	0xbed4768b	-0.4149669
20	0x3f29d38e	0.6633843
21	0x3daf30ec	0.08554253
22	0xbf0cf553	-0.55061835
23	0xbdc5598a	-0.09636219
24	0xbdb036a2	-0.086041704
25	0x3e8dcbf8	0.27694678
26	0x3f398a67	0.7247681
27	0x3e0ec315	0.13941605
28	0x3e8b88e9	0.27252892
29	0xbeab71b9	-0.334852
30	0xbd27be71	-0.040953103
31	0xbe84b7e3	-0.25921544
32	0xbc8ee3d2	-0.017442618
33	0x3f24ce92	0.643777
34	0x3e826b8e	0.25472683
35	0x3f2ac8dd	0.66712743
36	0xbedcf4e3	-0.43155584
37	0xbe30f891	-0.1728232
38	0x3e183774	0.14864904
39	0x3e90c152	0.28272492
40	0xbf07dd88	-0.53072405
41	0xbe912c8f	-0.28354308
42	0x3dab8582	0.08375074
43	0xbf055b3d	-0.52092344
44	0x3d906756	0.0705096
45	0xbe0a4cd6	-0.13505873
46	0xbe1932bc	-0.1496076
47	0x3e9e88d8	0.30963778
48	0x3e8fe2ef	0.28102824
49	0x3f1209a1	0.5704594
50	0x3ec95690	0.39323854
51	0xbc8157e7	-0.015788985
52	0x3ef1aff0	0.47204542
53	0x3eeb40f7	0.45948002
54	0xbefc75e7	-0.49308702
55	0x3e0ed7d8	0.13949525
56	0x3d8a8d4c	0.067652315
57	0xbebd9d6f	-0.37034175
58	0xbe666351	-0.22498824
59	0xbe0b9a6f	-0.1363313
60	0xbecedafb	-0.40401444
61	0xbe3468fd	-0.17618175
62	0x3e46f204	0.19428259
63	0x3f28e248	0.6597028
64	0x3d33a205	0.043855686
65	0xbf0f21a1	-0.5591069
66	0x3e0f059e	0.13966987
67	0xbe32e3e4	-0.17469746
68	0x3ecfc3a9	0.40578964
69	0xbf0ed15b	-0.557882
70	0xbe7cb76e	-0.24679348
71	0x3ebf6b35	0.3738648
72	0x3d570212	0.05249221
73	0xbee47490	-0.4462018
74	0xbefff70e	-0.49993175
75	0xbbcb321b	-0.0062010414
76	0x3e0c475d	0.13699098
77	0xbef568b6	-0.4793145
78	0xbef75ca4	-0.48312867
79	0xbde345ae	-0.11097275
80	0xbdf27f96	-0.11840741
81	0x3eb50d77	0.35361835
82	0xbf0f35cb	-0.55941457
83	0xbe4c2e8b	-0.1993963
84	0xbefc22ce	-0.49245304
85	0x3d8af345	0.06784681
86	0xbe9707cd	-0.2949814
87	0x3d3b8014	0.04577644
88	0xbef749da	-0.48298532
89	0xbee88a27	-0.45417902
90	0xbee0a9da	-0.43879586
91	0xbf26f422	-0.6521627
92	0x3eba9ad6	0.36446255
93	0xbda93759	-0.0826251
94	0xbf024fd8	-0.5090308
95	0x3ecf2340	0.4045658
96	0xbe06218c	-0.13098735
97	0x3e88b5c4	0.26701176
98	0xbe374491	-0.1789725
99	0xbef750fa	-0.48303968
100	0x3e01d85d	0.12680192
101	0x3eb811d2	0.35951096
102	0xbf101c80	-0.5629349
103	0xbdb238a4	-0.087022096
104	0x3debab0c	0.11507234
105	0x3d87b645	0.06626562
106	0xbdf41d10	-0.11919606
107	0xbe37c612	-0.17946652
108	0xbefdf7ec	-0.49603212
109	0x3db86a47	0.09004646
110	0xbeffb6aa	-0.4994405
111	0xbef43dd5	-0.47703424
112	0xbe3dcf02	-0.18535998
113	0xbed1fd4c	-0.41013563
114	0x3eb2ecba	0.34946233
115	0x3ec7ddf8	0.39036536
116	0x3ee5bbe4	0.44869912
117	0xbeb64845	-0.35602012
118	0x3e7a5e2d	0.24449988
119	0x3eae5046	0.3404562
120	0x3bd4393d	0.00647655
121	0x3eca5520	0.3951807
122	0x3ea743bb	0.32668862
123	0x3ee22e22	0.44175822
124	0x3e890a0d	0.2676548
125	0x3e0b0451	0.13575865
126	0xbeac89b9	-0.33698824
127	0xbea4cf60	-0.32189465
128	0xbe8c2bae	-0.27377075
129	0x3eb9faca	0.3632415
130	0xbe1a796d	-0.15085383
131	0x3e60f8ef	0.2196996
132	0xbf27eb87	-0.6559376
133	0xbe3ca60e	-0.1842272
134	0xbe26c785	-0.16287048
135	0xbebebc0e	-0.3725285
136	0x3e6a69f8	0.22891986
137	0xbf1c5b80	-0.6107712
138	0xbe5af6ff	-0.21383284
139	0xbe49bfc4	-0.19702059
140	0xbf05ce30	-0.5226774
141	0x3e7a7abd	0.24460883
142	0xbe3c1d61	-0.18370582
143	0x3e3f3912	0.18674114
144	0x3ebe4df1	0.3716884
145	0x3f2c2b69	0.6725374
146	0xbcd73404	-0.02626992
147	0x3e38fe15	0.18065675
148	0x3ef8899c	0.48542488
149	0xbccdd61b	-0.025126508
150	0xbe094ceb	-0.13408248
151	0xbd3aff5d	-0.04565369
152	0x3dbf8fa9	0.09353573
153	0x3ee93d35	0.4555451
154	0xbf2b759a	-0.6697632
155	0x3e8e9ce5	0.27854076
156	0x3e628041	0.22119237
157	0xbed9ef7e	-0.4256553
158	0x3d94d7fb	0.072677575
159	0x3e892a3c	0.26790035
160	0x3daccce9	0.08437521
161	0x3ed276cb	0.41106257
162	0x3e2b254d	0.16713448
163	0xbf1db5a9	-0.61605316
164	0xbdc43fdf	-0.09582495
165	0x3ead1873	0.33807716
166	0xbe8e2e41	-0.27769664
167	0x3e7c2afa	0.2462577
168	0x3e084811	0.13308741
169	0xbdbfd8e1	-0.09367538
170	0x3b867350	0.004103102
171	0x3e14d010	0.14532495
172	0xbeca48a3	-0.39508542
173	0x3ee39669	0.4445069
174	0x3e862839	0.26202562
175	0x3ea5e05b	0.32397732
176	0x3f13b1b9	0.5769306
177	0xbdc67881	-0.09690953
178	0xbed0bcac	-0.40768945
179	0x3cd7f7a3	0.0263632
180	0xbe5ffb74	-0.21873266
181	0x3e50b3f0	0.2038114
182	0x3f3551b5	0.708278
183	0xbef382bb	-0.47560677
184	0xbdc1e46e	-0.09467398
185	0x3f0a6f56	0.54076135
186	0xbeebfab4	-0.4608971
187	0xbdcc0a80	-0.0996294
188	0x3ee9ab69	0.45638588
189	0x3ece8c8f	0.40341613
190	0xbd6326cd	-0.055456925
191	0xbe7efcf4	-0.24901181
192	0xbe141c30	-0.14463878
193	0xbf048992	-0.51772416
194	0xbebf447b	-0.37356934
195	0xbf0a7b03	-0.5409395
196	0x3ef5fe1e	0.4804544
197	0x3ea2cdfc	0.3179778
198	0x3ea0618c	0.31324422
199	0xbe147eed	-0.14501543
200	0x3ecc8f55	0.39953104
201	0xbe43c57a	-0.191183
202	0x3ea53160	0.32264233
203	0xbe293f56	-0.16528067
204	0xbe8b0e02	-0.27159125
205	0xbe94721a	-0.28993303
206	0xbe8f5f4d	-0.28002396
207	0xbf0749ca	-0.5284697
208	0x3dbbf687	0.09177881
209	0xbeb3dc5e	-0.35129064
210	0x3e0ab4a6	0.13545474
211	0x3ebc78df	0.36810967
212	0xbd3169a6	-0.043313645
213	0x3e8f5c96	0.28000325
214	0x3cebb0a9	0.028770762
215	0x3e80c300	0.25148773
216	0xbebea31c	-0.37233818
217	0xbd05853b	-0.03259776
218	0xbe4501fb	-0.19239037
219	0x3eb3b695	0.35100237
220	0xbf04aa68	-0.5182252
221	0xbea62696	-0.32451314
222	0xbd8b165b	-0.06791373
223	0x3f299e93	0.6625759
224	0x3ec8021a	0.39064103
225	0xbefe48e3	-0.49664983
226	0xbf0abd7a	-0.5419537
227	0x3ec67036	0.38757485
228	0x3dac51e4	0.08414057
229	0xbefd2fab	-0.4945043
230	0xbe5e24bd	-0.21693702
231	0x3e813bc7	0.2524092
232	0xbe84982d	-0.2589735
233	0xbf03ff96	-0.5156187
234	0xbeb6829c	-0.35646522
235	0xbe433de9	-0.19066586
236	0xbe29485b	-0.16531508
237	0x3e929aca	0.2863372
238	0x3e8ded77	0.27720234
239	0xbed49d92	-0.41526467
240	0xbe4e9cd4	-0.20177013
241	0xbee43b2e	-0.445764
242	0x3e83ecb2	0.25766522
243	0x3f39cfa9	0.7258249
244	0x3f0fa8c8	0.56116915
245	0x3e0cfca6	0.13768253
246	0xbe2b9c19	-0.16758765
247	0xbc6bce4d	-0.014392448
248	0x3e554c41	0.2082987
249	0xbf2ea7d2	-0.68224823
250	0xbd6ce0e2	-0.057831652
251	0xbef04859	-0.46930197
252	0xbf42a734	-0.7603638
253	0xbc9e14ef	-0.019297091
254	0xbe96b1fc	-0.29432666
255	0xbebb40c3	-0.36572847

fc2.weight f4 [64, 256]
0	0x3e27a2b4	0.1637066
1	0x3e6708e3	0.22561984
2	0x3c1c4350	0.009537533
3	0xbe0f30ca	-0.13983455
4	0x3e619b1f	0.2203183
5	0xbe01d6dd	-0.1267962
6	0xba62160b	-0.00086245005
7	0xbcac9d20	-0.021071017
8	0x3d3c76ae	0.04601162
9	0x3e9907fc	0.29888904
10	0x3c8a6351	0.01689306
11	0xbc8f16f8	-0.017467007
12	0x3d50c67d	0.050970543
13	0xbe852efb	-0.26012406
14	0x3d5f1648	0.05446461
15	0x3e1f2d21	0.15544559
16	0xbd47c9c4	-0.048776403
17	0x3d40ff06	0.04711821
18	0x3a8174e1	0.0009876752
19	0x3d5e3f9c	0.05425988
20	0xbe5bc292	-0.21460941
21	0x3e0f5093	0.1399558
22	0x3d199c6a	0.037502684
23	0x3c6d03c8	0.014466234
24	0x3d3b8568	0.045781523
25	0xbc9f9132	-0.019478414
26	0xbec83cb1	-0.39108804
27	0xbd6b5076	-0.05744978
28	0x3e1a4517	0.15065418
29	0x3dc0059a	0.093760684
30	0x3e85b3d7	0.2611377
31	0xbe20c4ce	-0.15700075
32	0x3d79d654	0.060995415
33	0xbe0f8db1	-0.14018895
34	0xbcf2f643	-0.029658442
35	0xbe911916	-0.28339452
36	0x3dc7f4ca	0.09763487
37	0x3d537a85	0.051630516
38	0xbdce5a98	-0.10075873
39	0x3e018800	0.12649536
40	0xbd6ec8f2	-0.058297105
41	0xbbea5df0	-0.0071523115
42	0xbb588840	-0.0033040196
43	0x3e09cc03	0.1345673
44	0xbd36c331	-0.044619743
45	0x3cb58411	0.0221577
46	0x3d66387a	0.056206204
47	0x3d66b6aa	0.056326546
48	0xbb6b2b1e	-0.0035883854
49	0xbd177f48	-0.03698662
50	0xbe460a67	-0.19339906
51	0xbd47ec96	-0.04880961
52	0xbc8c6228	-0.017136648
53	0x3d788a34	0.060678676
54	0x3d0036ca	0.03130225
55	0x3dd19123	0.10232761
56	0x3d70d5f4	0.05879779
57	0x3d9d1e2a	0.07671769
58	0x3d8a6e9f	0.067593805
59	0x3d2a1c18	0.0415307
60	0x3d700dd2	0.05860693
61	0x3c2f9b18	0.01071813
62	0xbd4f05ce	-0.050542645
63	0xbeab06b7	-0.3340356
64	0xbd0444fe	-0.03229236
65	0x3d534bd8	0.051586002
66	0x3e0a7c33	0.1352394
67	0x3c95d9ac	0.01829227
68	0xbcb62c6e	-0.022237983
69	0xbd3c8b92	-0.046031542
70	0x3ddcc114	0.10779014
71	0xbc31a8b5	-0.010843446
72	0x3d935a35	0.0719494
73	0x3e3ec1e4	0.18628651
74	0xbc75d620	-0.015004665
75	0x3a772300	0.00094275177
76	0x3d0e185e	0.034691207
77	0x3cc502c8	0.024049178
78	0xbd43e2c0	-0.047823668
79	0x3cf81ad5	0.030286232
80	0xbcfdbbb0	-0.030973285
81	0x3dec5321	0.11539293
82	0x3cfd8898	0.030948922
83	0x3d6cf586	0.057851337
84	0x3da3860c	0.07984552
85	0xbe7c5e64	-0.24645382
86	0xbd7fd198	-0.062455744
87	0x3dd5d994	0.1044189
88	0xbd2fa9da	-0.042886592
89	0x3c08bef0	0.008346304
90	0x3d6ac8d1	0.05732042
91	0x3e6d7a3e	0.23191163
92	0xbd2ee7ac	-0.04270141
93	0xbd7ad1a2	-0.061235078
94	0x3d81190e	0.06303607
95	0x3c250308	0.0100715235
96	0x3d3b8802	0.045784004
97	0x3a3ee18c	0.0007281534
98	0x3d45284c	0.048134133
99	0x3ca19fe8	0.01972957
100	0xbc9251d0	-0.017861277
101	0xbc588480	-0.013215184
102	0xbd0bffdc	-0.034179553
103	0x3db28d51	0.0871836
104	0xbd320866	-0.04346504
105	0x3cb00760	0.021487892
106	0x3d9dc5ea	0.07703765
107	0x3d593bb4	0.053035453
108	0x3e116a5b	0.14200728
109	0x3e768c24	0.24076897
110	0x3baff3b6	0.005369629
111	0xbba73810	-0.0051031187
112	0x3d69b21e	0.05705463
113	0x3d390408	0.04516986
114	0xbea30d38	-0.31846023
115	0x3d425922	0.047448285
116	0xbd78feb8	-0.060789794
117	0x3e8895f3	0.26676902
118	0x3d6679e6	0.056268595
119	0xbc722964	-0.014780376
120	0x3c288770	0.010286197
121	0xbe239b37	-0.15977179
122	0xbd220fc0	-0.0395658
123	0xbce79588	-0.028269544
124	0x3cd06f7e	0.025443789
125	0x3d252dcc	0.04032688
126	0x3cd9be5c	0.026580028
127	0x3be0c320	0.006859198
128	0xbd26929c	-0.04066716
129	0xb80925fe	-3.269873e-05
130	0xbc9b2833	-0.018940067
131	0xbe87a534	-0.26493227
132	0x3e04f108	0.12982571
133	0x3e047999	0.12937011
134	0xbd0e57fe	-0.034751885
135	0xbc88667c	-0.01665043
136	0x3c436009	0.011924752
137	0x3df5fda3	0.12011268
138	0x3dc6e9aa	0.09712537
139	0x3dc26602	0.09492113
140	0xbcbe553c	-0.023234002
141	0x3db86636	0.0900387
142	0xbd39305c	-0.045212135
143	0x3d873aed	0.06603036
144	0xbddb52ea	-0.10709174
145	0xbec60752	-0.3867746
146	0x3cda4a8d	0.026646877
147	0x3dd56456	0.10419528
148	0x3b0e8d73	0.002175179
149	0x3dcdaeaf	0.10043084
150	0xbb824d04	-0.003976466
151	0xbdef923c	-0.11697814
152	0x3cd26610	0.025683433
153	0xbe8b01c3	-0.27149782
154	0x3d9adea0	0.075619936
155	0x3d9b5290	0.07584107
156	0xbea6b8df	-0.3256292
157	0xbe7ec421	-0.24879505
158	0x3d4e4b24	0.05036463
159	0x3d14d1e3	0.036332976
160	0x3e08ca06	0.13358316
161	0x3c69c15b	0.014267291
162	0xbea58b29	-0.32332733
163	0x3dee49f6	0.11635201
164	0x3e6c1781	0.23055841
165	0x3bfa6b19	0.0076421616
166	0x3d5c80a8	0.053833634
167	0x3d1f2f9c	0.038863763
168	0xbafac5c0	-0.001913242
169	0xbce4aef0	-0.027915448
170	0x3b87c360	0.0041431636
171	0x3d988fce	0.074493036
172	0x3d222ba6	0.039592408
173	0x3daa0df9	0.08303446
174	0x3d5b69c2	0.053567655
175	0x3ccb48e0	0.024815023
176	0x3cc0e970	0.023548812
177	0x3d81adef	0.06332003
178	0x3cf89edc	0.030349188
179	0x3ca31db4	0.019911624
180	0x3e5271f6	0.20551285
181	0xbd7096a4	-0.058737412
182	0xbe9b314e	-0.30311054
183	0x3df88a1d	0.12135718
184	0x3de0b06d	0.109711505
185	0xbdbd755f	-0.092509024
186	0x3d2cbe94	0.042173937
187	0x3cae225c	0.021256618
188	0xbcfa593c	-0.030560128
189	0x3b731b20	0.0037095025
190	0x3e035df3	0.12828808
191	0x3d1379a4	0.036004677
192	0x3e9f3b59	0.31099966
193	0xbcca7244	-0.02471269
194	0xbe49d3b5	-0.19709666
195	0xbd4fa9a4	-0.05069889
196	0xbca59cb9	-0.020216333
197	0xbcf010d7	-0.029304905
198	0xbdd2117a	-0.1025724
199	0x3d11bc92	0.035580225
200	0x3d53e2ee	0.05173009
201	0x3e0c8e81	0.13726236
202	0xbc85b803	-0.016323095
203	0x3d7c2f8a	0.061568774
204	0xbcc2c74c	-0.023776673
205	0x3bbe0f65	0.005800175
206	0x3dc96628	0.09833938
207	0x3d30f468	0.043201834
208	0x3d661bf0	0.056178987
209	0x3d995d8f	0.07488548
210	0x3df35057	0.11880558
211	0xbc9b411c	-0.018951945
212	0x3dd553c3	0.10416367
213	0xbc89d90c	-0.016827129
214	0x3b768759	0.0037617295
215	0x3dcb4d2b	0.09926828
216	0x3c0c0a40	0.008547366
217	0x3e1efecb	0.15526883
218	0x3cd29458	0.025705501
219	0xbc3b167e	-0.011418937
220	0xbcb99ca8	-0.022657707
221	0xbd32cdfe	-0.04365348
222	0x3e257c83	0.16160779
223	0xbe94a48d	-0.29031792
224	0xbd4b9c72	-0.049709745
225	0x3e3f6a17	0.18692814
226	0x3e82acbc	0.2552241
227	0x3ddf33b5	0.10898534
228	0x3d30467c	0.04303597
229	0xbd4443a0	-0.047916055
230	0x3e50f740	0.20406818
231	0x3d22f454	0.03978379
232	0x3e6e624d	0.23279686
233	0x3e443e93	0.19164495
234	0x3d3aab72	0.04557366
235	0xbe89d7a9	-0.26922348
236	0x3e3dfc3e	0.18553254
237	0xbda7a55b	-0.08185836
238	0xbcd5c0d8	-0.026092932
239	0x3d81a151	0.06329597
240	0x3db55d93	0.088557385
241	0xbba1c9f0	-0.004937403
242	0x3e171b1b	0.14756434
243	0xbd8ab5da	-0.06772967
244	0xbd05dd7c	-0.032681927
245	0x3cbb166d	0.022837842
246	0x3e188b00	0.14896774
247	0xba94bec0	-0.0011348352
248	0x3d28b834	0.041191295
249	0x3dcfef6d	0.10153089
250	0xbcda850b	-0.026674768
251	0xbcfd57d4	-0.030925669
252	0x3cd5e34e	0.026109364
253	0xbd595a94	-0.053064898
254	0x3e5fa627	0.21840726
255	0xbd1e2fe6	-0.0386199

fc2.bias f4 [64]
0	0xbd4560e0	-0.04818809
1	0xbcdce666	-0.026965331
2	0xbcb16724	-0.021655627
3	0x3cdb9954	0.026806511
4	0xbcab5c24	-0.02091796
5	0x3c93cd70	0.018042296
6	0x3d4d67ee	0.050147943
7	0x3d5a4c90	0.053295672
8	0xbda02f38	-0.07821506
9	0x3c374570	0.011185989
10	0x3d000155	0.03125127
11	0xbd24c3ac	-0.04022567
12	0xbc380578	-0.011231773
13	0xbdf835ee	-0.12119661
14	0xbd41cacf	-0.047312554
15	0x3caac044	0.020843633
16	0x3d4c013a	0.049805857
17	0xbd7983ad	-0.06091659
18	0xbde8f380	-0.11374569
19	0xbdb7525d	-0.089512564
20	0xbdde7663	-0.10862424
21	0xbce0781b	-0.02740102
22	0x3c53e7f8	0.012933724
23	0xbdda5239	-0.10660214
24	0x3bd5d400	0.0065255165
25	0x3c52c9c0	0.012865484
26	0xbd152508	-0.03641227
27	0x3bda5ac0	0.0066636503
28	0xbd678d69	-0.056531344
29	0x3d236eff	0.039900776
30	0xbd58a1dc	-0.052888736
31	0xbb81ceb0	-0.0039614066
32	0xbb2bf719	-0.002623981
33	0xbd549b3d	-0.05190586
34	0xbd2f2cba	-0.042767264
35	0x3c372630	0.011178538
36	0xbd241622	-0.04006017
37	0xbca1fe44	-0.019774564
38	0xbcd058d4	-0.025432982
39	0xba52f500	-0.0008047372
40	0xbd5fc024	-0.0546266
41	0xbd73dcca	-0.059536733
42	0x3d6dbc04	0.058040634
43	0x3d348432	0.044071384
44	0xbdd84e77	-0.10561841
45	0x3d057fd4	0.03259261
46	0xbdbbdd5c	-0.0917308
47	0xbdd29b0a	-0.102834776
48	0xbc765e7a	-0.015037173
49	0x3d0a1888	0.0337148
50	0x3c3cda63	0.011526677
51	0xbe143e9e	-0.14477012
52	0xbd1f4507	-0.03888419
53	0x3d03e1d2	0.03219778
54	0x3ccc238d	0.024919296
55	0x3ce3db80	0.027814627
56	0xbd15be73	-0.03655858
57	0xbdc2dcd1	-0.09514774
58	0xba81eb4b	-0.0009912042
59	0xbd1185d0	-0.035528004
60	0xbcb92688	-0.022601381
61	0x3cd00544	0.025393136
62	0x3d0ce110	0.034394324
63	0xbd49cf45	-0.049269933

fc3.weight f4 [2, 64]
0	0xbe042319	-0.12904014
1	0x3db7c086	0.08972268
2	0x3df0bd70	0.11754882
3	0xbcd381a0	-0.025818646
4	0xbe48819e	-0.19580695
5	0xbc9009b0	-0.017582744
6	0x3c1b15d0	0.00946565
7	0xbd57c4ac	-0.052677795
8	0xbdc6ca74	-0.097065836
9	0x3d33b978	0.04387805
10	0xbd890173	-0.066897295
11	0x3d06cec4	0.03291203
12	0x3d18ac84	0.0372739
13	0xbdcdf962	-0.100573316
14	0xbe23be69	-0.15990604
15	0x3c62bb18	0.013838552
16	0xbc896f80	-0.0167768
17	0xbe5bbf2a	-0.21459642
18	0xbe580cf7	-0.21098696
19	0xbe7bb657	-0.24581276
20	0xbe57f2a6	-0.21088657
21	0xbc8ec2e3	-0.017426914
22	0x3d14b688	0.036306888
23	0xbe373f7b	-0.1789531
24	0xbdaf30ac	-0.08554205
25	0xbdc72dfa	-0.09725566
26	0xbd7c1ee8	-0.061552912
27	0x3d6aa8c8	0.05728987
28	0xbd88199a	-0.06645508
29	0xbd425780	-0.047446728
30	0x3d743928	0.05962482
31	0x3d2db528	0.042409092
32	0x3cbc9213	0.023018872
33	0x3ca72e7a	0.020407904
34	0xbe3687d7	-0.17825256
35	0x3bbb86e0	0.0057228655
36	0x3d583741	0.05278707
37	0x3d5bd164	0.053666487
38	0xbddd6726	-0.1081069
39	0xbd800a56	-0.062519714
40	0xbdbfeaca	-0.09370954
41	0xbd870af6	-0.065938875
42	0xbd9225f0	-0.07136142
43	0x3d88bf5e	0.066771254
44	0xbe23b97e	-0.15988728
45	0x3dba2aca	0.090901926
46	0xbe778ddb	-0.24175207
47	0xbd8d57d7	-0.0690152
48	0x3dde38bc	0.10850665
49	0xbc2a6ca8	-0.010401882
50	0x3cef00c1	0.029175164
51	0xbe4826e8	-0.19546092
52	0x3d3bf590	0.045888484
53	0x3ddcd608	0.10783011
54	0xbb464496	-0.0030253283
55	0x3cd4dac8	0.02598323
56	0x3b7265e9	0.0036987013
57	0xbdd3e6dc	-0.10346767
58	0x3d1827b3	0.037147235
59	0x3d81fdfc	0.06347272
60	0xbe7831b4	-0.2423771
61	0xbd92427c	-0.07141587
62	0xbdffbba6	-0.12486963
63	0xbe3c589b	-0.18393175
64	0xbe4c226b	-0.19935004
65	0xbe0c8967	-0.1372429
66	0x3da354b6	0.07975142
67	0xbc379ce0	-0.0112068355
68	0xbe5283b2	-0.2055805
69	0x3dce95e2	0.10087182
70	0xbda5e50a	-0.08100326
71	0x3dae3166	0.08505516
72	0xbe7abcf6	-0.24486145
73	0x3dbba2aa	0.09161885
74	0x3d1eb3fb	0.03874586
75	0x3d8cbdf2	0.06872167
76	0x3c93f238	0.018059835
77	0xbe692e72	-0.22771624
78	0xbe1eeb4e	-0.15519449
79	0x3b5618bf	0.0032668558
80	0xbd41f56c	-0.047353193
81	0xbdc7c932	-0.09755172
82	0xbe0192c8	-0.12653649
83	0xbca2e0d0	-0.01988259
84	0xbc890b26	-0.016728949
85	0xbc821cd0	-0.01588288
86	0x3b804200	0.003914118
87	0xbe303234	-0.17206651
88	0x3df483a8	0.11939174
89	0xbdb57c64	-0.08861616
90	0x3d86af6c	0.06576428
91	0x3d679310	0.056536734
92	0xbc48d471	-0.012257681
93	0x3dc83ee5	0.09777621
94	0x3d894c98	0.06704062
95	0xbdf91ef6	-0.121641085
96	0xbd654e16	-0.05598267
97	0x3d82e262	0.06390835
98	0xbdc6f33f	-0.09714364
99	0xbca0b2d0	-0.019616514
100	0x3ddee868	0.10884172
101	0x3c9478eb	0.018124064
102	0xbe52ce92	-0.20586613
103	0xbd9f3210	-0.077732205
104	0xbdde5512	-0.108560696
105	0x3c99467b	0.018710366
106	0xbdad02d6	-0.084478065
107	0xbce95f48	-0.028487816
108	0xbd20914b	-0.039201062
109	0x3d5ff88b	0.05468039
110	0xbc54121d	-0.012943772
111	0xbe913a31	-0.2836471
112	0x3dcabe18	0.09899539
113	0x3cfaea5c	0.03062933
114	0x3d35bb31	0.044367973
115	0xbda71f6f	-0.08160292
116	0x3ddc1647	0.107464366
117	0x3de375ae	0.1110643
118	0xbc50e7f4	-0.012750614
119	0xbdccee62	-0.100064054
120	0x3d8c6a9f	0.06856274
121	0xbe723370	-0.23652434
122	0xbc999d0a	-0.01875164
123	0xbbba2c3d	-0.005681543
124	0xbdca5532	-0.09879531
125	0xbc78a690	-0.01517643
126	0xbdfe184c	-0.12406978
127	0xbda6b23e	-0.08139466

fc3.bias f4 [2]
0	0x3dd7bc58	0.105339706
1	0x3d9a93d8	0.0754773
