checkpoints/dubins3d-discrete-v0__hj_dqn__1__1638911814_evalFalse/dqn_checkpoint_10020.pth (torch, 72343 bytes, 6 tensors)

fc1.weight f4 [256, 3]
000000 9b 00 b3 3e ff b3 50 be 2b 60 17 be 9f 7c 94 3e
       0.349614 -0.20381163 -0.14782779 0.29001328
000010 9e f6 05 bf 9d a9 b5 3e 9a 40 f3 bd ea 62 96 3e
       -0.5232943 0.35480967 -0.11877556 0.2937234
000020 23 60 a4 3d 02 f6 7a bc d4 a0 5b 3e 77 e3 77 3c
       0.08026149 -0.015317442 0.2144807 0.015129915
000030 a0 08 5b 3e d8 96 65 be 65 24 50 bd 2b 95 49 bd
       0.21390009 -0.22420824 -0.05081596 -0.049214523
000040 c6 5e b9 3d 2c 27 5b 3c 75 ce 05 3f 86 84 55 3e
       0.0905128 0.0133760385 0.52268153 0.20851335
000050 ed 36 5d be 72 88 b2 be e4 30 c6 bd f1 02 7f be
       -0.21602984 -0.34869725 -0.09677294 -0.24903466
000060 88 73 3d be a0 76 e2 3c a4 37 b0 3e 1c 11 be 3e
       -0.18501103 0.027644455 0.3441745 0.37122428
000070 24 df 01 bf 57 a8 9a 3e 4b 31 5f 3e 79 8a 1a 3f
       -0.5073111 0.30206558 0.21796148 0.6036754
000080 92 5a b7 3e ec aa 06 bf f4 87 0c bf 38 94 8e be
       0.35811287 -0.52604556 -0.5489495 -0.27847457
000090 54 ea 0b 3f c2 46 60 bd db 05 69 3e c1 84 98 be
       0.5465443 -0.05475498 0.2275614 -0.29788783
0000a0 e0 3c 0b 3f 4f bd 50 be ae 34 d2 3e 31 51 78 bc
       0.5438976 -0.20384715 0.41055816 -0.015156076
0000b0 1f c8 8d be c6 6e b1 3e ea 51 84 be ec d5 e7 3d
       -0.27691743 0.34654826 -0.25843745 0.11320099
0000c0 16 b7 2a be 18 a2 81 bd 43 18 0e bf 32 f0 8c be
       -0.16671404 -0.06329745 -0.5550577 -0.27527004
0000d0 88 67 a0 3e 7b b5 0f be dd ff 21 3f 50 04 05 3f
       0.31328988 -0.14034073 0.6328104 0.51959705
0000e0 b5 db a4 bd 6b 4f c5 be e1 02 b4 3e 35 7c 37 3e
       -0.08049718 -0.38537154 0.35158446 0.17918475
0000f0 26 dc a7 be 26 8b d5 3e ee 82 bf 3e 25 e4 11 3f
       -0.32785147 0.41707724 0.3740458 0.56988746
000100 ee 7f 88 be c5 0f f5 bd 93 3e 37 bc 48 b3 ac 3d
       -0.26660103 -0.119658984 -0.011184352 0.08432633
000110 ba 56 e0 be 49 c4 d1 be 3f cf a0 3e 19 a2 0a be
       -0.43816167 -0.40970066 0.31408116 -0.13538398
000120 2a ea a3 3e a4 d4 92 3d 7f 2c 27 3e 58 e8 38 3e
       0.3201459 0.07169464 0.16325568 0.18057382
000130 6a 8f 82 3e 3b 2d 6f 3e 44 64 07 bf 1e c3 97 3e
       0.2550004 0.23357098 -0.5288737 0.2964105
000140 18 fd d0 be 0e 09 df be c3 d0 0f 3d e1 7d c9 bd
       -0.40818095 -0.43561596 0.0351112 -0.098384626
000150 b0 d7 ca 3e 67 76 8e be ce 9f 0f bf 6f 89 f2 3e
       0.39617682 -0.2782471 -0.5610322 0.4737048
000160 63 88 0b bd 5d 7c 9d 3e 39 0f 71 3e c2 10 c4 be
       -0.034065615 0.30758944 0.23540963 -0.38294035
000170 0e 7c 8f 3d 76 5a 10 3e 71 b8 c5 be e5 ab 8d be
       0.070060834 0.14097008 -0.3861728 -0.27670208
000180 30 af 64 3e 85 cf fe 3d 2e 8e 91 be db ce f1 bd
       0.22332454 0.12441925 -0.28428787 -0.11807033
000190 a4 e9 15 3f e1 b8 22 be 7e 3f c0 3e 08 e7 98 3e
       0.5855963 -0.15890838 0.3754844 0.29863763
0001a0 24 c4 db be d0 fc 00 bf 06 8b 0a 3f 60 5f a2 3c
       -0.4292308 -0.5038576 0.5411838 0.019820869
0001b0 f1 a7 d2 3e 10 34 07 3e 05 c1 1e 3e 19 ab f9 3e
       0.41143754 0.13203454 0.15503319 0.4876335
0001c0 a5 60 1a 3f 38 4b d9 be 9e 9c fc 3d a2 37 f6 3e
       0.6030372 -0.424402 0.1233456 0.4808932
0001d0 f1 24 c4 3e f6 60 ae 3e 60 a7 e0 be df 87 e0 be
       0.38309434 0.3405835 -0.43877697 -0.4385366
0001e0 c3 c5 b2 be 6d 8b 94 3d 09 4f 13 3f b5 b9 ba be
       -0.34916505 0.07253156 0.57542473 -0.36469808
0001f0 79 85 9d 3e e9 9c a3 be 28 f7 0a bf 4b 4f fb bd
       0.30765894 -0.3195565 -0.5428338 -0.12270983
000200 6b 51 aa 3e 96 31 0e 3f f5 ab ad be 98 21 e6 3d
       0.33265242 0.5554441 -0.33920255 0.11236876
000210 de b7 f9 3e fd d6 bc 3e 6e a7 ae 3e f8 b5 ed 3e
       0.48773092 0.36882773 0.34112114 0.46427894
000220 fd 94 d2 3e b6 22 c3 3d b7 23 ca be 44 3c f8 be
       0.41129294 0.09528105 -0.39480373 -0.4848348
000230 98 73 87 be eb af 89 bd d3 30 b5 be 8d 4b 58 3e
       -0.2645538 -0.06723007 -0.35388812 0.2112257
000240 ce 66 64 3e a7 15 be bd 0d ac 2d 3e bb e0 71 3e
       0.22304842 -0.092814736 0.16960163 0.23620884
000250 56 ec cc 3e 5f 23 bb 3e 89 e0 4f be 3b ff 0e 3f
       0.4002406 0.36550424 -0.20300497 0.558582
000260 74 3f 37 bd f1 7d a2 bc ce 81 0b bf 4e 41 be be
       -0.044738248 -0.019835444 -0.5449494 -0.371592
000270 47 b1 ac be 66 df 7c be 3c 2a d2 3e f4 31 41 be
       -0.33729002 -0.24694595 0.41047847 -0.18866712
000280 18 e6 dc be 7a 77 63 3e 07 de 2a 3e cf 11 b7 3e
       -0.43144298 0.22213545 0.16686259 0.35755774
000290 25 93 8b be 70 2e 3a 3e 4a c7 1d be a9 0d 3d be
       -0.272607 0.18181777 -0.15408054 -0.18462242
0002a0 5d 92 eb be 76 b9 86 be c6 0f 35 be 15 fb 9b 3e
       -0.46010104 -0.2631337 -0.17681798 0.30464998
0002b0 c1 61 26 3e 95 c2 b9 3d b5 a9 22 3f 9e 07 1f 3f
       0.16248228 0.09070317 0.635402 0.62121
0002c0 1d 22 ac 3e e2 9b 96 3c f0 7e cc be 51 04 e7 3e
       0.33619776 0.018384878 -0.39940596 0.4512048
0002d0 d3 d6 13 be 6d 2f 3f bd 76 a9 fe be 7a 8f e9 bd
       -0.14437418 -0.046676088 -0.49738663 -0.11404319
0002e0 1a a9 be be da d0 07 3f 28 8e ff be ee 6a e6 be
       -0.3723839 0.5305306 -0.49913144 -0.45003456
0002f0 fa 99 a0 bc f5 b1 9c be ed d5 59 3e 97 a4 65 be
       -0.019604672 -0.3060452 0.21273012 -0.22426067
000300 5a d7 8a be 2f f0 05 3d 95 fc d5 3e 35 ef cf be
       -0.27117425 0.03269976 0.41794267 -0.40612188
000310 33 d1 8a 3e 67 e8 bd 3e a6 4d 1a 3f d0 a5 c1 be
       0.2711273 0.3709137 0.6027473 -0.37821817
000320 38 3d b3 3d b9 93 da be 15 5f fc 3e 32 55 65 be
       0.08751911 -0.42690828 0.49291292 -0.2239578
000330 ac d4 cf 3e 82 87 9a 3d 59 9f 96 bd ae e9 96 bc
       0.40591943 0.07545377 -0.07354612 -0.018421974
000340 f5 00 c9 3d a4 58 8b 3e 9f c7 15 3e f5 d2 6a 3e
       0.09814636 0.27216065 0.1462693 0.22932036
000350 ee 3f 12 bf ed e9 db 3e ce 57 01 3f b0 37 e1 3e
       -0.571288 0.4295191 0.50524604 0.439878
000360 ec cc df 3e 33 77 d3 be dc b6 7c be 5b a1 0d 3f
       0.4371103 -0.4130188 -0.2467913 0.55324334
000370 75 59 cb be cb ac 04 3f a8 7d e8 be bb 39 d0 be
       -0.39716688 0.5182616 -0.45408368 -0.40669045
000380 94 83 90 3e 44 63 d4 be 24 72 07 be 8c 0c d7 3e
       0.28225386 -0.41481984 -0.13227135 0.4200176
000390 88 c2 03 3f b2 21 1a 3f 36 91 11 be c9 c2 e5 be
       0.51468706 0.60207665 -0.1421555 -0.44875172
0003a0 f2 86 11 3f 8e e2 fb bd 42 3e 73 be e7 1e 10 3e
       0.56846535 -0.12299071 -0.23754218 0.14074288
0003b0 00 b9 ce be b0 67 e0 3e cc 05 d7 3e e9 34 03 bf
       -0.4037552 0.43829107 0.4199661 -0.5125261
0003c0 e8 cc f2 be 7d 26 4f bd 65 52 78 3e 78 90 0e ba
       -0.47421956 -0.050573815 0.24250181 -0.00054383976
0003d0 97 69 8e be 6a d5 68 bc 6e ec 0a bf c1 eb d0 be
       -0.27814934 -0.014211038 -0.54267013 -0.40804866
0003e0 ad c7 c4 be 1c 33 06 3f 71 fb 0e 3f eb 3b 7d be
       -0.3843359 0.52421737 0.5585242 -0.24729888
0003f0 3a 8e aa 3d 2b ea a0 3e 36 94 88 3c 78 8b 76 be
       0.08327909 0.31428656 0.016672235 -0.2407664

fc1.bias f4 [256]
000000 ea 0a 2b bd 2b d5 7e 3e 55 d7 e2 be dd 13 09 3e
       -0.041758455 0.24886005 -0.4430491 0.13386483
000010 52 fa 05 bf 05 1f b9 3e 2c a7 14 3f cc 03 53 be
       -0.52335083 0.3615648 0.58067584 -0.20606917
000020 fb d7 ae 3d 9a ce 75 be 26 8a a0 be c6 b5 95 be
       0.08537289 -0.24004593 -0.313554 -0.29240245
000030 98 7f 71 be d0 71 af 3d 84 ec b5 bd ca 1a b7 3d
       -0.2358383 0.0856663 -0.088830024 0.089406565
000040 af 87 e2 be 61 b7 b9 be 26 88 e2 be 8b 76 d4 be
       -0.44244143 -0.3627272 -0.44244498 -0.4149669
000050 cf a8 06 3f 8f 42 8b 3e 53 f5 0c bf 8a 59 c5 bd
       0.5260133 0.27199218 -0.55061835 -0.09636219
000060 34 b2 ac 3d 68 ab b5 3e 19 68 0a 3f 15 c3 0e 3e
       0.08432427 0.35482335 0.5406509 0.13941605
000070 50 25 ed 3e ee ec 1c be 8f 53 fd 3c 32 46 b1 be
       0.4631753 -0.15324757 0.030923633 -0.34623867
000080 79 6f 20 3e c1 f0 16 3f fe ed d2 3e d5 bd 0f 3f
       0.15667523 0.5896111 0.411972 0.56149036
000090 6f 63 7b be 7f c4 89 bc 4e 76 2d 3e f6 ed e3 3e
       -0.2454965 -0.01681733 0.16939661 0.44517487
0000a0 88 dd 07 bf 8f 2c 91 be 82 85 ab 3d 39 0c a1 be
       -0.53072405 -0.28354308 0.08375074 -0.31454638
0000b0 dd 4c 51 3e 3c 17 62 3c bc 32 19 be d8 88 9e 3e
       0.20439477 0.013799485 -0.1496076 0.30963778
0000c0 d8 3e e9 3e 1a 28 1c 3f e4 e9 81 3e e7 57 81 bc
       0.45555758 0.6099869 0.25373757 -0.015788985
0000d0 f0 af f1 3e f7 40 eb 3e e4 63 9d be a7 88 a3 3e
       0.47204542 0.45948002 -0.30740273 0.31940195
0000e0 4c 8d 8a 3d b8 03 45 be 56 02 a1 bd 6f 9a 0b be
       0.067652315 -0.192397 -0.07861774 -0.1363313
0000f0 fb da ce be fd 68 34 be 04 f2 46 3e f6 fc db 3e
       -0.40401444 -0.17618175 0.19428259 0.4296643
000100 05 a2 33 3d a1 21 0f bf ec 6c ad 3e e4 e3 32 be
       0.043855686 -0.5591069 0.33872163 -0.17469746
000110 5c d8 12 3f 5b d1 0e bf fa 40 a7 bd 2d 38 e8 3e
       0.5736139 -0.557882 -0.0816669 0.4535536
000120 85 c3 83 3e 88 8c 7b be 0e f7 ff be 1b 32 cb bb
       0.25735107 -0.24565327 -0.49993175 -0.0062010414
000130 a4 3c 8f 3e b6 68 f5 be a4 5c f7 be d9 9d 51 3d
       0.27975953 -0.4793145 -0.48312867 0.051175926
000140 96 7f f2 bd ef 44 c6 3e cb 35 0f bf 0d c6 29 bd
       -0.11840741 0.38724467 -0.55941457 -0.04144864
000150 8c bf c7 be 6b 13 12 bd cd 07 97 be 2f ed 67 3e
       -0.39013326 -0.03566305 -0.2949814 0.22649072
000160 da 49 f7 be 27 8a e8 be 48 ff 8a be cb 8d eb be
       -0.48298532 -0.45417902 -0.2714789 -0.46006617
000170 d6 9a ba 3e 59 37 a9 bd a6 29 a4 be 40 23 cf 3e
       0.36446255 -0.0826251 -0.32063025 0.4045658
000180 8c 21 06 be 80 43 8c 3e 91 44 37 be fa 50 f7 be
       -0.13098735 0.27395248 -0.1789725 -0.48303968
000190 5d d8 01 3e d2 11 b8 3e 80 1c 10 bf 3d 01 d1 3d
       0.12680192 0.35951096 -0.5629349 0.10205314
0001a0 0c ab eb 3d 45 b6 87 3d 03 75 25 3d 12 c6 37 be
       0.11507234 0.06626562 0.040394794 -0.17946652
0001b0 0c 76 cd be bf de 1b 3e 31 81 ad be d5 3d f4 be
       -0.40129125 0.1522169 -0.33887628 -0.47703424
0001c0 02 cf 3d be 23 ec c4 be 26 00 6e 3e d9 41 d0 3e
       -0.18535998 -0.38461408 0.23242244 0.40675238
0001d0 e4 bb e5 3e ea c7 99 be b7 37 bd 3e 35 86 e3 3e
       0.44869912 -0.30035335 0.3695657 0.4443833
0001e0 3d 39 d4 3b 3d da 64 3e bb 43 a7 3e 22 2e e2 3e
       0.00647655 0.22348876 0.32668862 0.44175822
0001f0 fa 7a 96 3e 27 3e 87 3e 48 dd 25 be 60 cf a4 be
       0.293907 0.26414606 -0.16197693 -0.32189465
000200 ae 2b 8c be 19 94 07 3f aa 5a 05 be 28 3d 40 3d
       -0.27377075 0.52960354 -0.13022867 0.046933323
000210 fb f6 f5 be 5c 69 a1 3c 85 c7 26 be 0e bc be be
       -0.48039994 0.01970356 -0.16287048 -0.3725285
000220 59 f1 db 3e 38 78 db be b5 d4 30 bd cb 34 51 ba
       0.4295757 -0.42865157 -0.043171603 -0.0007980584
000230 30 ce 05 bf e8 75 ce 3e 61 1d 3c be c1 6f a2 3e
       -0.5226774 0.4032433 -0.18370582 0.31725886
000240 2a 8c b0 3e 8f bd 03 3f 01 37 10 3e 6e a2 cb 3e
       0.34481937 0.5146112 0.14083482 0.39772362
000250 8d d4 16 3f 33 1d 24 3e 44 a4 e1 bd 21 22 07 be
       0.58918077 0.16026764 -0.11017659 -0.13196613
000260 a9 8f bf 3d 16 9c 59 3e 08 af fa be 6d dd f4 3e
       0.09353573 0.21250948 -0.48961663 0.47825184
000270 f1 3f b7 3d 23 a0 0c bf c7 54 6d 3e c4 43 d8 3e
       0.08947743 -0.5493185 0.23176871 0.422392
000280 f2 ba 8b 3e cc b7 01 3f 1e ee 1f 3d 02 82 de be
       0.27291065 0.50671077 0.039045446 -0.43458563
000290 38 1c 61 3d 28 a5 f3 3e 41 2e 8e be fa 2a 7c 3e
       0.054958552 0.47586942 -0.27769664 0.2462577
0002a0 11 48 08 3e e1 d8 bf bd 50 73 86 3b 59 67 9a 3e
       0.13308741 -0.09367538 0.004103102 0.30156973
0002b0 a3 48 ca be c1 de bc 3e 58 93 e3 3e 5b e0 a5 3e
       -0.39508542 0.36888698 0.44448352 0.32397732
0002c0 b9 b1 13 3f ae 7d e0 3c ac bc d0 be a3 f7 d7 3c
       0.5769306 0.027403679 -0.40768945 0.0263632
0002d0 76 0d e6 bd f0 b3 50 3e 80 7d 05 3f f3 14 90 be
       -0.11233036 0.2038114 0.5214462 -0.28140983
0002e0 ac 9c a5 3d 50 5f 19 3f b4 fa eb be 80 0a cc bd
       0.080865234 0.5991106 -0.4608971 -0.0996294
0002f0 7e a2 1d 3f 8f 8c ce 3e aa 8e 17 3e f4 fc 7e be
       0.6157607 0.40341613 0.14800516 -0.24901181
000300 75 b7 82 bc 92 89 04 bf 09 1f 02 bf 03 7b 0a bf
       -0.01595662 -0.51772416 -0.50828606 -0.5409395
000310 99 8c 16 3f 5a 6a e6 3e 01 b7 91 3e ed 7e 14 be
       0.58808285 0.45003015 0.28459933 -0.14501543
000320 9a db 0d 3f c1 16 24 be 71 a3 ea 3e 02 61 87 3c
       0.5541321 -0.16024305 0.4582782 0.01652575
000330 02 0e 8b be 67 71 fd bd 36 6e cb bd ca 49 07 bf
       -0.27159125 -0.123751454 -0.099331304 -0.5284697
000340 e8 31 6c 3e f1 c7 20 be df 3b a0 3e df 78 bc 3e
       0.23065913 -0.15701272 0.31295678 0.36810967
000350 c7 b8 88 bd 96 5c 8f 3e 39 d6 1c 3e 21 c4 e4 3e
       -0.066758685 0.28000325 0.15316094 0.44680884
000360 1c a3 be be 05 70 01 3c fb 01 45 be c5 71 07 3f
       -0.37233818 0.007900243 -0.19239037 0.52907974
000370 68 aa 04 bf 96 26 a6 be db e5 fd 3d 89 ae 03 3f
       -0.5182252 -0.32451314 0.12397357 0.51438195
000380 1a 02 c8 3e 3e 47 f6 be ac 6e b2 be de 7d 14 3f
       0.39064103 -0.48101228 -0.3485006 0.5800456
000390 e4 51 ac 3d ab 2f fd be 15 19 fc bd c7 3b 81 3e
       0.08414057 -0.4945043 -0.123094715 0.2524092
0003a0 a5 83 e2 bd e7 c6 ce be 9c 82 b6 be 48 c1 97 be
       -0.110602655 -0.40386125 -0.35646522 -0.2963965
0003b0 65 bf a8 3b 03 e6 90 3e 77 ed 8d 3e 21 87 63 be
       0.005149769 0.28300485 0.27720234 -0.22219516
0003c0 79 56 47 bd 2e 3b e4 be d5 da de 3e d0 e5 1f 3f
       -0.04866645 -0.445764 0.4352633 0.6246004
0003d0 c8 a8 0f 3f 45 a7 96 3e 28 85 ce bd 4d ce 6b bc
       0.56116915 0.29424492 -0.10083991 -0.014392448
0003e0 41 4c 55 3e ee e8 fb be f0 2a 8d 3d 59 48 f0 be
       0.2082987 -0.4920115 0.06892955 -0.46930197
0003f0 4b 45 11 bf ef 14 9e bc ab fb 00 be c3 40 bb be
       -0.5674636 -0.019297091 -0.12596004 -0.36572847

fc2.weight f4 [64, 256]
000000 8b 68 80 3d fd 94 5c 3d 50 43 1c 3c 76 15 a4 3b
       0.0626994 0.053853024 0.009537533 0.005007441
000010 ab 82 c0 bc f9 26 41 3d 08 b1 cd 3c 20 9d ac bc
       -0.023499807 0.047156308 0.02510883 -0.021071017
000020 ae 76 3c 3d ff 97 8a 3d ea f3 a3 3d f8 16 8f bc
       0.04601162 0.06767272 0.08005507 -0.017467007
000030 ef a5 dc 3a 09 86 13 bd b7 19 0e 3c 39 1a 78 3d
       0.001683412 -0.036016498 0.008673123 0.060571883
000040 c4 c9 47 bd 06 ff 40 3d a1 05 0e 3c 9c 3f 5e 3d
       -0.048776403 0.04711821 0.008668334 0.05425988
000050 3a e5 35 bc 79 55 ca 3d 6a 9c 19 3d c8 03 6d 3c
       -0.011102015 0.09879584 0.037502684 0.014466234
000060 2c 92 46 3d a3 95 4f 3d 9f f8 e7 bc 76 50 6b bd
       0.048479244 0.050679814 -0.028316794 -0.05744978
000070 3a 7a de 3d 55 65 61 3d 38 12 b0 3d d4 71 f2 3c
       0.108631566 0.05502828 0.08597225 0.029595293
000080 67 66 8d 3d 74 59 52 3c 25 72 2d 3b 12 69 e9 b9
       0.06904297 0.01283871 0.002646574 -0.00044519507
000090 4a 89 98 3d da d2 a7 3d a0 04 30 bc 1a 6c 5e 3d
       0.07448061 0.081945136 -0.01074329 0.054302312
0000a0 f2 c8 6e bd f0 5d ea bb 40 88 58 bb 05 03 ea 3b
       -0.058297105 -0.0071523115 -0.0033040196 0.0071414732
0000b0 23 29 3e bc 28 8d 53 3d 7a 38 66 3d aa b6 66 3d
       -0.011606487 0.05164829 0.056206204 0.056326546
0000c0 a9 ac 5e 3c 7e 5f 23 3d e4 88 2a bc 96 ec 47 bd
       0.01359097 0.03988599 -0.010408614 -0.04880961
0000d0 28 62 8c bc 34 8a 78 3d c1 04 08 3d 36 07 69 3d
       -0.017136648 0.060678676 0.03320766 0.056891643
0000e0 f4 d5 70 3d be d5 81 3d 39 e9 cf 3d 18 1c 2a 3d
       0.05879779 0.06339596 0.101519056 0.0415307
0000f0 d2 0d 70 3d 18 9b 2f 3c ce 05 4f bd b1 e8 71 bd
       0.05860693 0.01071813 -0.050542645 -0.059059802
000100 fe 44 04 bd d8 4b 53 3d c0 9c b2 3d ac d9 95 3c
       -0.03229236 0.051586002 0.08721304 0.01829227
000110 1b 55 75 3b 92 8b 3c bd e5 c9 d3 3d dc cb 33 3d
       0.003743476 -0.046031542 0.10341243 0.043895587
000120 0a 15 3d bc c0 63 35 3d 20 d6 75 bc 00 23 77 3a
       -0.011540661 0.044284582 -0.015004665 0.00094275177
000130 5d 0d 9e 3d c8 02 c5 3c c0 e2 43 bd db 2a 4f 3d
       0.077173926 0.024049178 -0.047823668 0.05057798
000140 b0 bb fd bc 0c fc b1 3d 98 88 fd 3c dc ba ae 3d
       -0.030973285 0.08690652 0.030948922 0.08531734
000150 39 88 d7 3d 42 fb 94 bc 98 d1 7f bd 07 3a 8a 3d
       0.10524029 -0.018186215 -0.062455744 0.06749349
000160 da a9 2f bd f0 be 08 3c 5b 17 5b 3d 86 7e e9 3d
       -0.042886592 0.008346304 0.05348907 0.114010856
000170 ac e7 2e bd a2 d1 7a bd 25 62 0a 3d 08 03 25 3c
       -0.04270141 -0.061235078 0.033785004 0.0100715235
000180 02 88 3b 3d 50 d6 70 3c 4c 28 45 3d e8 9f a1 3c
       0.045784004 0.014699534 0.048134133 0.01972957
000190 d0 51 92 bc 80 84 58 bc dc ff 0b bd fe ab 81 3d
       -0.017861277 -0.013215184 -0.034179553 0.06331633
0001a0 66 08 32 bd 60 07 b0 3c 57 0e bc 3d b4 3b 59 3d
       -0.04346504 0.021487892 0.091824226 0.053035453
0001b0 43 0b de bb 92 f2 dc 3d cd ab 4b 3c 10 38 a7 bb
       -0.006776245 0.10788454 0.012431097 -0.0051031187
0001c0 1e b2 69 3d 9a b4 4f 3d ee 37 9e bd 0c 3c 40 3d
       0.05705463 0.050709344 -0.077255115 0.046932265
0001d0 b8 fe 78 bd 45 b5 d4 3d 57 eb e4 3d cd 1e 44 3d
       -0.060789794 0.10386137 0.111777 0.047880936
0001e0 70 87 28 3c ec 3a c2 3c c0 0f 22 bd 88 95 e7 bc
       0.010286197 0.023709737 -0.0395658 -0.028269544
0001f0 01 c5 c4 3c 59 4e 8c ba 1d 29 c4 3a 20 c3 e0 3b
       0.02401972 -0.0010704502 0.0014965866 0.006859198
000200 9c 92 26 bd 0e dc 93 3c a0 a2 4b 3d 74 1e 9e bd
       -0.04066716 0.018049266 0.04971564 -0.07720652
000210 e6 a4 e0 3d e9 98 f2 3c fe 57 0e bd 7c 66 88 bc
       0.10968952 0.029613929 -0.034751885 -0.01665043
000220 4f 60 76 ba 3d 92 ab 3d 68 5a d7 3d 3d ba 79 3c
       -0.00093985064 0.08377502 0.105152905 0.015242157
000230 3c 55 be bc 24 6e e0 3d 5c 30 39 bd 3d 65 98 3d
       -0.023234002 0.10958508 -0.045212135 0.07441185
000240 75 b0 4f ba 17 ff 76 bd 1f 71 4e 3d 4e 0d 6b 3c
       -0.00079227175 -0.060301866 0.05040085 0.014346434
000250 9e e1 ae 3d 13 e0 04 3d 72 69 4f 3d 08 47 26 3c
       0.08539127 0.032440256 0.05063767 0.010148771
000260 10 66 d2 3c 44 c4 58 3d fe 2a 2d 3d b5 db 5b 3c
       0.025683433 0.05292155 0.04227733 0.013419081
000270 c8 7d 2f bd 8b 3d 7f 3c ff 6c 9e 3d bb 10 9e 3d
       -0.042844564 0.015578638 0.07735633 0.07718035
000280 4e 17 82 3d 95 f1 a7 3d 6e 78 b4 bc 24 2e a8 3d
       0.06352101 0.08200375 -0.022030082 0.082119256
000290 8b 08 bd 3d 1a df 75 3d a8 80 5c 3d 9c 2f 1f 3d
       0.09230145 0.06002722 0.053833634 0.038863763
0002a0 c0 c5 fa ba f0 ae e4 bc 60 c3 87 3b 01 6e cc 3d
       -0.001913242 -0.027915448 0.0041431636 0.09981919
0002b0 a6 2b 22 3d 79 4a 91 3c 19 7e 1e 3d e0 48 cb 3c
       0.039592408 0.017735707 0.038694475 0.024815023
0002c0 70 e9 c0 3c 99 eb e3 3d dc 9e f8 3c b4 1d a3 3c
       0.023548812 0.11128921 0.030349188 0.019911624
0002d0 9c 47 8b 3d a4 96 70 bd 90 91 9b bd d8 3e 6e 3d
       0.06800768 -0.058737412 -0.07596123 0.0581654
0002e0 1c 9d 0e 3c ee 27 7a bb 94 be 2c 3d 5c 22 ae 3c
       0.00870445 -0.0038170773 0.042173937 0.021256618
0002f0 43 a6 91 3a 20 1b 73 3b 77 de b1 3d a4 79 13 3d
       0.0011112172 0.0037095025 0.0868501 0.036004677
000300 54 f2 d8 3d 44 72 ca bc 78 79 e8 bc a4 a9 4f bd
       0.105930954 -0.02471269 -0.028378233 -0.05069889
000310 27 62 30 3d 78 70 2c 3c 28 f4 20 3d 92 bc 11 3d
       0.043062355 0.0105248615 0.039295346 0.035580225
000320 75 26 a9 3d 9f 6c 70 3c 22 9e 11 3d 48 75 20 3d
       0.08259288 0.014674335 0.035551198 0.039174348
000330 4c c7 c2 bc 64 78 89 3c 15 d9 c5 3d 68 f4 30 3d
       -0.023776673 0.01678104 0.09660546 0.043201834
000340 bb 7e d3 3d a6 c1 89 3c ef 4d c7 3d 1c 41 9b bc
       0.10326906 0.016815972 0.097316615 -0.018951945
000350 6f 2e af 3c 0c d9 89 bc a2 bc 43 3d 27 7d d5 3c
       0.021384446 -0.016827129 0.047787316 0.026060654
000360 40 0a 0c 3c 77 44 78 3c 58 94 d2 3c c8 5e d7 ba
       0.008547366 0.015153042 0.025705501 -0.0016431445
000370 a8 9c b9 bc fe cd 32 bd cb 00 c0 3d 55 a8 1b 3d
       -0.022657707 -0.04365348 0.09375151 0.03800233
000380 72 9c 4b bd a7 06 b5 3c 40 5d df 3d 55 7f 8d 3d
       -0.049709745 0.022097899 0.10906458 0.06909052
000390 7c 46 30 3d a0 43 44 bd 12 f9 a7 3d 54 f4 22 3d
       0.04303597 -0.047916055 0.08201803 0.03978379
0003a0 07 0a 16 3d ec 09 4b 3d 72 ab 3a 3d c6 c3 e9 bc
       0.036630657 0.04957001 0.04557366 -0.028535735
0003b0 88 45 8e 3d 22 26 55 3d d8 c0 d5 bc 9a 29 67 3c
       0.06946856 0.05203832 -0.026092932 0.01410904
0003c0 a9 bc e8 3d f0 c9 a1 bb 38 33 d7 3d 36 90 b8 3d
       0.11364109 -0.004937403 0.10507816 0.09011881
0003d0 7c dd 05 bd 22 77 63 3d fc 81 0b 3d c0 be 94 ba
       -0.032681927 0.055533536 0.03405951 -0.0011348352
0003e0 34 b8 28 3d 3e e5 ad 3d 1b 2a 7d 3c d4 57 fd bc
       0.041191295 0.0849099 0.015451933 -0.030925669
0003f0 73 9e c4 3b 94 5a 59 bd eb 5c bd 3d e6 2f 1e bd
       0.006000334 -0.053064898 0.09246238 -0.0386199

fc2.bias f4 [64]
000000 a7 eb 8f 3d 04 f2 c9 bc 24 67 b1 bc 54 99 db 3c
       0.07027369 -0.024651535 -0.021655627 0.026806511
000010 4d 04 b5 3d 70 cd 93 3c ee 67 4d 3d 90 4c 5a 3d
       0.08838711 0.018042296 0.050147943 0.053295672
000020 ad a3 d9 3c 70 45 37 3c 5e 78 53 3d ac c3 24 bd
       0.026567305 0.011185989 0.051628463 -0.04022567
000030 78 05 38 bc 97 a8 28 bc 09 d4 a3 3d 98 b4 bd 3c
       -0.011231773 -0.010294101 0.07999427 0.023157403
000040 3a 01 4c 3d b5 f4 75 3d 45 dc ab 3b 7c c0 da bc
       0.049805857 0.060047824 0.005244764 -0.026703112
000050 c5 0b 43 bd c1 86 cd bc f8 e7 53 3c 5d df 43 3c
       -0.047618646 -0.02508867 0.012933724 0.011955109
000060 00 d4 d5 3b c0 c9 52 3c 08 25 15 bd c0 5a da 3b
       0.0065255165 0.012865484 -0.03641227 0.0066636503
000070 68 13 5e bd 18 e9 2c 3d dc a1 58 bd b0 ce 81 bb
       -0.054217726 0.042214483 -0.052888736 -0.0039614066
000080 cd 74 59 3b 75 60 48 bd 81 6c c2 3d 30 26 37 3c
       0.003318119 -0.048920114 0.09493352 0.011178538
000090 8f cd 16 bd df 09 8f bc 62 70 bc 3d 00 f5 52 ba
       -0.03681713 -0.017460762 0.09201123 -0.0008047372
0000a0 24 c0 5f bd 3d 7d 61 bd 04 bc 6d 3d 32 84 34 3d
       -0.0546266 -0.055051077 0.058040634 0.044071384
0000b0 b7 ca 16 bd 5c a9 49 3d 9d a7 a1 ba 8d f2 3c bc
       -0.036814418 0.04923378 -0.0012333278 -0.011532438
0000c0 5c f8 50 bc a4 92 13 3d 22 c3 62 3c 05 e9 fb bc
       -0.012754526 0.03602852 0.013840469 -0.03075076
0000d0 f3 c4 13 bd d2 e1 03 3d c0 17 df 3c 80 db e3 3c
       -0.036076497 0.03219778 0.027233005 0.027814627
0000e0 4a 44 0c bd fb 9c 5b 3c 5e 5a ad 3a b0 0b 08 bd
       -0.034244813 0.013404126 0.0013225784 -0.03321427
0000f0 18 80 c1 3d 44 05 d0 3c 10 e1 0c 3d 65 01 a9 3d
       0.0944826 0.025393136 0.034394324 0.08252219

fc3.weight f4 [2, 64]
000000 bb 2e 73 bd 99 7d bc 3d 70 bd f0 3d a0 81 d3 bc
       -0.059370738 0.09203643 0.11754882 -0.025818646
000010 97 f1 08 be b0 09 90 bc d0 15 1b 3c ac c4 57 bd
       -0.13373409 -0.017582744 0.00946565 -0.052677795
000020 35 49 de 3a 78 b9 33 3d b8 93 3b bd c4 ce 06 3d
       0.0016959073 0.04387805 -0.045795172 0.03291203
000030 84 ac 18 3d 57 dc d9 bc 90 69 bb bd f3 51 84 3c
       0.0372739 -0.026594324 -0.09150994 0.016152358
000040 80 6f 89 bc 67 23 18 be 7a 50 16 be e1 8f 1a be
       -0.0167768 -0.14857255 -0.14679137 -0.15093948
000050 30 ba 04 be 04 9d 77 bc 88 b6 14 3d 37 15 f1 bd
       -0.1296165 -0.015113119 0.036306888 -0.117716245
000060 ac 30 af bd fa 2d c7 bd e8 1e 7c bd c8 a8 6a 3d
       -0.08554205 -0.09725566 -0.061552912 0.05728987
000070 39 d6 8c bd 7e dd 38 bd 28 39 74 3d 28 b5 2d 3d
       -0.06876797 -0.045133106 0.05962482 0.042409092
000080 b5 76 ba 3c 71 24 ba 3c a9 2a e1 bd e0 86 bb 3b
       0.022761682 0.022722455 -0.10994465 0.0057228655
000090 90 e7 63 3d 8d 4b 65 3d 17 44 fb bc 56 0a 80 bd
       0.055640757 0.055980254 -0.030672116 -0.062519714
0000a0 ca ea bf bd 0f f3 78 bd f0 25 92 bd 5e bf 88 3d
       -0.09370954 -0.060778674 -0.07136142 0.066771254
0000b0 50 cf b8 bd 14 b5 c3 3d 04 5e 33 be 07 50 0e 3d
       -0.09023917 0.09556022 -0.17516333 0.03474429
0000c0 3e 1c e2 3d d1 83 04 bc 98 fa 00 3d ff ee e1 bd
       0.11040543 -0.008088068 0.031488985 -0.11031913
0000d0 50 70 45 3d 08 d6 dc 3d 13 85 3a ba c8 da d4 3c
       0.048202813 0.10783011 -0.00071151665 0.02598323
0000e0 4c 04 c5 3b d0 c4 c5 bc e1 a1 21 3d e1 ba 86 3d
       0.006012475 -0.0241417 0.03946102 0.06578613
0000f0 c3 65 38 be 7c 42 92 bd a6 bb ff bd 20 f0 e6 bd
       -0.18007569 -0.07141587 -0.12486963 -0.11276269
000100 b0 c4 0a be da 2a 0a be b6 54 a3 3d e0 9c 37 bc
       -0.13551593 -0.13492909 0.07975142 -0.0112068355
000110 7b 56 19 be e2 95 ce 3d 0a e5 a5 bd 66 31 ae 3d
       -0.14974396 0.10087182 -0.08100326 0.08505516
000120 30 07 09 be aa a2 bb 3d b0 91 74 3d f2 bd 8c 3d
       -0.13381648 0.09161885 0.05970925 0.06872167
000130 38 f2 93 3c ee 44 1c be 9e 5b c3 bd b8 dd b6 3b
       0.018059835 -0.1526067 -0.09538959 0.00558063
000140 6c f5 41 bd f2 28 1f bd 2f 98 8f bd e7 ee 86 3d
       -0.047353193 -0.038857408 -0.070114486 0.06588536
000150 cc 5b 75 3d 25 53 5e bc 00 42 80 3b 8f 06 f0 bd
       0.059901997 -0.013569628 0.003914118 -0.11720001
000160 a8 83 f4 3d 64 7c b5 bd 6c af 86 3d 10 93 67 3d
       0.11939174 -0.08861616 0.06576428 0.056536734
000170 88 ba 6e bc d0 fb cc 3d 98 4c 89 3d f6 1e f9 bd
       -0.01457084 0.10008967 0.06704062 -0.121641085
000180 84 30 7a bd 8a c4 87 3d 62 32 06 bd d0 b2 a0 bc
       -0.061081424 0.06629284 -0.032762893 -0.019616514
000190 55 36 e4 3d 3b 6d a7 3c cc 3f 06 be 10 32 9f bd
       0.111431755 0.020437827 -0.13110274 -0.077732205
0001a0 12 55 de bd 30 1d c1 3c d6 02 ad bd 48 5f e9 bc
       -0.108560696 0.023573488 -0.084478065 -0.028487816
0001b0 74 21 f7 3c 20 51 7f 3d f4 a6 49 3d 16 5f 2c be
       0.030167319 0.062333226 0.049231485 -0.16833147
0001c0 85 04 cf 3d 62 ef 06 3d 5e 35 3f 3d fc c9 dd 3a
       0.10108284 0.032943137 0.046681754 0.0016921158
0001d0 36 7c df 3d ae 75 e3 3d 21 ff 2a bc 62 ee cc bd
       0.10912363 0.1110643 -0.010436804 -0.100064054
0001e0 a9 27 91 3d ab 2b 24 be a8 a8 86 bc 74 b9 5c bb
       0.07087643 -0.16032283 -0.016437843 -0.0033679875
0001f0 46 1c 37 bd 90 a6 78 bc 4c 18 fe bd 85 24 59 bc
       -0.044704698 -0.01517643 -0.12406978 -0.013253336

fc3.bias f4 [2]
000000 49 60 27 bd 52 e9 be bd
       -0.04086331 -0.09321846
