checkpoints/dubins3d-discrete-v0__hj_dqn__1__1638911814_evalFalse/dqn_checkpoint_10238.pth (torch, 72343 bytes, 6 tensors)

fc1.weight f4 [256, 3]
0	0x3ebce6cb	0.3689483
1	0xbeb9959c	-0.36246955
2	0xbd3fbab4	-0.046808913
3	0x3ec71d0a	0.38889343
4	0xbf1b0794	-0.6055844
5	0x3f063a9b	0.52433175
6	0xbdf3409a	-0.11877556
7	0x3e9662ea	0.2937234
8	0x3da46023	0.08026149
9	0xbd15f6ce	-0.036612324
10	0x3e4c18b0	0.19931293
11	0xbe8df881	-0.27728656
12	0x3eb33b44	0.35006154
13	0xbe480e41	-0.19536687
14	0x3daf74df	0.08567213
15	0xbd940898	-0.07228202
16	0x3df9989e	0.121873125
17	0xbe907d77	-0.28220722
18	0x3efedd65	0.49778286
19	0x3d30252a	0.043004192
20	0xbe797fd1	-0.24365164
21	0xbeb28872	-0.34869725
22	0xbdc630e4	-0.09677294
23	0xbe7f02f1	-0.24903466
24	0xbe3d7388	-0.18501103
25	0x3ce276a0	0.027644455
26	0x3eb037a4	0.3441745
27	0x3efb0a11	0.49031118
28	0xbf0804b7	-0.53132194
29	0x3ee52011	0.44751027
30	0x3e4457e3	0.19174151
31	0x3f00941a	0.50225985
32	0x3ea0bcc6	0.31394023
33	0xbf06aaec	-0.52604556
34	0xbf0c87f4	-0.5489495
35	0xbe8e9438	-0.27847457
36	0x3f0ebcc1	0.55756766
37	0xbe58d1d2	-0.2117379
38	0x3eaf2284	0.3420602
39	0xbec91561	-0.39274123
40	0x3f2df46a	0.6795107
41	0xbdb4c8ea	-0.08827384
42	0x3ed12a78	0.40852714
43	0xbe407831	-0.1879585
44	0xbe2e7858	-0.17038095
45	0x3eb90821	0.36139014
46	0xbed4f0b5	-0.41589895
47	0x3e5a1d0f	0.21300147
48	0xbe2ab716	-0.16671404
49	0xbd81a218	-0.06329745
50	0xbf0e1843	-0.5550577
51	0xbe8cf032	-0.27527004
52	0x3ea06788	0.31328988
53	0xbe0fb57b	-0.14034073
54	0x3f234451	0.6377612
55	0x3ec0c4d2	0.37650162
56	0xbcda3905	-0.026638517
57	0xbec54f6b	-0.38537154
58	0x3eb402e1	0.35158446
59	0x3e377c35	0.17918475
60	0xbee0961d	-0.43864527
61	0x3f057b16	0.5214094
62	0x3f050b55	0.51970416
63	0x3f14c13e	0.58107364
64	0xbeda565e	-0.42644018
65	0xbd27adac	-0.04093711
66	0xbc373e93	-0.011184352
67	0x3dacb348	0.08432633
68	0xbee056ba	-0.43816167
69	0xbed1c449	-0.40970066
70	0x3ea0cf3f	0.31408116
71	0xbe0aa219	-0.13538398
72	0x3ea6ba34	0.32563937
73	0xbd9b8ef2	-0.07595624
74	0x3e74d062	0.23907617
75	0x3e09f98a	0.13474098
76	0x3e0024ae	0.12513992
77	0x3d22f79a	0.039786913
78	0xbee008d5	-0.43756738
79	0x3f09e0b9	0.53858525
80	0xbe327db2	-0.17430761
81	0xbedf090e	-0.43561596
82	0x3d0fd0c3	0.0351112
83	0xbdc97de1	-0.098384626
84	0x3ecd159e	0.40055555
85	0xbee54639	-0.44780138
86	0xbf087d3c	-0.5331609
87	0x3ef50626	0.47856253
88	0xbe415eff	-0.18883894
89	0x3ee1f502	0.4413224
90	0x3eac3832	0.33636624
91	0xbed9a38d	-0.42507592
92	0x3e422837	0.18960653
93	0x3e90ccf7	0.28281376
94	0xbec5f2d9	-0.3866184
95	0xbf0f963b	-0.5608861
96	0x3e5b153e	0.21394822
97	0xbd19abfa	-0.037517525
98	0xbea04e55	-0.31309763
99	0xbe0ee109	-0.13953032
100	0x3f0dfa72	0.55460274
101	0xbf040177	-0.51564735
102	0x3eb8b6e9	0.3607705
103	0x3e1181bd	0.14209647
104	0xbf0015f5	-0.50033504
105	0xbf0a0327	-0.5391106
106	0x3f32fc0b	0.6991584
107	0x3e88450c	0.2661518
108	0x3ed2543b	0.41079888
109	0xbcc791df	-0.024361549
110	0x3e77bd17	0.24193226
111	0x3ef1dcff	0.4723892
112	0x3ee5b645	0.44865623
113	0xbee788f4	-0.45221674
114	0x3dbd20b0	0.0923475
115	0x3ec73f37	0.38915417
116	0x3e5046df	0.20339535
117	0x3ec47dab	0.38377127
118	0xbf1248b6	-0.571422
119	0xbec280e2	-0.37988955
120	0xbeb2c5c3	-0.34916505
121	0x3d948b6d	0.07253156
122	0x3f134f09	0.57542473
123	0xbebab9b5	-0.36469808
124	0x3e9d8579	0.30765894
125	0xbea39ce9	-0.3195565
126	0xbf0af728	-0.5428338
127	0xbdfb4f4b	-0.12270983
128	0x3eaa516b	0.33265242
129	0x3f1104c4	0.56647897
130	0xbf029186	-0.510033
131	0x3e70ccd0	0.2351563
132	0x3ed12cc3	0.40854463
133	0x3e559c7f	0.2086048
134	0x3e6f6d58	0.23381555
135	0x3ee7d605	0.4528047
136	0x3e88af09	0.2669604
137	0x3da83a8e	0.082142934
138	0xbeca23b7	-0.39480373
139	0xbef83c44	-0.4848348
140	0xbe877398	-0.2645538
141	0xbd89afeb	-0.06723007
142	0xbeb530d3	-0.35388812
143	0x3e584b8d	0.2112257
144	0x3e5e2aa4	0.21695954
145	0xbe7d2f27	-0.24725018
146	0x3e56c684	0.20974165
147	0x3e4155b0	0.18880343
148	0x3e92fbe4	0.28707802
149	0x3e1850ba	0.14874545
150	0xbe63d387	-0.2224866
151	0x3f249c4f	0.6430101
152	0xbe82260a	-0.25419647
153	0xbca27df1	-0.019835444
154	0xbf0b81ce	-0.5449494
155	0xbebe414e	-0.371592
156	0xbeacb147	-0.33729002
157	0xbe7cdf66	-0.24694595
158	0x3ed22a3c	0.41047847
159	0xbe4131f4	-0.18866712
160	0xbedce618	-0.43144298
161	0x3e63777a	0.22213545
162	0x3e04013b	0.12891094
163	0x3e3b2788	0.18276799
164	0xbe8801f9	-0.26564005
165	0x3e4b2344	0.19837672
166	0xbe9e095f	-0.30866525
167	0xbe112a4f	-0.14176296
168	0xbeeb925d	-0.46010104
169	0xbe86b976	-0.2631337
170	0xbe350fc6	-0.17681798
171	0x3e9d4b0f	0.30721328
172	0x3c331f42	0.010932745
173	0x3e3a52f8	0.18195713
174	0x3f1e7c5d	0.61908513
175	0x3ef470ac	0.47742212
176	0x3eaab02e	0.3333754
177	0x3c969be2	0.018384878
178	0xbecc7ef0	-0.39940596
179	0x3ee70451	0.4512048
180	0xbe13d6d3	-0.14437418
181	0xbd3f2f6d	-0.046676088
182	0xbefea976	-0.49738663
183	0xbde98f7a	-0.11404319
184	0xbebea91a	-0.3723839
185	0x3f07d0da	0.5305306
186	0xbeff8e28	-0.49913144
187	0xbee66aee	-0.45003456
188	0xbca099fa	-0.019604672
189	0xbe7e706d	-0.24847575
190	0x3ecb16ed	0.39665928
191	0xbea2a888	-0.31769204
192	0xbe8ad75a	-0.27117425
193	0x3d05f02f	0.03269976
194	0x3ed5fc95	0.41794267
195	0xbecfef35	-0.40612188
196	0x3e8ad133	0.2711273
197	0x3ebde867	0.3709137
198	0x3f1a6379	0.60308033
199	0xbf0c4ec5	-0.5480769
200	0x3e25718d	0.16156597
201	0xbeda93b9	-0.42690828
202	0x3efc5f15	0.49291292
203	0xbe655532	-0.2239578
204	0x3ec6c514	0.38822234
205	0xbdaff768	-0.08592111
206	0xbdb6f111	-0.089326985
207	0xbc96e9ae	-0.018421974
208	0x3dc900f5	0.09814636
209	0x3e8b58a4	0.27216065
210	0x3e157e1c	0.14598888
211	0x3d964d53	0.07338967
212	0xbf2198b1	-0.63123614
213	0x3ebb83b3	0.36623916
214	0x3ebd2706	0.36943835
215	0x3e86acf6	0.26303834
216	0x3ee3f736	0.44524544
217	0xbf159076	-0.58423555
218	0xbe31e060	-0.17370749
219	0x3f11c3e3	0.56939524
220	0xbf0fbc6e	-0.56146896
221	0x3f2d1167	0.6760468
222	0xbee87da8	-0.45408368
223	0xbed039bb	-0.40669045
224	0x3e908394	0.28225386
225	0xbed46344	-0.41481984
226	0xbe077224	-0.13227135
227	0x3ed70c8c	0.4200176
228	0x3f005bee	0.50140274
229	0x3ee9acb4	0.45639575
230	0xbe2d3447	-0.16914473
231	0xbee5c2c9	-0.44875172
232	0x3f1186f2	0.56846535
233	0xbdfbe28e	-0.12299071
234	0xbe733e42	-0.23754218
235	0x3e101ee7	0.14074288
236	0xbeceb900	-0.4037552
237	0x3ee03613	0.43791255
238	0x3e89ad3a	0.26889974
239	0xbf053b00	-0.5204315
240	0xbef2cce8	-0.47421956
241	0xbd4f267d	-0.050573815
242	0x3e785265	0.24250181
243	0x3dc712aa	0.09720357
244	0xbe937279	-0.28798273
245	0xbbb5da36	-0.0055496944
246	0xbf0aec6e	-0.54267013
247	0xbed0ebc1	-0.40804866
248	0xbec4c7ad	-0.3843359
249	0x3f027f45	0.5097545
250	0x3ecf8c28	0.40536618
251	0xbe8e0a84	-0.27742398
252	0x3dc69a7a	0.09697433
253	0x3e5f957b	0.21834366
254	0x3d9170ac	0.071015686
255	0xbe9cdfb7	-0.3063943

fc1.bias f4 [256]
0	0xbe8b6b9a	-0.2723053
1	0x3dc641e9	0.0968054
2	0xbee2d755	-0.4430491
3	0x3e779891	0.24179293
4	0xbf158d19	-0.5841842
5	0x3f02c542	0.5108224
6	0x3ec3477d	0.3814048
7	0xbe5303cc	-0.20606917
8	0x3daed7fb	0.08537289
9	0xbeafa524	-0.3430568
10	0xbecbf99b	-0.3983887
11	0xbe95b5c6	-0.29240245
12	0xbef0751c	-0.46964347
13	0x3e6cf229	0.23139252
14	0xbea9f04f	-0.33191153
15	0xbe10b8c9	-0.1413299
16	0xbee287af	-0.44244143
17	0xbeb9b761	-0.3627272
18	0xbf249ee2	-0.64304936
19	0xbed4768b	-0.4149669
20	0x3f230008	0.6367192
21	0x3d377115	0.044785578
22	0xbf0cf553	-0.55061835
23	0xbdc5598a	-0.09636219
24	0xbe059ce8	-0.13048136
25	0x3e91942b	0.28433356
26	0x3f49331f	0.7859363
27	0x3e0ec315	0.13941605
28	0x3e757882	0.23971751
29	0xbec2814f	-0.3798928
30	0xbdab7e7b	-0.083737336
31	0xbe505020	-0.20343065
32	0xbd4b2b35	-0.049601752
33	0x3f2fae6e	0.68625534
34	0x3e6996d7	0.22811447
35	0x3f374dd8	0.71603155
36	0xbef61197	-0.48060295
37	0xbe54206e	-0.20715496
38	0x3e2b7f9c	0.16747898
39	0x3e7c3490	0.24629426
40	0xbf07dd88	-0.53072405
41	0xbe912c8f	-0.28354308
42	0x3dab8582	0.08375074
43	0xbf10d244	-0.5657084
44	0x3cd5e26d	0.026108945
45	0xbe34768e	-0.1762335
46	0xbe1932bc	-0.1496076
47	0x3e9e88d8	0.30963778
48	0x3e7724a9	0.24135078
49	0x3f18a629	0.5962854
50	0x3ede8b68	0.43465734
51	0xbc8157e7	-0.015788985
52	0x3ef1aff0	0.47204542
53	0x3eeb40f7	0.45948002
54	0xbf08ebf6	-0.5348505
55	0x3ddc7452	0.10764374
56	0x3d8a8d4c	0.067652315
57	0xbed61bb1	-0.41818002
58	0xbe8a2432	-0.2698074
59	0xbe0b9a6f	-0.1363313
60	0xbecedafb	-0.40401444
61	0xbe3468fd	-0.17618175
62	0x3e46f204	0.19428259
63	0x3f33deee	0.7026204
64	0x3d33a205	0.043855686
65	0xbf0f21a1	-0.5591069
66	0x3dc4d610	0.09611142
67	0xbe32e3e4	-0.17469746
68	0x3ebf913c	0.37415493
69	0xbf0ed15b	-0.557882
70	0xbe8ad688	-0.271168
71	0x3ebb81a0	0.36622334
72	0x3c664773	0.014055121
73	0xbefc59ff	-0.49287412
74	0xbefff70e	-0.49993175
75	0xbbcb321b	-0.0062010414
76	0x3dd6d3ab	0.10489591
77	0xbef568b6	-0.4793145
78	0xbef75ca4	-0.48312867
79	0xbe15f20d	-0.14643116
80	0xbdf27f96	-0.11840741
81	0x3eab35a9	0.33439377
82	0xbf0f35cb	-0.55941457
83	0xbe7441fd	-0.23853298
84	0xbf0869b8	-0.53286314
85	0x3dc99b04	0.0984402
86	0xbe9707cd	-0.2949814
87	0xba359cd1	-0.00069279695
88	0xbef749da	-0.48298532
89	0xbee88a27	-0.45417902
90	0xbefa9efa	-0.48949414
91	0xbf31efb4	-0.6950638
92	0x3eba9ad6	0.36446255
93	0xbda93759	-0.0826251
94	0xbf0de4f4	-0.5542748
95	0x3ecf2340	0.4045658
96	0xbe06218c	-0.13098735
97	0x3e88b5c4	0.26701176
98	0xbe374491	-0.1789725
99	0xbef750fa	-0.48303968
100	0x3e01d85d	0.12680192
101	0x3eb811d2	0.35951096
102	0xbf101c80	-0.5629349
103	0xbe03681e	-0.12832686
104	0x3debab0c	0.11507234
105	0x3d87b645	0.06626562
106	0xbe2205da	-0.15822545
107	0xbe37c612	-0.17946652
108	0xbf09ed31	-0.5387755
109	0x3d50bab1	0.050959293
110	0xbf0e2492	-0.5552455
111	0xbef43dd5	-0.47703424
112	0xbe3dcf02	-0.18535998
113	0xbed1fd4c	-0.41013563
114	0x3ebe303b	0.37146172
115	0x3ec7ddf8	0.39036536
116	0x3ee5bbe4	0.44869912
117	0xbecb9c72	-0.39767796
118	0x3e56925f	0.20954274
119	0x3eb42c42	0.35190016
120	0x3bd4393d	0.00647655
121	0x3edf1b3a	0.4357546
122	0x3ea743bb	0.32668862
123	0x3ee22e22	0.44175822
124	0x3e82e123	0.2556239
125	0x3de2bbe7	0.11070996
126	0xbec1dfa4	-0.37865937
127	0xbea4cf60	-0.32189465
128	0xbe8c2bae	-0.27377075
129	0x3ead8d32	0.33896786
130	0xbe053472	-0.13008288
131	0x3e3d9f09	0.18517698
132	0xbf34beca	-0.7060362
133	0xbe6d3479	-0.23164548
134	0xbe26c785	-0.16287048
135	0xbebebc0e	-0.3725285
136	0x3e43117a	0.19049636
137	0xbf27007b	-0.6523511
138	0xbe7a82cd	-0.24463959
139	0xbe743108	-0.23846829
140	0xbf05ce30	-0.5226774
141	0x3e52b781	0.20577814
142	0xbe3c1d61	-0.18370582
143	0x3e3cc936	0.18436131
144	0x3ed18ba9	0.40926865
145	0x3f388afa	0.7208706
146	0xbd6de95c	-0.058083877
147	0x3e0ae42a	0.135636
148	0x3f022dba	0.50851023
149	0xbd7b1822	-0.06130231
150	0xbe256819	-0.16152991
151	0xbcdd3cc1	-0.027006509
152	0x3dbf8fa9	0.09353573
153	0x3f000789	0.500115
154	0xbf36d344	-0.71416116
155	0x3e7887d4	0.24270564
156	0x3e707283	0.23481183
157	0xbec83edd	-0.3911046
158	0x3d1e6eea	0.038679995
159	0x3e7c3432	0.24629286
160	0x3d352e85	0.044233818
161	0x3edf9673	0.4366947
162	0x3e56d28d	0.20978756
163	0xbf28c2b9	-0.65922123
164	0xbe0dee0b	-0.13860337
165	0x3ea2aaa8	0.31770825
166	0xbe8e2e41	-0.27769664
167	0x3e7c2afa	0.2462577
168	0x3e084811	0.13308741
169	0xbdbfd8e1	-0.09367538
170	0x3b867350	0.004103102
171	0x3dea8eb1	0.114529975
172	0xbeca48a3	-0.39508542
173	0x3ed6cecb	0.41954646
174	0x3e69c25a	0.22828045
175	0x3ea5e05b	0.32397732
176	0x3f13b1b9	0.5769306
177	0xbe0998e8	-0.13437235
178	0xbed0bcac	-0.40768945
179	0x3cd7f7a3	0.0263632
180	0xbe852066	-0.2600128
181	0x3e50b3f0	0.2038114
182	0x3f333520	0.7000294
183	0xbf04ad8e	-0.51827323
184	0xbe097203	-0.13422398
185	0x3f137461	0.57599455
186	0xbeebfab4	-0.4608971
187	0xbdcc0a80	-0.0996294
188	0x3edfdc48	0.4372275
189	0x3ece8c8f	0.40341613
190	0xbdbf4d89	-0.093409605
191	0xbe7efcf4	-0.24901181
192	0xbe416710	-0.18886971
193	0xbf048992	-0.51772416
194	0xbecebfd3	-0.40380725
195	0xbf0a7b03	-0.5409395
196	0x3ef7cc62	0.4839812
197	0x3e98f9e6	0.29878157
198	0x3eb3dc3e	0.3512897
199	0xbe147eed	-0.14501543
200	0x3eb6e813	0.35723934
201	0xbe6b90c6	-0.23004445
202	0x3e9b5f5d	0.30346194
203	0xbe533f37	-0.20629583
204	0xbe8b0e02	-0.27159125
205	0xbeacb3ab	-0.33730826
206	0xbea71ffe	-0.32641596
207	0xbf0749ca	-0.5284697
208	0x3d776290	0.06039673
209	0xbecd851b	-0.40140614
210	0x3dc37a72	0.09544839
211	0x3ebc78df	0.36810967
212	0xbd93e652	-0.072216645
213	0x3e8f5c96	0.28000325
214	0xbbd9ad5a	-0.0066429796
215	0x3e534a1b	0.20633738
216	0xbebea31c	-0.37233818
217	0xbd93b280	-0.072117805
218	0xbe4501fb	-0.19239037
219	0x3e9e3fe8	0.30908132
220	0xbf04aa68	-0.5182252
221	0xbea62696	-0.32451314
222	0xbdd9c614	-0.106334835
223	0x3f38ba8f	0.72159666
224	0x3ec8021a	0.39064103
225	0xbf09a9c5	-0.5377467
226	0xbf16b560	-0.58870506
227	0x3eb31aac	0.34981287
228	0x3dac51e4	0.08414057
229	0xbefd2fab	-0.4945043
230	0xbe83a0cf	-0.25708625
231	0x3e813bc7	0.2524092
232	0xbe9d2067	-0.30688784
233	0xbf0efd0b	-0.5585486
234	0xbeb6829c	-0.35646522
235	0xbe1e66a3	-0.1546884
236	0xbe54ae71	-0.20769669
237	0x3ea85b0d	0.32881966
238	0x3e8ded77	0.27720234
239	0xbee8f99c	-0.45502937
240	0xbe7aa768	-0.24477923
241	0xbee43b2e	-0.445764
242	0x3e6228df	0.22085904
243	0x3f43c10c	0.7646644
244	0x3f0fa8c8	0.56116915
245	0x3de56db3	0.11202564
246	0xbe52f49e	-0.20601127
247	0xbc6bce4d	-0.014392448
248	0x3e554c41	0.2082987
249	0xbf3b09c3	-0.7306177
250	0xbdc48337	-0.0959534
251	0xbef04859	-0.46930197
252	0xbf4eebdf	-0.8082866
253	0xbc9e14ef	-0.019297091
254	0xbeac13d5	-0.3360888
255	0xbebb40c3	-0.36572847

fc2.weight f4 [64, 256]
0	0x3e346da7	0.17619954
1	0x3e7e8535	0.24855502
2	0x3c1c4350	0.009537533
3	0xbe267fb0	-0.16259646
4	0x3e8b297f	0.27180097
5	0xbe2fed42	-0.1718035
6	0xbbe159b4	-0.0068771485
7	0xbcac9d20	-0.021071017
8	0x3d3c76ae	0.04601162
9	0x3eaf86e9	0.34282616
10	0x3d04b056	0.03239473
11	0xbc8f16f8	-0.017467007
12	0x3d9394fb	0.0720615
13	0xbea705d1	-0.32621625
14	0x3d7b78e6	0.061394595
15	0x3e312d90	0.17302537
16	0xbd47c9c4	-0.048776403
17	0x3d40ff06	0.04711821
18	0x3c35ef15	0.011104365
19	0x3d5e3f9c	0.05425988
20	0xbe89d850	-0.26922846
21	0x3e103fc9	0.14086832
22	0x3d199c6a	0.037502684
23	0x3c6d03c8	0.014466234
24	0x3d65dc05	0.05611803
25	0xbcbf8629	-0.023379402
26	0xbf0e5437	-0.5559725
27	0xbd6b5076	-0.05744978
28	0x3e099a42	0.13437751
29	0x3dee67c7	0.11640888
30	0x3e8e8aaa	0.27840167
31	0xbeaf7036	-0.34265298
32	0x3d5ce114	0.05392559
33	0xbe2a785f	-0.1664748
34	0xbd1ea226	-0.038728856
35	0xbebc4d8c	-0.36777914
36	0x3df1808b	0.11792096
37	0x3d509cec	0.050930902
38	0xbdc98d48	-0.098414004
39	0x3de1ce96	0.11025731
40	0xbd6ec8f2	-0.058297105
41	0xbbea5df0	-0.0071523115
42	0xbb588840	-0.0033040196
43	0x3e2943ca	0.16529766
44	0xbd26d488	-0.04073003
45	0x3cdee13d	0.027207011
46	0x3d66387a	0.056206204
47	0x3d66b6aa	0.056326546
48	0xbc001691	-0.00781788
49	0xbd2d0225	-0.042238373
50	0xbe5ba2e3	-0.21448855
51	0xbd47ec96	-0.04880961
52	0xbc8c6228	-0.017136648
53	0x3d788a34	0.060678676
54	0x3d3cc1ae	0.046083145
55	0x3db058d0	0.0861069
56	0x3d70d5f4	0.05879779
57	0x3dc7ef55	0.09762446
58	0x3d998e72	0.074978724
59	0x3d2a1c18	0.0415307
60	0x3d700dd2	0.05860693
61	0x3c2f9b18	0.01071813
62	0xbd4f05ce	-0.050542645
63	0xbec644ed	-0.3872446
64	0xbd0444fe	-0.03229236
65	0x3d534bd8	0.051586002
66	0x3e0e2863	0.13882594
67	0x3c95d9ac	0.01829227
68	0xbced662b	-0.028979382
69	0xbd3c8b92	-0.046031542
70	0x3dc47b16	0.09593789
71	0xbc2c6ac4	-0.010523502
72	0x3d8d3b99	0.06896133
73	0x3e6e2bb2	0.23258856
74	0xbc75d620	-0.015004665
75	0x3a772300	0.00094275177
76	0x3d083d6f	0.033261713
77	0x3cc502c8	0.024049178
78	0xbd43e2c0	-0.047823668
79	0x3cdef6af	0.027217237
80	0xbcfdbbb0	-0.030973285
81	0x3d8b4ef4	0.068021685
82	0x3cfd8898	0.030948922
83	0x3d73c6cc	0.05951576
84	0x3e052b50	0.13004804
85	0xbe9bc8f6	-0.3042676
86	0xbd7fd198	-0.062455744
87	0x3df2f268	0.118626416
88	0xbd2fa9da	-0.042886592
89	0x3c08bef0	0.008346304
90	0x3db22df6	0.087001726
91	0x3e814798	0.25249934
92	0xbd2ee7ac	-0.04270141
93	0xbd7ad1a2	-0.061235078
94	0x3d992815	0.07478348
95	0x3c250308	0.0100715235
96	0x3d3b8802	0.045784004
97	0x3a3edf02	0.00072811556
98	0x3d45284c	0.048134133
99	0x3ca19fe8	0.01972957
100	0xbc9251d0	-0.017861277
101	0xbc588480	-0.013215184
102	0xbd0bffdc	-0.034179553
103	0x3db9ed17	0.090784244
104	0xbd320866	-0.04346504
105	0x3cb00760	0.021487892
106	0x3da0ea46	0.07857184
107	0x3d593bb4	0.053035453
108	0x3e22d7df	0.15902661
109	0x3e6f97bc	0.23397726
110	0x3d124b47	0.03571632
111	0xbba73810	-0.0051031187
112	0x3d69b21e	0.05705463
113	0x3d3903f3	0.045169782
114	0xbec79869	-0.38983467
115	0x3d425922	0.047448285
116	0xbd78feb8	-0.060789794
117	0x3e918b18	0.28426433
118	0x3d743edd	0.059630264
119	0xbcc0189e	-0.023449238
120	0x3c288770	0.010286197
121	0xbe3bf088	-0.18353474
122	0xbd220fc0	-0.0395658
123	0xbce79588	-0.028269544
124	0x3d49f80d	0.049308825
125	0x3db0b8b6	0.08628981
126	0x3d172f71	0.036910478
127	0x3be0c320	0.006859198
128	0xbd26929c	-0.04066716
129	0xbca5bb73	-0.020230984
130	0xbc8897a1	-0.016673865
131	0xbe975351	-0.29555753
132	0x3e226e60	0.15862417
133	0x3e27933c	0.16364759
134	0xbd0e57fe	-0.034751885
135	0xbc88667c	-0.01665043
136	0x3bf64e7b	0.00751668
137	0x3e084fb8	0.1331166
138	0x3dbc9c6c	0.092095226
139	0x3dcf01d1	0.10107768
140	0xbcbe553c	-0.023234002
141	0x3dbd57da	0.09245272
142	0xbd39305c	-0.045212135
143	0x3ba6d2d9	0.005091053
144	0xbdf73c3a	-0.12072034
145	0xbefa50ce	-0.48889774
146	0x3cb3a2cf	0.02192822
147	0x3ded1442	0.115761295
148	0xbca4fc8b	-0.020139953
149	0x3dbac8de	0.091203436
150	0x3c6c9bac	0.014441412
151	0xbde598f2	-0.11210813
152	0x3cd26610	0.025683433
153	0xbeab8c98	-0.33505702
154	0x3dc2902b	0.09500154
155	0x3d819bd1	0.06328548
156	0xbee96066	-0.4558136
157	0xbe9e2b78	-0.3089254
158	0x3d3995f2	0.045309015
159	0x3cbb78f4	0.022884823
160	0x3e0c2547	0.13686095
161	0x3b3b9aef	0.0028626283
162	0xbecfcecd	-0.40587464
163	0x3e0d536d	0.13801356
164	0x3e7aa285	0.24476059
165	0xbaafb215	-0.0013404513
166	0x3d5c80a8	0.053833634
167	0x3d1f2f9c	0.038863763
168	0xbafac5c0	-0.001913242
169	0xbce4aef0	-0.027915448
170	0x3b87c360	0.0041431636
171	0x3d8940e6	0.067018315
172	0x3d222ba6	0.039592408
173	0x3d376884	0.04477741
174	0x3d29686b	0.041359346
175	0x3ccb48e0	0.024815023
176	0x3cc0e970	0.023548812
177	0x3d8e4743	0.06947186
178	0x3cf89edc	0.030349188
179	0x3ca31db4	0.019911624
180	0x3e5a858d	0.21340008
181	0xbd7096a4	-0.058737412
182	0xbeb0a42d	-0.34500256
183	0x3e095d71	0.13414551
184	0x3de02c5e	0.10945962
185	0xbde2945c	-0.110634536
186	0x3d2cbe94	0.042173937
187	0x3cae225c	0.021256618
188	0xbd4ebb53	-0.050471615
189	0x3b731b20	0.0037095025
190	0x3dfc9e42	0.12334873
191	0x3d1379a4	0.036004677
192	0x3ec7324f	0.3890557
193	0xbcca7244	-0.02471269
194	0xbe6b2547	-0.22963439
195	0xbd4fa9a4	-0.05069889
196	0xbce5e7e9	-0.028064685
197	0xbd008375	-0.031375367
198	0xbdede1a5	-0.11615304
199	0x3d11bc92	0.035580225
200	0x3d5dd3d6	0.0541571
201	0x3e0a27cc	0.13491744
202	0xbcc0f89c	-0.023556046
203	0x3d86340f	0.06552898
204	0xbcc2c74c	-0.023776673
205	0x3ca182ca	0.019715685
206	0x3ddd2a95	0.107991375
207	0x3d30f468	0.043201834
208	0x3d5e3525	0.0542499
209	0x3de16862	0.110062376
210	0x3df3f36a	0.11911662
211	0xbc9b411c	-0.018951945
212	0x3d9e721f	0.077366106
213	0xbc89d90c	-0.016827129
214	0x3c14a612	0.009072797
215	0x3df0b482	0.11753179
216	0x3c0c0a40	0.008547366
217	0x3e1b5ed2	0.1517289
218	0x3cd29458	0.025705501
219	0xbc42a77b	-0.011880751
220	0xbcb99ca8	-0.022657707
221	0xbd32cdfe	-0.04365348
222	0x3e21e676	0.1581057
223	0xbee7a856	-0.45245618
224	0xbd4b9c72	-0.049709745
225	0x3e4d5617	0.20052372
226	0x3e9da17c	0.30787265
227	0x3dc852cb	0.097814165
228	0x3d30467c	0.04303597
229	0xbd4443a0	-0.047916055
230	0x3e505a42	0.2034693
231	0x3d22f454	0.03978379
232	0x3e9ac8da	0.30231363
233	0x3e542771	0.2071817
234	0x3d3aab72	0.04557366
235	0xbea54720	-0.32280827
236	0x3e4681d3	0.19385462
237	0xbddc38bd	-0.107530095
238	0xbcd5c0d8	-0.026092932
239	0x3d92408b	0.07141217
240	0x3dc1af66	0.09457283
241	0xbba1c9f0	-0.004937403
242	0x3e0a6e40	0.1351862
243	0xbda3aad4	-0.07991567
244	0xbd05dd7c	-0.032681927
245	0x3c6bdf62	0.01439652
246	0x3e1328ef	0.14371084
247	0xba94bec0	-0.0011348352
248	0x3d28b834	0.041191295
249	0x3df5b552	0.11997475
250	0xbcb39074	-0.021919467
251	0xbcfd57d4	-0.030925669
252	0x3d315cf6	0.043301545
253	0xbd595a94	-0.053064898
254	0x3e6cf04d	0.23138542
255	0xbd1e2fe6	-0.0386199

fc2.bias f4 [64]
0	0xbda6cf85	-0.0814505
1	0xbcdce666	-0.026965331
2	0xbcb16724	-0.021655627
3	0x3cdb9954	0.026806511
4	0xbd49144c	-0.049091622
5	0x3c93cd70	0.018042296
6	0x3d4d67ee	0.050147943
7	0x3d5a4c90	0.053295672
8	0xbde9e7c7	-0.11421161
9	0x3c374570	0.011185989
10	0x3d00007a	0.031250454
11	0xbd24c3ac	-0.04022567
12	0xbc380578	-0.011231773
13	0xbe1e48bd	-0.15457435
14	0xbda21f98	-0.07916182
15	0x3caac044	0.020843633
16	0x3d4c013a	0.049805857
17	0xbdb6802b	-0.08911165
18	0xbe110dc4	-0.14165407
19	0xbddf4a9a	-0.10902901
20	0xbe02b68d	-0.1276495
21	0xbce0781b	-0.02740102
22	0x3c53e7f8	0.012933724
23	0xbe0b5f65	-0.13610609
24	0x3bd5d400	0.0065255165
25	0x3c52c9c0	0.012865484
26	0xbd152508	-0.03641227
27	0x3bda5ac0	0.0066636503
28	0xbd678d69	-0.056531344
29	0x3d236eff	0.039900776
30	0xbd58a1dc	-0.052888736
31	0xbb81ceb0	-0.0039614066
32	0xbb2bf757	-0.0026239955
33	0xbd549b3d	-0.05190586
34	0xbd94d181	-0.07266522
35	0x3c372630	0.011178538
36	0xbd241622	-0.04006017
37	0xbca1fe44	-0.019774564
38	0xbd762709	-0.06009582
39	0xba52f500	-0.0008047372
40	0xbd5fc024	-0.0546266
41	0xbd73de25	-0.059538025
42	0x3d6dbc04	0.058040634
43	0x3d348432	0.044071384
44	0xbe063285	-0.13105209
45	0x3c9fa4f6	0.01948784
46	0xbdee349c	-0.11631128
47	0xbe0b4c6b	-0.1360337
48	0xbc765e7c	-0.015037175
49	0x3d0a1888	0.0337148
50	0x3c3cda60	0.011526674
51	0xbe316737	-0.1732453
52	0xbd1f4507	-0.03888419
53	0x3d03e1d2	0.03219778
54	0x3ccc238d	0.024919296
55	0x3ce3db80	0.027814627
56	0xbd15be73	-0.03655858
57	0xbe03ed66	-0.12883529
58	0xba81eb7b	-0.0009912098
59	0xbd1185d0	-0.035528004
60	0xbd42630b	-0.047457736
61	0x3cd00544	0.025393136
62	0x3d0ce110	0.034394324
63	0xbda2b393	-0.07944407

fc3.weight f4 [2, 64]
0	0xbe21e1f3	-0.15808849
1	0x3db7c086	0.08972268
2	0x3df0bd70	0.11754882
3	0xbcd381a0	-0.025818646
4	0xbe65cff2	-0.22442606
5	0xbc9009b0	-0.017582744
6	0x3c1b15d0	0.00946565
7	0xbd57c4ac	-0.052677795
8	0xbe027b08	-0.12742245
9	0x3d33b978	0.04387805
10	0xbd8901e0	-0.06689811
11	0x3d06cec4	0.03291203
12	0x3d18ac84	0.0372739
13	0xbe016f47	-0.12640105
14	0xbe422276	-0.18958458
15	0x3c62bb15	0.013838549
16	0xbc896f80	-0.0167768
17	0xbe7d6421	-0.24745227
18	0xbe772bb6	-0.24137768
19	0xbea41c6b	-0.3205293
20	0xbe91380a	-0.28363067
21	0xbc8ec2e3	-0.017426914
22	0x3d14b688	0.036306888
23	0xbe541338	-0.20710456
24	0xbdaf30ac	-0.08554205
25	0xbdc72dfa	-0.09725566
26	0xbd7c1ee8	-0.061552912
27	0x3d6aa8c8	0.05728987
28	0xbd88199a	-0.06645508
29	0xbd425780	-0.047446728
30	0x3d743928	0.05962482
31	0x3d2db528	0.042409092
32	0x3cbc9213	0.023018872
33	0x3ca72e7a	0.020407904
34	0xbe58a2c2	-0.21155837
35	0x3bbb86e0	0.0057228655
36	0x3d583741	0.05278707
37	0x3d5bd164	0.053666487
38	0xbe0ec242	-0.13941291
39	0xbd800a56	-0.062519714
40	0xbdbfeaca	-0.09370954
41	0xbd870af6	-0.065938875
42	0xbd9225f0	-0.07136142
43	0x3d88bf5e	0.066771254
44	0xbe72b670	-0.23702407
45	0x3db2e02f	0.08734166
46	0xbe943de0	-0.28953457
47	0xbdcf9244	-0.1013532
48	0x3dde38bc	0.10850665
49	0xbc2a6cab	-0.010401885
50	0x3cef00c1	0.029175164
51	0xbe7b4483	-0.24537854
52	0x3d3bf590	0.045888484
53	0x3ddcd608	0.10783011
54	0xbb4644ab	-0.0030253332
55	0x3cd4dac8	0.02598323
56	0x3b7265d4	0.0036986964
57	0xbe087153	-0.1332448
58	0x3d1827b3	0.037147235
59	0x3d81fdfc	0.06347272
60	0xbe8c9efb	-0.27465042
61	0xbd92427c	-0.07141587
62	0xbdffbba6	-0.12486963
63	0xbe639b2a	-0.22227159
64	0xbe69efe8	-0.22845423
65	0xbe0c8967	-0.1372429
66	0x3da354b6	0.07975142
67	0xbc379ce0	-0.0112068355
68	0xbe6ff9ed	-0.23435183
69	0x3dce95e2	0.10087182
70	0xbda5e50a	-0.08100326
71	0x3dae3166	0.08505516
72	0xbe8f9f1f	-0.28051087
73	0x3dbba2aa	0.09161885
74	0x3d1eb31e	0.03874504
75	0x3d8cbdf2	0.06872167
76	0x3c93f238	0.018059835
77	0xbe84947f	-0.25894544
78	0xbe394cca	-0.18095699
79	0x3b5618aa	0.003266851
80	0xbd41f56c	-0.047353193
81	0xbdfeeb50	-0.12447226
82	0xbe1d1305	-0.15339287
83	0xbd470b61	-0.048594836
84	0xbd39955d	-0.04530846
85	0xbc821cd0	-0.01588288
86	0x3b804200	0.003914118
87	0xbe4c7911	-0.19968058
88	0x3df483a8	0.11939174
89	0xbdb57c64	-0.08861616
90	0x3d86af6c	0.06576428
91	0x3d679310	0.056536734
92	0xbc48d46e	-0.012257678
93	0x3dc83ee5	0.09777621
94	0x3d894c98	0.06704062
95	0xbdf91ef6	-0.121641085
96	0xbd654e16	-0.05598267
97	0x3d82e262	0.06390835
98	0xbdffba9b	-0.12486764
99	0xbca0b2d0	-0.019616514
100	0x3ddee868	0.10884172
101	0x3c9478eb	0.018124064
102	0xbe735ff3	-0.2376707
103	0xbd9f3210	-0.077732205
104	0xbdde5512	-0.108560696
105	0x3c994678	0.01871036
106	0xbdad02d6	-0.084478065
107	0xbce95f48	-0.028487816
108	0xbd8b5e52	-0.068050995
109	0x3d47d656	0.04878839
110	0xbd193dc3	-0.037412416
111	0xbea49576	-0.3214528
112	0x3dcabe18	0.09899539
113	0x3cfaea5c	0.03062933
114	0x3d35bb31	0.044367973
115	0xbde1efa9	-0.1103204
116	0x3ddc1647	0.107464366
117	0x3de375ae	0.1110643
118	0xbc50e7f7	-0.012750617
119	0xbdccee62	-0.100064054
120	0x3d8c6a9f	0.06856274
121	0xbe88d4ac	-0.26724756
122	0xbc999d0a	-0.01875164
123	0xbbba2c46	-0.0056815473
124	0xbdfff0b4	-0.12497082
125	0xbc78a690	-0.01517643
126	0xbdfe184c	-0.12406978
127	0xbddfb16e	-0.10922514

fc3.bias f4 [2]
0	0x3e90dce9	0.2829354
1	0x3e81d7bf	0.25359914
