checkpoints/dubins3d-discrete-v0__hj_dqn__1__1638911814_evalFalse/dqn_checkpoint_10073.pth (torch, 72343 bytes, 6 tensors)

fc1.weight f4 [256, 3]
000000 f4 a9 b8 3e 44 cb a1 be 5b a0 8c be 7a 1a b2 3e
       0.36067164 -0.31600392 -0.27466092 0.34785825
000010 a6 5c 17 bf b6 a8 6f 3e 9a 40 f3 bd ea 62 96 3e
       -0.59125745 0.23404202 -0.11877556 0.2937234
000020 23 60 a4 3d 4e 97 c8 bb 94 e6 39 3e ea de b4 bc
       0.08026149 -0.0061215525 0.18154365 -0.02207895
000030 8a c9 a3 3e 36 b2 2e be d6 ad 4a be ab e3 47 bd
       0.319897 -0.1706017 -0.19792876 -0.048801105
000040 7d 7c ac 3d 0c ec 23 3c 2a 26 07 3f 04 96 d7 3d
       0.08422182 0.010005008 0.5279261 0.1052666
000050 48 13 a6 be 72 88 b2 be e4 30 c6 bd f1 02 7f be
       -0.32436585 -0.34869725 -0.09677294 -0.24903466
000060 88 73 3d be a0 76 e2 3c a4 37 b0 3e ab a5 e7 3e
       -0.18501103 0.027644455 0.3441745 0.45243582
000070 66 b6 03 bf 58 77 2d 3e cc 50 69 3e b5 53 07 3f
       -0.5145019 0.16940057 0.22784728 0.528621
000080 5a 16 8e 3e ec aa 06 bf f4 87 0c bf 38 94 8e be
       0.27751428 -0.52604556 -0.5489495 -0.27847457
000090 9a 1d 0e 3f a5 eb 26 be 1e 65 e2 3d 0a ef 80 be
       0.5551392 -0.16300829 0.11054443 -0.25182372
0000a0 e3 04 2b 3f 5f bb 5b bd 16 b0 cf 3e c3 80 0a be
       0.6680433 -0.053645488 0.4056403 -0.13525681
0000b0 96 15 c9 be 1d 72 b7 3e f7 6c bb be 01 f9 47 bc
       -0.3927428 0.3582925 -0.3660657 -0.012205363
0000c0 16 b7 2a be 18 a2 81 bd 43 18 0e bf 32 f0 8c be
       -0.16671404 -0.06329745 -0.5550577 -0.27527004
0000d0 88 67 a0 3e 7b b5 0f be ad 68 25 3f df ea d9 3e
       0.31328988 -0.14034073 0.6461285 0.42562005
0000e0 e0 ad 42 be 6b 4f c5 be e1 02 b4 3e 35 7c 37 3e
       -0.1901164 -0.38537154 0.35158446 0.17918475
0000f0 cf 56 84 be 9b 93 0c 3f fc e2 07 3f 99 bc 14 3f
       -0.2584748 0.5491273 0.53080726 0.5810028
000100 c4 0a c0 be 8b ca 76 be 93 3e 37 bc 48 b3 ac 3d
       -0.37508214 -0.24100702 -0.011184352 0.08432633
000110 ba 56 e0 be 49 c4 d1 be 3f cf a0 3e 19 a2 0a be
       -0.43816167 -0.40970066 0.31408116 -0.13538398
000120 3a d3 a8 3e 8b b7 ec bc aa b3 59 3d f8 8d 41 3e
       0.32973653 -0.028896114 0.053149857 0.18901813
000130 13 7f 32 3e 1a 3e 0b 3e a5 d9 eb be 6a bc ba 3e
       0.17431287 0.13597909 -0.46064487 0.36471874
000140 ec c4 cc be 0e 09 df be c3 d0 0f 3d e1 7d c9 bd
       -0.3999399 -0.43561596 0.0351112 -0.098384626
000150 e0 09 d0 3e c0 de c7 be 88 66 30 bf 9b 93 f7 3e
       0.40632534 -0.39037132 -0.6890645 0.48354802
000160 72 03 0b be b4 de 4a 3e df ca 9b 3e f4 b8 ce be
       -0.13575533 0.19811517 0.30428216 -0.40375483
000170 ff 6f 85 bd 3f c3 18 3e a3 3c cc be 8c 69 95 be
       -0.06515502 0.1491823 -0.39890012 -0.29182088
000180 94 b3 69 3e 11 3d 94 3c 02 84 ce be 3a ff e0 bd
       0.2282241 0.018095525 -0.4033509 -0.109861806
000190 3b 4a 09 3f 33 f0 65 be ff 1f c5 3e c8 53 4c 3e
       0.5362889 -0.2245491 0.38500974 0.19953835
0001a0 58 3c 0b bf 91 eb cd be 80 3e 2c 3f cc b2 36 3e
       -0.5438895 -0.40218785 0.6728287 0.17841643
0001b0 71 dc d4 3e 04 ad cf 3c af 03 1d 3d c8 83 fe 3e
       0.41574433 0.025351055 0.03833359 0.49709916
0001c0 13 3c 01 3f 82 62 08 bf 90 48 08 3e 79 0a d3 3e
       0.5048229 -0.5327531 0.1330893 0.41218928
0001d0 cc 24 9c 3e 91 13 b4 3e 12 92 0c bf 70 9e 12 bf
       0.30496824 0.35171178 -0.54910386 -0.57273006
0001e0 c3 c5 b2 be 6d 8b 94 3d 09 4f 13 3f b5 b9 ba be
       -0.34916505 0.07253156 0.57542473 -0.36469808
0001f0 79 85 9d 3e e9 9c a3 be 28 f7 0a bf 4b 4f fb bd
       0.30765894 -0.3195565 -0.5428338 -0.12270983
000200 6b 51 aa 3e 46 be 0f 3f b5 b4 ea be 5b f9 94 bc
       0.33265242 0.5614971 -0.45840994 -0.018185308
000210 d5 d0 f5 3e 7d ee 8a 3e 68 7e 72 3e 17 c3 f2 3e
       0.4801089 0.27135077 0.23681033 0.47414467
000220 cd df a2 3e 71 87 69 bc b7 23 ca be 44 3c f8 be
       0.3181137 -0.014253483 -0.39480373 -0.4848348
000230 98 73 87 be eb af 89 bd d3 30 b5 be 8d 4b 58 3e
       -0.2645538 -0.06723007 -0.35388812 0.2112257
000240 a5 3c 6a 3e 1f 08 49 be 28 41 6f 3d 81 ad 78 3e
       0.22874697 -0.19632004 0.058411747 0.24284936
000250 69 b4 a5 3e c0 ed 90 3e 7b b9 47 be 47 bc 19 3f
       0.32364205 0.2830639 -0.19504349 0.60052913
000260 cc a4 b5 3b f1 7d a2 bc ce 81 0b bf 4e 41 be be
       0.005543327 -0.019835444 -0.5449494 -0.371592
000270 47 b1 ac be 66 df 7c be 3c 2a d2 3e f4 31 41 be
       -0.33729002 -0.24694595 0.41047847 -0.18866712
000280 18 e6 dc be 7a 77 63 3e 06 91 24 3e 2e 4a 7e 3e
       -0.43144298 0.22213545 0.16070947 0.24832985
000290 c8 1c bf be 67 80 45 3e 07 94 86 be 49 2a 9f be
       -0.37326646 0.19287263 -0.2628481 -0.3108695
0002a0 5d 92 eb be 76 b9 86 be c6 0f 35 be e8 44 a0 3e
       -0.46010104 -0.2631337 -0.17681798 0.3130257
0002b0 58 ce 76 3d 29 3d a9 bc 13 09 25 3f ae 0a 07 3f
       0.06025538 -0.020659046 0.6446697 0.5275067
0002c0 27 3f 6c 3e e2 9b 96 3c f0 7e cc be 51 04 e7 3e
       0.23070966 0.018384878 -0.39940596 0.4512048
0002d0 d3 d6 13 be 6d 2f 3f bd 76 a9 fe be 7a 8f e9 bd
       -0.14437418 -0.046676088 -0.49738663 -0.11404319
0002e0 1a a9 be be da d0 07 3f 28 8e ff be ee 6a e6 be
       -0.3723839 0.5305306 -0.49913144 -0.45003456
0002f0 fa 99 a0 bc c1 4b 6c be 19 ad b3 3e 9b 1a 46 bd
       -0.019604672 -0.23075773 0.35093 -0.048365217
000300 5a d7 8a be 2f f0 05 3d 95 fc d5 3e 35 ef cf be
       -0.27117425 0.03269976 0.41794267 -0.40612188
000310 33 d1 8a 3e 67 e8 bd 3e 77 7c 1b 3f b2 74 fc be
       0.2711273 0.3709137 0.60736793 -0.4930778
000320 78 25 25 bd b9 93 da be 15 5f fc 3e 32 55 65 be
       -0.040318936 -0.42690828 0.49291292 -0.2239578
000330 11 88 d3 3e 45 47 dd bc 29 45 3c be ae e9 96 bc
       0.41314748 -0.027011523 -0.18385758 -0.018421974
000340 f5 00 c9 3d a4 58 8b 3e 94 42 21 3e 54 92 04 3e
       0.09814636 0.27216065 0.15748054 0.12946445
000350 09 9c 31 bf 97 b7 da 3e 00 a3 d3 3e eb 8e af 3e
       -0.69378716 0.42718193 0.41335297 0.34288725
000360 26 eb df 3e 58 9b 09 bf 2a 5d c4 be 36 dd 0f 3f
       0.43734092 -0.5375266 -0.3835233 0.56196916
000370 58 c8 02 bf 7f bb ca 3e a8 7d e8 be bb 39 d0 be
       -0.5108695 0.39596173 -0.45408368 -0.40669045
000380 94 83 90 3e 44 63 d4 be 24 72 07 be 8c 0c d7 3e
       0.28225386 -0.41481984 -0.13227135 0.4200176
000390 46 a5 06 3f 9e 5b 02 3f 5c 18 7c be c9 c2 e5 be
       0.5259594 0.50921047 -0.24618667 -0.44875172
0003a0 f2 86 11 3f 8e e2 fb bd 42 3e 73 be e7 1e 10 3e
       0.56846535 -0.12299071 -0.23754218 0.14074288
0003b0 00 b9 ce be 9c 17 e6 3e 97 fc a3 3e 63 50 20 bf
       -0.4037552 0.44939888 0.32028648 -0.6262266
0003c0 e8 cc f2 be 7d 26 4f bd 65 52 78 3e 64 73 a0 3d
       -0.47421956 -0.050573815 0.24250181 0.07834509
0003d0 51 cb 83 be 34 6a 06 be 6e ec 0a bf c1 eb d0 be
       -0.25741056 -0.13126451 -0.54267013 -0.40804866
0003e0 ad c7 c4 be b0 52 08 3f 13 35 eb 3e 13 9b b7 be
       -0.3843359 0.5325117 0.4593893 -0.358605
0003f0 88 cd bf 3d c7 ab 76 3e df 8f 83 bd e9 5e 12 be
       0.09365374 0.24088965 -0.064239256 -0.14294018

fc1.bias f4 [256]
000000 c9 64 07 be f0 2c 5c 3e 55 d7 e2 be 2c 53 e4 3d
       -0.1322204 0.21501517 -0.4430491 0.11148676
000010 ea 59 e9 be c1 bb b7 3e de 9c fd 3e cc 03 53 be
       -0.4557641 0.35885432 0.49533743 -0.20606917
000020 fb d7 ae 3d 84 e8 61 be 44 85 be be c6 b5 95 be
       0.08537289 -0.22061354 -0.3721105 -0.29240245
000030 c4 fc a5 be 34 e4 49 3e ee cc 41 be e2 83 7b 3b
       -0.32419407 0.19715959 -0.1892583 0.0038378169
000040 af 87 e2 be 61 b7 b9 be 34 cf 03 bf 8b 76 d4 be
       -0.44244143 -0.3627272 -0.5148804 -0.4149669
000050 5b 0f 26 3f db bc 3c 3e 53 f5 0c bf 8a 59 c5 bd
       0.6486718 0.18431418 -0.55061835 -0.09636219
000060 91 48 52 3b a9 f9 95 3e 74 51 1b 3f 15 c3 0e 3e
       0.003208671 0.29292038 0.6067116 0.13941605
000070 b3 ad be 3e 3c f7 6f be 2d f0 13 3d 7d 06 ad be
       0.37241897 -0.23434156 0.03611772 -0.33794013
000080 b4 ab 8e 3d 42 f8 0d 3f 91 74 aa 3e 3b 84 30 3f
       0.069663435 0.55456936 0.33292058 0.6895177
000090 00 fe aa be 52 0e c4 bd 52 03 f1 3d fe 41 b6 3e
       -0.33396912 -0.09573044 0.117682114 0.35597223
0000a0 88 dd 07 bf 8f 2c 91 be 82 85 ab 3d e8 a3 d3 be
       -0.53072405 -0.28354308 0.08375074 -0.41335988
0000b0 1b fb f7 3d b7 53 71 bd bc 32 19 be d8 88 9e 3e
       0.121084414 -0.058917727 -0.1496076 0.30963778
0000c0 47 45 bd 3e 97 90 0c 3f 49 c5 95 3e e7 57 81 bc
       0.36966917 0.54908127 0.2925208 -0.015788985
0000d0 f0 af f1 3e f7 40 eb 3e dd 58 cd be f4 2b 6e 3e
       0.47204542 0.45948002 -0.4010686 0.23258954
0000e0 4c 8d 8a 3d f6 17 8d be 7d 12 1d be 6f 9a 0b be
       0.067652315 -0.27557343 -0.15339084 -0.1363313
0000f0 fb da ce be fd 68 34 be 04 f2 46 3e b5 4d 0e 3f
       -0.40401444 -0.17618175 0.19428259 0.5558732
000100 05 a2 33 3d a1 21 0f bf 75 02 79 3e e4 e3 32 be
       0.043855686 -0.5591069 0.24317344 -0.17469746
000110 06 b1 fa 3e 5b d1 0e bf 8e 9b 22 be 4f 1c c0 3e
       0.48963183 -0.557882 -0.15879652 0.37521598
000120 2e 7b 1b 3e 2a 3f ad be 0e f7 ff be 1b 32 cb bb
       0.15183708 -0.33837253 -0.49993175 -0.0062010414
000130 a8 80 53 3e b6 68 f5 be a4 5c f7 be 30 c6 e6 bc
       0.20654547 -0.4793145 -0.48312867 -0.028170675
000140 96 7f f2 bd 40 c6 d7 3e cb 35 0f bf 7e 1d f9 bd
       -0.11840741 0.4214344 -0.55941457 -0.12163828
000150 15 9d e4 be e9 cf c2 3d cd 07 97 be fb 94 13 3e
       -0.44651094 0.09512312 -0.2949814 0.144123
000160 da 49 f7 be 27 8a e8 be 8e 1a b2 be 9a 3e 0d bf
       -0.48298532 -0.45417902 -0.34785885 -0.5517365
000170 d6 9a ba 3e 59 37 a9 bd 6a d7 d2 be 40 23 cf 3e
       0.36446255 -0.0826251 -0.41179973 0.4045658
000180 8c 21 06 be 67 ba 88 3e 91 44 37 be fa 50 f7 be
       -0.13098735 0.26704714 -0.1789725 -0.48303968
000190 5d d8 01 3e d2 11 b8 3e 80 1c 10 bf 18 ae 43 3c
       0.12680192 0.35951096 -0.5629349 0.011943363
0001a0 0c ab eb 3d 45 b6 87 3d c8 26 0f bd 12 c6 37 be
       0.11507234 0.06626562 -0.034949094 -0.17946652
0001b0 34 77 d3 be 2e 56 26 3e 5d 9a d3 be d5 3d f4 be
       -0.41301882 0.16243812 -0.41328707 -0.47703424
0001c0 02 cf 3d be e3 d1 d1 be 92 d2 b8 3e f7 ea c7 3e
       -0.18535998 -0.40980443 0.36098152 0.3904645
0001d0 e4 bb e5 3e cb 9a 8f be f0 e1 9a 3e 1d a6 bd 3e
       0.44869912 -0.28047785 0.30250502 0.37040797
0001e0 3d 39 d4 3b 34 b9 92 3e bb 43 a7 3e 22 2e e2 3e
       0.00647655 0.28656924 0.32668862 0.44175822
0001f0 44 c7 9d 3e be e6 45 3e 7b 71 78 be 60 cf a4 be
       0.3081609 0.19326302 -0.2426204 -0.32189465
000200 ae 2b 8c be 88 74 e6 3e 8f 44 44 be 70 31 27 3e
       -0.27377075 0.4501078 -0.19166778 0.16327453
000210 ce fa 0e bf 89 c9 9b bd 85 c7 26 be 0e bc be be
       -0.5585145 -0.07606799 -0.16287048 -0.3725285
000220 0e 29 a8 3e 6e d1 03 bf a0 33 00 be c0 eb c1 bd
       0.32843822 -0.5149144 -0.12519693 -0.09468794
000230 30 ce 05 bf f6 75 a8 3e 61 1d 3c be 3d 81 7a 3e
       -0.5226774 0.32902497 -0.18370582 0.24463363
000240 ae 67 9a 3e 3c a1 2c 3f e3 c5 4d 3d 19 81 93 3e
       0.30157226 0.67433524 0.050237548 0.2880943
000250 9b 9e 05 3f 02 9c 94 3d 48 04 27 be 36 81 07 be
       0.5219514 0.07256319 -0.16310227 -0.13232884
000260 a9 8f bf 3d a9 6d b0 3e e4 1f 12 bf 0f cf c2 3e
       0.09353573 0.34458664 -0.5707991 0.38048598
000270 74 d4 f3 3d 0a 3f ce be 80 ec 1a 3e 62 f9 ae 3e
       0.119057566 -0.4028247 0.1512928 0.3417464
000280 88 15 3e 3e d9 37 dd 3e 39 2a 3b 3e b5 3e 04 bf
       0.18562901 0.4320667 0.18277825 -0.51658183
000290 aa 9a a8 bc 4b c6 ce 3e 41 2e 8e be fa 2a 7c 3e
       -0.020581562 0.4038566 -0.27769664 0.2462577
0002a0 11 48 08 3e e1 d8 bf bd 50 73 86 3b 22 e5 68 3e
       0.13308741 -0.09367538 0.004103102 0.22743657
0002b0 a3 48 ca be 62 08 fd 3e 5a 0d b7 3e 5b e0 a5 3e
       -0.39508542 0.49420458 0.35752374 0.32397732
0002c0 b9 b1 13 3f 7d ff 31 bd ac bc d0 be a3 f7 d7 3c
       0.5769306 -0.043456543 -0.40768945 0.0263632
0002d0 da a1 0a be f0 b3 50 3e e1 1b 22 3f 5e 6a bf be
       -0.13538304 0.2038114 0.6332379 -0.3738584
0002e0 3e 4e 03 bc 19 6e 08 3f b4 fa eb be 80 0a cc bd
       -0.00801426 0.53292996 -0.4608971 -0.0996294
0002f0 5c 8c 09 3f 8f 8c ce 3e 63 a1 33 3d f4 fc 7e be
       0.53729796 0.40341613 0.043855082 -0.24901181
000300 ac 2a 8a bd 92 89 04 bf ce 3c c8 be 03 7b 0a bf
       -0.0674642 -0.51772416 -0.3910889 -0.5409395
000310 0e 41 03 3f 28 bc bc 3e 3c c3 7d 3e ed 7e 14 be
       0.5127114 0.36862302 0.24781507 -0.14501543
000320 3c 48 f4 3e 28 e4 ea bd 3c 28 c6 3e 20 05 8f bd
       0.4771136 -0.114692986 0.3870257 -0.069833994
000330 02 0e 8b be ac b4 4f be 3e 8e 40 be ca 49 07 bf
       -0.27159125 -0.20283765 -0.18804261 -0.5284697
000340 28 cd 20 3e 3e da 7b be 6a 0e 6d 3e df 78 bc 3e
       0.15703261 -0.24594972 0.2315003 0.36810967
000350 05 d6 17 3d 96 5c 8f 3e 6e cc a6 3d a7 24 b7 3e
       0.03706934 0.28000325 0.081444606 0.3577015
000360 1c a3 be be 9f 52 2f 3d fb 01 45 be 3c e4 e1 3e
       -0.37233818 0.042803403 -0.19239037 0.44119442
000370 68 aa 04 bf 96 26 a6 be a8 a2 04 3d 37 d7 0e 3f
       -0.5182252 -0.32451314 0.032381684 0.5579714
000380 1a 02 c8 3e e7 b3 d6 be 42 48 df be ee 5a f8 3e
       0.39064103 -0.4193413 -0.43609816 0.48506874
000390 e4 51 ac 3d ab 2f fd be c5 1e 0e be c7 3b 81 3e
       0.08414057 -0.4945043 -0.13878925 0.2524092
0003a0 69 a8 3d be c9 b1 de be 9c 82 b6 be a6 7d 26 be
       -0.18521275 -0.43495014 -0.35646522 -0.16258869
0003b0 04 34 ad bd 5d 53 6a 3e 77 ed 8d 3e b7 b1 a0 be
       -0.08457187 0.22883363 0.27720234 -0.31385586
0003c0 ef fa fa bd 2e 3b e4 be b6 2c ab 3e 10 db 20 3f
       -0.12254893 -0.445764 0.3343255 0.6283426
0003d0 c8 a8 0f 3f 9e 72 5a 3e 57 a6 bc bd 4d ce 6b bc
       0.56116915 0.21332785 -0.09211414 -0.014392448
0003e0 41 4c 55 3e f0 4c 15 bf 17 ad 71 bb 59 48 f0 be
       0.2082987 -0.5832052 -0.0036876851 -0.46930197
0003f0 b3 34 29 bf ef 14 9e bc 0e bd 58 be c3 40 bb be
       -0.6609604 -0.019297091 -0.21165869 -0.36572847

fc2.weight f4 [64, 256]
000000 7a a3 0f 3e 6d 1e 27 3e 50 43 1c 3c 54 c7 b1 bd
       0.14027205 0.163202 0.009537533 -0.08680597
000010 0d 04 07 3e 04 0a 32 bd 84 87 cd 3c 20 9d ac bc
       0.13185139 -0.043466583 0.025089033 -0.021071017
000020 ae 76 3c 3d 3a 41 52 3e ca 7b bf 3c f8 16 8f bc
       0.04601162 0.20532694 0.023374457 -0.017467007
000030 b7 30 e8 3c 60 dc 36 be a2 b5 50 3d cc 1f ff 3d
       0.028343542 -0.17857504 0.05095447 0.12457237
000040 c4 c9 47 bd 06 ff 40 3d 68 7e dd 3b 9c 3f 5e 3d
       -0.048776403 0.04711821 0.0067594536 0.05425988
000050 4e c3 18 be f0 da 10 3e 6a 9c 19 3d c8 03 6d 3c
       -0.14918253 0.14146018 0.037502684 0.014466234
000060 d5 54 42 3d df 40 03 3c 9a 4e a0 bd 76 50 6b bd
       0.047444183 0.008011072 -0.07827492 -0.05744978
000070 ee 46 30 3e e2 02 93 3d b7 65 5c 3e 11 80 07 3d
       0.17214558 0.07178284 0.21523176 0.033081118
000080 71 0c b2 3d 14 ef 92 bd 98 fe 58 3b 6d a2 1f be
       0.08693779 -0.07174507 0.0033110734 -0.15589304
000090 78 ea ab 3d e1 83 9a 3d 72 f5 9e bd f9 8a 0b 3e
       0.08394331 0.07544685 -0.07761659 0.13627233
0000a0 f2 c8 6e bd f0 5d ea bb 40 88 58 bb 1e 4e a9 3d
       -0.058297105 -0.0071523115 -0.0033040196 0.08266853
0000b0 e2 9b ff bc 15 6f 15 3d 7a 38 66 3d aa b6 66 3d
       -0.03120226 0.03648289 0.056206204 0.056326546
0000c0 03 59 5f 3c 8d 2d db bb 26 da 02 be 96 ec 47 bd
       0.013632062 -0.0066887797 -0.1277853 -0.04880961
0000d0 28 62 8c bc 34 8a 78 3d 26 d4 1b 3d 54 a5 fa 3d
       -0.017136648 0.060678676 0.038044117 0.12238565
0000e0 f4 d5 70 3d 37 cb 87 3d ff 91 a2 3d 18 1c 2a 3d
       0.05879779 0.06630557 0.07938003 0.0415307
0000f0 d2 0d 70 3d 18 9b 2f 3c ce 05 4f bd 35 b2 5d be
       0.05860693 0.01071813 -0.050542645 -0.21650012
000100 fe 44 04 bd d8 4b 53 3d d8 02 05 3e ac d9 95 3c
       -0.03229236 0.051586002 0.12989366 0.01829227
000110 69 ce 78 3b 92 8b 3c bd f7 cd 13 3e 6b 93 29 3c
       0.0037964827 -0.046031542 0.14434038 0.010350089
000120 91 f0 83 3d 44 22 e0 3d 20 d6 75 bc 00 23 77 3a
       0.06442369 0.10944036 -0.015004665 0.00094275177
000130 26 6e 75 3d c8 02 c5 3c c0 e2 43 bd 04 99 62 3d
       0.0599195 0.024049178 -0.047823668 0.05532171
000140 b0 bb fd bc 2a af 49 3e 98 88 fd 3c e8 77 9e 3d
       -0.030973285 0.19695726 0.030948922 0.07737714
000150 f1 af 4e 3d 9c ab 2c be 98 d1 7f bd 77 e7 b3 3d
       0.05046076 -0.16862339 -0.062455744 0.08784383
000160 da a9 2f bd f0 be 08 3c f2 d3 2d 3d 39 f7 49 3e
       -0.042886592 0.008346304 0.042438455 0.19723214
000170 ac e7 2e bd a2 d1 7a bd cb d8 71 3d 08 03 25 3c
       -0.04270141 -0.061235078 0.05904464 0.0100715235
000180 02 88 3b 3d 14 64 56 3a 4c 28 45 3d e8 9f a1 3c
       0.045784004 0.0008178365 0.048134133 0.01972957
000190 d0 51 92 bc 80 84 58 bc dc ff 0b bd d7 0b bb 3d
       -0.017861277 -0.013215184 -0.034179553 0.09133118
0001a0 66 08 32 bd 60 07 b0 3c c8 6d c0 3d b4 3b 59 3d
       -0.04346504 0.021487892 0.09395939 0.053035453
0001b0 4e 77 e4 3d 51 04 71 3e d3 c7 69 bc 10 38 a7 bb
       0.11155568 0.23536803 -0.014268833 -0.0051031187
0001c0 1e b2 69 3d 9a e9 39 3d f9 28 67 be e6 55 42 3d
       0.05705463 0.045388795 -0.22574224 0.0474452
0001d0 b8 fe 78 bd 50 5b 72 3e be c5 99 3d a4 ce a6 3c
       -0.060789794 0.23667645 0.075084195 0.020362206
0001e0 70 87 28 3c 44 64 c1 bd c0 0f 22 bd 88 95 e7 bc
       0.010286197 -0.09442952 -0.0395658 -0.028269544
0001f0 d3 68 65 3a 6d 61 11 bd 97 76 d9 3c 20 c3 e0 3b
       0.0008751277 -0.035493303 0.026545806 0.006859198
000200 9c 92 26 bd 2e a8 25 3d 8a 3f 0a 3b e9 82 56 be
       -0.04066716 0.04044359 0.0021095 -0.20948376
000210 da 18 d8 3d d7 b4 9e 3d fe 57 0e bd 7c 66 88 bc
       0.10551615 0.07749336 -0.034751885 -0.01665043
000220 34 61 ca 3c f9 12 f4 3d f1 4c fe 3d 79 4f a7 3d
       0.024704553 0.11917681 0.12417019 0.08169455
000230 3c 55 be bc 68 53 d3 3d 5c 30 39 bd d8 0b 1d 3e
       -0.023234002 0.10318643 -0.045212135 0.1533655
000240 2d 6a 8f bd 61 96 6d be fe de 58 3d 55 0c 97 3d
       -0.07002673 -0.23201896 0.052947037 0.07375399
000250 da 65 75 3d 35 78 de 3d ec 49 02 bc c4 08 be bd
       0.059911586 0.108627714 -0.007952195 -0.09279016
000260 10 66 d2 3c cb 36 e6 bd 7a 23 82 3d 8d 70 aa 3d
       0.025683433 -0.1124092 0.06354423 0.083222486
000270 4e b6 82 bd f6 67 1b be 12 82 a0 3d aa cb 9d 3d
       -0.06382428 -0.15176377 0.07837309 0.077048615
000280 cd 38 fd 3d 97 ec 62 3d e2 f8 42 be ef be d7 3d
       0.123643495 0.05540141 -0.19040254 0.105344646
000290 7d 09 44 3e 2f e7 35 3d a8 80 5c 3d 9c 2f 1f 3d
       0.19144244 0.044409927 0.053833634 0.038863763
0002a0 c0 c5 fa ba f0 ae e4 bc 60 c3 87 3b ad b7 d7 3d
       -0.001913242 -0.027915448 0.0041431636 0.1053308
0002b0 a6 2b 22 3d 12 29 08 3e f3 80 9e 3d e0 48 cb 3c
       0.039592408 0.13296917 0.07739439 0.024815023
0002c0 70 e9 c0 3c b0 bb a1 3d dc 9e f8 3c b4 1d a3 3c
       0.023548812 0.07897127 0.030349188 0.019911624
0002d0 18 7d 38 3e a4 96 70 bd e1 10 5c be ee cc e2 3d
       0.1801647 -0.058737412 -0.21490814 0.110742435
0002e0 e8 4c c8 3d 35 82 27 bd 94 be 2c 3d 5c 22 ae 3c
       0.09780294 -0.04089566 0.042173937 0.021256618
0002f0 c1 de 6d 3c 20 1b 73 3b 26 d7 0c 3e a4 79 13 3d
       0.014518441 0.0037095025 0.13753948 0.036004677
000300 11 c8 39 3e 44 72 ca bc 6a 51 2a be a4 a9 4f bd
       0.18142726 -0.02471269 -0.1663262 -0.05069889
000310 23 56 74 3c d8 d0 f6 bb f1 3f 57 bd 92 bc 11 3d
       0.014913115 -0.0075322203 -0.052551214 0.035580225
000320 cd 6e 84 3d 49 6f 07 3e 39 0a 97 3c e3 07 8c 3d
       0.06466446 0.13226046 0.018437492 0.06837442
000330 4c c7 c2 bc 42 d8 b8 3b ec 2c ce 3d 68 f4 30 3d
       -0.023776673 0.0056410143 0.10067162 0.043201834
000340 c0 ac aa 3d 80 e4 04 3d af b9 00 3e 1c 41 9b bc
       0.08333731 0.032444477 0.12570833 -0.018951945
000350 2d 4b 1e 3e 0c d9 89 bc 3d bb 9c 3c 07 33 81 3d
       0.15458365 -0.016827129 0.01913225 0.06308561
000360 40 0a 0c 3c c4 25 15 3e 58 94 d2 3c ed 28 2a 3b
       0.008547366 0.14565188 0.025705501 0.0025964335
000370 a8 9c b9 bc fe cd 32 bd 2f cc 26 3e 09 b0 8d bc
       -0.022657707 -0.04365348 0.16288827 -0.017295854
000380 72 9c 4b bd a2 9b 23 3e 00 db 32 3e 23 55 fb 3d
       -0.049709745 0.15977338 0.17466354 0.12272098
000390 7c 46 30 3d a0 43 44 bd 27 35 47 3e 54 f4 22 3d
       0.04303597 -0.047916055 0.1945387 0.03978379
0003a0 5b 6c e1 3d 96 cd 21 3e 72 ab 3a 3d 37 47 41 be
       0.11006995 0.15801081 0.04557366 -0.18874823
0003b0 24 30 23 3e 9a a7 62 bc d8 c0 d5 bc 19 f8 83 3d
       0.15936333 -0.013833905 -0.026092932 0.06443805
0003c0 d2 26 cf 3d f0 c9 a1 bb 58 f8 1e 3e 93 0d b1 bc
       0.10114826 -0.004937403 0.15524423 -0.021612918
0003d0 7c dd 05 bd 2b 2a 65 3d d6 e5 19 3e c0 be 94 ba
       -0.032681927 0.055948418 0.15029082 -0.0011348352
0003e0 34 b8 28 3d f5 f3 c0 3d 9b 67 33 bc d4 57 fd bc
       0.041191295 0.09421531 -0.010949994 -0.030925669
0003f0 88 81 a8 3c 94 5a 59 bd ec 60 3e 3e e6 2f 1e bd
       0.020569578 -0.053064898 0.1859166 -0.0386199

fc2.bias f4 [64]
000000 cc e6 c5 3c ed c8 dc bc 24 67 b1 bc 54 99 db 3c
       0.024157904 -0.026951278 -0.021655627 0.026806511
000010 97 2f 52 3d 70 cd 93 3c ee 67 4d 3d 90 4c 5a 3d
       0.051314916 0.018042296 0.050147943 0.053295672
000020 f3 f5 ea bc 70 45 37 3c 25 ee 07 3d ac c3 24 bd
       -0.02868173 0.011185989 0.033186097 -0.04022567
000030 78 05 38 bc ea 6c 69 bd 34 95 fb 3c bd dd aa 3c
       -0.011231773 -0.056988634 0.030710794 0.020857686
000040 3a 01 4c 3d bc ec 50 3c fe 9e 1d bd 34 60 49 bd
       0.049805857 0.012751754 -0.038481705 -0.049164012
000050 d2 c6 8d bd ab 5a e0 bc f8 e7 53 3c f0 9a f1 bc
       -0.069226876 -0.027386984 0.012933724 -0.029492825
000060 00 d4 d5 3b c0 c9 52 3c 08 25 15 bd c0 5a da 3b
       0.0065255165 0.012865484 -0.03641227 0.0066636503
000070 b2 7e 67 bd b6 7d 23 3d dc a1 58 bd b0 ce 81 bb
       -0.05651731 0.03991481 -0.052888736 -0.0039614066
000080 00 9a 29 bb 3c 88 54 bd 21 88 11 3d 30 26 37 3c
       -0.0025879145 -0.051887736 0.035530213 0.011178538
000090 7d 01 24 bd cb e0 a1 bc a0 c2 26 3d 00 f5 52 ba
       -0.04004048 -0.01976051 0.040712953 -0.0008047372
0000a0 24 c0 5f bd da 5d 67 bd 04 bc 6d 3d 32 84 34 3d
       -0.0546266 -0.05648599 0.058040634 0.044071384
0000b0 26 94 80 bd 5c a9 49 3d 35 cf 2e bd dd b8 6c bd
       -0.06278257 0.04923378 -0.042678077 -0.057793487
0000c0 e2 24 76 bc 3f 27 0a 3d 53 15 3d 3c a6 0e bd bd
       -0.015023442 0.033728834 0.011540729 -0.092313096
0000d0 25 33 1f bd d2 e1 03 3d 06 41 cc 3c 80 db e3 3c
       -0.038867135 0.03219778 0.02493335 0.027814627
0000e0 bc af 15 bd 47 c3 03 bd e6 13 80 ba 19 77 11 bd
       -0.036544546 -0.032168653 -0.0009771555 -0.03551397
0000f0 1a b9 52 3d 44 05 d0 3c 10 e1 0c 3d 2b f5 aa 3c
       0.051446058 0.025393136 0.034394324 0.020868858

fc3.weight f4 [2, 64]
000000 e9 19 cd bd dd c7 b7 3d 70 bd f0 3d a0 81 d3 bc
       -0.100147076 0.08973668 0.11754882 -0.025818646
000010 8d f4 2c be b0 09 90 bc d0 15 1b 3c ac c4 57 bd
       -0.16890164 -0.017582744 0.00946565 -0.052677795
000020 5d 16 87 bd 78 b9 33 3d 39 08 85 bd c4 ce 06 3d
       -0.06596062 0.04387805 -0.06495709 0.03291203
000030 84 ac 18 3d 1e ad 96 bd ad 21 06 be 09 f6 62 3c
       0.0372739 -0.07357238 -0.13098784 0.013852605
000040 80 6f 89 bc 72 c2 3c be 0c 23 3b be 70 69 3c be
       -0.0167768 -0.1843355 -0.18275088 -0.18399596
000050 75 8d 20 be 6a a5 8e bc 88 b6 14 3d 0e ae 1c be
       -0.15678962 -0.01741286 0.036306888 -0.15300772
000060 ac 30 af bd fa 2d c7 bd e8 1e 7c bd c8 a8 6a 3d
       -0.08554205 -0.09725566 -0.061552912 0.05728987
000070 f1 20 88 bd c9 48 42 bd 28 39 74 3d 28 b5 2d 3d
       -0.06646908 -0.047432695 0.05962482 0.042409092
000080 2a 90 bc 3c f5 4b a7 3c b9 8e 17 be e0 86 bb 3b
       0.023017962 0.020421961 -0.14800538 0.0057228655
000090 6a 49 58 3d 1b e0 5b 3d 1a 15 9d bd 56 0a 80 bd
       0.052804388 0.05368052 -0.076700404 -0.062519714
0000a0 ca ea bf bd 03 14 87 bd f0 25 92 bd 5e bf 88 3d
       -0.09370954 -0.06595614 -0.07136142 0.066771254
0000b0 70 eb db bd 14 b5 c3 3d 02 a7 51 be b4 a1 0f bd
       -0.107382655 0.09556022 -0.20473865 -0.03506632
0000c0 18 3e de 3d b7 31 2a bc 3b 1e ef 3c 17 99 1b be
       0.10851687 -0.0103878295 0.02918922 -0.15195118
0000d0 48 04 3c 3d 08 d6 dc 3d df 58 45 bb c8 da d4 3c
       0.04590252 0.10783011 -0.0030112786 0.02598323
0000e0 9e 51 73 3b 3c e5 93 bd 6a 36 18 3d 53 05 82 3d
       0.0037127505 -0.07221457 0.03716127 0.06348672
0000f0 f6 ed 5a be 7c 42 92 bd a6 bb ff bd c8 61 19 be
       -0.21379837 -0.07141587 -0.12486963 -0.14978707
000100 6a 64 32 be bc 85 0c be b6 54 a3 3d e0 9c 37 bc
       -0.17421117 -0.1372289 0.07975142 -0.0112068355
000110 dd 22 3c be e2 95 ce 3d 0a e5 a5 bd 66 31 ae 3d
       -0.18372674 0.10087182 -0.08100326 0.08505516
000120 02 70 4d be aa a2 bb 3d 41 a7 26 3d f2 bd 8c 3d
       -0.20062259 0.09161885 0.04068685 0.06872167
000130 38 f2 93 3c 44 6d 4b be ba dc 07 be 75 04 57 3b
       0.018059835 -0.198659 -0.13267794 0.0032809053
000140 6c f5 41 bd cd 28 95 bd 4b c9 d5 bd 04 e3 1a 3d
       -0.047353193 -0.07283173 -0.10438784 0.037814155
000150 35 61 0c 3d 58 ff 81 bc 00 42 80 3b 48 cc 1a be
       0.03427239 -0.015868828 0.003914118 -0.1511699
000160 a8 83 f4 3d 64 7c b5 bd 6c af 86 3d 10 93 67 3d
       0.11939174 -0.08861616 0.06576428 0.056536734
000170 57 0f 49 bc 3c 46 c8 3d 98 4c 89 3d f6 1e f9 bd
       -0.012271724 0.09779021 0.06704062 -0.121641085
000180 97 6b 65 bd f7 e9 82 3d dc ff 8d bd d0 b2 a0 bc
       -0.05601081 0.063922815 -0.06933567 -0.019616514
000190 a1 f0 de 3d 64 96 94 3c f2 b6 32 be 10 32 9f bd
       0.1088574 0.018138118 -0.174526 -0.077732205
0001a0 12 55 de bd 6a 84 99 3c d6 02 ad bd 48 5f e9 bc
       -0.108560696 0.018739898 -0.084478065 -0.028487816
0001b0 4d aa 58 3c 20 51 7f 3d 75 8a ab 3c 75 00 72 be
       0.013224197 0.062333226 0.020940045 -0.23632987
0001c0 4c c4 ca 3d d6 07 fb 3c e8 c9 35 3d e6 7d 0d bd
       0.09900722 0.030643385 0.044382006 -0.034543894
0001d0 8e 1b dc 3d ae 75 e3 3d 03 ad 50 bc 62 ee cc bd
       0.10747443 0.1110643 -0.012736562 -0.100064054
0001e0 f6 71 8c 3d 88 14 53 be 91 7f 99 bc 68 b6 b9 bb
       0.06857674 -0.20613301 -0.018737586 -0.0056674965
0001f0 74 49 9d bd 90 a6 78 bc 4c 18 fe bd 28 6f 44 bd
       -0.07680026 -0.01517643 -0.12406978 -0.04795757

fc3.bias f4 [2]
000000 91 72 b0 bc 5a b8 98 bd
       -0.021539005 -0.07457037
