checkpoints/dubins3d-discrete-v0__hj_dqn__1__1638911814_evalFalse/dqn_checkpoint_10309.pth (torch, 72343 bytes, 6 tensors)

fc1.weight f4 [256, 3]
0	0x3ebf7dbc	0.37400615
1	0xbeb49be2	-0.3527518
2	0xbcba1427	-0.022714688
3	0x3eca787c	0.39545047
4	0xbf181c59	-0.59418255
5	0x3f10f1c3	0.566189
6	0xbdf3409a	-0.11877556
7	0x3e9662ea	0.2937234
8	0x3da46023	0.08026149
9	0xbd48b72d	-0.049002815
10	0x3e392d1e	0.18083617
11	0xbe9ebed9	-0.3100498
12	0x3eb699e5	0.35664287
13	0xbe3baf3c	-0.18328565
14	0x3de999ec	0.114063114
15	0xbdabbb72	-0.08385362
16	0x3dd5203d	0.104065396
17	0xbea3d807	-0.32000753
18	0x3ef608b8	0.48053527
19	0x3cfd3ab7	0.030911786
20	0xbe74aa1e	-0.2389302
21	0xbeb28872	-0.34869725
22	0xbdc630e4	-0.09677294
23	0xbe7f02f1	-0.24903466
24	0xbe3d7388	-0.18501103
25	0x3ce276a0	0.027644455
26	0x3eb037a4	0.3441745
27	0x3efe817b	0.4970816
28	0xbf04f089	-0.5192953
29	0x3ef69688	0.4816172
30	0x3e3e38ef	0.18576406
31	0x3effc159	0.499522
32	0x3ebdcb0b	0.37068972
33	0xbf06aaec	-0.52604556
34	0xbf0c87f4	-0.5489495
35	0xbe8e9438	-0.27847457
36	0x3f10000e	0.56250083
37	0xbe4eb611	-0.2018664
38	0x3ec18497	0.3779647
39	0xbed4f1b4	-0.41590655
40	0x3f2e9229	0.6819177
41	0xbd4ee482	-0.05051089
42	0x3ed27fd7	0.4111316
43	0xbe394c36	-0.18095478
44	0xbe159aee	-0.14609882
45	0x3ebbef4b	0.36706004
46	0xbecf8c7e	-0.40536875
47	0x3e7817bd	0.24227805
48	0xbe2ab716	-0.16671404
49	0xbd81a218	-0.06329745
50	0xbf0e1843	-0.5550577
51	0xbe8cf032	-0.27527004
52	0x3ea06788	0.31328988
53	0xbe0fb57b	-0.14034073
54	0x3f23d8d7	0.64002746
55	0x3ec41e28	0.38304257
56	0x3afdcb19	0.0019362896
57	0xbec54f6b	-0.38537154
58	0x3eb402e1	0.35158446
59	0x3e377c35	0.17918475
60	0xbee39378	-0.44448447
61	0x3f0a2fe1	0.5397931
62	0x3f0b3db7	0.54391044
63	0x3f157915	0.5838788
64	0xbed6ca6f	-0.4195132
65	0xbc8dcde0	-0.017310083
66	0xbc373e93	-0.011184352
67	0x3dacb348	0.08432633
68	0xbee056ba	-0.43816167
69	0xbed1c449	-0.40970066
70	0x3ea0cf3f	0.31408116
71	0xbe0aa219	-0.13538398
72	0x3ea7f652	0.32805115
73	0xbd8da872	-0.06916894
74	0x3e8c2008	0.27368188
75	0x3de16dbd	0.11007259
76	0x3dce84ca	0.10083921
77	0x3cbf8d51	0.023382815
78	0xbeef54f1	-0.46744493
79	0x3f0abae1	0.54191405
80	0xbdf25b52	-0.11833824
81	0xbedf090e	-0.43561596
82	0x3d0fd0c3	0.0351112
83	0xbdc97de1	-0.098384626
84	0x3ecc0dd5	0.39854303
85	0xbee4b819	-0.44671705
86	0xbf0975bc	-0.53695273
87	0x3ef7910c	0.4835285
88	0xbe3783fa	-0.17921439
89	0x3ef96610	0.4871068
90	0x3eaf28db	0.34210858
91	0xbed427a4	-0.41436493
92	0x3e5ca8c0	0.21548748
93	0x3e8973b5	0.2684609
94	0xbee5d37a	-0.44887906
95	0xbf20ce97	-0.6281523
96	0x3e51e9ea	0.20499387
97	0xbd2e772c	-0.04259412
98	0xbeaa3bc9	-0.33248737
99	0xbe1b0d9a	-0.15141907
100	0x3f097900	0.53700256
101	0xbf0eda61	-0.5580197
102	0x3eb0a6a3	0.34502134
103	0x3e068e3d	0.13140197
104	0xbf058ad4	-0.5216496
105	0xbf0e5d39	-0.55610996
106	0x3f359afc	0.7093961
107	0x3e99a893	0.30011424
108	0x3ed45a6a	0.4147523
109	0xbc769470	-0.015050039
110	0x3e8bf2c2	0.27333647
111	0x3eec5769	0.4616044
112	0x3ee28568	0.44242406
113	0xbee56002	-0.4479981
114	0x3d99e00c	0.07513437
115	0x3ebd094b	0.36921152
116	0x3e60a932	0.21939543
117	0x3ec43409	0.3832095
118	0xbf1178b6	-0.56824815
119	0xbec69482	-0.38785177
120	0xbeb2c5c3	-0.34916505
121	0x3d948b6d	0.07253156
122	0x3f134f09	0.57542473
123	0xbebab9b5	-0.36469808
124	0x3e9d8579	0.30765894
125	0xbea39ce9	-0.3195565
126	0xbf0af728	-0.5428338
127	0xbdfb4f4b	-0.12270983
128	0x3eaa516b	0.33265242
129	0x3f129df4	0.5727227
130	0xbeff4573	-0.49857673
131	0x3e89359d	0.26798716
132	0x3ec3ba1f	0.38227937
133	0x3e45376c	0.19259423
134	0x3e78cd95	0.24297173
135	0x3ee61fb1	0.44946054
136	0x3e8938bb	0.26801094
137	0x3dc5c7e2	0.09657265
138	0xbeca23b7	-0.39480373
139	0xbef83c44	-0.4848348
140	0xbe877398	-0.2645538
141	0xbd89afeb	-0.06723007
142	0xbeb530d3	-0.35388812
143	0x3e584b8d	0.2112257
144	0x3e5b74bc	0.2143125
145	0xbe7c6e7e	-0.24651524
146	0x3e74c1a6	0.23901996
147	0x3e2c3dc9	0.16820444
148	0x3e85d891	0.2614179
149	0x3e184af6	0.14872345
150	0xbe6e345f	-0.23262165
151	0x3f209cae	0.62739074
152	0xbe9173b4	-0.28408587
153	0xbca27df1	-0.019835444
154	0xbf0b81ce	-0.5449494
155	0xbebe414e	-0.371592
156	0xbeacb147	-0.33729002
157	0xbe7cdf66	-0.24694595
158	0x3ed22a3c	0.41047847
159	0xbe4131f4	-0.18866712
160	0xbedce618	-0.43144298
161	0x3e63777a	0.22213545
162	0x3e00eb7d	0.12589832
163	0x3e3e4e73	0.18584614
164	0xbe8d4aed	-0.27596226
165	0x3e4b5433	0.19856338
166	0xbe9c48a4	-0.3052417
167	0xbe105534	-0.14095002
168	0xbeeb925d	-0.46010104
169	0xbe86b976	-0.2631337
170	0xbe350fc6	-0.17681798
171	0x3e9f4705	0.3110887
172	0x3ca2c5a1	0.019869627
173	0x3e5e61df	0.21717022
174	0x3f1d86c1	0.61533743
175	0x3ef4c860	0.47809124
176	0x3eb883b3	0.3603798
177	0x3c969be2	0.018384878
178	0xbecc7ef0	-0.39940596
179	0x3ee70451	0.4512048
180	0xbe13d6d3	-0.14437418
181	0xbd3f2f6d	-0.046676088
182	0xbefea976	-0.49738663
183	0xbde98f7a	-0.11404319
184	0xbebea91a	-0.3723839
185	0x3f07d0da	0.5305306
186	0xbeff8e28	-0.49913144
187	0xbee66aee	-0.45003456
188	0xbca099fa	-0.019604672
189	0xbe840b36	-0.25789803
190	0x3ec37bfc	0.3818053
191	0xbeb4e8e8	-0.35333943
192	0xbe8ad75a	-0.27117425
193	0x3d05f02f	0.03269976
194	0x3ed5fc95	0.41794267
195	0xbecfef35	-0.40612188
196	0x3e8ad133	0.2711273
197	0x3ebde867	0.3709137
198	0x3f1b0ba7	0.60564655
199	0xbf0a7da6	-0.54097974
200	0x3e3bfff0	0.18359351
201	0xbeda93b9	-0.42690828
202	0x3efc5f15	0.49291292
203	0xbe655532	-0.2239578
204	0x3ec05496	0.37564534
205	0xbdc0f4aa	-0.09421666
206	0xbda60ff6	-0.08108513
207	0xbc96e9ae	-0.018421974
208	0x3dc900f5	0.09814636
209	0x3e8b58a4	0.27216065
210	0x3e0d7c1b	0.13816874
211	0x3d8cf2f7	0.06882279
212	0xbf2d4b97	-0.67693466
213	0x3ea7dca2	0.32785517
214	0x3eada2ab	0.33913168
215	0x3e861fa2	0.2619601
216	0x3ee56aec	0.44808137
217	0xbf13b974	-0.57704854
218	0xbe266b90	-0.1625197
219	0x3f138d66	0.5763763
220	0xbf0c9e1b	-0.5492875
221	0x3f38444c	0.7197921
222	0xbee87da8	-0.45408368
223	0xbed039bb	-0.40669045
224	0x3e908394	0.28225386
225	0xbed46344	-0.41481984
226	0xbe077224	-0.13227135
227	0x3ed70c8c	0.4200176
228	0x3efadf20	0.48998356
229	0x3ee5e63e	0.44902223
230	0xbe1cc2fc	-0.15308756
231	0xbee5c2c9	-0.44875172
232	0x3f1186f2	0.56846535
233	0xbdfbe28e	-0.12299071
234	0xbe733e42	-0.23754218
235	0x3e101ee7	0.14074288
236	0xbeceb900	-0.4037552
237	0x3eddc172	0.4331165
238	0x3e89247d	0.2678565
239	0xbf04e715	-0.51915103
240	0xbef2cce8	-0.47421956
241	0xbd4f267d	-0.050573815
242	0x3e785265	0.24250181
243	0x3db219a6	0.08696298
244	0xbe98826f	-0.29787013
245	0xbd220c26	-0.039562367
246	0xbf0aec6e	-0.54267013
247	0xbed0ebc1	-0.40804866
248	0xbec4c7ad	-0.3843359
249	0x3f00866d	0.5020512
250	0x3ece0153	0.40235385
251	0xbe8ca864	-0.27472222
252	0x3def1272	0.1167344
253	0x3e7008f4	0.23440915
254	0x3dc17194	0.094454914
255	0xbea38d68	-0.31943822

fc1.bias f4 [256]
0	0xbe9277e0	-0.28607082
1	0x3daa86fc	0.083265275
2	0xbee2d755	-0.4430491
3	0x3e810174	0.2519642
4	0xbf19547f	-0.59894556
5	0x3f05ceed	0.5226887
6	0x3eb8988f	0.36053893
7	0xbe5303cc	-0.20606917
8	0x3daed7fb	0.08537289
9	0xbeb6fd5b	-0.3574017
10	0xbed949fb	-0.42439255
11	0xbe95b5c6	-0.29240245
12	0xbef8b7b9	-0.4857767
13	0x3e72686d	0.23672648
14	0xbeb213a7	-0.3478062
15	0xbe1f2f11	-0.15545298
16	0xbee287af	-0.44244143
17	0xbeb9b761	-0.3627272
18	0xbf28fb88	-0.66008806
19	0xbed4768b	-0.4149669
20	0x3f28a15c	0.65871215
21	0x3cf3a2eb	0.029740771
22	0xbf0cf553	-0.55061835
23	0xbdc5598a	-0.09636219
24	0xbe17d7d0	-0.1482842
25	0x3e8d157d	0.27555457
26	0x3f4a997b	0.7914044
27	0x3e0ec315	0.13941605
28	0x3e68a0aa	0.22717538
29	0xbecaae53	-0.39586124
30	0xbdc7c43c	-0.097542256
31	0xbe5ee124	-0.21765572
32	0xbd86ece9	-0.06588156
33	0x3f325470	0.6966009
34	0x3e585fb6	0.21130261
35	0x3f3ae237	0.73001426
36	0xbeff73b1	-0.49892953
37	0xbe69e98c	-0.22842997
38	0x3e26e2fa	0.16297522
39	0x3e6f38ea	0.23361555
40	0xbf07dd88	-0.53072405
41	0xbe912c8f	-0.28354308
42	0x3dab8582	0.08375074
43	0xbf149866	-0.5804504
44	0xbc48475f	-0.012224047
45	0xbe49f5b3	-0.19722633
46	0xbe1932bc	-0.1496076
47	0x3e9e88d8	0.30963778
48	0x3e652627	0.22377835
49	0x3f185c3e	0.5951575
50	0x3ee3fd4c	0.44529188
51	0xbc8157e7	-0.015788985
52	0x3ef1aff0	0.47204542
53	0x3eeb40f7	0.45948002
54	0xbf0ed2d1	-0.5579043
55	0x3dc52841	0.096268184
56	0x3d8a8d4c	0.067652315
57	0xbedf7085	-0.43640533
58	0xbe9624aa	-0.29324847
59	0xbe0b9a6f	-0.1363313
60	0xbecedafb	-0.40401444
61	0xbe3468fd	-0.17618175
62	0x3e46f204	0.19428259
63	0x3f36f216	0.71463144
64	0x3d33a205	0.043855686
65	0xbf0f21a1	-0.5591069
66	0x3da40231	0.080082305
67	0xbe32e3e4	-0.17469746
68	0x3eb604cf	0.35550544
69	0xbf0ed15b	-0.557882
70	0xbe903f5c	-0.2817334
71	0x3eadcbc7	0.33944532
72	0x3a19ef7f	0.00058721745
73	0xbf01fc00	-0.50775146
74	0xbefff70e	-0.49993175
75	0xbbcb321b	-0.0062010414
76	0x3daab08f	0.08334457
77	0xbef568b6	-0.4793145
78	0xbef75ca4	-0.48312867
79	0xbe2847ae	-0.16433594
80	0xbdf27f96	-0.11840741
81	0x3ea889ec	0.32917726
82	0xbf0f35cb	-0.55941457
83	0xbe857c15	-0.2607123
84	0xbf0afbee	-0.54290664
85	0x3dea9843	0.11454823
86	0xbe9707cd	-0.2949814
87	0xbc8cece9	-0.017202811
88	0xbef749da	-0.48298532
89	0xbee88a27	-0.45417902
90	0xbf02398d	-0.50869066
91	0xbf35aa37	-0.7096285
92	0x3eba9ad6	0.36446255
93	0xbda93759	-0.0826251
94	0xbf1260b2	-0.57178795
95	0x3ecf2340	0.4045658
96	0xbe06218c	-0.13098735
97	0x3e88b5c4	0.26701176
98	0xbe374491	-0.1789725
99	0xbef750fa	-0.48303968
100	0x3e01d85d	0.12680192
101	0x3eb811d2	0.35951096
102	0xbf101c80	-0.5629349
103	0xbe14180a	-0.14462295
104	0x3debab0c	0.11507234
105	0x3d87b645	0.06626562
106	0xbe345959	-0.17612208
107	0xbe37c612	-0.17946652
108	0xbf0d9536	-0.553058
109	0x3d1bc79a	0.03803215
110	0xbf136ca7	-0.57587665
111	0xbef43dd5	-0.47703424
112	0xbe3dcf02	-0.18535998
113	0xbed1fd4c	-0.41013563
114	0x3ec529a2	0.38508326
115	0x3ec7ddf8	0.39036536
116	0x3ee5bbe4	0.44869912
117	0xbed2cdc2	-0.41172606
118	0x3e40c0a8	0.18823493
119	0x3eb130ae	0.34607452
120	0x3bd4393d	0.00647655
121	0x3ee46587	0.4460871
122	0x3ea743bb	0.32668862
123	0x3ee22e22	0.44175822
124	0x3e801fd8	0.25024295
125	0x3dd5edcc	0.10445747
126	0xbeca0a73	-0.39461097
127	0xbea4cf60	-0.32189465
128	0xbe8c2bae	-0.27377075
129	0x3ea7f0e4	0.32800972
130	0xbe0a2d3a	-0.13493815
131	0x3e2cb220	0.16864824
132	0xbf396b58	-0.7242942
133	0xbe7cf0b1	-0.24701191
134	0xbe26c785	-0.16287048
135	0xbebebc0e	-0.3725285
136	0x3e3261e5	0.17420156
137	0xbf2b2ae3	-0.66862315
138	0xbe85c6cc	-0.26128232
139	0xbe817e95	-0.25291887
140	0xbf05ce30	-0.5226774
141	0x3e416e38	0.18889701
142	0xbe3c1d61	-0.18370582
143	0x3e341c66	0.17588958
144	0x3ed560d4	0.41675436
145	0x3f3c520e	0.73562706
146	0xbda4cd48	-0.08046967
147	0x3df7e330	0.121038795
148	0x3f03845f	0.5137386
149	0xbd979097	-0.07400625
150	0xbe3cd180	-0.18439293
151	0xbcee35a0	-0.029078305
152	0x3dbf8fa9	0.09353573
153	0x3f03326c	0.5124881
154	0xbf3b14df	-0.7307872
155	0x3e6bedae	0.23039886
156	0x3e709964	0.23496014
157	0xbeb88742	-0.36040694
158	0x3ca21c8a	0.019789
159	0x3e6dab10	0.23209786
160	0x3cfb87d3	0.030704414
161	0x3ee0d6db	0.43913922
162	0x3e74ddb7	0.23912703
163	0xbf2cf729	-0.67564636
164	0xbe1c2f7d	-0.1525249
165	0x3e9a8f4d	0.30187455
166	0xbe8e2e41	-0.27769664
167	0x3e7c2afa	0.2462577
168	0x3e084811	0.13308741
169	0xbdbfd8e1	-0.09367538
170	0x3b867350	0.004103102
171	0x3dc935dd	0.09824727
172	0xbeca48a3	-0.39508542
173	0x3ed29d07	0.41135427
174	0x3e5b99e6	0.21445426
175	0x3ea5e05b	0.32397732
176	0x3f13b1b9	0.5769306
177	0xbe246356	-0.16053519
178	0xbed0bcac	-0.40768945
179	0x3cd7f7a3	0.0263632
180	0xbe8c23db	-0.27371106
181	0x3e50b3f0	0.2038114
182	0x3f2a9527	0.6663384
183	0xbf08b2ce	-0.53397834
184	0xbe170b71	-0.14750458
185	0x3f151b7a	0.5824505
186	0xbeebfab4	-0.4608971
187	0xbdcc0a80	-0.0996294
188	0x3eda6357	0.42653915
189	0x3ece8c8f	0.40341613
190	0xbdddadeb	-0.10824188
191	0xbe7efcf4	-0.24901181
192	0xbe4c195e	-0.19931552
193	0xbf048992	-0.51772416
194	0xbec58daf	-0.38584659
195	0xbf0a7b03	-0.5409395
196	0x3ef294d7	0.4737918
197	0x3e8aa8db	0.27081951
198	0x3eb820b0	0.3596244
199	0xbe147eed	-0.14501543
200	0x3eace90b	0.33771548
201	0xbe791929	-0.24326004
202	0x3e92644d	0.28592148
203	0xbe6438bb	-0.22287266
204	0xbe8b0e02	-0.27159125
205	0xbeb6d9bc	-0.35712993
206	0xbeb10316	-0.34572667
207	0xbf0749ca	-0.5284697
208	0x3d1c8272	0.03821034
209	0xbed6207b	-0.41821656
210	0x3da3c6d4	0.07996908
211	0x3ebc78df	0.36810967
212	0xbdc061a5	-0.09393624
213	0x3e8f5c96	0.28000325
214	0xbcf008bf	-0.029301045
215	0x3e4491ad	0.19196196
216	0xbebea31c	-0.37233818
217	0xbdae795e	-0.08519243
218	0xbe4501fb	-0.19239037
219	0x3e945e2b	0.28978094
220	0xbf04aa68	-0.5182252
221	0xbea62696	-0.32451314
222	0xbdf5c500	-0.120004654
223	0x3f3b2070	0.7309637
224	0x3ec8021a	0.39064103
225	0xbf0d34bf	-0.5515861
226	0xbf1a8b1a	-0.603685
227	0x3eabadca	0.33531028
228	0x3dac51e4	0.08414057
229	0xbefd2fab	-0.4945043
230	0xbe8a8e49	-0.2706168
231	0x3e813bc7	0.2524092
232	0xbea54ec2	-0.3228665
233	0xbf129dce	-0.5727204
234	0xbeb6829c	-0.35646522
235	0xbe0712ae	-0.1319072
236	0xbe6331ca	-0.22186962
237	0x3ead703c	0.3387469
238	0x3e8ded77	0.27720234
239	0xbef0d5c8	-0.47038102
240	0xbe87ee41	-0.2654896
241	0xbee43b2e	-0.445764
242	0x3e559902	0.20859149
243	0x3f460607	0.77352947
244	0x3f0fa8c8	0.56116915
245	0x3dc0c7b1	0.09413088
246	0xbe607b3e	-0.21922013
247	0xbc6bce4d	-0.014392448
248	0x3e554c41	0.2082987
249	0xbf400375	-0.75005275
250	0xbe017c28	-0.12645018
251	0xbef04859	-0.46930197
252	0xbf53dd59	-0.82759625
253	0xbc9e14ef	-0.019297091
254	0xbeb31fb9	-0.3498514
255	0xbebb40c3	-0.36572847

fc2.weight f4 [64, 256]
0	0x3e36a8f8	0.17837894
1	0x3e6d28de	0.23160121
2	0x3c1c4350	0.009537533
3	0xbe1fe4ea	-0.15614668
4	0x3e93ad8a	0.28843337
5	0xbe3442b5	-0.17603572
6	0xbba81cd3	-0.0051303892
7	0xbcac9d20	-0.021071017
8	0x3d3c76ae	0.04601162
9	0x3eaf9d1a	0.34299546
10	0x3d2cd7e3	0.042198073
11	0xbc8f16f8	-0.017467007
12	0x3da0ffcf	0.078612916
13	0xbeb8e5a2	-0.36112696
14	0x3d8998d9	0.067186065
15	0x3e2db5b4	0.16963845
16	0xbd47c9c4	-0.048776403
17	0x3d40ff06	0.04711821
18	0x3ca71dc1	0.02039993
19	0x3d5e3f9c	0.05425988
20	0xbe9a9909	-0.30194882
21	0x3e106067	0.14099275
22	0x3d199c6a	0.037502684
23	0x3c6d03c8	0.014466234
24	0x3d719eb8	0.058989257
25	0xbcae5098	-0.021278664
26	0xbf21dca0	-0.6322727
27	0xbd6b5076	-0.05744978
28	0x3e066068	0.13122714
29	0x3df9a642	0.12189914
30	0x3e8b0f6d	0.27160206
31	0xbec75489	-0.38931683
32	0x3d6ccb9d	0.05781137
33	0xbe286882	-0.16446117
34	0xbd1132e1	-0.035448913
35	0xbed41ecf	-0.41429755
36	0x3e01632a	0.12635484
37	0x3d6ddb2b	0.058070343
38	0xbdbe9ff1	-0.0930785
39	0x3dd38d47	0.10329681
40	0xbd6ec8f2	-0.058297105
41	0xbbea5df0	-0.0071523115
42	0xbb588840	-0.0033040196
43	0x3e2f5163	0.1712089
44	0xbd18de48	-0.03732136
45	0x3d074f05	0.033034343
46	0x3d66387a	0.056206204
47	0x3d66b6aa	0.056326546
48	0xbc85054a	-0.016237874
49	0xbd274049	-0.04083279
50	0xbe55e6dd	-0.20888849
51	0xbd47ec96	-0.04880961
52	0xbc8c6228	-0.017136648
53	0x3d788a34	0.060678676
54	0x3d82dafc	0.06389424
55	0x3d9d2afa	0.07674213
56	0x3d70d5f4	0.05879779
57	0x3dda5a67	0.10661774
58	0x3da68948	0.08131653
59	0x3d2a1c18	0.0415307
60	0x3d700dd2	0.05860693
61	0x3c2f9b18	0.01071813
62	0xbd4f05ce	-0.050542645
63	0xbec8d21d	-0.39222804
64	0xbd0444fe	-0.03229236
65	0x3d534bd8	0.051586002
66	0x3e0c49cc	0.13700026
67	0x3c95d9ac	0.01829227
68	0xbcee810d	-0.02911427
69	0xbd3c8b92	-0.046031542
70	0x3ddf4d71	0.10903443
71	0xbbf323a4	-0.00742002
72	0x3d84763d	0.06467865
73	0x3e71253d	0.23549362
74	0xbc75d620	-0.015004665
75	0x3a772300	0.00094275177
76	0x3d1c2812	0.03812415
77	0x3cc502c8	0.024049178
78	0xbd43e2c0	-0.047823668
79	0x3d09d33c	0.033648714
80	0xbcfdbbb0	-0.030973285
81	0x3d23d631	0.03999919
82	0x3cfd8898	0.030948922
83	0x3d880ebd	0.06643436
84	0x3e207957	0.15671287
85	0xbead9ad0	-0.33907175
86	0xbd7fd198	-0.062455744
87	0x3df06073	0.11737146
88	0xbd2fa9da	-0.042886592
89	0x3c08bef0	0.008346304
90	0x3dcd7dcb	0.10033759
91	0x3e86a8da	0.263007
92	0xbd2ee7ac	-0.04270141
93	0xbd7ad1a2	-0.061235078
94	0x3dabfca9	0.083978005
95	0x3c250308	0.0100715235
96	0x3d3b8802	0.045784004
97	0x3a3edf02	0.00072811556
98	0x3d45284c	0.048134133
99	0x3ca19fe8	0.01972957
100	0xbc9251d0	-0.017861277
101	0xbc588480	-0.013215184
102	0xbd0bffdc	-0.034179553
103	0x3dc0d049	0.09414727
104	0xbd320866	-0.04346504
105	0x3cb00760	0.021487892
106	0x3dac6674	0.08417979
107	0x3d593bb4	0.053035453
108	0x3e2e961e	0.17049453
109	0x3e67d197	0.22638546
110	0x3d3b4897	0.045723524
111	0xbba73810	-0.0051031187
112	0x3d69b21e	0.05705463
113	0x3d3903f3	0.045169782
114	0xbedb9b8d	-0.42892113
115	0x3d425922	0.047448285
116	0xbd78feb8	-0.060789794
117	0x3e96d296	0.2945754
118	0x3d803499	0.06260032
119	0xbca78f9e	-0.020454224
120	0x3c288770	0.010286197
121	0xbe39decd	-0.18151398
122	0xbd220fc0	-0.0395658
123	0xbce79588	-0.028269544
124	0x3bf5f961	0.007506535
125	0x3d849bd4	0.06475034
126	0x3d39106f	0.045181688
127	0x3be0c320	0.006859198
128	0xbd26929c	-0.04066716
129	0xbccf0ea9	-0.025275545
130	0xbb89613c	-0.0041924994
131	0xbea47e73	-0.32127723
132	0x3e2d0dbc	0.1689977
133	0x3e252a8b	0.1612951
134	0xbd0e57fe	-0.034751885
135	0xbc88667c	-0.01665043
136	0x3b9bf58e	0.004759497
137	0x3e182e9f	0.14861535
138	0x3dceb5d5	0.100932755
139	0x3dd3802f	0.103271835
140	0xbcbe553c	-0.023234002
141	0x3dc04008	0.09387213
142	0xbd39305c	-0.045212135
143	0xbc2447d8	-0.0100268945
144	0xbdf704ef	-0.12061488
145	0xbf0bb73c	-0.5457647
146	0x3ce4a5a5	0.027911017
147	0x3dd6171c	0.104536265
148	0xbc96055c	-0.018313102
149	0x3dbba5bd	0.091624714
150	0x3c9e246f	0.019304482
151	0xbdd06c83	-0.10176947
152	0x3cd26610	0.025683433
153	0xbea9ae26	-0.33140677
154	0x3ddb4cb8	0.10707992
155	0x3d53a313	0.05166919
156	0xbf005766	-0.5013336
157	0xbeb0388f	-0.3441815
158	0x3d4f726c	0.05064623
159	0x3cd3a419	0.025835084
160	0x3e0355af	0.12825654
161	0x3be8483b	0.0070886887
162	0xbee7985c	-0.45233428
163	0x3e1cc926	0.15311107
164	0x3e77182a	0.24130312
165	0x3b0d93a1	0.0021602886
166	0x3d5c80a8	0.053833634
167	0x3d1f2f9c	0.038863763
168	0xbafac5c0	-0.001913242
169	0xbce4aef0	-0.027915448
170	0x3b87c360	0.0041431636
171	0x3d928251	0.07153762
172	0x3d222ba6	0.039592408
173	0x3d03bd1f	0.03216278
174	0x3d1cb950	0.038262665
175	0x3ccb48e0	0.024815023
176	0x3cc0e970	0.023548812
177	0x3d98faa9	0.07469685
178	0x3cf89edc	0.030349188
179	0x3ca31db4	0.019911624
180	0x3e5c37d2	0.21505669
181	0xbd7096a4	-0.058737412
182	0xbebe0863	-0.37115774
183	0x3e14237f	0.14466666
184	0x3ddf1056	0.10891788
185	0xbddccfeb	-0.10781845
186	0x3d2cbe94	0.042173937
187	0x3cae225c	0.021256618
188	0xbd535f3d	-0.0516045
189	0x3b731b20	0.0037095025
190	0x3e0055f0	0.12532783
191	0x3d1379a4	0.036004677
192	0x3ec44103	0.3833085
193	0xbcca7244	-0.02471269
194	0xbe8094e4	-0.25113595
195	0xbd4fa9a4	-0.05069889
196	0xbccc47bb	-0.024936548
197	0xbcefbd2d	-0.02926501
198	0xbde1ae49	-0.110195704
199	0x3d11bc92	0.035580225
200	0x3d584812	0.052803107
201	0x3e0dea2b	0.13858859
202	0xbc9d210a	-0.019180793
203	0x3d901143	0.070345424
204	0xbcc2c74c	-0.023776673
205	0x3cd6b851	0.026210936
206	0x3de9b4de	0.11411451
207	0x3d30f468	0.043201834
208	0x3d73ea4c	0.059549615
209	0x3deaced0	0.114652276
210	0x3df41919	0.119188495
211	0xbc9b411c	-0.018951945
212	0x3d9ad43a	0.0756001
213	0xbc89d90c	-0.016827129
214	0x3c611ea4	0.013740215
215	0x3dc40f10	0.095731854
216	0x3c0c0a40	0.008547366
217	0x3e1970ed	0.14984484
218	0x3cd29458	0.025705501
219	0xbc3dc711	-0.011583106
220	0xbcb99ca8	-0.022657707
221	0xbd32cdfe	-0.04365348
222	0x3e238812	0.15969875
223	0xbf086f9f	-0.5329532
224	0xbd4b9c72	-0.049709745
225	0x3e59907e	0.21246526
226	0x3ea1f658	0.31633258
227	0x3dbf349c	0.09336206
228	0x3d30467c	0.04303597
229	0xbd4443a0	-0.047916055
230	0x3e53d85e	0.20688006
231	0x3d22f454	0.03978379
232	0x3e9a7922	0.30170542
233	0x3e5c3d22	0.21507695
234	0x3d3aab72	0.04557366
235	0xbeb6c2d7	-0.35695526
236	0x3e462fde	0.19354197
237	0xbdcdb9f6	-0.10045235
238	0xbcd5c0d8	-0.026092932
239	0x3daae1d8	0.083438575
240	0x3dceadf6	0.10091774
241	0xbba1c9f0	-0.004937403
242	0x3dea16f1	0.11430157
243	0xbda38ff0	-0.07986438
244	0xbd05dd7c	-0.032681927
245	0x3c9ce34c	0.019151352
246	0x3e170906	0.14749536
247	0xba94bec0	-0.0011348352
248	0x3d28b834	0.041191295
249	0x3e078744	0.13235193
250	0xbc88fb21	-0.01672131
251	0xbcfd57d4	-0.030925669
252	0x3d695aef	0.056971487
253	0xbd595a94	-0.053064898
254	0x3e6f416b	0.23364799
255	0xbd1e2fe6	-0.0386199

fc2.bias f4 [64]
0	0xbdbf96da	-0.093549445
1	0xbcdce666	-0.026965331
2	0xbcb16724	-0.021655627
3	0x3cdb9954	0.026806511
4	0xbd699891	-0.057030264
5	0x3c93cd70	0.018042296
6	0x3d4d67ee	0.050147943
7	0x3d5a4c90	0.053295672
8	0xbe01be75	-0.1267031
9	0x3c374570	0.011185989
10	0x3d00007a	0.031250454
11	0xbd24c3ac	-0.04022567
12	0xbc380578	-0.011231773
13	0xbe29eefa	-0.16595069
14	0xbdb708cb	-0.08937224
15	0x3caac044	0.020843633
16	0x3d4c013a	0.049805857
17	0xbdc6baf9	-0.09703631
18	0xbe1a8b1c	-0.15092129
19	0xbdeb5392	-0.11490549
20	0xbe0ab60a	-0.13546005
21	0xbce0781b	-0.02740102
22	0x3c53e7f8	0.012933724
23	0xbe14b5d9	-0.14522494
24	0x3bd5d400	0.0065255165
25	0x3c52c9c0	0.012865484
26	0xbd152508	-0.03641227
27	0x3bda5ac0	0.0066636503
28	0xbd678d69	-0.056531344
29	0x3d236eff	0.039900776
30	0xbd58a1dc	-0.052888736
31	0xbb81ceb0	-0.0039614066
32	0xbb2bf757	-0.0026239955
33	0xbd549b3d	-0.05190586
34	0xbda6ed83	-0.081507705
35	0x3c372630	0.011178538
36	0xbd241622	-0.04006017
37	0xbca1fe44	-0.019774564
38	0xbd939d67	-0.072077565
39	0xba52f500	-0.0008047372
40	0xbd5fc024	-0.0546266
41	0xbd73de25	-0.059538025
42	0x3d6dbc04	0.058040634
43	0x3d348432	0.044071384
44	0xbe0e6242	-0.1390467
45	0x3c9fa1d4	0.019486345
46	0xbdfbc5c4	-0.1229358
47	0xbe17b71d	-0.14815946
48	0xbc765e7c	-0.015037175
49	0x3d0a1888	0.0337148
50	0x3c3cda60	0.011526674
51	0xbe39801a	-0.18115273
52	0xbd1f4507	-0.03888419
53	0x3d03e1d2	0.03219778
54	0x3ccc238d	0.024919296
55	0x3ce3db80	0.027814627
56	0xbd15be73	-0.03655858
57	0xbe100af5	-0.1406668
58	0xba81eb7b	-0.0009912098
59	0xbd1185d0	-0.035528004
60	0xbd608c34	-0.054821208
61	0x3cd00544	0.025393136
62	0x3d0ce110	0.034394324
63	0xbdb1ed50	-0.08687842

fc3.weight f4 [2, 64]
0	0xbe37ae67	-0.17937623
1	0x3db7c086	0.08972268
2	0x3df0bd70	0.11754882
3	0xbcd381a0	-0.025818646
4	0xbe7bd984	-0.24594694
5	0xbc9009b0	-0.017582744
6	0x3c1b15d0	0.00946565
7	0xbd57c4ac	-0.052677795
8	0xbe184e9e	-0.1487374
9	0x3d33b978	0.04387805
10	0xbd8901e0	-0.06689811
11	0x3d06cec4	0.03291203
12	0x3d18ac84	0.0372739
13	0xbe15756a	-0.14595571
14	0xbe585ed3	-0.21129923
15	0x3c62bb15	0.013838549
16	0xbc896f80	-0.0167768
17	0xbe8b542e	-0.27212662
18	0xbe875d03	-0.2643815
19	0xbebf7800	-0.3739624
20	0xbeacb494	-0.3373152
21	0xbc8ec2e3	-0.017426914
22	0x3d14b688	0.036306888
23	0xbe69dad8	-0.22837389
24	0xbdaf30ac	-0.08554205
25	0xbdc72dfa	-0.09725566
26	0xbd7c1ee8	-0.061552912
27	0x3d6aa8c8	0.05728987
28	0xbd88199a	-0.06645508
29	0xbd425780	-0.047446728
30	0x3d743928	0.05962482
31	0x3d2db528	0.042409092
32	0x3cbc9213	0.023018872
33	0x3ca72e7a	0.020407904
34	0xbe72826d	-0.23682566
35	0x3bbb86e0	0.0057228655
36	0x3d583741	0.05278707
37	0x3d5bd164	0.053666487
38	0xbe25b2e2	-0.1618152
39	0xbd800a56	-0.062519714
40	0xbdbfeaca	-0.09370954
41	0xbd870af6	-0.065938875
42	0xbd9225f0	-0.07136142
43	0x3d88bf5e	0.066771254
44	0xbe94c762	-0.29058367
45	0x3db2e003	0.08734133
46	0xbea65157	-0.32483932
47	0xbdfd06a3	-0.123547815
48	0x3dde38bc	0.10850665
49	0xbc2a6cab	-0.010401885
50	0x3cef00c1	0.029175164
51	0xbe8f73fb	-0.28018174
52	0x3d3bf590	0.045888484
53	0x3ddcd608	0.10783011
54	0xbb4644ab	-0.0030253332
55	0x3cd4dac8	0.02598323
56	0x3b7265d4	0.0036986964
57	0xbe1e6d35	-0.15471347
58	0x3d1827b3	0.037147235
59	0x3d81fdfc	0.06347272
60	0xbe995cf5	-0.29953733
61	0xbd92427c	-0.07141587
62	0xbdffbba6	-0.12486963
63	0xbe805146	-0.25062007
64	0xbe6bef33	-0.23040466
65	0xbe0c8967	-0.1372429
66	0x3da354b6	0.07975142
67	0xbc379ce0	-0.0112068355
68	0xbe72706b	-0.23675697
69	0x3dce95e2	0.10087182
70	0xbda5e50a	-0.08100326
71	0x3dae3166	0.08505516
72	0xbe922a93	-0.28548107
73	0x3dbba2aa	0.09161885
74	0x3d1eb31e	0.03874504
75	0x3d8cbdf2	0.06872167
76	0x3c93f238	0.018059835
77	0xbe8711ef	-0.2638087
78	0xbe385831	-0.18002392
79	0x3b5618aa	0.003266851
80	0xbd41f56c	-0.047353193
81	0xbdfb8072	-0.122803584
82	0xbe1c275b	-0.15249388
83	0xbcddcb04	-0.027074344
84	0xbcc4944c	-0.023996495
85	0xbc821cd0	-0.01588288
86	0x3b804200	0.003914118
87	0xbe4e61ec	-0.20154542
88	0x3df483a8	0.11939174
89	0xbdb57c64	-0.08861616
90	0x3d86af6c	0.06576428
91	0x3d679310	0.056536734
92	0xbc48d46e	-0.012257678
93	0x3dc83ee5	0.09777621
94	0x3d894c98	0.06704062
95	0xbdf91ef6	-0.121641085
96	0xbd654e16	-0.05598267
97	0x3d82e262	0.06390835
98	0xbdfb8555	-0.122812904
99	0xbca0b2d0	-0.019616514
100	0x3ddee868	0.10884172
101	0x3c9478eb	0.018124064
102	0xbe766154	-0.24060565
103	0xbd9f3210	-0.077732205
104	0xbdde5512	-0.108560696
105	0x3c994678	0.01871036
106	0xbdad02d6	-0.084478065
107	0xbce95f48	-0.028487816
108	0xbd3f6a8d	-0.046732474
109	0x3d47d5b6	0.048787795
110	0xbcdc298c	-0.02687528
111	0xbea7bd8c	-0.327618
112	0x3dcabe18	0.09899539
113	0x3cfaea5c	0.03062933
114	0x3d35bb31	0.044367973
115	0xbdce5c01	-0.10076142
116	0x3ddc1647	0.107464366
117	0x3de375ae	0.1110643
118	0xbc50e7f7	-0.012750617
119	0xbdccee62	-0.100064054
120	0x3d8c6a9f	0.06856274
121	0xbe8a677e	-0.27032083
122	0xbc999d0a	-0.01875164
123	0xbbba2c46	-0.0056815473
124	0xbdfa5b09	-0.12224395
125	0xbc78a690	-0.01517643
126	0xbdfe184c	-0.12406978
127	0xbdd59baa	-0.10430081

fc3.bias f4 [2]
0	0x3edbe054	0.42944586
1	0x3ece572c	0.40300882
