checkpoints/dubins3d-discrete-v0__hj_dqn__1__1638911814_evalFalse/dqn_checkpoint_10379.pth (torch, 72343 bytes, 6 tensors)

fc1.weight f4 [256, 3]
00000000: 50c8 bb3e 5e9b b9be 6ccd babc 1785 c63e
00000010: 3556 1bbf e7c4 143f 9a40 f3bd ea62 963e
00000020: 2360 a43d e895 3abd 82d0 403e 7bc9 a1be
00000030: b3d6 b23e 7481 46be 8706 eb3d 2c44 a1bd
00000040: be75 e83d 519e a7be 4487 ec3e 4bfb 843c
00000050: 5f7a 79be 7288 b2be e430 c6bd f102 7fbe
00000060: 8873 3dbe a076 e23c a437 b03e 13ce fa3e
00000070: cfce 07bf b417 fa3e 5a6d 273e 0461 f03e
00000080: 4ef2 cf3e ecaa 06bf f487 0cbf 3894 8ebe
00000090: 6d8a 0d3f accc 5cbe 73ca c53e 4a86 d1be
000000a0: 0ca0 343f 7358 efbc 74a4 cd3e 0985 45be
000000b0: e186 15be 1d19 b83e f22b d5be f589 7c3e
000000c0: 16b7 2abe 18a2 81bd 4318 0ebf 32f0 8cbe
000000d0: 8867 a03e 7bb5 0fbe 0ff2 203f 52b2 bc3e
000000e0: fff3 e33b 6b4f c5be e102 b43e 357c 373e
000000f0: a60b e9be cf2e 0c3f f909 0a3f a82e 133f
00000100: 58a9 dcbe 9298 7cbc 933e 37bc 48b3 ac3d
00000110: ba56 e0be 49c4 d1be 3fcf a03e 19a2 0abe
00000120: 57f6 a13e 9716 aebd 6d8e 913e ad24 cf3d
00000130: db9f c23d 3c32 923c d693 f5be f626 0d3f
00000140: afce b0bd 0e09 dfbe c3d0 0f3d e17d c9bd
00000150: 2e57 c93e 4c31 e6be a929 0ebf 2657 f23e
00000160: ef28 47be f9d4 003f aca7 ab3e fd39 d9be
00000170: 0e3f 5e3e 2b71 923e a178 e3be 552b 21bf
00000180: f0c8 493e 6c0b 37bd 3e54 b9be 079e 16be
00000190: fcd3 0b3f 55f5 11bf ee56 ab3e 477b 033e
000001a0: ca44 0cbf f4c4 0fbf a60c 393f b7ec 983e
000001b0: 14f0 ce3e b0e9 f0bc a639 8e3e 794a e33e
000001c0: c0f5 da3e 4d38 eabe 5ae3 803d 8e36 b53e
000001d0: 5cbc 793e e2dc c13e 51f1 11bf 34f0 d1be
000001e0: c3c5 b2be 6d8b 943d 094f 133f b5b9 babe
000001f0: 7985 9d3e e99c a3be 28f7 0abf 4b4f fbbd
00000200: 6b51 aa3e 239c 103f 399d 02bf 94ca 8b3e
00000210: 460d b43e 2245 293e 9b3a 783e b604 df3e
00000220: 2286 813e 6508 be3d b723 cabe 443c f8be
00000230: 9873 87be ebaf 89bd d330 b5be 8d4b 583e
00000240: f343 4e3e 71c1 86be cd2c 823e 567b 243e
00000250: ece4 813e a1c6 2a3e b82a 6abe 207d 223f
00000260: 970c 93be f17d a2bc ce81 0bbf 4e41 bebe
00000270: 47b1 acbe 66df 7cbe 3c2a d23e f431 41be
00000280: 18e6 dcbe 7a77 633e df27 e93d 4af9 353e
00000290: e755 a0be 1639 473e e27b 9dbe 51c8 1dbe
000002a0: 5d92 ebbe 76b9 86be c60f 35be a4c4 993e
000002b0: fc33 9e3b dfc2 653e 4881 193f 1ae9 ea3e
000002c0: d25d bb3e e29b 963c f07e ccbe 5104 e73e
000002d0: d3d6 13be 6d2f 3fbd 76a9 febe 7a8f e9bd
000002e0: 1aa9 bebe dad0 073f 288e ffbe ee6a e6be
000002f0: fa99 a0bc 871d 81be b074 c83e 9086 b8be
00000300: 5ad7 8abe 2ff0 053d 95fc d53e 35ef cfbe
00000310: 33d1 8a3e 67e8 bd3e 819d 183f 9a7e 0dbf
00000320: 13a8 3c3e b993 dabe 155f fc3e 3255 65be
00000330: 9760 b73e c095 ddbd f49e a6bd aee9 96bc
00000340: f500 c93d a458 8b3e 05d3 0c3e a585 9e3d
00000350: e982 3abf 13ee 983e 90cb a13e 5915 893e
00000360: 3a0c e23e 5888 15bf 7b69 2fbe 676a 113f
00000370: c70f 10bf b3b7 3b3f a87d e8be bb39 d0be
00000380: 9483 903e 4463 d4be 2472 07be 8c0c d73e
00000390: ce41 f03e 320f dc3e a573 17be c9c2 e5be
000003a0: f286 113f 8ee2 fbbd 423e 73be e71e 103e
000003b0: 00b9 cebe 911f d83e 3d3e 843e f76c 08bf
000003c0: e8cc f2be 7d26 4fbd 6552 783e 6a1d 9d3d
000003d0: 8cd8 9ebe da9a 91bd 6eec 0abf c1eb d0be
000003e0: adc7 c4be dc66 f83e 178b c63e 6d2f 92be
000003f0: bf88 d13d d33e 5d3e 7713 de3d 7b2a a1be
0.36676264 -0.36251348 -0.02280303 0.38773414 -0.60678416 0.5811295 -0.11877556 0.2937234
0.08026149 -0.045553118 0.1882954 -0.3159903 0.34929428 -0.1938532 0.11475854 -0.07874331
0.113505825 -0.32737973 0.4619695 0.016233107 -0.24363087 -0.34869725 -0.09677294 -0.24903466
-0.18501103 0.027644455 0.3441745 0.48985347 -0.5304994 0.4884621 0.16350308 0.46949017
0.4061455 -0.52604556 -0.5489495 -0.27847457 0.55289346 -0.21562451 0.3863102 -0.40922767
0.7055671 -0.02921698 0.4016453 -0.1928903 -0.14602233 0.3595666 -0.4163509 0.24662001
-0.16671404 -0.06329745 -0.5550577 -0.27527004 0.31328988 -0.14034073 0.6286935 0.36854798
0.006956577 -0.38537154 0.35158446 0.17918475 -0.455167 0.54758924 0.5392147 0.57493067
-0.4309795 -0.015417235 -0.011184352 0.08432633 -0.43816167 -0.40970066 0.31408116 -0.13538398
0.31633255 -0.085004024 0.28428975 0.10114417 0.09503146 0.01784622 -0.47964352 0.55137575
-0.08633172 -0.43561596 0.0351112 -0.098384626 0.39324325 -0.44959486 -0.5553232 0.47332114
-0.19449209 0.5032497 0.3352636 -0.42427054 0.21703741 0.28601965 -0.4442797 -0.62956744
0.19705558 -0.044688627 -0.36197084 -0.1470872 0.5462034 -0.5701497 0.3346476 0.12839995
-0.54792464 -0.561599 0.72284925 0.298681 0.4041754 -0.029408306 0.27778357 0.44392756
0.42765617 -0.4574608 0.06293364 0.35393184 0.2438826 0.37863833 -0.57008845 -0.41003573
-0.34916505 0.07253156 0.57542473 -0.36469808 0.30765894 -0.3195565 -0.5428338 -0.12270983
0.33265242 0.56488246 -0.5102115 0.27302992 0.35166377 0.16530278 0.24241106 0.43558282
0.25297648 0.09278945 -0.39480373 -0.4848348 -0.2645538 -0.06723007 -0.35388812 0.2112257
0.20143108 -0.2631946 0.25424805 0.16062674 0.25369966 0.16677333 -0.22867858 0.63472176
-0.28720543 -0.019835444 -0.5449494 -0.371592 -0.33729002 -0.24694595 0.41047847 -0.18866712
-0.43144298 0.22213545 0.11384558 0.17770877 -0.31315538 0.1945537 -0.30758578 -0.15408446
-0.46010104 -0.2631337 -0.17681798 0.30032837 0.0048279744 0.22437619 0.5996289 0.45880967
0.36595017 0.018384878 -0.39940596 0.4512048 -0.14437418 -0.046676088 -0.49738663 -0.11404319
-0.3723839 0.5305306 -0.49913144 -0.45003456 -0.019604672 -0.2521784 0.39151525 -0.36040163
-0.27117425 0.03269976 0.41794267 -0.40612188 0.2711273 0.3709137 0.5961533 -0.55271304
0.1842349 -0.42690828 0.49291292 -0.2239578 0.3581588 -0.10819578 -0.08135787 -0.018421974
0.09814636 0.27216065 0.13752373 0.077403344 -0.72856003 0.29869136 0.31600618 0.267741
0.44149953 -0.5841117 -0.17130081 0.5680298 -0.56274074 0.7332718 -0.45408368 -0.40669045
0.28225386 -0.41481984 -0.13227135 0.4200176 0.46925205 0.42980343 -0.14790209 -0.44875172
0.56846535 -0.12299071 -0.23754218 0.14074288 -0.4037552 0.42211583 0.25828734 -0.5329127
-0.47421956 -0.050573815 0.24250181 0.07671626 -0.31024587 -0.07109614 -0.54267013 -0.40804866
-0.3843359 0.48515975 0.38777992 -0.28551808 0.1023116 0.21605997 0.108435564 -0.31477723

fc1.bias f4 [256]
00000000: ddbf 9cbe 2617 813d 55d7 e2be 592c 8a3e
00000010: 38ef 1ebf ef01 0b3f 6357 ae3e cc03 53be
00000020: fbd7 ae3d 93c3 c1be 2745 ebbe c6b5 95be
00000030: 4161 02bf c785 873e a689 bdbe f540 34be
00000040: af87 e2be 61b7 b9be 4b48 2fbf 8b76 d4be
00000050: bd9a 2b3f ac6a 103c 53f5 0cbf 8a59 c5bd
00000060: a649 31be 5ac6 8d3e 6fe1 4d3f 15c3 0e3e
00000070: 26b4 5b3e 6ec5 d6be 1ea1 f0bd 4635 4dbe
00000080: 666c a4bd 7113 373f 0aba 4b3e 0d60 3f3f
00000090: b83b 06bf c74d 82be d8f1 233e 4fd1 613e
000000a0: 88dd 07bf 8f2c 91be 8285 ab3d 0b31 1abf
000000b0: 9bf2 53bd 9022 65be bc32 19be d888 9e3e
000000c0: 4ef0 4f3e 271d 1a3f c20e ed3e e757 81bc
000000d0: f0af f13e f740 eb3e 6469 16bf 6f9e ad3d
000000e0: 4c8d 8a3d 5376 ecbe ce02 a5be 6f9a 0bbe
000000f0: fbda cebe fd68 34be 04f2 463e 2907 3c3f
00000100: 05a2 333d a121 0fbf 0d5a 6e3d e4e3 32be
00000110: a6c8 ab3e 5bd1 0ebf 6f20 93be d20a a33e
00000120: e18c 8dbc 7bb2 07bf 0ef7 ffbe 1b32 cbbb
00000130: 51d4 653d b668 f5be a45c f7be c2da 3dbe
00000140: 967f f2bd 6ae4 a33e cb35 0fbf 2cd5 93be
00000150: d955 13bf 7091 103e cd07 97be 7f5b 23bd
00000160: da49 f7be 278a e8be 0f29 09bf 5f08 3bbf
00000170: d69a ba3e 5937 a9bd 1ea9 18bf 4023 cf3e
00000180: 8c21 06be bfb5 883e 9144 37be fa50 f7be
00000190: 5dd8 013e d211 b83e 801c 10bf dce1 2abe
000001a0: 0cab eb3d 45b6 873d a1c8 4bbe 12c6 37be
000001b0: 3dc8 12bf 290f a63c 0ba5 1abf d53d f4be
000001c0: 02cf 3dbe 4cfd d1be bb3c d43e f8dd c73e
000001d0: e4bb e53e a418 ddbe 6ef4 243e 6113 b33e
000001e0: 3d39 d43b c87b ed3e bb43 a73e 222e e23e
000001f0: 133f 563e d301 ac3d 1099 d5be 60cf a4be
00000200: ae2b 8cbe 1c14 a53e f4f5 08be 03f9 3e3e
00000210: 4efe 3fbf 3704 8abe 85c7 26be 0ebc bebe
00000220: c7f3 1d3e 64f0 30bf bcb3 8dbe 6b0a 8cbe
00000230: 30ce 05bf 31d8 293e 611d 3cbe 8786 543e
00000240: 436e dd3e 9ea9 3f3f ff85 c9bd df89 cd3d
00000250: 2ba7 073f 8646 b9bd 331e 67be 58c2 93bc
00000260: a98f bf3d 6c5a 083f 1744 41bf fee4 5b3e
00000270: 53b6 803e 06d1 afbe e11c 10ba f744 663e
00000280: 3578 3b3c 529a e73e 869c 803e ae2f 33bf
00000290: 7ccb 30be 992d 953e 412e 8ebe fa2a 7c3e
000002a0: 1148 083e e1d8 bfbd 5073 863b abdf a23d
000002b0: a348 cabe 5250 d33e ef57 4b3e 5be0 a53e
000002c0: b9b1 133f 15aa 43be acbc d0be a3f7 d73c
000002d0: 8b13 96be f0b3 503e a8ec 303f 8d4c 0ebf
000002e0: 33d5 29be a332 193f b4fa ebbe 800a ccbd
000002f0: c5c6 d93e 8f8c ce3e 7405 02be f4fc 7ebe
00000300: 2799 6dbe 9289 04bf 8235 bebe 037b 0abf
00000310: 9613 f23e d191 7c3e d197 c03e ed7e 14be
00000320: 4d21 a03e d4b7 85be bf86 8a3e 1144 7abe
00000330: 020e 8bbe 93a1 c4be bd36 bebe ca49 07bf
00000340: e4a3 3a3c 248f e2be 0b38 743d df78 bc3e
00000350: d6e0 adbd 965c 8f3e 39cc 72bd eba9 2f3e
00000360: 1ca3 bebe 15a9 d3bd fb01 45be 11e2 873e
00000370: 68aa 04bf 9626 a6be e3d1 0dbe 8423 453f
00000380: 1a02 c83e c137 12bf 364e 20bf 80ff a23e
00000390: e451 ac3d ab2f fdbe 3e14 94be c73b 813e
000003a0: ea71 b1be 28e0 17bf 9c82 b6be 2277 e8bd
000003b0: 249a 77be d012 b73e 77ed 8d3e 6377 fbbe
000003c0: 1bb7 95be 2e3b e4be 307f 483e 7820 4a3f
000003d0: c8a8 0f3f ae57 a93d 5ed2 71be 4dce 6bbc
000003e0: 414c 553e ecc0 46bf af90 23be 5948 f0be
000003f0: 91d5 5abf ef14 9ebc d984 bdbe c340 bbbe
-0.3061513 0.06303243 -0.4430491 0.2698696 -0.6208377 0.54299825 0.34051046 -0.20606917
0.08537289 -0.37844524 -0.45951197 -0.29240245 -0.5092965 0.26469252 -0.3701908 -0.17602904
-0.44244143 -0.3627272 -0.68469685 -0.4149669 0.67032987 0.008814495 -0.55061835 -0.09636219
-0.17313251 0.27690393 0.8042211 0.13941605 0.2145544 -0.41947502 -0.11749481 -0.20039853
-0.08028488 0.7151404 0.19895187 0.74755937 -0.52434874 -0.25449964 0.16010225 0.22052501
-0.53072405 -0.28354308 0.08375074 -0.60231084 -0.05174504 -0.22376466 -0.1496076 0.30963778
0.20306513 0.6020073 0.46300322 -0.015788985 0.47204542 0.45948002 -0.58754563 0.084774844
0.067652315 -0.46184024 -0.32228702 -0.1363313 -0.40401444 -0.17618175 0.19428259 0.73448426
0.043855686 -0.5591069 0.058191348 -0.17469746 0.3355152 -0.557882 -0.28735682 0.31844193
-0.01727909 -0.53006715 -0.49993175 -0.0062010414 0.056110684 -0.4793145 -0.48312867 -0.1854048
-0.11840741 0.32010204 -0.55941457 -0.28873575 -0.5755287 0.1411798 -0.2949814 -0.03988218
-0.48298532 -0.45417902 -0.53578275 -0.7305965 0.36446255 -0.0826251 -0.5963305 0.4045658
-0.13098735 0.2670116 -0.1789725 -0.48303968 0.12680192 0.35951096 -0.5629349 -0.16687721
0.11507234 0.06626562 -0.19900753 -0.17946652 -0.5733679 0.0202709 -0.60408086 -0.47703424
-0.18535998 -0.41013563 0.41452584 0.39036536 0.44869912 -0.43182862 0.16108868 0.34975722
0.00647655 0.463835 0.32668862 0.44175822 0.20922498 0.083987854 -0.4171834 -0.32189465
-0.27377075 0.32241905 -0.13375074 0.18649678 -0.74997413 -0.2695634 -0.16287048 -0.3725285
0.15425025 -0.69116807 -0.2767619 -0.27351698 -0.5226774 0.16586377 -0.18370582 0.20754443
0.43248186 0.7486819 -0.09840011 0.100360624 0.52989453 -0.090466544 -0.22570114 -0.018037006
0.09353573 0.5326297 -0.7549452 0.21474072 0.25139102 -0.3433916 -0.00054974674 0.22487246
0.011442234 0.45234925 0.25119418 -0.6999463 -0.17265123 0.2913635 -0.27769664 0.2462577
0.13308741 -0.09367538 0.004103102 0.079528175 -0.39508542 0.41272217 0.19857763 0.32397732
0.5769306 -0.1910785 -0.40768945 0.0263632 -0.29311785 0.2038114 0.6911111 -0.5558556
-0.16585235 0.5984289 -0.4608971 -0.0996294 0.42534462 0.40341613 -0.12697393 -0.24901181
-0.23202954 -0.51772416 -0.37150198 -0.5409395 0.47280568 0.24665 0.37615827 -0.14501543
0.31275406 -0.26116812 0.27055928 -0.24440028 -0.27159125 -0.3840452 -0.37151137 -0.5284697
0.011391614 -0.44249833 0.05962376 0.36810967 -0.0849015 0.28000325 -0.059276793 0.17154662
-0.37233818 -0.10334984 -0.19239037 0.26539662 -0.5182252 -0.32451314 -0.13849597 0.7700732
0.39064103 -0.57116324 -0.6261934 0.31835556 0.08414057 -0.4945043 -0.28921694 0.2524092
-0.34657222 -0.5932641 -0.35646522 -0.11350848 -0.24179894 0.3575654 0.27720234 -0.49114522
-0.2924126 -0.445764 0.19579768 0.78955793 0.56116915 0.08268677 -0.23615405 -0.014392448
0.2082987 -0.77638125 -0.15973161 -0.46930197 -0.85482126 -0.019297091 -0.37015417 -0.36572847

fc2.weight f4 [64, 256]
00000000: bb13 373e 6893 573e 5043 1c3c 1461 1dbe
00000010: 1658 973e cebf 38be f748 0cbc 209d acbc
00000020: ae76 3c3d faf8 ab3e 7c52 243d f816 8fbc
00000030: 714a 9c3d 081f c8be 964f 8c3d 9e67 263e
00000040: c4c9 47bd 06ff 403d e247 a83c 9c3f 5e3d
00000050: 7c22 a7be ef3c 0c3e 6a9c 193d c803 6d3c
00000060: 481e 5c3d 53b2 cbbc 573c 33bf 7650 6bbd
00000070: dae6 043e f315 f13d 1e49 863e 9f2c c8be
00000080: da7f 753d 884e 2bbe 20ae 15bd da8d e6be
00000090: 394a 003e fe50 6e3d 2d06 c7bd 45c2 cd3d
000000a0: f2c8 6ebd f05d eabb 4088 58bb 07df 2f3e
000000b0: 4f6c 28bd 1ee8 fa3c 7a38 663d aab6 663d
000000c0: 02ca e9bc 7aad 3ebd 6f36 58be 96ec 47bd
000000d0: 2862 8cbc 348a 783d 14c0 9f3d 36d0 933d
000000e0: f4d5 703d b084 d83d 40ad a03d 181c 2a3d
000000f0: d20d 703d 189b 2f3c ce05 4fbd 5ebc ccbe
00000100: fe44 04bd d84b 533d 373b 063e acd9 953c
00000110: fbf5 0abd 928b 3cbd c9b2 fd3d ceaf 3fbc
00000120: 65e5 7d3d e37c 6a3e 20d6 75bc 0023 773a
00000130: b8bd 113d c802 c53c c0e2 43bd 1736 0b3d
00000140: b0bb fdbc fcc7 a23c 9888 fd3c 73f1 863d
00000150: 7bd6 273e 468b b9be 98d1 7fbd adbe de3d
00000160: daa9 2fbd f0be 083c c55e d03d 432e 8a3e
00000170: ace7 2ebd a2d1 7abd 59aa af3d 0803 253c
00000180: 0288 3b3d 02df 3e3a 4c28 453d e89f a13c
00000190: d051 92bc 8084 58bc dcff 0bbd 94ed bb3d
000001a0: 6608 32bd 6007 b03c b431 aa3d b43b 593d
000001b0: b62a 373e 68e3 613e fcba 2d3d 1038 a7bb
000001c0: 1eb2 693d f303 393d ef17 ebbe 2259 423d
000001d0: b8fe 78bd d34b 9a3e 3c1d 683d ff6e b7bc
000001e0: 7087 283c 61b0 3ebe c00f 22bd 8895 e7bc
000001f0: d7cb 2bbd 819d ec3c 2b5f 3e3d 20c3 e03b
00000200: 9c92 26bd c940 f1bc 884b b73a 7720 afbe
00000210: aa68 2b3e 1279 1a3e fe57 0ebd 7c66 88bc
00000220: 86d7 8bba 6a17 213e a330 da3d cc4b d23d
00000230: 3c55 bebc 72fc b33d 5c30 39bd 00c8 9d3b
00000240: 103e 01be 37d8 16bf 4d64 ed3c 7d8b ba3d
00000250: 714e 99bc dc7c bf3d 7d92 333c 0d5d d1bd
00000260: 1066 d23c ca26 a8be 04eb e03d 555e 313d
00000270: 65af 00bf f9b9 babe 41ec 4c3d 393f d23c
00000280: 1ca6 f23d c59e c73b 1641 f8be 19a8 223e
00000290: 1591 713e a60a aa39 a880 5c3d 9c2f 1f3d
000002a0: c0c5 faba f0ae e4bc 60c3 873b 8efe 903d
000002b0: a62b 223d e499 ea3c 6432 0c3d e048 cb3c
000002c0: 70e9 c03c 0cc4 933d dc9e f83c b41d a33c
000002d0: 39eb 5c3e a496 70bd 7a0d cdbe 74ef 193e
000002e0: 594c df3d a87f dfbd 94be 2c3d 5c22 ae3c
000002f0: fcfd 5abd 201b 733b 1e4b 013e a479 133d
00000300: 4c51 b93e 4472 cabc 0ea2 87be a4a9 4fbd
00000310: 8433 e2bc cfca 05bd 612f e4bd 92bc 113d
00000320: 8e10 343d 4a25 123e 4048 aabc 396e 913d
00000330: 4cc7 c2bc bbdd bb3c c243 e53d 68f4 303d
00000340: 15d4 6b3d d7e7 dc3d 9c5b ea3d 1c41 9bbc
00000350: 2d36 ae3d 0cd9 89bc 9dcb 173c 083b 8c3d
00000360: 400a 0c3c e3bc 183e 5894 d23c b990 8ebc
00000370: a89c b9bc fecd 32bd b6e5 233e e864 18bf
00000380: 729c 4bbd dd11 633e f2dd a03e 6183 b53d
00000390: 7c46 303d a043 44bd 559f 573e 54f4 223d
000003a0: adaa 923e 8299 613e 72ab 3a3d 468b c1be
000003b0: 56fe 443e f8c7 c6bd d8c0 d5bc 5665 bc3d
000003c0: 2c7e ca3d f0c9 a1bb 6261 c43d 4f63 b5bd
000003d0: 7cdd 05bd 971a a03c 5efa 1b3e c0be 94ba
000003e0: 34b8 283d 105e 0a3e b837 a0bc d457 fdbc
000003f0: 918c 7b3d 945a 59bd c0a5 6f3e e62f 1ebd
0.1787862 0.21052325 0.009537533 -0.15369064 0.29559392 -0.18041918 -0.008562318 -0.021071017
0.04601162 0.33588392 0.040117726 -0.017467007 0.07631386 -0.39086175 0.06851117 0.16250464
-0.048776403 0.04711821 0.020542089 0.05425988 -0.32643497 0.1369512 0.037502684 0.014466234
0.053739816 -0.024865305 -0.70013946 -0.05744978 0.12978688 0.117717646 0.2622766 -0.39096543
0.059936382 -0.16729176 -0.03654301 -0.450301 0.12528314 0.05818271 -0.09717975 0.100468196
-0.058297105 -0.0071523115 -0.0033040196 0.17174922 -0.041118916 0.03062826 0.056206204 0.056326546
-0.028538708 -0.04655216 -0.21114515 -0.04880961 -0.017136648 0.060678676 0.07800308 0.072174475
0.05879779 0.10572183 0.07845545 0.0415307 0.05860693 0.01071813 -0.050542645 -0.39987463
-0.03229236 0.051586002 0.13108526 0.01829227 -0.03392599 -0.046031542 0.12387616 -0.01169963
0.061986346 0.22899203 -0.015004665 0.00094275177 0.03558132 0.024049178 -0.047823668 0.03398713
-0.030973285 0.01987075 0.030948922 0.065890215 0.16390412 -0.3623907 -0.062455744 0.10876212
-0.042886592 0.008346304 0.10174326 0.2698842 -0.04270141 -0.061235078 0.08577413 0.0100715235
0.045784004 0.00072811556 0.048134133 0.01972957 -0.017861277 -0.013215184 -0.034179553 0.09176174
-0.04346504 0.021487892 0.08310261 0.053035453 0.17887387 0.22059405 0.04241465 -0.0051031187
0.05705463 0.045169782 -0.45916697 0.047448285 -0.060789794 0.30135974 0.056668505 -0.022391794
0.010286197 -0.1862197 -0.0395658 -0.028269544 -0.041942444 0.028883697 0.046477478 0.006859198
-0.04066716 -0.029449837 0.0013984302 -0.34204456 0.16739145 0.15085247 -0.034751885 -0.01665043
-0.0010669089 0.15731588 0.10653808 0.10268363 -0.023234002 0.087883845 -0.045212135 0.0048151016
-0.12621331 -0.5892367 0.028978491 0.091086365 -0.018714162 0.09349987 0.0109602185 -0.10222826
0.025683433 -0.32842094 0.10982326 0.043302853 -0.5026763 -0.3647001 0.050029997 0.025664913
0.11848089 0.006091925 -0.48487157 0.15884437 0.235905 0.0003243286 0.053833634 0.038863763
-0.001913242 -0.027915448 0.0041431636 0.070798025 0.039592408 0.028637834 0.034227744 0.024815023
0.023548812 0.07215127 0.030349188 0.019911624 0.21574105 -0.058737412 -0.40049344 0.1503275
0.10903234 -0.1091302 0.042173937 0.021256618 -0.053464875 0.0037095025 0.12626311 0.036004677
0.36194837 -0.02471269 -0.26490825 -0.05069889 -0.027612455 -0.032664116 -0.11141849 0.035580225
0.0439611 0.14272037 -0.020786405 0.071011014 -0.023776673 0.022932878 0.111945644 0.043201834
0.057575304 0.107864074 0.11443254 -0.018951945 0.08506427 -0.016827129 0.009264854 0.06847197
0.008547366 0.14915805 0.025705501 -0.017402994 -0.022657707 -0.04365348 0.16005597 -0.5952897
-0.049709745 0.22174783 0.3141933 0.08862949 0.04303597 -0.047916055 0.21056874 0.03978379
0.2864584 0.22031215 0.04557366 -0.3780157 0.19237646 -0.0970611 -0.026092932 0.09199016
0.098873466 -0.004937403 0.09588887 -0.08856832 -0.032681927 0.019543929 0.15232226 -0.0011348352
0.041191295 0.13512444 -0.019557819 -0.030925669 0.06141335 -0.053064898 0.23403072 -0.0386199

fc2.bias f4 [64]
00000000: d62f debd 66e6 dcbc 2467 b1bc 5499 db3c
00000010: e56e 92bd 70cd 933c ee67 4d3d 904c 5a3d
00000020: 3bfa 12be 7045 373c 7a00 003d acc3 24bd
00000030: 7805 38bc 8c06 3bbe 1a9e d5bd 44c0 aa3c
00000040: 3a01 4c3d 7f8d e6bd e737 28be 2aeb 0cbe
00000050: c633 19be 1b78 e0bc f8e7 533c f6d6 23be
00000060: 00d4 d53b c0c9 523c 0825 15bd c05a da3b
00000070: 698d 67bd ff6e 233d dca1 58bd b0ce 81bb
00000080: 57f7 2bbb 3d9b 54bd 9be3 c7bd f877 27bd
00000090: 2216 24bd 44fe a1bc 1604 b5bd 00f5 52ba
000000a0: 24c0 5fbd 25de 73bd 04bc 6d3d 3284 343d
000000b0: b83b 1ebe d4a1 9f3c ec34 0dbe 5ad1 27be
000000c0: 7c5e 76bc 8818 0a3d 60da 3c3c 372e 49be
000000d0: 0745 1fbd d2e1 033d 8d23 cc3c 80db e33c
000000e0: 73be 15bd 44b1 1fbe 7beb 81ba d085 11bd
000000f0: 669d 8cbd 4405 d03c 10e1 0c3d f25e d1bd
-0.10848968 -0.026965331 -0.021655627 0.026806511 -0.07150058 0.018042296 0.050147943 0.053295672
-0.14353268 0.011185989 0.031250454 -0.04022567 -0.011231773 -0.18264216 -0.10430546 0.020843633
0.049805857 -0.11257457 -0.16427575 -0.13761583 -0.14961156 -0.02740102 0.012933724 -0.1599997
0.0065255165 0.012865484 -0.03641227 0.0066636503 -0.056531344 0.039900776 -0.052888736 -0.0039614066
-0.0026239955 -0.05190586 -0.09760209 -0.040885895 -0.04006017 -0.019774564 -0.0883867 -0.0008047372
-0.0546266 -0.059538025 0.058040634 0.044071384 -0.15452468 0.019486345 -0.1378972 -0.16388455
-0.015037175 0.0337148 0.011526674 -0.19646536 -0.03888419 0.03219778 0.024919296 0.027814627
-0.03655858 -0.15594965 -0.0009912098 -0.035528004 -0.06865959 0.025393136 0.034394324 -0.102231875

fc3.weight f4 [2, 64]
00000000: 0071 41be 86c0 b73d 70bd f03d a081 d3bc
00000010: c70a 83be b009 90bc d015 1b3c acc4 57bd
00000020: 2c0b 20be 78b9 333d e001 89bd c4ce 063d
00000030: 84ac 183d 11b5 1cbe 9914 64be 15bb 623c
00000040: 806f 89bc ddd3 92be 6112 8ebe a229 d1be
00000050: b47b bebe e3c2 8ebc 88b6 143d 963a 74be
00000060: ac30 afbd fa2d c7bd e81e 7cbd c8a8 6a3d
00000070: 9a19 88bd 8057 42bd 2839 743d 28b5 2d3d
00000080: 1392 bc3c 7a2e a73c 6eb6 80be 03b5 b6bd
00000090: 4137 583d 64d1 5b3d 211a 2fbe 560a 80bd
000000a0: caea bfbd f60a 87bd f025 92bd 5ebf 883d
000000b0: 40a7 a5be 03e0 b23d 9aa5 b2be ba36 05be
000000c0: bc38 de3d ab6c 2abc c100 ef3c ed75 9abe
000000d0: 90f5 3b3d 08d6 dc3d ab44 46bb c8da d43c
000000e0: d465 723b 361b 27be b327 183d fcfd 813d
000000f0: cf12 a1be 7c42 92bd a6bb ffbd be29 89be
00000100: edbd 6cbe 6789 0cbe b654 a33d e09c 37bc
00000110: 4e33 72be e295 ce3d 0ae5 a5bd 6631 ae3d
00000120: 0c78 94be aaa2 bb3d 1eb3 1e3d f2bd 8c3d
00000130: 38f2 933c a534 89be b8b5 34be aa18 563b
00000140: 6cf5 41bd 98f3 ecbd fa19 17be 2eaa 083c
00000150: 1b98 253c d01c 82bc 0042 803b e9d4 4dbe
00000160: a883 f43d 647c b5bd 6caf 863d 1093 673d
00000170: 6ed4 48bc e53e c83d 984c 893d f61e f9bd
00000180: 164e 65bd 62e2 823d 868b ecbd 2c51 473d
00000190: 68e8 de3d eb78 943c 1795 78be 1032 9fbd
000001a0: 1255 debd 7846 993c d602 adbd 485f e9bc
000001b0: 0518 49bc b6d5 473d 9c88 bcbb 640d abbe
000001c0: 18be ca3d 5cea fa3c 31bb 353d 1b59 abbd
000001d0: 4716 dc3d ae75 e33d f7e7 50bc 62ee ccbd
000001e0: 9f6a 8c3d 5bbd 8bbe 0a9d 99bc 462c babb
000001f0: c13b e9bd 90a6 78bc 4c18 febd a17a bebd
-0.18890762 0.08972268 0.11754882 -0.025818646 -0.2559416 -0.017582744 0.00946565 -0.052677795
-0.15629262 0.04387805 -0.06689811 0.03291203 0.0372739 -0.15303446 -0.22273482 0.013838549
-0.0167768 -0.28677264 -0.27748397 -0.40852076 -0.37203753 -0.017426914 0.036306888 -0.23850474
-0.08554205 -0.09725566 -0.061552912 0.05728987 -0.06645508 -0.047446728 0.05962482 0.042409092
0.023018872 0.020407904 -0.25139183 -0.08921244 0.05278707 0.053666487 -0.17099811 -0.062519714
-0.09370954 -0.065938875 -0.07136142 0.066771254 -0.32354164 0.08734133 -0.3489197 -0.13009158
0.10850665 -0.010401885 0.029175164 -0.30168095 0.045888484 0.10783011 -0.0030253332 0.02598323
0.0036986964 -0.16318974 0.037147235 0.06347272 -0.31459662 -0.07141587 -0.12486963 -0.2678966
-0.23119326 -0.1372429 0.07975142 -0.0112068355 -0.23652384 0.10087182 -0.08100326 0.08505516
-0.28997838 0.09161885 0.03874504 0.06872167 0.018059835 -0.26797977 -0.17647445 0.003266851
-0.047353193 -0.11569899 -0.14756003 0.008341355 0.010107066 -0.01588288 0.003914118 -0.2010075
0.11939174 -0.08861616 0.06576428 0.056536734 -0.012257678 0.09777621 0.06704062 -0.121641085
-0.05598267 0.06390835 -0.115500495 0.048661396 0.10884172 0.018124064 -0.24275623 -0.077732205
-0.108560696 0.01871036 -0.084478065 -0.028487816 -0.012273793 0.048787795 -0.00575359 -0.33408654
0.09899539 0.03062933 0.044367973 -0.08366605 0.107464366 0.1110643 -0.012750617 -0.100064054
0.06856274 -0.27292904 -0.01875164 -0.0056815473 -0.1138835 -0.01517643 -0.12406978 -0.09300733

fc3.bias f4 [2]
00000000: 4a64 113f 2d5e 093f
0.56793654 0.53659326
