checkpoints/dubins3d-discrete-v0__hj_dqn__1__1638911814_evalFalse/dqn_checkpoint_10146.pth (torch, 72343 bytes, 6 tensors)

fc1.weight f4 [256, 3]
00000000: 3822 bb3e 9bc3 b9be be43 27be be81 c43e
00000010: 207b 1bbf 3298 c23e 9a40 f3bd ea62 963e
00000020: 2360 a43d d047 d8bc 23dc 523e 5147 16be
00000030: f148 b13e 21ed 47be 76ab 3cbd 1147 7fbd
00000040: 4ed3 023e 4d70 09be eb8b 023f 319e 603d
00000050: 82cb 92be 7288 b2be e430 c6bd f102 7fbe
00000060: 8873 3dbe a076 e23c a437 b03e 7bab f83e
00000070: 942f 08bf bc65 9f3e 27d1 4f3e c0ba 023f
00000080: a7f6 813e ecaa 06bf f487 0cbf 3894 8ebe
00000090: ef1b 0e3f 8e5a 57be 147c 583e 3f52 a9be
000000a0: 9b46 2f3f 8b46 c9bd 5dc1 d03e b2f9 3dbe
000000b0: 89be 91be a16c b73e 55c7 d4be 9ace bb3d
000000c0: 16b7 2abe 18a2 81bd 4318 0ebf 32f0 8cbe
000000d0: 8867 a03e 7bb5 0fbe 8659 233f c49c c23e
000000e0: 3bb2 01be 6b4f c5be e102 b43e 357c 373e
000000f0: 7510 b4be 95fa 0d3f 2f79 043f 6579 143f
00000100: 1326 d9be 6420 17be 933e 37bc 48b3 ac3d
00000110: ba56 e0be 49c4 d1be 3fcf a03e 19a2 0abe
00000120: a5c5 a63e 52b1 94bd efe2 013e f1fe 1f3e
00000130: 9f05 123e 295c ba3d 3a0d dbbe c93a f43e
00000140: b075 7cbe 0e09 dfbe c3d0 0f3d e17d c9bd
00000150: 68c6 cd3e 150d e3be 1d5c 1abf b894 f33e
00000160: 79b3 40be 431f 983e ad8e aa3e ed71 d9be
00000170: f3f5 8d3d 3814 583e ace5 c5be 60e5 babe
00000180: 52fb 623e 9ce5 e2bc 85f1 b1be 7178 03be
00000190: c6f2 0f3f 53a8 babe 20ae be3e 9c19 1e3e
000001a0: 6148 03bf 277f 06bf 189d 273f f7da 693e
000001b0: 5b37 d23e 9e3d a8bc b9fa f83d e72d f73e
000001c0: 4f65 eb3e e6c6 febe 2dc3 d83d 43b0 cc3e
000001d0: 78e2 753e de00 c53e f826 11bf fc16 e7be
000001e0: c3c5 b2be 6d8b 943d 094f 133f b5b9 babe
000001f0: 7985 9d3e e99c a3be 28f7 0abf 4b4f fbbd
00000200: 6b51 aa3e 82f7 0f3f 16b4 02bf e941 ce3d
00000210: f88e e13e 0724 6d3e 8e2b 603e 6c79 eb3e
00000220: 2959 8d3e 48f8 9f3c b723 cabe 443c f8be
00000230: 9873 87be ebaf 89bd d330 b5be 8d4b 583e
00000240: dbf8 613e 049d 77be 4ef6 f73d 33d0 523e
00000250: 09f1 993e 7406 593e cb2e 5bbe a9c7 253f
00000260: 2dd8 f4bd f17d a2bc ce81 0bbf 4e41 bebe
00000270: 47b1 acbe 66df 7cbe 3c2a d23e f431 41be
00000280: 18e6 dcbe 7a77 633e ef38 0e3e 4b44 463e
00000290: 2d6f a5be 81e8 493e 566c 9dbe 07b1 5ebe
000002a0: 5d92 ebbe 76b9 86be c60f 35be 8511 9d3e
000002b0: 3ddd 683c 94cb 733d 728f 203f 2351 f93e
000002c0: 3be0 843e e29b 963c f07e ccbe 5104 e73e
000002d0: d3d6 13be 6d2f 3fbd 76a9 febe 7a8f e9bd
000002e0: 1aa9 bebe dad0 073f 288e ffbe ee6a e6be
000002f0: fa99 a0bc be91 76be 8a00 cd3e c972 34be
00000300: 5ad7 8abe 2ff0 053d 95fc d53e 35ef cfbe
00000310: 33d1 8a3e 67e8 bd3e ff5f 1a3f 7366 0bbf
00000320: 6217 5c3d b993 dabe 155f fc3e 3255 65be
00000330: c3b7 cb3e 6468 9bbd 804e 10be aee9 96bc
00000340: f500 c93d a458 8b3e 3e8b 1b3e f520 a83d
00000350: 307a 23bf 4684 cb3e 74f0 c83e dee7 983e
00000360: 00ee e23e 4257 15bf e2e1 8bbe a269 103f
00000370: 6d1a 10bf f22d 063f a87d e8be bb39 d0be
00000380: 9483 903e 4463 d4be 2472 07be 8c0c d73e
00000390: 8dd7 023f 57ce ee3e f37b 5fbe c9c2 e5be
000003a0: f286 113f 8ee2 fbbd 423e 73be e71e 103e
000003b0: 00b9 cebe b9f1 e23e 75b5 8d3e 9f1f 13bf
000003c0: e8cc f2be 7d26 4fbd 6552 783e 09c8 d23d
000003d0: 02a8 8fbe 38e5 9ebc 6eec 0abf c1eb d0be
000003e0: adc7 c4be c903 053f 6653 d53e c105 a6be
000003f0: b780 993d d262 5d3e 4257 1cbd bf14 8dbe
0.36549544 -0.36282048 -0.16334435 0.38380235 -0.6073475 0.3800674 -0.11877556 0.2937234
0.08026149 -0.02640143 0.20591788 -0.14675643 0.34625962 -0.19524051 -0.046061955 -0.062323634
0.12775919 -0.13421746 0.5099475 0.054838363 -0.2867089 -0.34869725 -0.09677294 -0.24903466
-0.18501103 0.027644455 0.3441745 0.4856833 -0.531976 0.31132305 0.20294629 0.5106621
0.25383493 -0.52604556 -0.5489495 -0.27847457 0.55511373 -0.21030638 0.21141082 -0.3307056
0.6846711 -0.09827908 0.40772524 -0.18552282 -0.2846568 0.35825065 -0.41558328 0.091702655
-0.16671404 -0.06329745 -0.5550577 -0.27527004 0.31328988 -0.14034073 0.63808477 0.38010228
-0.12665646 -0.38537154 0.35158446 0.17918475 -0.35168806 0.5546048 0.5174741 0.57997733
-0.4241186 -0.1475845 -0.011184352 0.08432633 -0.43816167 -0.40970066 0.31408116 -0.13538398
0.32572666 -0.07260384 0.12684225 0.15624596 0.14259957 0.090996094 -0.4278353 0.477011
-0.24654269 -0.43561596 0.0351112 -0.098384626 0.40190434 -0.44345918 -0.60296804 0.475744
-0.18818463 0.2971135 0.33311978 -0.4246973 0.06931677 0.21101463 -0.38651788 -0.36503124
0.22166184 -0.027697377 -0.34754577 -0.12838914 0.5622982 -0.36456546 0.37242222 0.15439457
-0.51282316 -0.5253777 0.6547408 0.22837435 0.41057858 -0.020537194 0.121571966 0.48277208
0.4597573 -0.49761122 0.10584102 0.39978227 0.24012172 0.38477224 -0.56700087 -0.45134723
-0.34916505 0.07253156 0.57542473 -0.36469808 0.30765894 -0.3195565 -0.5428338 -0.12270983
0.33265242 0.5623704 -0.5105604 0.10071165 0.4405439 0.23158275 0.21891615 0.45991075
0.27607086 0.01952757 -0.39480373 -0.4848348 -0.2645538 -0.06723007 -0.35388812 0.2112257
0.22067587 -0.2418099 0.12107526 0.20587234 0.30066708 0.21193868 -0.21404569 0.6475778
-0.11955295 -0.019835444 -0.5449494 -0.371592 -0.33729002 -0.24694595 0.41047847 -0.18866712
-0.43144298 0.22213545 0.13888906 0.19361989 -0.32311383 0.197176 -0.30746716 -0.21747218
-0.46010104 -0.2631337 -0.17681798 0.3067743 0.014212904 0.05952032 0.6271888 0.48694715
0.25952324 0.018384878 -0.39940596 0.4512048 -0.14437418 -0.046676088 -0.49738663 -0.11404319
-0.3723839 0.5305306 -0.49913144 -0.45003456 -0.019604672 -0.24079034 0.40039474 -0.17621912
-0.27117425 0.03269976 0.41794267 -0.40612188 0.2711273 0.3709137 0.6030273 -0.544532
0.053733237 -0.42690828 0.49291292 -0.2239578 0.39788637 -0.0758827 -0.14092445 -0.018421974
0.09814636 0.27216065 0.15189835 0.08209411 -0.6385832 0.39749354 0.3924595 0.298644
0.44322205 -0.5833627 -0.27320772 0.5641118 -0.5629032 0.52413857 -0.45408368 -0.40669045
0.28225386 -0.41481984 -0.13227135 0.4200176 0.51110154 0.466418 -0.21824627 -0.44875172
0.56846535 -0.12299071 -0.23754218 0.14074288 -0.4037552 0.44325045 0.27677503 -0.57470125
-0.47421956 -0.050573815 0.24250181 0.1029206 -0.28057867 -0.01939641 -0.54267013 -0.40804866
-0.3843359 0.519589 0.4166519 -0.32426265 0.074952535 0.21619728 -0.038169153 -0.2755489

fc1.bias f4 [256]
00000000: 0997 67be e751 163e 55d7 e2be 2b9b 453e
00000010: 4142 08bf 02f3 ea3e 81ce d43e cc03 53be
00000020: fbd7 ae3d 1708 95be 6e52 bebe c6b5 95be
00000030: 8ae7 d5be 1552 6d3e f0ae 91be 27ad bdbd
00000040: af87 e2be 61b7 b9be 90c4 18bf 8b76 d4be
00000050: 5a92 2a3f c124 ba3d 53f5 0cbf 8a59 c5bd
00000060: 3d72 a5bd 89e3 8c3e 3dc3 373f 15c3 0e3e
00000070: 5afc 8d3e 8a88 a8be 75e2 0ebd 9451 8dbe
00000080: e943 59bc 1526 233f 8334 843e f49f 2a3f
00000090: c7cb d9be 016d 2dbe a3b3 133e 9884 933e
000000a0: 88dd 07bf 8f2c 91be 8285 ab3d bec5 03bf
000000b0: c260 953d 90d2 05be bc32 19be d888 9e3e
000000c0: 3c33 923e 4ac6 103f c822 c63e e757 81bc
000000d0: f0af f13e f740 eb3e a12b fabe 9da3 133e
000000e0: 4c8d 8a3d a6a9 babe eb33 62be 6f9a 0bbe
000000f0: fbda cebe fd68 34be 04f2 463e f147 273f
00000100: 05a2 333d a121 0fbf 48f0 143e e4e3 32be
00000110: cab9 d13e 5bd1 0ebf c773 78be 6963 be3e
00000120: c6e0 6d3d 6c3f e1be 0ef7 ffbe 1b32 cbbb
00000130: e72d 0f3e b668 f5be a45c f7be 14ae dabd
00000140: 967f f2bd 89df b63e cb35 0fbf 48ff 47be
00000150: 60b6 f9be fa2f 8e3d cd07 97be 8087 543d
00000160: da49 f7be 278a e8be eba8 ddbe f170 25bf
00000170: d69a ba3e 5937 a9bd 92dd 00bf 4023 cf3e
00000180: 8c21 06be c4b5 883e 9144 37be fa50 f7be
00000190: 5dd8 013e d211 b83e 801c 10bf 4880 a7bd
000001a0: 0cab eb3d 45b6 873d d429 eabd 12c6 37be
000001b0: ddd5 fabe 67e7 c33d f461 fcbe d53d f4be
000001c0: 02cf 3dbe 48fd d1be fffb b63e f8dd c73e
000001d0: e4bb e53e 963a b3be be5a 7d3e 1920 ad3e
000001e0: 3d39 d43b b233 c73e bb43 a73e 222e e23e
000001f0: 251b 8a3e 452a 0f3e 7ace a9be 60cf a4be
00000200: ae2b 8cbe 11d4 bb3e e7aa 1ebe b9bb 5c3e
00000210: 0249 26bf 6619 36be 85c7 26be 0ebc bebe
00000220: 5263 6f3e 9df2 1abf c8a6 56be 1d15 44be
00000230: 30ce 05bf cd16 7f3e 611d 3cbe 8062 423e
00000240: 741d bb3e 8e1d 2c3f bcaf babc 732e 3f3e
00000250: 567a f73e 9297 a3bc df80 0abe 61c4 4cbd
00000260: a98f bf3d 97df e53e 2707 2abf ab44 913e
00000270: 3c4a 5c3e 54f7 d9be e202 9d3d d9b8 8a3e
00000280: eefb b73d a673 d03e a6bd 293e 1d52 1cbf
00000290: f5d7 b7bd 8247 ae3e 412e 8ebe fa2a 7c3e
000002a0: 1148 083e e1d8 bfbd 5073 863b 93c6 183e
000002b0: a348 cabe 38df e53e ab8e 883e 5be0 a53e
000002c0: b9b1 133f 7397 c1bd acbc d0be a3f7 d73c
000002d0: 46f5 59be f0b3 503e d887 343f a88a f0be
000002e0: c66a b6bd a626 093f b4fa ebbe 800a ccbd
000002f0: 2d28 eb3e 8f8c ce3e a294 4ebd f4fc 7ebe
00000300: c398 0dbe 9289 04bf d390 bdbe 037b 0abf
00000310: be55 f53e 6355 a33e eb6d 9d3e ed7e 14be
00000320: 10f3 ce3e cc02 3ebe e144 a63e d9b9 23be
00000330: 020e 8bbe 37e2 91be c0a3 8cbe ca49 07bf
00000340: 7b66 c13d 6f7e b0be 2027 103e df78 bc3e
00000350: 703c 1fbd 965c 8f3e 6292 fc3c 8fde 833e
00000360: 1ca3 bebe 1da5 dcbc fb01 45be 3640 b63e
00000370: 68aa 04bf 9626 a6be 7943 80bd f4e8 273f
00000380: 1a02 c83e 5644 fbbe 421b 09bf 1615 c93e
00000390: e451 ac3d ab2f fdbe 9344 58be c73b 813e
000003a0: 2238 81be 4174 02bf 9c82 b6be df25 43be
000003b0: 2528 23be ce49 8f3e 77ed 8d3e 78df d1be
000003c0: 28d9 49be 2e3b e4be 7482 863e 6443 383f
000003d0: c8a8 0f3f cb1a 103e 13e9 25be 4dce 6bbc
000003e0: 414c 553e a825 2dbf 77fe 61bd 5948 f0be
000003f0: f833 41bf ef14 9ebc b3b4 93be c340 bbbe
-0.22616209 0.14679681 -0.4430491 0.19297473 -0.53226095 0.45888525 0.415638 -0.20606917
0.08537289 -0.29107735 -0.37172264 -0.29240245 -0.41778213 0.23175843 -0.2845378 -0.09261542
-0.44244143 -0.3627272 -0.5967493 -0.4149669 0.66629565 0.090890415 -0.55061835 -0.09636219
-0.0807843 0.27517346 0.71782285 0.13941605 0.2773159 -0.3291667 -0.034883935 -0.27601302
-0.01326082 0.63729984 0.25821313 0.6665032 -0.42538282 -0.16936113 0.14423995 0.28812099
-0.53072405 -0.28354308 0.08375074 -0.51473606 0.07293846 -0.13068604 -0.1496076 0.30963778
0.28554714 0.56552565 0.3869841 -0.015788985 0.47204542 0.45948002 -0.4886141 0.14417882
0.067652315 -0.36457556 -0.22090118 -0.1363313 -0.40401444 -0.17618175 0.19428259 0.6534415
0.043855686 -0.5591069 0.14544785 -0.17469746 0.40962058 -0.557882 -0.24262916 0.3718522
0.05807569 -0.439937 -0.49993175 -0.0062010414 0.13982354 -0.4793145 -0.48312867 -0.10677734
-0.11840741 0.3571742 -0.55941457 -0.19530976 -0.48771954 0.069427446 -0.2949814 0.051887035
-0.48298532 -0.45417902 -0.43292937 -0.6462546 0.36446255 -0.0826251 -0.5033809 0.4045658
-0.13098735 0.26701176 -0.1789725 -0.48303968 0.12680192 0.35951096 -0.5629349 -0.081787646
0.11507234 0.06626562 -0.11433759 -0.17946652 -0.4899129 0.09565621 -0.49293482 -0.47703424
-0.18535998 -0.4101355 0.35739133 0.39036536 0.44869912 -0.35005635 0.24741647 0.3381355
0.00647655 0.38906628 0.32668862 0.44175822 0.26973835 0.13980968 -0.33165342 -0.32189465
-0.27377075 0.3668523 -0.15494882 0.21555986 -0.6495515 -0.17783126 -0.16287048 -0.3725285
0.23377731 -0.6052645 -0.2096206 -0.19148679 -0.5226774 0.24911042 -0.18370582 0.18982887
0.36545908 0.67232597 -0.022788875 0.18670063 0.48335522 -0.019969735 -0.13525723 -0.04999197
0.09353573 0.44897148 -0.66417164 0.28372702 0.21512693 -0.4257151 0.076665655 0.27094153
0.08983599 0.40713233 0.16576251 -0.61062795 -0.089767374 0.3403893 -0.27769664 0.2462577
0.13308741 -0.09367538 0.004103102 0.149195 -0.39508542 0.44896865 0.26671347 0.32397732
0.5769306 -0.09452715 -0.40768945 0.0263632 -0.2128497 0.2038114 0.7051978 -0.46980786
-0.08907084 0.535746 -0.4608971 -0.0996294 0.4592909 0.40341613 -0.050434716 -0.24901181
-0.13827805 -0.51772416 -0.37024555 -0.5409395 0.4791698 0.31901082 0.30747923 -0.14501543
0.40419817 -0.18555754 0.32474425 -0.15988864 -0.27159125 -0.284929 -0.2746868 -0.5284697
0.09443375 -0.3447146 0.14077425 0.36810967 -0.038875997 0.28000325 0.03083152 0.25755736
-0.37233818 -0.0269342 -0.19239037 0.35595864 -0.5182252 -0.32451314 -0.062628694 0.65589833
0.39064103 -0.49075574 -0.5355722 0.392739 0.08414057 -0.4945043 -0.21119909 0.2524092
-0.25238138 -0.5095864 -0.35646522 -0.19057415 -0.15933283 0.27985996 0.27720234 -0.40990806
-0.19711745 -0.445764 0.26271403 0.7197783 0.56116915 0.1407272 -0.16202192 -0.014392448
0.2082987 -0.67635584 -0.055174317 -0.46930197 -0.75469923 -0.019297091 -0.288488 -0.36572847

fc2.weight f4 [64, 256]
00000000: 88cd 293e 52bc 673e 5043 1c3c d51b 0bbe
00000010: cdc6 613e 37d9 f7bd 006e 1a3b 209d acbc
00000020: ae76 3c3d 75be 983e bcc9 8f3c f816 8fbc
00000030: d8ec 543d f8d4 83be d600 693d d58c 203e
00000040: c4c9 47bd 06ff 403d 4765 423b 9c3f 5e3d
00000050: 7edd 59be 345a 123e 6a9c 193d c803 6d3c
00000060: d19c 423d 2998 8cbc 8eb8 c1be 7650 6bbd
00000070: 8bfd 1e3e 4775 c13d 5ac4 863e d6b8 11be
00000080: e973 843d 8e43 0bbe 06b4 d4bc e654 8ebe
00000090: b1f8 c93d e482 5f3d aa44 cbbd 81f3 053e
000000a0: f2c8 6ebd f05d eabb 4088 58bb c9fd 093e
000000b0: 7825 2fbd 5d0e c73c 7a38 663d aab6 663d
000000c0: 700d 6fba e0b1 0dbd 3206 43be 96ec 47bd
000000d0: 2862 8cbc 348a 783d c689 063d 02bb da3d
000000e0: f4d5 703d 693c 9f3d 841d 8e3d 181c 2a3d
000000f0: d20d 703d 189b 2f3c ce05 4fbd b23d a8be
00000100: fe44 04bd d84b 533d a70f 0d3e acd9 953c
00000110: 8c7e 9bbc 928b 3cbd a5a9 e63d 955e 0fbc
00000120: 3497 993d 1d1c 3d3e 20d6 75bc 0023 773a
00000130: b558 193d c802 c53c c0e2 43bd 70b1 093d
00000140: b0bb fdbc 8083 fc3d 9888 fd3c 33ce 773d
00000150: 1de8 9f3d 7a2c 79be 98d1 7fbd 4f63 d83d
00000160: daa9 2fbd f0be 083c d8c5 6b3d 9a1d 6f3e
00000170: ace7 2ebd a2d1 7abd 384c 853d 0803 253c
00000180: 0288 3b3d d6e2 3e3a 4c28 453d e89f a13c
00000190: d051 92bc 8084 58bc dcff 0bbd 5a0e b83d
000001a0: 6608 32bd 6007 b03c 7f78 a33d b43b 593d
000001b0: a32e 143e 3b14 7b3e e71c 9f3b 1038 a7bb
000001c0: 1eb2 693d 1504 393d b938 a1be 2259 423d
000001d0: b8fe 78bd fe24 8a3e c90d 6e3d 7df2 3ebc
000001e0: 7087 283c 371a 20be c00f 22bd 8895 e7bc
000001f0: c8f1 bd3c 8ddb 153d b60a ed3c 20c3 e03b
00000200: 9c92 26bd 6af8 983b 46fd 8abc 7fe5 86be
00000210: 9cf4 043e b9f2 033e fe57 0ebd 7c66 88bc
00000220: fc67 743c e82f fb3d 13a7 ce3d 8dc1 c73d
00000230: 3c55 bebc 3d21 bd3d 5c30 39bd 46fe 973d
00000240: 6fd2 d5bd 8bb3 c2be 1e5e f53c df66 d73d
00000250: b83e dd3b 9616 d63d fb6e 84bb 1df6 edbd
00000260: 1066 d23c e0e6 86be fde1 9d3d 712c a33d
00000270: 9d31 9fbe 0d52 7bbe 6141 5c3d ecd9 253d
00000280: 1869 0b3e 2464 913c 37e6 a2be b04a f13d
00000290: 7509 6e3e 519a 363c a880 5c3d 9c2f 1f3d
000002a0: c0c5 faba f0ae e4bc 60c3 873b 291b a03d
000002b0: a62b 223d 4adc ba3d 7466 6c3d e048 cb3c
000002c0: 70e9 c03c be51 853d dc9e f83c b41d a33c
000002d0: 896b 553e a496 70bd 1764 99be 7563 fd3d
000002e0: 1c55 e73d c251 b5bd 94be 2c3d 5c22 ae3c
000002f0: e978 d3bc 201b 733b ceeb 063e a479 133d
00000300: 9b5f 9d3e 4472 cabc f10a 4abe a4a9 4fbd
00000310: 5c34 8cbc 6744 dcbc 2d6a ccbd 92bc 113d
00000320: e81d 5c3d 7dfa 103e d3e2 54bc e7e3 833d
00000330: 4cc7 c2bc e86c e83b 8143 cd3d 68f4 303d
00000340: a797 713d 3fe4 973d bf3a f93d 1c41 9bbc
00000350: 0d95 e43d 0cd9 89bc 3426 b73b d1b1 cb3d
00000360: 400a 0c3c 4557 233e 5894 d23c 0fd2 0fbc
00000370: a89c b9bc fecd 32bd 1f2b 293e 3998 8ebe
00000380: 729c 4bbd 43de 423e 1dbd 813e 4153 e73d
00000390: 7c46 303d a043 44bd 6bf1 543e 54f4 223d
000003a0: 8ec8 6a3e 48a2 463e 72ab 3a3d d468 88be
000003b0: f672 403e 4627 9ebd d8c0 d5bc c2b8 873d
000003c0: 8fb0 b93d f0c9 a1bb cda9 1a3e 5ace 86bd
000003d0: 7cdd 05bd a569 d93c eb38 1d3e c0be 94ba
000003e0: 34b8 283d 14b2 d23d dce7 cabc d457 fdbc
000003f0: e80b e33c 945a 59bd 9ccb 613e e62f 1ebd
0.1658231 0.22630432 0.009537533 -0.13584836 0.22048493 -0.12101977 0.00235641 -0.021071017
0.04601162 0.29832807 0.01755225 -0.017467007 0.051983684 -0.2574842 0.056885563 0.15678723
-0.048776403 0.04711821 0.0029662417 0.05425988 -0.21275899 0.14292222 0.037502684 0.014466234
0.047512833 -0.0171624 -0.37836117 -0.05744978 0.15526406 0.09446197 0.2632168 -0.14230666
0.064674206 -0.13599989 -0.025964748 -0.27799147 0.09861887 0.054568186 -0.09925206 0.1308117
-0.058297105 -0.0071523115 -0.0033040196 0.13475718 -0.042760342 0.024298841 0.056206204 0.056326546
-0.0009119129 -0.034593463 -0.19045332 -0.04880961 -0.017136648 0.060678676 0.032846235 0.106802
0.05879779 0.07775194 0.069392234 0.0415307 0.05860693 0.01071813 -0.050542645 -0.3285957
-0.03229236 0.051586002 0.13775502 0.01829227 -0.01898124 -0.046031542 0.11262826 -0.008750577
0.07499543 0.18467756 -0.015004665 0.00094275177 0.037438113 0.024049178 -0.047823668 0.033616483
-0.030973285 0.12329769 0.030948922 0.06049938 0.07807944 -0.24333373 -0.062455744 0.105658166
-0.042886592 0.008346304 0.057561725 0.23351136 -0.04270141 -0.061235078 0.06508678 0.0100715235
0.045784004 0.0007281726 0.048134133 0.01972957 -0.017861277 -0.013215184 -0.034179553 0.08987112
-0.04346504 0.021487892 0.07981967 0.053035453 0.14470915 0.24519436 0.0048557403 -0.0051031187
0.05705463 0.04516991 -0.31488588 0.047448285 -0.060789794 0.26981348 0.058118615 -0.011654493
0.010286197 -0.15635 -0.0395658 -0.028269544 0.02318658 0.036586333 0.028935771 0.006859198
-0.04066716 0.004668285 -0.016966473 -0.26346967 0.12983936 0.1288556 -0.034751885 -0.01665043
0.01491737 0.12264997 0.10090461 0.09753714 -0.023234002 0.09234855 -0.045212135 0.07421546
-0.10440528 -0.38027605 0.029952105 0.10517668 0.0067518614 0.10453527 -0.00404155 -0.11619208
0.025683433 -0.2634802 0.077091195 0.07967461 -0.3109254 -0.24543019 0.053773288 0.04049103
0.13614309 0.017747946 -0.31816265 0.11781824 0.23245795 0.01114519 0.053833634 0.038863763
-0.001913242 -0.027915448 0.0041431636 0.078176804 0.039592408 0.09124048 0.057714894 0.024815023
0.023548812 0.06509732 0.030349188 0.019911624 0.20841803 -0.058737412 -0.29959175 0.123724855
0.1129553 -0.08853485 0.042173937 0.021256618 -0.02581449 0.0037095025 0.1317589 0.036004677
0.30737004 -0.02471269 -0.19730736 -0.05069889 -0.01711481 -0.026888086 -0.09981189 0.035580225
0.05373946 0.14158054 -0.012993532 0.06439953 -0.023776673 0.0070930608 0.10022641 0.043201834
0.058982518 0.07416581 0.12169408 -0.018951945 0.11161242 -0.016827129 0.005589271 0.09946025
0.008547366 0.1595126 0.025705501 -0.008778109 -0.022657707 -0.04365348 0.16520356 -0.27850512
-0.049709745 0.19030099 0.25339594 0.11295176 0.04303597 -0.047916055 0.20795219 0.03978379
0.22928068 0.19397843 0.04557366 -0.26642478 0.18793854 -0.077223346 -0.026092932 0.06627037
0.09066879 -0.004937403 0.15103836 -0.06582327 -0.032681927 0.026539633 0.15353744 -0.0011348352
0.041191295 0.10287872 -0.024768762 -0.030925669 0.027715638 -0.053064898 0.22050327 -0.0386199

fc2.bias f4 [64]
00000000: 9cc3 31bd 66e6 dcbc 2467 b1bc 5499 db3c
00000010: 6c64 89bc 70cd 933c ee67 4d3d 904c 5a3d
00000020: abda 96bd 7045 373c c401 003d acc3 24bd
00000030: 7805 38bc b0ad eebd d5b0 2fbd 44c0 aa3c
00000040: 3a01 4c3d 7f1f 69bd a707 e0bd a4c5 b2bd
00000050: d136 dabd 1b78 e0bc f8e7 533c 635e d1bd
00000060: 00d4 d53b c0c9 523c 0825 15bd c05a da3b
00000070: 698d 67bd ff6e 233d dca1 58bd b0ce 81bb
00000080: f7f6 2bbb 3d9b 54bd 9d03 1bbd 3026 373c
00000090: 2216 24bd 44fe a1bc ef99 a6bc 00f5 52ba
000000a0: 24c0 5fbd 1bdc 73bd 04bc 6d3d 3284 343d
000000b0: 158b d4bd 8cb4 203d 47fd b9bd 7236 c9bd
000000c0: 765e 76bc 8818 0a3d 67da 3c3c 6897 10be
000000d0: 0745 1fbd d2e1 033d 8d23 cc3c 80db e33c
000000e0: 73be 15bd 8ae6 b8bd 31eb 81ba d085 11bd
000000f0: aa48 98bc 4405 d03c 10e1 0c3d dd23 37bd
-0.04339944 -0.026965331 -0.021655627 0.026806511 -0.016771518 0.018042296 0.050147943 0.053295672
-0.07365926 0.011185989 0.031251684 -0.04022567 -0.011231773 -0.11654222 -0.04289325 0.020843633
0.049805857 -0.056914803 -0.109389596 -0.08729103 -0.10654987 -0.02740102 0.012933724 -0.10223081
0.0065255165 0.012865484 -0.03641227 0.0066636503 -0.056531344 0.039900776 -0.052888736 -0.0039614066
-0.0026239732 -0.05190586 -0.037845243 0.011178538 -0.04006017 -0.019774564 -0.020337073 -0.0008047372
-0.0546266 -0.05953608 0.058040634 0.044071384 -0.1037809 0.039234683 -0.09081512 -0.09824838
-0.01503717 0.0337148 0.011526681 -0.14120257 -0.03888419 0.03219778 0.024919296 0.027814627
-0.03655858 -0.09028347 -0.0009912011 -0.035528004 -0.018589336 0.025393136 0.034394324 -0.044711936

fc3.weight f4 [2, 64]
00000000: 0c89 06be 86c0 b73d 70bd f03d a081 d3bc
00000010: 3fcc 4abe b009 90bc d015 1b3c acc4 57bd
00000020: 1e33 cdbd 78b9 333d 3b01 89bd c4ce 063d
00000030: 84ac 183d d992 d3bd d310 26be 1cbb 623c
00000040: 806f 89bc 0ce7 5dbe e646 5abe 919e 7cbe
00000050: 2ce1 58be e3c2 8ebc 88b6 143d f771 39be
00000060: ac30 afbd fa2d c7bd e81e 7cbd c8a8 6a3d
00000070: 9a19 88bd 8057 42bd 2839 743d 28b5 2d3d
00000080: 1392 bc3c 7a2e a73c 95cb 38be e086 bb3b
00000090: 4137 583d 64d1 5b3d 466f e2bd 560a 80bd
000000a0: caea bfbd f60a 87bd f025 92bd 5ebf 883d
000000b0: 2d88 24be 60f4 bd3d ad32 79be f853 93bd
000000c0: bc38 de3d a46c 2abc c100 ef3c 3454 4abe
000000d0: 90f5 3b3d 08d6 dc3d 8944 46bb c8da d43c
000000e0: f665 723b e9ef d8bd b327 183d fcfd 813d
000000f0: a65f 7abe 7c42 92bd a6bb ffbd 7a9e 3ebe
00000100: 3796 4bbe 6789 0cbe b654 a33d e09c 37bc
00000110: 9aef 51be e295 ce3d 0ae5 a5bd 6631 ae3d
00000120: 5848 7abe aaa2 bb3d 6ab4 1e3d f2bd 8c3d
00000130: 38f2 933c 58c3 68be 7467 1ebe cc18 563b
00000140: 6cf5 41bd 286c c6bd acf4 00be 90b6 94bc
00000150: e352 76bc d01c 82bc 0042 803b 379f 2fbe
00000160: a883 f43d 647c b5bd 6caf 863d 1093 673d
00000170: 75d4 48bc e53e c83d 984c 893d f61e f9bd
00000180: 164e 65bd 62e2 823d 678d c5bd d0b2 a0bc
00000190: 68e8 de3d eb78 943c 8b3b 52be 1032 9fbd
000001a0: 1255 debd 7f46 993c d602 adbd 485f e9bc
000001b0: 2fd1 19bd 946e 6c3d 3fdc 45bc 1ef6 90be
000001c0: 18be ca3d 5cea fa3c 31bb 353d aced a4bd
000001d0: 4716 dc3d ae75 e33d f0e7 50bc 62ee ccbd
000001e0: 9f6a 8c3d 4aae 71be 0a9d 99bc 362c babb
000001f0: 4204 c9bd 90a6 78bc 4c18 febd 692c a5bd
-0.13138217 0.08972268 0.11754882 -0.025818646 -0.19804476 -0.017582744 0.00946565 -0.052677795
-0.100195155 0.04387805 -0.06689688 0.03291203 0.0372739 -0.10330743 -0.16217355 0.013838556
-0.0167768 -0.21670169 -0.21316108 -0.24669863 -0.21179646 -0.017426914 0.036306888 -0.1810988
-0.08554205 -0.09725566 -0.061552912 0.05728987 -0.06645508 -0.047446728 0.05962482 0.042409092
0.023018872 0.020407904 -0.1804641 0.0057228655 0.05278707 0.053666487 -0.1105638 -0.062519714
-0.09370954 -0.065938875 -0.07136142 0.066771254 -0.16067572 0.092751265 -0.24335738 -0.0719375
0.10850665 -0.0104018785 0.029175164 -0.19758683 0.045888484 0.10783011 -0.0030253252 0.02598323
0.0036987043 -0.10592634 0.037147235 0.06347272 -0.2445055 -0.07141587 -0.12486963 -0.18615142
-0.19881521 -0.1372429 0.07975142 -0.0112068355 -0.20501557 0.10087182 -0.08100326 0.08505516
-0.2444166 0.09161885 0.038746275 0.06872167 0.018059835 -0.22730768 -0.15469152 0.0032668589
-0.047353193 -0.09688598 -0.12593335 -0.018153459 -0.01503441 -0.01588288 0.003914118 -0.1715058
0.11939174 -0.08861616 0.06576428 0.056536734 -0.012257685 0.09777621 0.06704062 -0.121641085
-0.05598267 0.06390835 -0.09646111 -0.019616514 0.10884172 0.018124064 -0.20530526 -0.077732205
-0.108560696 0.018710373 -0.084478065 -0.028487816 -0.03755301 0.057722643 -0.012076437 -0.28312773
0.09899539 0.03062933 0.044367973 -0.08053145 0.107464366 0.1110643 -0.012750611 -0.100064054
0.06856274 -0.23601642 -0.01875164 -0.00568154 -0.09815265 -0.01517643 -0.12406978 -0.08065111

fc3.bias f4 [2]
00000000: 9f05 c23d acb2 813d
0.094737284 0.06332907
