checkpoints/dubins3d-discrete-v0__hj_dqn__1__1638911814_evalFalse/dqn_checkpoint_10060.pth (torch, 72343 bytes, 6 tensors)

fc1.weight f4 [256, 3]
0	0x3eb586a5	0.35454288
1	0xbe934655	-0.28764597
2	0xbe78e1d9	-0.24304904
3	0x3eaa063d	0.33207884
4	0xbf119951	-0.5687457
5	0x3e89d0e3	0.2691718
6	0xbdf3409a	-0.11877556
7	0x3e9662ea	0.2937234
8	0x3da46023	0.08026149
9	0xbb393e14	-0.0028265761
10	0x3e2cdceb	0.16881149
11	0xbd16afc7	-0.036788728
12	0x3e9e2c3a	0.30893117
13	0xbe15dff8	-0.14636219
14	0xbe17632e	-0.14783928
15	0xbd23a767	-0.03995457
16	0x3d750d95	0.059827406
17	0xbca60ddc	-0.02027028
18	0x3f065352	0.52470887
19	0x3e020bc7	0.12699805
20	0xbe9b2816	-0.3030402
21	0xbeb28872	-0.34869725
22	0xbdc630e4	-0.09677294
23	0xbe7f02f1	-0.24903466
24	0xbe3d7388	-0.18501103
25	0x3ce276a0	0.027644455
26	0x3eb037a4	0.3441745
27	0x3edf258c	0.43583333
28	0xbefcf116	-0.49402684
29	0x3e535fdc	0.20642036
30	0x3e67ae0c	0.22624987
31	0x3f0948d9	0.5362678
32	0x3e9133ec	0.28359926
33	0xbf06aaec	-0.52604556
34	0xbf0c87f4	-0.5489495
35	0xbe8e9438	-0.27847457
36	0x3f0ce7e1	0.5504132
37	0xbe0cd377	-0.13752542
38	0x3e0c30fe	0.13690564
39	0xbe7ad662	-0.24495843
40	0x3f23e581	0.6402207
41	0xbdc14140	-0.094362736
42	0x3eccdfd0	0.40014505
43	0xbddc20fe	-0.1074848
44	0xbeb9dab6	-0.36299676
45	0x3eb4b7a1	0.35296348
46	0xbead7e90	-0.33885622
47	0x3c91c60f	0.017794637
48	0xbe2ab716	-0.16671404
49	0xbd81a218	-0.06329745
50	0xbf0e1843	-0.5550577
51	0xbe8cf032	-0.27527004
52	0x3ea06788	0.31328988
53	0xbe0fb57b	-0.14034073
54	0x3f247028	0.64233637
55	0x3ee4f402	0.44717413
56	0xbe2c3e8b	-0.16820733
57	0xbec54f6b	-0.38537154
58	0x3eb402e1	0.35158446
59	0x3e377c35	0.17918475
60	0xbe824aac	-0.25447595
61	0x3f0548b6	0.52064073
62	0x3ef9a9a6	0.48762244
63	0x3f1334bc	0.5750234
64	0xbeb2bca0	-0.34909534
65	0xbe59ea1a	-0.21280709
66	0xbc373e93	-0.011184352
67	0x3dacb348	0.08432633
68	0xbee056ba	-0.43816167
69	0xbed1c449	-0.40970066
70	0x3ea0cf3f	0.31408116
71	0xbe0aa219	-0.13538398
72	0x3ea6c802	0.3257447
73	0xbbe13e02	-0.006873847
74	0x3d99f66f	0.075177066
75	0x3e40ea3b	0.18839352
76	0x3e3f9248	0.18708146
77	0x3e18eec1	0.14934827
78	0xbf014cb5	-0.5050767
79	0x3ea3ecfa	0.32016736
80	0xbed6e61e	-0.4197244
81	0xbedf090e	-0.43561596
82	0x3d0fd0c3	0.0351112
83	0xbdc97de1	-0.098384626
84	0x3ecd1e01	0.40061954
85	0xbeb9842a	-0.36233646
86	0xbf285dec	-0.65768313
87	0x3ef5d80f	0.48016402
88	0xbde4595f	-0.11149859
89	0x3e62dcc8	0.22154534
90	0x3e923e14	0.28562987
91	0xbec6bded	-0.38816777
92	0xbd03a5d8	-0.032140583
93	0x3e1ddb0b	0.1541559
94	0xbec255b2	-0.37956005
95	0xbe94c17c	-0.29053867
96	0x3e66a2b7	0.22523008
97	0x3d2f3fc9	0.04278544
98	0xbec128f1	-0.37726548
99	0xbdda9549	-0.10673005
100	0x3f07f54a	0.53108656
101	0xbe69ba4a	-0.2282497
102	0x3ec3a616	0.3821265
103	0x3e63389a	0.2218956
104	0xbf054108	-0.52052355
105	0xbed3bbf9	-0.4135435
106	0x3f24dad0	0.6439638
107	0x3e0b5ce9	0.13609661
108	0x3ed2e537	0.41190502
109	0x3d47ef43	0.048812162
110	0x3d80c832	0.06288184
111	0x3efcf819	0.49408033
112	0x3f06a381	0.5259324
113	0xbf030b4b	-0.51189107
114	0x3e08a1a2	0.13342908
115	0x3ed65438	0.4186113
116	0x3e9e84c7	0.30960676
117	0x3ea9e754	0.33184302
118	0xbf0787df	-0.529417
119	0xbf0a71e1	-0.54080015
120	0xbeb2c5c3	-0.34916505
121	0x3d948b6d	0.07253156
122	0x3f134f09	0.57542473
123	0xbebab9b5	-0.36469808
124	0x3e9d8579	0.30765894
125	0xbea39ce9	-0.3195565
126	0xbf0af728	-0.5428338
127	0xbdfb4f4b	-0.12270983
128	0x3eaa516b	0.33265242
129	0x3f0e20ce	0.55518806
130	0xbedb981b	-0.42889485
131	0x3c77f40d	0.01513387
132	0x3ef5d5b4	0.48014605
133	0x3e930155	0.28711954
134	0x3e81a16a	0.25318462
135	0x3ef19525	0.471841
136	0x3ead373a	0.33831197
137	0x3bd2ef56	0.0064372225
138	0xbeca23b7	-0.39480373
139	0xbef83c44	-0.4848348
140	0xbe877398	-0.2645538
141	0xbd89afeb	-0.06723007
142	0xbeb530d3	-0.35388812
143	0x3e584b8d	0.2112257
144	0x3e664cfe	0.22490308
145	0xbe33026b	-0.17481391
146	0x3da40c60	0.08010173
147	0x3e7811b5	0.24225505
148	0x3ea9893f	0.33112523
149	0x3e941124	0.28919327
150	0xbe3fe0a6	-0.1873804
151	0x3f11adcd	0.56905824
152	0xbd1a8736	-0.037726603
153	0xbca27df1	-0.019835444
154	0xbf0b81ce	-0.5449494
155	0xbebe414e	-0.371592
156	0xbeacb147	-0.33729002
157	0xbe7cdf66	-0.24694595
158	0x3ed22a3c	0.41047847
159	0xbe4131f4	-0.18866712
160	0xbedce618	-0.43144298
161	0x3e63777a	0.22213545
162	0x3e22e815	0.15908845
163	0x3e8a7957	0.270457
164	0xbeb4d66b	-0.35319838
165	0x3e3fd7d0	0.1873467
166	0xbe711577	-0.23543344
167	0xbe8f8873	-0.2803379
168	0xbeeb925d	-0.46010104
169	0xbe86b976	-0.2631337
170	0xbe350fc6	-0.17681798
171	0x3e9e8043	0.3095723
172	0x3da9cb4b	0.08290728
173	0x3af28f1b	0.0018505784
174	0x3f246c8f	0.6422815
175	0x3f0bd782	0.54625714
176	0x3e7f2f56	0.24920401
177	0x3c969be2	0.018384878
178	0xbecc7ef0	-0.39940596
179	0x3ee70451	0.4512048
180	0xbe13d6d3	-0.14437418
181	0xbd3f2f6d	-0.046676088
182	0xbefea976	-0.49738663
183	0xbde98f7a	-0.11404319
184	0xbebea91a	-0.3723839
185	0x3f07d0da	0.5305306
186	0xbeff8e28	-0.49913144
187	0xbee66aee	-0.45003456
188	0xbca099fa	-0.019604672
189	0xbe65f7eb	-0.22457854
190	0x3ea4a810	0.32159472
191	0xbdca4b88	-0.09877688
192	0xbe8ad75a	-0.27117425
193	0x3d05f02f	0.03269976
194	0x3ed5fc95	0.41794267
195	0xbecfef35	-0.40612188
196	0x3e8ad133	0.2711273
197	0x3ebde867	0.3709137
198	0x3f1a0f59	0.6017967
199	0xbeee9f1b	-0.46605763
200	0xbc26559e	-0.010152249
201	0xbeda93b9	-0.42690828
202	0x3efc5f15	0.49291292
203	0xbe655532	-0.2239578
204	0x3ed21626	0.41032523
205	0xbb9a5297	-0.0047095525
206	0xbe25e192	-0.1619933
207	0xbc96e9ae	-0.018421974
208	0x3dc900f5	0.09814636
209	0x3e8b58a4	0.27216065
210	0x3e1d7a1f	0.15378617
211	0x3e1e789d	0.15475698
212	0xbf2a67e2	-0.6656476
213	0x3edab98e	0.42719692
214	0x3eda191c	0.42597282
215	0x3eb6045b	0.35550198
216	0x3edcaf4c	0.4310249
217	0xbf01e492	-0.50739396
218	0xbeb25b1e	-0.34835142
219	0x3f0e489e	0.55579555
220	0xbef71674	-0.48259318
221	0x3eda6560	0.42655468
222	0xbee87da8	-0.45408368
223	0xbed039bb	-0.40669045
224	0x3e908394	0.28225386
225	0xbed46344	-0.41481984
226	0xbe077224	-0.13227135
227	0x3ed70c8c	0.4200176
228	0x3f05cdee	0.5226735
229	0x3f073f15	0.5283063
230	0xbe68f660	-0.22750235
231	0xbee5c2c9	-0.44875172
232	0x3f1186f2	0.56846535
233	0xbdfbe28e	-0.12299071
234	0xbe733e42	-0.23754218
235	0x3e101ee7	0.14074288
236	0xbeceb900	-0.4037552
237	0x3ee4156c	0.44547594
238	0x3eaf8baa	0.34286243
239	0xbf1a4dbc	-0.60274863
240	0xbef2cce8	-0.47421956
241	0xbd4f267d	-0.050573815
242	0x3e785265	0.24250181
243	0x3d787359	0.06065688
244	0xbe6b0650	-0.22951627
245	0xbd9c4659	-0.07630605
246	0xbf0aec6e	-0.54267013
247	0xbed0ebc1	-0.40804866
248	0xbec4c7ad	-0.3843359
249	0x3f07950f	0.5296182
250	0x3ef607b3	0.4805275
251	0xbeac8a56	-0.33699292
252	0x3dbeb7ac	0.093123764
253	0x3e801bf0	0.25021315
254	0xbd69c886	-0.057076
255	0xbe1d135c	-0.15339416

fc1.bias f4 [256]
0	0xbddfdf4d	-0.10931263
1	0x3e699cb9	0.22813691
2	0xbee2d755	-0.4430491
3	0x3dcfd529	0.10148079
4	0xbee1b6fa	-0.44084913
5	0x3eae904e	0.3409447
6	0x3f03811e	0.5136889
7	0xbe5303cc	-0.20606917
8	0x3daed7fb	0.08537289
9	0xbe574f9e	-0.21026465
10	0xbebb52d7	-0.3658664
11	0xbe95b5c6	-0.29240245
12	0xbe9b3887	-0.30316564
13	0x3e341d01	0.17589189
14	0xbe2ae613	-0.16689329
15	0x3cd476db	0.025935581
16	0xbee287af	-0.44244143
17	0xbeb9b761	-0.3627272
18	0xbefea320	-0.4973383
19	0xbed4768b	-0.4149669
20	0x3f203ad2	0.6258975
21	0x3e525131	0.20538785
22	0xbf0cf553	-0.55061835
23	0xbdc5598a	-0.09636219
24	0x3cb00717	0.021487756
25	0x3e9b80c2	0.30371672
26	0x3f101c32	0.5629302
27	0x3e0ec315	0.13941605
28	0x3eca5ac1	0.39522365
29	0xbe5b6e82	-0.21428874
30	0x3d2da615	0.042394716
31	0xbeaa84d2	-0.3330446
32	0x3db92474	0.09040156
33	0x3f0cfc66	0.5507263
34	0x3eb40cda	0.35166055
35	0x3f29bf21	0.66307265
36	0xbea0ebef	-0.31430003
37	0xbd9fc015	-0.078003086
38	0x3dfc535f	0.12320589
39	0x3ebc3d03	0.36765298
40	0xbf07dd88	-0.53072405
41	0xbe912c8f	-0.28354308
42	0x3dab8582	0.08375074
43	0xbec7608b	-0.38940844
44	0x3e0a3f5c	0.13500732
45	0xbd2c4e9c	-0.042067155
46	0xbe1932bc	-0.1496076
47	0x3e9e88d8	0.30963778
48	0x3ec68b1c	0.38778007
49	0x3f0e3216	0.55545175
50	0x3e89ac1e	0.26889127
51	0xbc8157e7	-0.015788985
52	0x3ef1aff0	0.47204542
53	0x3eeb40f7	0.45948002
54	0xbec39f09	-0.38207272
55	0x3e827596	0.25480336
56	0x3d8a8d4c	0.067652315
57	0xbe835a46	-0.2565481
58	0xbe0cd6ff	-0.1375389
59	0xbe0b9a6f	-0.1363313
60	0xbecedafb	-0.40401444
61	0xbe3468fd	-0.17618175
62	0x3e46f204	0.19428259
63	0x3f089bc7	0.533627
64	0x3d33a205	0.043855686
65	0xbf0f21a1	-0.5591069
66	0x3e87d93d	0.26532927
67	0xbe32e3e4	-0.17469746
68	0x3f02313e	0.5085639
69	0xbf0ed15b	-0.557882
70	0xbe0d8e44	-0.13823801
71	0x3ec5e639	0.38652208
72	0x3e348a5c	0.17630905
73	0xbea192fc	-0.31557453
74	0xbefff70e	-0.49993175
75	0xbbcb321b	-0.0062010414
76	0x3e63b2d8	0.22236192
77	0xbef568b6	-0.4793145
78	0xbef75ca4	-0.48312867
79	0xbc1b8482	-0.009492042
80	0xbdf27f96	-0.11840741
81	0x3ee00354	0.4375254
82	0xbf0f35cb	-0.55941457
83	0xbdd49321	-0.10379625
84	0xbee08a03	-0.43855295
85	0x3d896971	0.067095645
86	0xbe9707cd	-0.2949814
87	0x3e2833b4	0.16425973
88	0xbef749da	-0.48298532
89	0xbee88a27	-0.45417902
90	0xbea96c8d	-0.3309063
91	0xbf076040	-0.5288124
92	0x3eba9ad6	0.36446255
93	0xbda93759	-0.0826251
94	0xbec84a69	-0.3911927
95	0x3ecf2340	0.4045658
96	0xbe06218c	-0.13098735
97	0x3e88c67d	0.26713935
98	0xbe374491	-0.1789725
99	0xbef750fa	-0.48303968
100	0x3e01d85d	0.12680192
101	0x3eb811d2	0.35951096
102	0xbf101c80	-0.5629349
103	0x3d08dce8	0.033413798
104	0x3debab0c	0.11507234
105	0x3d87b645	0.06626562
106	0xbc8ce54b	-0.01719918
107	0xbe37c612	-0.17946652
108	0xbed0c1cf	-0.40772864
109	0x3e2b50cf	0.16730045
110	0xbecc9c01	-0.39962772
111	0xbef43dd5	-0.47703424
112	0xbe3dcf02	-0.18535998
113	0xbed1611d	-0.40894404
114	0x3eabd3fb	0.33560166
115	0x3ec80cc4	0.3907224
116	0x3ee5bbe4	0.44869912
117	0xbe8ca380	-0.2746849
118	0x3ea220ef	0.3166575
119	0x3ec3f1f2	0.38270527
120	0x3bd4393d	0.00647655
121	0x3e85a2e3	0.26100835
122	0x3ea743bb	0.32668862
123	0x3ee22e22	0.44175822
124	0x3e9882de	0.29787344
125	0x3e5147c7	0.20437537
126	0xbe640446	-0.22267255
127	0xbea4cf60	-0.32189465
128	0xbe8c2bae	-0.27377075
129	0x3ef0b18d	0.4701046
130	0xbe4033d2	-0.18769768
131	0x3e1013f6	0.14070114
132	0xbf0a79e2	-0.5409223
133	0xbd5d6313	-0.054049563
134	0xbe26c785	-0.16287048
135	0xbebebc0e	-0.3725285
136	0x3eb3acb4	0.350927
137	0xbefced36	-0.49399728
138	0xbdd87792	-0.10569681
139	0xbd93f26b	-0.07223972
140	0xbf05ce30	-0.5226774
141	0x3eb1a6cf	0.34697577
142	0xbe3c1d61	-0.18370582
143	0x3e82a374	0.2551533
144	0x3e99a7ca	0.30010825
145	0x3f20341c	0.6257951
146	0x3d8e7308	0.06955534
147	0x3e9fd9b0	0.3122077
148	0x3f096ed9	0.53684765
149	0x3dc2619e	0.09491275
150	0xbe2701b7	-0.16309248
151	0xbe19781a	-0.14987221
152	0x3dbf8fa9	0.09353573
153	0x3ea23eb5	0.31688467
154	0xbf0d028f	-0.5508203
155	0x3ecebcfc	0.4037856
156	0x3df4e575	0.11957828
157	0xbedffca7	-0.43747446
158	0x3e2e2dc8	0.17009652
159	0x3eb87e31	0.36033776
160	0x3e548668	0.20754397
161	0x3ee4d0e6	0.44690627
162	0x3e1aa6b5	0.15102656
163	0xbefe38e9	-0.49652794
164	0xbc0b6d33	-0.008509922
165	0x3ed76e49	0.42076328
166	0xbe8e2e41	-0.27769664
167	0x3e7c2afa	0.2462577
168	0x3e084811	0.13308741
169	0xbdbfd8e1	-0.09367538
170	0x3b867350	0.004103102
171	0x3e7b67da	0.24551335
172	0xbeca48a3	-0.39508542
173	0x3ee23be5	0.4418632
174	0x3ec1e6e8	0.3787148
175	0x3ea5e05b	0.32397732
176	0x3f13b1b9	0.5769306
177	0xbcf0a82c	-0.029377066
178	0xbed0bcac	-0.40768945
179	0x3cd7f7a3	0.0263632
180	0xbe07a754	-0.13247424
181	0x3e50b3f0	0.2038114
182	0x3f1c8c17	0.6115126
183	0xbeb428a9	-0.3518727
184	0x3c5b0453	0.01336773
185	0x3f0b22dd	0.5435007
186	0xbeebfab4	-0.4608971
187	0xbdcc0a80	-0.0996294
188	0x3f0e725d	0.55643255
189	0x3ece8c8f	0.40341613
190	0x3d88c618	0.066784084
191	0xbe7efcf4	-0.24901181
192	0xbd66156c	-0.056172773
193	0xbf048992	-0.51772416
194	0xbed40009	-0.41406277
195	0xbf0a7b03	-0.5409395
196	0x3f06b729	0.5262323
197	0x3ec40949	0.38288334
198	0x3e7f9eb5	0.24962886
199	0xbe147eed	-0.14501543
200	0x3efd2f69	0.49450234
201	0xbdd73a50	-0.10509169
202	0x3ece2e29	0.40269592
203	0xbd4ae175	-0.04953142
204	0xbe8b0e02	-0.27159125
205	0xbe3ec105	-0.18628319
206	0xbe2c8db7	-0.16850935
207	0xbf0749ca	-0.5284697
208	0x3e30ee85	0.17278488
209	0xbe678126	-0.2260786
210	0x3e810c6c	0.2520479
211	0x3ebc78df	0.36810967
212	0x3d181deb	0.037137907
213	0x3e8f5c96	0.28000325
214	0x3dc32a2b	0.09529527
215	0x3ec2333e	0.3792972
216	0xbebea31c	-0.37233818
217	0x3d473a0e	0.04863935
218	0xbe4501fb	-0.19239037
219	0x3eebd151	0.46058133
220	0xbf04aa68	-0.5182252
221	0xbea62696	-0.32451314
222	0x3d628532	0.055302806
223	0x3f06a892	0.5260097
224	0x3ec8021a	0.39064103
225	0xbed1f20b	-0.41004977
226	0xbed3f7d4	-0.41400015
227	0x3f01d50e	0.5071572
228	0x3dac51e4	0.08414057
229	0xbefd2fab	-0.4945043
230	0xbe0c46a0	-0.13698816
231	0x3e813bc7	0.2524092
232	0xbe3526af	-0.17690538
233	0xbedc9f18	-0.4309013
234	0xbeb6829c	-0.35646522
235	0xbe4493a8	-0.19196951
236	0xbd8b2f28	-0.06796104
237	0x3e7050d2	0.2346833
238	0x3e8ded77	0.27720234
239	0xbe95408c	-0.29150808
240	0xbdd9d750	-0.10636771
241	0xbee43b2e	-0.445764
242	0x3eb73cf0	0.3578868
243	0x3f1c39f5	0.61025935
244	0x3f0fa8c8	0.56116915
245	0x3e6d684a	0.23184314
246	0xbdb3d477	-0.08780759
247	0xbc6bce4d	-0.014392448
248	0x3e554c41	0.2082987
249	0xbf102817	-0.5631117
250	0x3c2b425b	0.010452832
251	0xbef04859	-0.46930197
252	0xbf2416ae	-0.64097106
253	0xbc9e14ef	-0.019297091
254	0xbe456263	-0.19275813
255	0xbebb40c3	-0.36572847

fc2.weight f4 [64, 256]
0	0x3def9b81	0.11699582
1	0x3e06d839	0.1316842
2	0x3c1c4350	0.009537533
3	0xbd8cd7cf	-0.068771
4	0x3daffa8e	0.085927114
5	0xbcbb8fe4	-0.02289576
6	0x3cd1cc5b	0.02561014
7	0xbcac9d20	-0.021071017
8	0x3d3c76ae	0.04601162
9	0x3e2aef40	0.16692829
10	0x3d173293	0.036913466
11	0xbc8f16f8	-0.017467007
12	0x3ca1dda7	0.019759012
13	0xbe138e23	-0.1440969
14	0x3d1ef289	0.03880552
15	0x3dd507e6	0.10401897
16	0xbd47c9c4	-0.048776403
17	0x3d40ff06	0.04711821
18	0x3bf382e7	0.0074313763
19	0x3d5e3f9c	0.05425988
20	0xbdeeebe7	-0.116660886
21	0x3e0455e2	0.12923387
22	0x3d199c6a	0.037502684
23	0x3c6d03c8	0.014466234
24	0x3d3d39a9	0.046197567
25	0x3c95c6da	0.018283296
26	0xbd3706d5	-0.04468425
27	0xbd6b5076	-0.05744978
28	0x3e1e2528	0.15443861
29	0x3d865c87	0.06560617
30	0x3e37fdeb	0.17967956
31	0x3cf9cdec	0.030493699
32	0x3da5bb10	0.0809232
33	0xbd521219	-0.05128679
34	0x3b621723	0.0034498654
35	0xbdebcbc3	-0.11513474
36	0x3da414a4	0.080117494
37	0x3d9f1b4b	0.077688776
38	0xbd7c4f17	-0.061598863
39	0x3de9fd00	0.11425209
40	0xbd6ec8f2	-0.058297105
41	0xbbea5df0	-0.0071523115
42	0xbb588840	-0.0033040196
43	0x3d76990b	0.060204547
44	0xbcd129b6	-0.025532585
45	0x3d262cc5	0.04057004
46	0x3d66387a	0.056206204
47	0x3d66b6aa	0.056326546
48	0x3c396212	0.011314886
49	0x3bb1d50c	0.0054270085
50	0xbdcbb3d9	-0.099464126
51	0xbd47ec96	-0.04880961
52	0xbc8c6228	-0.017136648
53	0x3d788a34	0.060678676
54	0x3d1187c7	0.035529878
55	0x3dcf6c7c	0.101281136
56	0x3d70d5f4	0.05879779
57	0x3d81b6b1	0.06333674
58	0x3daf48db	0.08558818
59	0x3d2a1c18	0.0415307
60	0x3d700dd2	0.05860693
61	0x3c2f9b18	0.01071813
62	0xbd4f05ce	-0.050542645
63	0xbe334741	-0.1750765
64	0xbd0444fe	-0.03229236
65	0x3d534bd8	0.051586002
66	0x3df09c65	0.1174858
67	0x3c95d9ac	0.01829227
68	0x3b73f7bf	0.0037226526
69	0xbd3c8b92	-0.046031542
70	0x3e06a37b	0.131483
71	0x3ca120d1	0.019668968
72	0x3d2f507c	0.042801365
73	0x3db5551e	0.088541254
74	0xbc75d620	-0.015004665
75	0x3a772300	0.00094275177
76	0x3d855a65	0.06511382
77	0x3cc502c8	0.024049178
78	0xbd43e2c0	-0.047823668
79	0x3d5e957c	0.05434178
80	0xbcfdbbb0	-0.030973285
81	0x3e1cda36	0.15317616
82	0x3cfd8898	0.030948922
83	0x3da3a896	0.079911396
84	0x3d6ac7d6	0.057319485
85	0xbe051d98	-0.1299957
86	0xbd7fd198	-0.062455744
87	0x3da5cf57	0.080961876
88	0xbd2fa9da	-0.042886592
89	0x3c08bef0	0.008346304
90	0x3d2cf900	0.042229652
91	0x3e31b772	0.17355135
92	0xbd2ee7ac	-0.04270141
93	0xbd7ad1a2	-0.061235078
94	0x3d541f15	0.051787455
95	0x3c250308	0.0100715235
96	0x3d3b8802	0.045784004
97	0x3a89bebe	0.0010509116
98	0x3d45284c	0.048134133
99	0x3ca19fe8	0.01972957
100	0xbc9251d0	-0.017861277
101	0xbc588480	-0.013215184
102	0xbd0bffdc	-0.034179553
103	0x3daa9fe3	0.08331277
104	0xbd320866	-0.04346504
105	0x3cb00760	0.021487892
106	0x3dbeaece	0.09310685
107	0x3d593bb4	0.053035453
108	0x3da56a18	0.080768764
109	0x3e4eabcf	0.20182727
110	0xbc135f78	-0.0089949295
111	0xbba73810	-0.0051031187
112	0x3d69b21e	0.05705463
113	0x3d3c3e59	0.045957897
114	0xbe40cc98	-0.18828046
115	0x3d424d70	0.04743713
116	0xbd78feb8	-0.060789794
117	0x3e4e4c88	0.20146382
118	0x3dadb840	0.084824085
119	0x3ce17c93	0.027525222
120	0x3c288770	0.010286197
121	0xbd8465ec	-0.064647526
122	0xbd220fc0	-0.0395658
123	0xbce79588	-0.028269544
124	0x3b8a10d5	0.0042134323
125	0xbd12bd0f	-0.03582483
126	0x3c960ceb	0.018316707
127	0x3be0c320	0.006859198
128	0xbd26929c	-0.04066716
129	0x3d06f95c	0.03295265
130	0x3c5dcfe4	0.0135383345
131	0xbe369b34	-0.17832643
132	0x3dd7a210	0.10528958
133	0x3d783312	0.06059558
134	0xbd0e57fe	-0.034751885
135	0xbc88667c	-0.01665043
136	0x3c8d4dcb	0.017249009
137	0x3ddd70f2	0.10812558
138	0x3df26ce5	0.11837176
139	0x3d806728	0.062696755
140	0xbcbe553c	-0.023234002
141	0x3dd6c8de	0.10487531
142	0xbd39305c	-0.045212135
143	0x3e022245	0.12708385
144	0xbd5dc8b6	-0.05414649
145	0xbe2eaf2e	-0.17059013
146	0x3d5812c2	0.052752264
147	0x3d66473d	0.056220282
148	0x3d884f85	0.06655792
149	0x3db2fef7	0.08740037
150	0x3bbd9149	0.0057851416
151	0xbd8e3c5e	-0.06945108
152	0x3cd26610	0.025683433
153	0xbd7aec7e	-0.061260693
154	0x3d687716	0.056754194
155	0x3d7f32d9	0.06230435
156	0xbd8d4eb7	-0.06899779
157	0xbdd4df7a	-0.10394187
158	0x3da16181	0.078799255
159	0x3d9dda19	0.077076145
160	0x3dd55e8a	0.104184225
161	0x3d80ef6b	0.06295665
162	0xbe122463	-0.14271693
163	0x3dc77581	0.09739209
164	0x3e274838	0.16336143
165	0x3d48ccff	0.049023625
166	0x3d5c80a8	0.053833634
167	0x3d1f2f9c	0.038863763
168	0xbafac5c0	-0.001913242
169	0xbce4aef0	-0.027915448
170	0x3b87c360	0.0041431636
171	0x3dd5de5e	0.10442804
172	0x3d222ba6	0.039592408
173	0x3db4569b	0.08805581
174	0x3d86ede1	0.065883406
175	0x3ccb48e0	0.024815023
176	0x3cc0e970	0.023548812
177	0x3db08502	0.08619119
178	0x3cf89edc	0.030349188
179	0x3ca31db4	0.019911624
180	0x3e1a7fd2	0.15087822
181	0xbd7096a4	-0.058737412
182	0xbe39d6ef	-0.18148397
183	0x3dc2586e	0.09489523
184	0x3d9577b5	0.07298223
185	0xbcfcebcd	-0.030874157
186	0x3d2cbe94	0.042173937
187	0x3cae225c	0.021256618
188	0x3c2e7ee4	0.01065037
189	0x3b731b20	0.0037095025
190	0x3dfc78e6	0.12327747
191	0x3d1379a4	0.036004677
192	0x3e128b97	0.14311062
193	0xbcca7244	-0.02471269
194	0xbe08b8d8	-0.13351762
195	0xbd4fa9a4	-0.05069889
196	0x3cbad097	0.022804542
197	0xbb14c429	-0.0022699928
198	0xbd0009d1	-0.03125936
199	0x3d11bc92	0.035580225
200	0x3d8d5a5a	0.06901999
201	0x3dce49bb	0.10072657
202	0x3cc21dda	0.023695875
203	0x3d703f3f	0.058654066
204	0xbcc2c74c	-0.023776673
205	0x3c02e200	0.007988453
206	0x3dcb7d4c	0.09936008
207	0x3d30f468	0.043201834
208	0x3db68c5e	0.08913492
209	0x3cd2182b	0.02564629
210	0x3df06a1a	0.11738987
211	0xbc9b411c	-0.018951945
212	0x3de18120	0.11010957
213	0xbc89d90c	-0.016827129
214	0x3cdcf06b	0.026970109
215	0x3d459917	0.0482417
216	0x3c0c0a40	0.008547366
217	0x3de5753d	0.11204002
218	0x3cd29458	0.025705501
219	0x3aca20c0	0.0015421137
220	0xbcb99ca8	-0.022657707
221	0xbd32cdfe	-0.04365348
222	0x3e1348f7	0.14383303
223	0x3c6a8e7b	0.014316197
224	0xbd4b9c72	-0.049709745
225	0x3dfd6d23	0.12374332
226	0x3e1c9554	0.15291339
227	0x3ddc97d7	0.10771149
228	0x3d30467c	0.04303597
229	0xbd4443a0	-0.047916055
230	0x3e29b958	0.1657461
231	0x3d22f454	0.03978379
232	0x3da8d53c	0.08243796
233	0x3e04b1ac	0.12958401
234	0x3d3aab72	0.04557366
235	0xbe148e43	-0.14507394
236	0x3e095088	0.13409626
237	0x3b069062	0.0020532836
238	0xbcd5c0d8	-0.026092932
239	0x3d47adbb	0.048749667
240	0x3dd5f834	0.104477316
241	0xbba1c9f0	-0.004937403
242	0x3e0c8ee0	0.13726377
243	0x3b734a23	0.0037123046
244	0xbd05dd7c	-0.032681927
245	0x3d65e0dd	0.05612265
246	0x3df66e7b	0.12032791
247	0xba94bec0	-0.0011348352
248	0x3d28b834	0.041191295
249	0x3dba71ec	0.0910376
250	0xbb7d2c11	-0.0038631002
251	0xbcfd57d4	-0.030925669
252	0x3c840aea	0.016118485
253	0xbd595a94	-0.053064898
254	0x3e23959a	0.15975037
255	0xbd1e2fe6	-0.0386199

fc2.bias f4 [64]
0	0x3d1cb886	0.038261913
1	0xbcdc7c5e	-0.026914772
2	0xbcb16724	-0.021655627
3	0x3cdb9954	0.026806511
4	0x3d82f51a	0.06394406
5	0x3c93cd70	0.018042296
6	0x3d4d67ee	0.050147943
7	0x3d5a4c90	0.053295672
8	0xbc6d4a45	-0.014483039
9	0x3c374570	0.011185989
10	0x3d1c85f4	0.038213685
11	0xbd24c3ac	-0.04022567
12	0xbc380578	-0.011231773
13	0xbd316656	-0.043310486
14	0x3d3cceaf	0.046095546
15	0x3cab2a4c	0.020894192
16	0x3d4c013a	0.049805857
17	0x3ce64065	0.028106878
18	0xbcc450b3	-0.023964262
19	0xbd46d3b6	-0.048541747
20	0xbd8effa8	-0.06982356
21	0xbce00e30	-0.027350515
22	0x3c53e7f8	0.012933724
23	0xbc816be9	-0.015798526
24	0x3bd5d400	0.0065255165
25	0x3c52c9c0	0.012865484
26	0xbd152508	-0.03641227
27	0x3bda5ac0	0.0066636503
28	0xbd67586b	-0.056480806
29	0x3d23a3fd	0.039951313
30	0xbd58a1dc	-0.052888736
31	0xbb81ceb0	-0.0039614066
32	0xbb23758b	-0.0024941887
33	0xbd5456d6	-0.051840626
34	0x3d5a428c	0.05328612
35	0x3c372630	0.011178538
36	0xbd23cbd7	-0.03998932
37	0xbca1943c	-0.019724004
38	0x3d62c1f5	0.055360753
39	0xba52f500	-0.0008047372
40	0xbd5fc024	-0.0546266
41	0xbd674556	-0.05646261
42	0x3d6dbc04	0.058040634
43	0x3d348432	0.044071384
44	0xbd7b5407	-0.06135943
45	0x3d49a95c	0.04923378
46	0xbcf15505	-0.029459486
47	0xbd3e18e2	-0.04641045
48	0xbc758ed5	-0.014987667
49	0x3d0a4d86	0.03376534
50	0x3c3dae71	0.011577235
51	0xbd99948a	-0.07499035
52	0xbd1f04b2	-0.038822837
53	0x3d03e1d2	0.03219778
54	0x3ccc8d94	0.024969853
55	0x3ce3db80	0.027814627
56	0xbd158975	-0.036508042
57	0xbc99c9f1	-0.018773051
58	0xba7695ef	-0.0009406497
59	0xbd1150d2	-0.035477467
60	0x3d86fdc2	0.06591369
61	0x3cd00544	0.025393136
62	0x3d0ce110	0.034394324
63	0x3d1f4542	0.03888441

fc3.weight f4 [2, 64]
0	0xbdaaf847	-0.083481364
1	0x3db7dafe	0.08977316
2	0x3df0bd70	0.11754882
3	0xbcd381a0	-0.025818646
4	0xbe1d85e1	-0.15383102
5	0xbc9009b0	-0.017582744
6	0x3c1b15d0	0.00946565
7	0xbd57c4ac	-0.052677795
8	0xbd1f6806	-0.038917564
9	0x3d33b978	0.04387805
10	0xbd7569ed	-0.05991547
11	0x3d06cec4	0.03291203
12	0x3d18ac84	0.0372739
13	0xbd5f1160	-0.05445993
14	0xbdeb94f4	-0.1150302
15	0x3c638f28	0.013889112
16	0xbc896f80	-0.0167768
17	0xbe2d1c4a	-0.16905323
18	0xbe2bc43f	-0.1677408
19	0xbe241025	-0.16021784
20	0xbe0d44b8	-0.13795745
21	0xbc8e58db	-0.017376354
22	0x3d14b688	0.036306888
23	0xbe0dd9bf	-0.13852595
24	0xbdaf30ac	-0.08554205
25	0xbdc72dfa	-0.09725566
26	0xbd7c1ee8	-0.061552912
27	0x3d6aa8c8	0.05728987
28	0xbd883411	-0.06650556
29	0xbd422282	-0.04739619
30	0x3d743928	0.05962482
31	0x3d2db528	0.042409092
32	0x3cbc8a82	0.023015264
33	0x3ca79889	0.020458477
34	0xbe072a99	-0.13199843
35	0x3bbb86e0	0.0057228655
36	0x3d58789f	0.05284941
37	0x3d5c0662	0.053717025
38	0xbd6bd5e7	-0.05757704
39	0xbd800a56	-0.062519714
40	0xbdbfeaca	-0.09370954
41	0xbd86e8ec	-0.06587395
42	0xbd9225f0	-0.07136142
43	0x3d88bf5e	0.066771254
44	0xbdb57593	-0.08860316
45	0x3dc3b514	0.09556022
46	0xbe4238c1	-0.18966962
47	0xbbd275f0	-0.0064227507
48	0x3dde4c81	0.10854436
49	0xbc299898	-0.010351323
50	0x3cef6acb	0.029225728
51	0xbe0549b4	-0.13016397
52	0x3d3c2a93	0.04593904
53	0x3ddcd608	0.10783011
54	0xbb42f464	-0.002974772
55	0x3cd4dac8	0.02598323
56	0x3b75b614	0.003749256
57	0xbd591703	-0.05300046
58	0x3d185cb1	0.037197772
59	0x3d821874	0.0635232
60	0xbe4b86ab	-0.1987559
61	0xbd92427c	-0.07141587
62	0xbdffbba6	-0.12486963
63	0xbe078550	-0.13234448
64	0xbe1e669d	-0.15468831
65	0xbe0c7c29	-0.13719238
66	0x3da354b6	0.07975142
67	0xbc379ce0	-0.0112068355
68	0xbe2960d2	-0.1654084
69	0x3dce95e2	0.10087182
70	0xbda5e50a	-0.08100326
71	0x3dae3166	0.08505516
72	0xbe2e3238	-0.17011344
73	0x3dbba2aa	0.09161885
74	0x3d3b4fc8	0.045730382
75	0x3d8cbdf2	0.06872167
76	0x3c93f238	0.018059835
77	0xbe34770e	-0.17623541
78	0xbde9784c	-0.11399898
79	0x3b5968ec	0.003317411
80	0xbd41f56c	-0.047353193
81	0xbd5ecc5a	-0.054394104
82	0xbdb0c1bc	-0.08630702
83	0x3d834b3f	0.064108364
84	0x3d641de2	0.05569256
85	0xbc81b2cf	-0.015832333
86	0x3b804200	0.003914118
87	0xbe08b344	-0.13349634
88	0x3df483a8	0.11939174
89	0xbdb57c64	-0.08861616
90	0x3d86af6c	0.06576428
91	0x3d679310	0.056536734
92	0xbc49a864	-0.012308214
93	0x3dc8595d	0.0978267
94	0x3d894c98	0.06704062
95	0xbdf91ef6	-0.121641085
96	0xbd65ba52	-0.056085892
97	0x3d82fdaf	0.063960426
98	0xbd4d164f	-0.050070103
99	0xbca0b2d0	-0.019616514
100	0x3ddf060e	0.10889827
101	0x3c94e2f3	0.018174624
102	0xbe1c2f19	-0.15252341
103	0xbd9f3210	-0.077732205
104	0xbdde5512	-0.108560696
105	0x3c9a2553	0.018816626
106	0xbdad02d6	-0.084478065
107	0xbce95f48	-0.028487816
108	0x3d0dcf1a	0.034621336
109	0x3d7f5120	0.062333226
110	0x3d214f78	0.039382428
111	0xbe515e38	-0.20446098
112	0x3dcad4c1	0.09903861
113	0x3cfb5465	0.03067989
114	0x3d35f02f	0.04441851
115	0xbc2518fe	-0.010076759
116	0x3ddc2947	0.107500605
117	0x3de375ae	0.1110643
118	0xbc5013e4	-0.012700055
119	0xbdccee62	-0.100064054
120	0x3d8c8517	0.068613224
121	0xbe3c879d	-0.18411107
122	0xbc993302	-0.01870108
123	0xbbb88437	-0.0056309956
124	0xbd6f9296	-0.058489405
125	0xbc78a690	-0.01517643
126	0xbdfe184c	-0.12406978
127	0xbcdf884a	-0.027286667

fc3.bias f4 [2]
0	0xbcf6c65f	-0.030123888
1	0xbda72ef8	-0.081632555
