checkpoints/dubins3d-discrete-v0__hj_dqn__1__1638911814_evalFalse/dqn_checkpoint_10437.pth (torch, 72343 bytes, 6 tensors)

fc1.weight f4 [256, 3]
0	0x3eba35bb	0.36369118
1	0xbeb7e54d	-0.3591713
2	0xbc0a2107	-0.008430726
3	0x3ec4e4be	0.38455766
4	0xbf1a767e	-0.60337055
5	0x3f1ce8b5	0.6129258
6	0xbdf3409a	-0.11877556
7	0x3e9662ea	0.2937234
8	0x3da46023	0.08026149
9	0xbd31fec4	-0.043455854
10	0x3e3bfb5e	0.18357608
11	0xbeaf1d6a	-0.3420213
12	0x3eb15504	0.34635174
13	0xbe426faa	-0.18987909
14	0x3e06c658	0.131616
15	0xbd9c613b	-0.07635733
16	0x3dded402	0.10880281
17	0xbeb4da4c	-0.35322797
18	0x3ee78fe7	0.45226976
19	0x3c29350a	0.010327587
20	0xbe806a83	-0.25081262
21	0xbeb28872	-0.34869725
22	0xbdc630e4	-0.09677294
23	0xbe7f02f1	-0.24903466
24	0xbe3d7388	-0.18501103
25	0x3ce276a0	0.027644455
26	0x3eb037a4	0.3441745
27	0x3ef91c94	0.48654616
28	0xbf06f7a6	-0.5272163
29	0x3f0303ad	0.51177484
30	0x3e1d1d0a	0.15343109
31	0x3eee1f49	0.46508244
32	0x3ee5e500	0.44901276
33	0xbf06aaec	-0.52604556
34	0xbf0c87f4	-0.5489495
35	0xbe8e9438	-0.27847457
36	0x3f0c71fa	0.54861414
37	0xbe5a6a0b	-0.21329515
38	0x3ed1da62	0.40986925
39	0xbee0e400	-0.4392395
40	0x3f3059c0	0.6888695
41	0xbcbe2a8d	-0.02321365
42	0x3ecb970c	0.39763677
43	0xbe43519c	-0.190741
44	0xbe088ce3	-0.13334994
45	0x3eb62375	0.35573927
46	0xbed3d861	-0.41376022
47	0x3e88fb10	0.26754045
48	0xbe2ab716	-0.16671404
49	0xbd81a218	-0.06329745
50	0xbf0e1843	-0.5550577
51	0xbe8cf032	-0.27527004
52	0x3ea06788	0.31328988
53	0xbe0fb57b	-0.14034073
54	0x3f1fcf99	0.62426144
55	0x3ebdb670	0.3705325
56	0x3cc2136e	0.023690905
57	0xbec54f6b	-0.38537154
58	0x3eb402e1	0.35158446
59	0x3e377c35	0.17918475
60	0xbef30a95	-0.4746901
61	0x3f0aa775	0.5416177
62	0x3f0c2c89	0.54755455
63	0x3f124c9f	0.57148165
64	0xbedb70ec	-0.4285959
65	0xba907c8b	-0.0011023445
66	0xbc373e93	-0.011184352
67	0x3dacb348	0.08432633
68	0xbee056ba	-0.43816167
69	0xbed1c449	-0.40970066
70	0x3ea0cf3f	0.31408116
71	0xbe0aa219	-0.13538398
72	0x3e9f6749	0.31133488
73	0xbdabacce	-0.08382569
74	0x3e9e0260	0.30861187
75	0x3dca055e	0.09864305
76	0x3db3fec0	0.08788824
77	0x3a8dfcdc	0.0010832804
78	0xbef94a91	-0.48689702
79	0x3f0ee5cf	0.5581941
80	0xbd665c5b	-0.05624042
81	0xbedf090e	-0.43561596
82	0x3d0fd0c3	0.0351112
83	0xbdc97de1	-0.098384626
84	0x3ec8e8bc	0.39240062
85	0xbee4d305	-0.44692245
86	0xbf1251d0	-0.57156086
87	0x3eefbdae	0.46824402
88	0xbe458e21	-0.19292499
89	0x3f08b701	0.5340424
90	0x3eaa2be6	0.33236617
91	0xbed76c52	-0.4207483
92	0x3e7025b1	0.23451878
93	0x3e9f47d8	0.311095
94	0xbededbaf	-0.4352698
95	0xbf2a09b1	-0.6642104
96	0x3e496077	0.19665705
97	0xbd2c436c	-0.042056486
98	0xbeca210e	-0.39478344
99	0xbe13a3c5	-0.14417942
100	0x3f0ad560	0.54231834
101	0xbf19c454	-0.600652
102	0x3eaab535	0.33341375
103	0x3e033c89	0.12816061
104	0xbf150261	-0.58206755
105	0xbf137f00	-0.5761566
106	0x3f38dc3e	0.7221106
107	0x3e9dd725	0.30828205
108	0x3eccbac3	0.39986238
109	0xbcdb4b43	-0.026769286
110	0x3e988a2f	0.29792926
111	0x3ee06d8b	0.43833575
112	0x3edaa180	0.4270134
113	0xbeef348b	-0.46719775
114	0x3d5e2fdd	0.054244865
115	0x3eaf045c	0.34183013
116	0x3e86035a	0.26174432
117	0x3ec1d6ba	0.37859136
118	0xbf10e811	-0.56604105
119	0xbedacf1e	-0.42736143
120	0xbeb2c5c3	-0.34916505
121	0x3d948b6d	0.07253156
122	0x3f134f09	0.57542473
123	0xbebab9b5	-0.36469808
124	0x3e9d8579	0.30765894
125	0xbea39ce9	-0.3195565
126	0xbf0af728	-0.5428338
127	0xbdfb4f4b	-0.12270983
128	0x3eaa516b	0.33265242
129	0x3f0f9a64	0.56094956
130	0xbf01e5ef	-0.50741476
131	0x3e96f151	0.29480985
132	0x3eacb1e0	0.33729458
133	0x3e22662d	0.1585929
134	0x3e805eda	0.25072366
135	0x3edc0884	0.42975247
136	0x3e81ae8a	0.25328475
137	0x3dca1c3a	0.09868665
138	0xbeca23b7	-0.39480373
139	0xbef83c44	-0.4848348
140	0xbe877398	-0.2645538
141	0xbd89afeb	-0.06723007
142	0xbeb530d3	-0.35388812
143	0x3e584b8d	0.2112257
144	0x3e477650	0.19478726
145	0xbe87dd77	-0.26536152
146	0x3e91cad9	0.28475073
147	0x3e213ff5	0.15747054
148	0x3e79fadb	0.244121
149	0x3e2c4b47	0.16825591
150	0xbe680e44	-0.22661692
151	0x3f214ff2	0.6301261
152	0xbe9df13d	-0.30848113
153	0xbca27df1	-0.019835444
154	0xbf0b81ce	-0.5449494
155	0xbebe414e	-0.371592
156	0xbeacb147	-0.33729002
157	0xbe7cdf66	-0.24694595
158	0x3ed22a3c	0.41047847
159	0xbe4131f4	-0.18866712
160	0xbedce618	-0.43144298
161	0x3e63777a	0.22213545
162	0x3de96045	0.11395315
163	0x3e3ea5e9	0.18617977
164	0xbeb2b38b	-0.34902605
165	0x3e466531	0.19374539
166	0xbe9be3f0	-0.3044734
167	0xbe259ef6	-0.1617392
168	0xbeeb925d	-0.46010104
169	0xbe86b976	-0.2631337
170	0xbe350fc6	-0.17681798
171	0x3e974f52	0.29552704
172	0x3bde6bb3	0.006787741
173	0x3e7c9c7b	0.24669068
174	0x3f178532	0.59187615
175	0x3eea3614	0.45744383
176	0x3ec4597c	0.3834952
177	0x3c969be2	0.018384878
178	0xbecc7ef0	-0.39940596
179	0x3ee70451	0.4512048
180	0xbe13d6d3	-0.14437418
181	0xbd3f2f6d	-0.046676088
182	0xbefea976	-0.49738663
183	0xbde98f7a	-0.11404319
184	0xbebea91a	-0.3723839
185	0x3f07d0da	0.5305306
186	0xbeff8e28	-0.49913144
187	0xbee66aee	-0.45003456
188	0xbca099fa	-0.019604672
189	0xbe7f6e72	-0.24944475
190	0x3ec6611a	0.38745958
191	0xbec4d715	-0.38445345
192	0xbe8ad75a	-0.27117425
193	0x3d05f02f	0.03269976
194	0x3ed5fc95	0.41794267
195	0xbecfef35	-0.40612188
196	0x3e8ad133	0.2711273
197	0x3ebde867	0.3709137
198	0x3f17d0dc	0.5930307
199	0xbf0cb7a5	-0.5496772
200	0x3e4b04cf	0.19826053
201	0xbeda93b9	-0.42690828
202	0x3efc5f15	0.49291292
203	0xbe655532	-0.2239578
204	0x3eb4663f	0.35234258
205	0xbde136d3	-0.10996785
206	0xbda8dbd6	-0.082450554
207	0xbc96e9ae	-0.018421974
208	0x3dc900f5	0.09814636
209	0x3e8b58a4	0.27216065
210	0x3e12f121	0.14349796
211	0x3dad2500	0.08454323
212	0xbf4a0abf	-0.7892265
213	0x3e909c9a	0.28244478
214	0x3e9a02a8	0.30080152
215	0x3e89a5e8	0.2688439
216	0x3ee0fc89	0.4394267
217	0xbf148ec4	-0.58030343
218	0xbe2c013d	-0.16797347
219	0x3f1051eb	0.56374997
220	0xbf0f720d	-0.560334
221	0x3f438145	0.76369125
222	0xbee87da8	-0.45408368
223	0xbed039bb	-0.40669045
224	0x3e908394	0.28225386
225	0xbed46344	-0.41481984
226	0xbe077224	-0.13227135
227	0x3ed70c8c	0.4200176
228	0x3eeca74f	0.46221396
229	0x3edaf62c	0.4276594
230	0xbe104045	-0.14087017
231	0xbee5c2c9	-0.44875172
232	0x3f1186f2	0.56846535
233	0xbdfbe28e	-0.12299071
234	0xbe733e42	-0.23754218
235	0x3e101ee7	0.14074288
236	0xbeceb900	-0.4037552
237	0x3ed661e0	0.41871548
238	0x3e84fe41	0.2597523
239	0xbf0af521	-0.5428029
240	0xbef2cce8	-0.47421956
241	0xbd4f267d	-0.050573815
242	0x3e785265	0.24250181
243	0x3dc4aa48	0.09602791
244	0xbe9ae8d1	-0.3025575
245	0xbdd3d806	-0.103439376
246	0xbf0aec6e	-0.54267013
247	0xbed0ebc1	-0.40804866
248	0xbec4c7ad	-0.3843359
249	0x3ef6ae3e	0.4817981
250	0x3ec7be09	0.39012173
251	0xbe963eee	-0.29344887
252	0x3dd8ac5f	0.10579752
253	0x3e6304fc	0.2216987
254	0x3de9cd18	0.11416072
255	0xbeb2896f	-0.3487048

fc1.bias f4 [256]
0	0xbea2ddc4	-0.3180982
1	0x3d5b4d1e	0.05354034
2	0xbee2d755	-0.4430491
3	0x3e8fbbb3	0.2807289
4	0xbf223454	-0.63361096
5	0x3f0e051d	0.5547655
6	0x3ea84556	0.328654
7	0xbe5303cc	-0.20606917
8	0x3daed7fb	0.08537289
9	0xbec7d47b	-0.39029297
10	0xbef37e97	-0.47557518
11	0xbe95b5c6	-0.29240245
12	0xbf05b44b	-0.5222823
13	0x3e801f34	0.25023806
14	0xbec4663c	-0.3835925
15	0xbe409ad1	-0.18809058
16	0xbee287af	-0.44244143
17	0xbeb9b761	-0.3627272
18	0xbf32bdb4	-0.69820714
19	0xbed4768b	-0.4149669
20	0x3f2abfb0	0.6669874
21	0xbb3badde	-0.0028637568
22	0xbf0cf553	-0.55061835
23	0xbdc5598a	-0.09636219
24	0xbe3eb1f8	-0.18622577
25	0x3e901a97	0.28145286
26	0x3f50729b	0.81424874
27	0x3e0ec315	0.13941605
28	0x3e5305dd	0.20607705
29	0xbedd3999	-0.43208006
30	0xbe03f3fa	-0.12886038
31	0xbe338989	-0.17532934
32	0xbdb970ca	-0.09054716
33	0x3f39e7f9	0.7261959
34	0x3e4378af	0.19089006
35	0x3f3fcd5b	0.7492272
36	0xbf09d4be	-0.53840244
37	0xbe8a0080	-0.26953506
38	0x3e25476a	0.16140524
39	0x3e58fbcf	0.21189807
40	0xbf07dd88	-0.53072405
41	0xbe912c8f	-0.28354308
42	0x3dab8582	0.08375074
43	0xbf1d7fdf	-0.6152324
44	0xbd96cabc	-0.07362887
45	0xbe7517a1	-0.23934795
46	0xbe1932bc	-0.1496076
47	0x3e9e88d8	0.30963778
48	0x3e46b45d	0.1940474
49	0x3f1c5dc8	0.610806
50	0x3ef29ab0	0.47383642
51	0xbc8157e7	-0.015788985
52	0x3ef1aff0	0.47204542
53	0x3eeb40f7	0.45948002
54	0xbf1b0af0	-0.60563564
55	0x3d9dec51	0.077110894
56	0x3d8a8d4c	0.067652315
57	0xbef3bbaa	-0.47604114
58	0xbead6477	-0.3386571
59	0xbe0b9a6f	-0.1363313
60	0xbecedafb	-0.40401444
61	0xbe3468fd	-0.17618175
62	0x3e46f204	0.19428259
63	0x3f3efcb3	0.7460434
64	0x3d33a205	0.043855686
65	0xbf0f21a1	-0.5591069
66	0x3d3e66d0	0.04648477
67	0xbe32e3e4	-0.17469746
68	0x3ea77c52	0.32712036
69	0xbf0ed15b	-0.557882
70	0xbe95df2c	-0.2927183
71	0x3e9dd250	0.30824518
72	0xbce613eb	-0.02808567
73	0xbf0ad049	-0.5422407
74	0xbefff70e	-0.49993175
75	0xbbcb321b	-0.0062010414
76	0x3d302178	0.04300067
77	0xbef568b6	-0.4793145
78	0xbef75ca4	-0.48312867
79	0xbe4b7229	-0.19867767
80	0xbdf27f96	-0.11840741
81	0x3eacef0a	0.33776122
82	0xbf0f35cb	-0.55941457
83	0xbe9b466a	-0.3032716
84	0xbf157386	-0.583794
85	0x3dfc94d5	0.12333075
86	0xbe9707cd	-0.2949814
87	0xbd56ee2f	-0.052473243
88	0xbef749da	-0.48298532
89	0xbee88a27	-0.45417902
90	0xbf0ccfaa	-0.5500437
91	0xbf3e5774	-0.7435219
92	0x3eba9ad6	0.36446255
93	0xbda93759	-0.0826251
94	0xbf1c2eb3	-0.6100876
95	0x3ecf2340	0.4045658
96	0xbe06218c	-0.13098735
97	0x3e88b5ce	0.26701206
98	0xbe374491	-0.1789725
99	0xbef750fa	-0.48303968
100	0x3e01d85d	0.12680192
101	0x3eb811d2	0.35951096
102	0xbf101c80	-0.5629349
103	0xbe380fd9	-0.17974795
104	0x3debab0c	0.11507234
105	0x3d87b645	0.06626562
106	0xbe597302	-0.21235278
107	0xbe37c612	-0.17946652
108	0xbf1603d6	-0.58599603
109	0x3c20d028	0.009815253
110	0xbf1e440e	-0.61822593
111	0xbef43dd5	-0.47703424
112	0xbe3dcf02	-0.18535998
113	0xbed1fd4c	-0.41013563
114	0x3ec9c1cc	0.39405668
115	0x3ec7ddf8	0.39036536
116	0x3ee5bbe4	0.44869912
117	0xbee36160	-0.4441023
118	0x3e167871	0.14694382
119	0x3eb6bed5	0.35692468
120	0x3bd4393d	0.00647655
121	0x3ef30dd4	0.47471488
122	0x3ea743bb	0.32668862
123	0x3ee22e22	0.44175822
124	0x3e69965c	0.22811264
125	0x3da00984	0.07814315
126	0xbedc68cd	-0.43048707
127	0xbea4cf60	-0.32189465
128	0xbe8c2bae	-0.27377075
129	0x3ea3eb17	0.32015297
130	0xbe07e010	-0.13269067
131	0x3e32c198	0.17456663
132	0xbf438010	-0.7636728
133	0xbe9042d1	-0.28175977
134	0xbe26c785	-0.16287048
135	0xbebebc0e	-0.3725285
136	0x3e11e8b1	0.14248921
137	0xbf348269	-0.7051149
138	0xbe93528c	-0.28773916
139	0xbe924839	-0.28570727
140	0xbf05ce30	-0.5226774
141	0x3e1dc497	0.15407024
142	0xbe3c1d61	-0.18370582
143	0x3e5d2b1d	0.21598478
144	0x3ee26c6b	0.4422334
145	0x3f4216a7	0.75815815
146	0xbde66db6	-0.112513945
147	0x3db62bfa	0.088951066
148	0x3f0a4bd3	0.5402195
149	0xbdce8040	-0.100830555
150	0xbe6e858f	-0.23293136
151	0xbc881095	-0.01660947
152	0x3dbf8fa9	0.09353573
153	0x3f0b4f14	0.5441754
154	0xbf44be5f	-0.76852983
155	0x3e531a2d	0.20615454
156	0x3e8553d5	0.2604052
157	0xbeb85a08	-0.36006188
158	0xbc5cd093	-0.013477462
159	0x3e635b56	0.2220281
160	0x39e953a0	0.0004450353
161	0x3eeb7914	0.45990813
162	0x3e767945	0.24069698
163	0xbf36b637	-0.7137179
164	0xbe3cc0f7	-0.18432985
165	0x3e920865	0.2852203
166	0xbe8e2e41	-0.27769664
167	0x3e7c2afa	0.2462577
168	0x3e084811	0.13308741
169	0xbdbfd8e1	-0.09367538
170	0x3b867350	0.004103102
171	0x3d8d43cb	0.06897696
172	0xbeca48a3	-0.39508542
173	0x3ed49a36	0.41523904
174	0x3e4254e4	0.18977696
175	0x3ea5e05b	0.32397732
176	0x3f13b1b9	0.5769306
177	0xbe55b843	-0.20871072
178	0xbed0bcac	-0.40768945
179	0x3cd7f7a3	0.0263632
180	0xbe9c4700	-0.3052292
181	0x3e50b3f0	0.2038114
182	0x3f2f2b1a	0.6842514
183	0xbf11a4d8	-0.56892157
184	0xbe359cb5	-0.1773556
185	0x3f1bbe4a	0.60837233
186	0xbeebfab4	-0.4608971
187	0xbdcc0a80	-0.0996294
188	0x3eda6e4a	0.4266227
189	0x3ece8c8f	0.40341613
190	0xbe0dbfe3	-0.1384273
191	0xbe7efcf4	-0.24901181
192	0xbe79c0c3	-0.24389939
193	0xbf048992	-0.51772416
194	0xbec08ff1	-0.3760982
195	0xbf0a7b03	-0.5409395
196	0x3ef4377d	0.47698584
197	0x3e7b1369	0.24519123
198	0x3ec576a6	0.38567084
199	0xbe147eed	-0.14501543
200	0x3e998086	0.29980868
201	0xbe8b6eca	-0.27232963
202	0x3e886608	0.26640344
203	0xbe83f976	-0.2577626
204	0xbe8b0e02	-0.27159125
205	0xbecc38c0	-0.39887047
206	0xbec5d5dc	-0.38639724
207	0xbf0749ca	-0.5284697
208	0xbb1858be	-0.0023246254
209	0xbee95329	-0.4557126
210	0x3d42d17d	0.047563065
211	0x3ebc78df	0.36810967
212	0xbd892a0c	-0.06697473
213	0x3e8f5c96	0.28000325
214	0xbd977392	-0.0739509
215	0x3e2515c2	0.16121581
216	0xbebea31c	-0.37233818
217	0xbdea459b	-0.114390574
218	0xbe4501fb	-0.19239037
219	0x3e8113fb	0.25210556
220	0xbf04aa68	-0.5182252
221	0xbea62696	-0.32451314
222	0xbe19d21a	-0.15021554
223	0x3f4174b4	0.755687
224	0x3ec8021a	0.39064103
225	0xbf155933	-0.5833923
226	0xbf237181	-0.6384507
227	0x3e9da3fc	0.30789173
228	0x3dac51e4	0.08414057
229	0xbefd2fab	-0.4945043
230	0xbe99fe0c	-0.30076635
231	0x3e813bc7	0.2524092
232	0xbeb66a19	-0.3562782
233	0xbf1b0f7e	-0.60570514
234	0xbeb6829c	-0.35646522
235	0xbe000260	-0.12500906
236	0xbe81ed39	-0.253763
237	0x3ebc4487	0.36771032
238	0x3e8ded77	0.27720234
239	0xbf012357	-0.5044455
240	0xbe9ce084	-0.30640042
241	0xbee43b2e	-0.445764
242	0x3e405c51	0.18785216
243	0x3f4cf00c	0.8005378
244	0x3f0fa8c8	0.56116915
245	0x3d98c3d5	0.07459227
246	0xbe7d7c8a	-0.24754539
247	0xbc6bce4d	-0.014392448
248	0x3e554c41	0.2082987
249	0xbf4aa4cb	-0.79157704
250	0xbe388d71	-0.18022706
251	0xbef04859	-0.46930197
252	0xbf5e91f6	-0.8694147
253	0xbc9e14ef	-0.019297091
254	0xbec395bc	-0.38200176
255	0xbebb40c3	-0.36572847

fc2.weight f4 [64, 256]
0	0x3e35580a	0.17709365
1	0x3e4267e2	0.1898494
2	0x3c1c4350	0.009537533
3	0xbe182459	-0.14857616
4	0x3e9bb3e9	0.30410698
5	0xbe3b2193	-0.18274526
6	0xbbf7e79c	-0.007565452
7	0xbcac9d20	-0.021071017
8	0x3d3c76ae	0.04601162
9	0x3ea87954	0.32905066
10	0x3d47a443	0.048740637
11	0xbc8f16f8	-0.017467007
12	0x3da19208	0.078891814
13	0xbed48a7b	-0.41511902
14	0x3d927e33	0.07152977
15	0x3e1f0a2e	0.15531227
16	0xbd47c9c4	-0.048776403
17	0x3d40ff06	0.04711821
18	0x3cde4e54	0.02713696
19	0x3d5e3f9c	0.05425988
20	0xbeb38af5	-0.35066953
21	0x3e0a704c	0.135194
22	0x3d199c6a	0.037502684
23	0x3c6d03c8	0.014466234
24	0x3d60a885	0.054848213
25	0xbcc4a8cc	-0.02400627
26	0xbf42b151	-0.76051813
27	0xbd6b5076	-0.05744978
28	0x3e0125ec	0.12612122
29	0x3df49b26	0.11943655
30	0x3e811a82	0.25215536
31	0xbed7e4a1	-0.42166618
32	0x3d80ab96	0.062827274
33	0xbe275038	-0.16339195
34	0xbd0ad378	-0.03389308
35	0xbef7d220	-0.484025
36	0x3e058be7	0.1304165
37	0x3d82dd3d	0.06389854
38	0xbdbeb6e8	-0.0931223
39	0x3dbe11ea	0.092807606
40	0xbd6ec8f2	-0.058297105
41	0xbbea5df0	-0.0071523115
42	0xbb588840	-0.0033040196
43	0x3e2f55e2	0.17122605
44	0xbd1e9145	-0.03871276
45	0x3d0f0c41	0.034923796
46	0x3d66387a	0.056206204
47	0x3d66b6aa	0.056326546
48	0xbd18280a	-0.03714756
49	0xbd3bdcdf	-0.045864936
50	0xbe5044f6	-0.20338807
51	0xbd47ec96	-0.04880961
52	0xbc8c6228	-0.017136648
53	0x3d788a34	0.060678676
54	0x3dc51cd8	0.09624642
55	0x3d8071cd	0.06271706
56	0x3d70d5f4	0.05879779
57	0x3de4f788	0.11180025
58	0x3daa2766	0.08308296
59	0x3d2a1c18	0.0415307
60	0x3d700dd2	0.05860693
61	0x3c2f9b18	0.01071813
62	0xbd4f05ce	-0.050542645
63	0xbecc43c8	-0.39895463
64	0xbd0444fe	-0.03229236
65	0x3d534bd8	0.051586002
66	0x3e0240fb	0.127201
67	0x3c95d9ac	0.01829227
68	0xbd0df8a0	-0.034660935
69	0xbd3c8b92	-0.046031542
70	0x3e0a4115	0.1350139
71	0xbc1da07c	-0.009620782
72	0x3d6292e9	0.055315886
73	0x3e659109	0.22418608
74	0xbc75d620	-0.015004665
75	0x3a772300	0.00094275177
76	0x3d21624b	0.03940038
77	0x3cc502c8	0.024049178
78	0xbd43e2c0	-0.047823668
79	0x3d204375	0.039126832
80	0xbcfdbbb0	-0.030973285
81	0xbc78cd08	-0.015185602
82	0x3cfd8898	0.030948922
83	0x3d91dd19	0.07122249
84	0x3e4037c2	0.1877127
85	0xbec69f30	-0.38793325
86	0xbd7fd198	-0.062455744
87	0x3dd6e0c9	0.10492093
88	0xbd2fa9da	-0.042886592
89	0x3c08bef0	0.008346304
90	0x3de6801c	0.11254904
91	0x3e8cbba3	0.27486905
92	0xbd2ee7ac	-0.04270141
93	0xbd7ad1a2	-0.061235078
94	0x3dbc15c3	0.09183838
95	0x3c250308	0.0100715235
96	0x3d3b8802	0.045784004
97	0x3a3edf02	0.00072811556
98	0x3d45284c	0.048134133
99	0x3ca19fe8	0.01972957
100	0xbc9251d0	-0.017861277
101	0xbc588480	-0.013215184
102	0xbd0bffdc	-0.034179553
103	0x3dbe7fe1	0.09301735
104	0xbd320866	-0.04346504
105	0x3cb00760	0.021487892
106	0x3db2bffc	0.08728024
107	0x3d593bb4	0.053035453
108	0x3e3dbbe7	0.1852871
109	0x3e593693	0.21212225
110	0x3d4a2240	0.04934907
111	0xbba73810	-0.0051031187
112	0x3d69b21e	0.05705463
113	0x3d3903f3	0.045169782
114	0xbef9005a	-0.4863308
115	0x3d425922	0.047448285
116	0xbd78feb8	-0.060789794
117	0x3e9d5d61	0.30735305
118	0x3d710aa6	0.058848046
119	0xbca9ceb2	-0.020728443
120	0x3c288770	0.010286197
121	0xbe3b4fd8	-0.18292177
122	0xbd220fc0	-0.0395658
123	0xbce79588	-0.028269544
124	0xbda146d0	-0.078748345
125	0x3c262d59	0.010142648
126	0x3d5518fe	0.052025788
127	0x3be0c320	0.006859198
128	0xbd26929c	-0.04066716
129	0xbd0c4e24	-0.03425421
130	0x3c3be1a5	0.011467372
131	0xbeb88874	-0.36041605
132	0x3e31b292	0.17353275
133	0x3e12a1a6	0.14319476
134	0xbd0e57fe	-0.034751885
135	0xbc88667c	-0.01665043
136	0xbb9fa697	-0.004872154
137	0x3e2d40cf	0.16919254
138	0x3de926ee	0.113843784
139	0x3dd03650	0.10166609
140	0xbcbe553c	-0.023234002
141	0x3db47330	0.08811033
142	0xbd39305c	-0.045212135
143	0x3986c514	0.00025705306
144	0xbe020155	-0.1269582
145	0xbf218a12	-0.63101304
146	0x3d0a45ff	0.03375816
147	0x3d9b7ac5	0.07591776
148	0xbc8ad99f	-0.016949473
149	0x3dbcf794	0.09226909
150	0x3c4ef940	0.012632668
151	0xbdbeb1df	-0.0931127
152	0x3cd26610	0.025683433
153	0xbea3ec65	-0.32016292
154	0x3df168da	0.11787577
155	0x3cfc5ed0	0.030806929
156	0xbf084f0c	-0.53245616
157	0xbec73696	-0.38908833
158	0x3d5ea309	0.0543547
159	0x3ce71a5d	0.028210813
160	0x3ddce3a1	0.10785604
161	0x3c1cc70f	0.009568944
162	0xbf049869	-0.5179506
163	0x3e2e0a02	0.16996005
164	0x3e69e956	0.22842917
165	0x3b5f36b8	0.0034059715
166	0x3d5c80a8	0.053833634
167	0x3d1f2f9c	0.038863763
168	0xbafac5c0	-0.001913242
169	0xbce4aef0	-0.027915448
170	0x3b87c360	0.0041431636
171	0x3d989057	0.07449406
172	0x3d222ba6	0.039592408
173	0x3c91a943	0.017780906
174	0x3cfc220b	0.030777952
175	0x3ccb48e0	0.024815023
176	0x3cc0e970	0.023548812
177	0x3d9d803e	0.07690476
178	0x3cf89edc	0.030349188
179	0x3ca31db4	0.019911624
180	0x3e5ac9fc	0.21366113
181	0xbd7096a4	-0.058737412
182	0xbed938f1	-0.42426255
183	0x3e20eff9	0.15716542
184	0x3dd86dba	0.10567804
185	0xbdd97b2b	-0.106191956
186	0x3d2cbe94	0.042173937
187	0x3cae225c	0.021256618
188	0xbd5f374d	-0.0544961
189	0x3b731b20	0.0037095025
190	0x3e01925a	0.12653485
191	0x3d1379a4	0.036004677
192	0x3eb36376	0.3503682
193	0xbcca7244	-0.02471269
194	0xbe8f16a8	-0.27946973
195	0xbd4fa9a4	-0.05069889
196	0xbccf70ad	-0.025322283
197	0xbd02a33c	-0.031893954
198	0xbdd6ed12	-0.10494436
199	0x3d11bc92	0.035580225
200	0x3d2b7c9c	0.041866884
201	0x3e132e8a	0.14373222
202	0xbc8be7f4	-0.017078377
203	0x3d97c29a	0.07410164
204	0xbcc2c74c	-0.023776673
205	0x3cde4dc8	0.027136698
206	0x3ded06e5	0.11573581
207	0x3d30f468	0.043201834
208	0x3d7da778	0.06192729
209	0x3ddc8e3f	0.10769319
210	0x3de77842	0.11302234
211	0xbc9b411c	-0.018951945
212	0x3db1f080	0.0868845
213	0xbc89d90c	-0.016827129
214	0x3c4eb879	0.012617224
215	0x3d324ddf	0.043531295
216	0x3c0c0a40	0.008547366
217	0x3e14ad69	0.14519276
218	0x3cd29458	0.025705501
219	0xbc94d4d8	-0.018167898
220	0xbcb99ca8	-0.022657707
221	0xbd32cdfe	-0.04365348
222	0x3e23396a	0.1593987
223	0xbf272aba	-0.6529957
224	0xbd4b9c72	-0.049709745
225	0x3e6a467b	0.22878449
226	0x3ea109e0	0.31452847
227	0x3dab0ed7	0.0835244
228	0x3d30467c	0.04303597
229	0xbd4443a0	-0.047916055
230	0x3e5822c3	0.2110701
231	0x3d22f454	0.03978379
232	0x3e8e6b49	0.27816227
233	0x3e647ea0	0.22313929
234	0x3d3aab72	0.04557366
235	0xbecdaa13	-0.4016882
236	0x3e40e257	0.18836342
237	0xbdb7577e	-0.08952235
238	0xbcd5c0d8	-0.026092932
239	0x3dced3be	0.1009898
240	0x3dd40720	0.103529215
241	0xbba1c9f0	-0.004937403
242	0x3d97cdf8	0.07412332
243	0xbdb1c9f7	-0.086811
244	0xbd05dd7c	-0.032681927
245	0x3cbfef8c	0.023429655
246	0x3e1d9070	0.1538713
247	0xba94bec0	-0.0011348352
248	0x3d28b834	0.041191295
249	0x3e138426	0.1440588
250	0xbc7cd4be	-0.015431581
251	0xbcfd57d4	-0.030925669
252	0x3d925885	0.0714579
253	0xbd595a94	-0.053064898
254	0x3e6d6056	0.2318128
255	0xbd1e2fe6	-0.0386199

fc2.bias f4 [64]
0	0xbdee16b6	-0.116254255
1	0xbcdce666	-0.026965331
2	0xbcb16724	-0.021655627
3	0x3cdb9954	0.026806511
4	0xbda2bce8	-0.07946187
5	0x3c93cd70	0.018042296
6	0x3d4d67ee	0.050147943
7	0x3d5a4c90	0.053295672
8	0xbe1e3ab5	-0.15452082
9	0x3c374570	0.011185989
10	0x3d00007a	0.031250454
11	0xbd24c3ac	-0.04022567
12	0xbc380578	-0.011231773
13	0xbe450da3	-0.19243483
14	0xbde4e4bc	-0.1117644
15	0x3caac044	0.020843633
16	0x3d4c013a	0.049805857
17	0xbdfaf03a	-0.12252851
18	0xbe32f581	-0.17476465
19	0xbe0bd9d5	-0.13657315
20	0xbe22bf2f	-0.15893243
21	0xbce0781b	-0.02740102
22	0x3c53e7f8	0.012933724
23	0xbe2b8b5e	-0.16752383
24	0x3bd5d400	0.0065255165
25	0x3c52c9c0	0.012865484
26	0xbd152508	-0.03641227
27	0x3bda5ac0	0.0066636503
28	0xbd678d69	-0.056531344
29	0x3d236eff	0.039900776
30	0xbd58a1dc	-0.052888736
31	0xbb81ceb0	-0.0039614066
32	0xbb2bf757	-0.0026239955
33	0xbd549b3d	-0.05190586
34	0xbde0afbe	-0.1097102
35	0xbd286b35	-0.041117866
36	0xbd241622	-0.04006017
37	0xbca1fe44	-0.019774564
38	0xbdc7f0d0	-0.09762728
39	0xba52f500	-0.0008047372
40	0xbd5fc024	-0.0546266
41	0xbd73de25	-0.059538025
42	0x3bda6c4b	0.0066657416
43	0x3d348432	0.044071384
44	0xbe2a0ef0	-0.1660726
45	0x3c9fa1d4	0.019486345
46	0xbe1730e1	-0.1476474
47	0xbe34e86a	-0.17666784
48	0xbc765e7c	-0.015037175
49	0x3d0a1888	0.0337148
50	0x3c3cda60	0.011526674
51	0xbe534fd7	-0.20635925
52	0xbd1f4507	-0.03888419
53	0x3d03e1d2	0.03219778
54	0x3ccc238d	0.024919296
55	0x3ce3db80	0.027814627
56	0xbd15be73	-0.03655858
57	0xbe29801a	-0.16552773
58	0xba81eb7b	-0.0009912098
59	0xbd1185d0	-0.035528004
60	0xbda22d62	-0.07918812
61	0x3cd00544	0.025393136
62	0x3d0ce110	0.034394324
63	0xbde81a39	-0.113331266

fc3.weight f4 [2, 64]
0	0xbe3825dd	-0.17983194
1	0x3db7c086	0.08972268
2	0x3df0bd70	0.11754882
3	0xbcd381a0	-0.025818646
4	0xbe7e7375	-0.24848731
5	0xbc9009b0	-0.017582744
6	0x3c1b15d0	0.00946565
7	0xbd57c4ac	-0.052677795
8	0xbe120fc6	-0.1426383
9	0x3d33b978	0.04387805
10	0xbd8901e0	-0.06689811
11	0x3d06cec4	0.03291203
12	0x3d18ac84	0.0372739
13	0xbe0fc806	-0.14041147
14	0xbe5e3890	-0.21701264
15	0x3c62bb15	0.013838549
16	0xbc896f80	-0.0167768
17	0xbe9306a5	-0.28716007
18	0xbe8d1df7	-0.27561924
19	0xbee08c3c	-0.4385699
20	0xbecc1574	-0.39860117
21	0xbc8ec2e3	-0.017426914
22	0x3d14b688	0.036306888
23	0xbe6dab00	-0.23209763
24	0xbdaf30ac	-0.08554205
25	0xbdc72dfa	-0.09725566
26	0xbd7c1ee8	-0.061552912
27	0x3d6aa8c8	0.05728987
28	0xbd88199a	-0.06645508
29	0xbd425780	-0.047446728
30	0x3d743928	0.05962482
31	0x3d2db528	0.042409092
32	0x3cbc9213	0.023018872
33	0x3ca72e7a	0.020407904
34	0xbe8098b0	-0.2511649
35	0xbdb76f15	-0.08956734
36	0x3d583741	0.05278707
37	0x3d5bd164	0.053666487
38	0xbe247854	-0.16061527
39	0xbd800a56	-0.062519714
40	0xbdbfeaca	-0.09370954
41	0xbd870af6	-0.065938875
42	0xbc8c392f	-0.017117111
43	0x3d88bf5e	0.066771254
44	0xbeb20b5f	-0.347743
45	0x3db2e003	0.08734133
46	0xbeba1143	-0.36341295
47	0xbdea4827	-0.11439543
48	0x3dde38bc	0.10850665
49	0xbc2a6cab	-0.010401885
50	0x3cef00c1	0.029175164
51	0xbe9e2af8	-0.30892158
52	0x3d3bf590	0.045888484
53	0x3ddcd608	0.10783011
54	0xbb4644ab	-0.0030253332
55	0x3cd4dac8	0.02598323
56	0x3b7265d4	0.0036986964
57	0xbe1b9cfd	-0.15196605
58	0x3d1827b3	0.037147235
59	0x3d81fdfc	0.06347272
60	0xbea18a78	-0.31550956
61	0xbd92427c	-0.07141587
62	0xbdffbba6	-0.12486963
63	0xbe8a7715	-0.27043977
64	0xbe802d10	-0.2503438
65	0xbe0c8967	-0.1372429
66	0x3da354b6	0.07975142
67	0xbc379ce0	-0.0112068355
68	0xbe8206f4	-0.2539593
69	0x3dce95e2	0.10087182
70	0xbda5e50a	-0.08100326
71	0x3dae3166	0.08505516
72	0xbea0b494	-0.3138777
73	0x3dbba2aa	0.09161885
74	0x3d1eb31e	0.03874504
75	0x3d8cbdf2	0.06872167
76	0x3c93f238	0.018059835
77	0xbe9496cb	-0.29021296
78	0xbe42ad19	-0.19011344
79	0x3b5618aa	0.003266851
80	0xbd41f56c	-0.047353193
81	0xbdfe5779	-0.12419028
82	0xbe21d03d	-0.15802093
83	0x3d20e474	0.03928037
84	0x3cd360fe	0.025803085
85	0xbc821cd0	-0.01588288
86	0x3b804200	0.003914118
87	0xbe5e593d	-0.21713729
88	0x3df483a8	0.11939174
89	0xbdb57c64	-0.08861616
90	0x3d86af6c	0.06576428
91	0x3d679310	0.056536734
92	0xbc48d46e	-0.012257678
93	0x3dc83ee5	0.09777621
94	0x3d894c98	0.06704062
95	0xbdf91ef6	-0.121641085
96	0xbd654e16	-0.05598267
97	0x3d82e262	0.06390835
98	0xbdffcd29	-0.12490303
99	0x3d48835e	0.048953407
100	0x3ddee868	0.10884172
101	0x3c9478eb	0.018124064
102	0xbe873599	-0.2640808
103	0xbd9f3210	-0.077732205
104	0xbdde5512	-0.108560696
105	0x3c994678	0.01871036
106	0xbd00239f	-0.03128397
107	0xbce95f48	-0.028487816
108	0xba2adcfe	-0.0006517916
109	0x3d47d5b6	0.048787795
110	0x3ba138bc	0.0049200933
111	0xbeb8aa1d	-0.36067286
112	0x3dcabe18	0.09899539
113	0x3cfaea5c	0.03062933
114	0x3d35bb31	0.044367973
115	0xbdae5fcb	-0.08514365
116	0x3ddc1647	0.107464366
117	0x3de375ae	0.1110643
118	0xbc50e7f7	-0.012750617
119	0xbdccee62	-0.100064054
120	0x3d8c6a9f	0.06856274
121	0xbe96abe7	-0.29428026
122	0xbc999d0a	-0.01875164
123	0xbbba2c46	-0.0056815473
124	0xbdf7c18b	-0.12097462
125	0xbc78a690	-0.01517643
126	0xbdfe184c	-0.12406978
127	0xbdcb1186	-0.09915452

fc3.bias f4 [2]
0	0x3f3578bc	0.7088735
1	0x3f2a2708	0.66465807
