checkpoints/dubins3d-discrete-v0__hj_dqn__1__1638911814_evalFalse/dqn_checkpoint_10513.pth (torch, 72343 bytes, 6 tensors)

fc1.weight f4 [256, 3]
0	0x3ec456a8	0.38347363
1	0xbead95fc	-0.33903491
2	0xbc41ad11	-0.011821047
3	0x3eceb2be	0.40370744
4	0xbf15e285	-0.58548766
5	0x3f2161f2	0.6304008
6	0xbdf3409a	-0.11877556
7	0x3e9662ea	0.2937234
8	0x3da46023	0.08026149
9	0xbd8f9e0a	-0.070125654
10	0x3e22042d	0.15821905
11	0xbeb2b16e	-0.34900993
12	0x3ebd21d7	0.3693988
13	0xbe2a37b1	-0.16622807
14	0x3e040b57	0.12894951
15	0xbdd47c7a	-0.103753045
16	0x3da74581	0.08167554
17	0xbeb80f27	-0.3594906
18	0x3eddcff2	0.43322712
19	0x3a02b8bd	0.00049866346
20	0xbe839985	-0.25703064
21	0xbeb28872	-0.34869725
22	0xbdc630e4	-0.09677294
23	0xbe7f02f1	-0.24903466
24	0xbe3d7388	-0.18501103
25	0x3ce276a0	0.027644455
26	0x3eb037a4	0.3441745
27	0x3f02328d	0.50858384
28	0xbf015081	-0.50513464
29	0x3f04b858	0.51843786
30	0x3e2f7589	0.1713468
31	0x3ef6cc32	0.48202664
32	0x3ef942ee	0.48683876
33	0xbf06aaec	-0.52604556
34	0xbf0c87f4	-0.5489495
35	0xbe8e9438	-0.27847457
36	0x3f11b3c8	0.5691495
37	0xbe45ed91	-0.19328906
38	0x3ed4da65	0.41572872
39	0xbedfb6af	-0.43694064
40	0x3f354400	0.70806885
41	0x3b9039b6	0.004401411
42	0x3ed50952	0.41608673
43	0xbe2f6754	-0.1712926
44	0xbe0d5882	-0.13803294
45	0x3ec035e5	0.37541118
46	0xbec9f3b6	-0.3944375
47	0x3e8b59a1	0.2721682
48	0xbe2ab716	-0.16671404
49	0xbd81a218	-0.06329745
50	0xbf0e1843	-0.5550577
51	0xbe8cf032	-0.27527004
52	0x3ea06788	0.31328988
53	0xbe0fb57b	-0.14034073
54	0x3f2495cf	0.6429109
55	0x3ec75291	0.3893018
56	0x3cc562da	0.024094988
57	0xbec54f6b	-0.38537154
58	0x3eb402e1	0.35158446
59	0x3e377c35	0.17918475
60	0xbeeec489	-0.4663432
61	0x3f114b4f	0.56755537
62	0x3f13ee93	0.5778591
63	0x3f16b384	0.5886767
64	0xbed256a9	-0.4108174
65	0xba369590	-0.00069650356
66	0xbc373e93	-0.011184352
67	0x3dacb348	0.08432633
68	0xbee056ba	-0.43816167
69	0xbed1c449	-0.40970066
70	0x3ea0cf3f	0.31408116
71	0xbe0aa219	-0.13538398
72	0x3ea8cc53	0.32968387
73	0xbd874011	-0.066040166
74	0x3ea35b8c	0.31905782
75	0x3d7ee11d	0.062226404
76	0x3d658032	0.05603046
77	0xbb50914a	-0.003182488
78	0xbf002083	-0.5004961
79	0x3f10aa32	0.565097
80	0xbd087b32	-0.033320613
81	0xbedf090e	-0.43561596
82	0x3d0fd0c3	0.0351112
83	0xbdc97de1	-0.098384626
84	0x3ecb2fed	0.39685002
85	0xbee17b5d	-0.4403943
86	0xbf1a394a	-0.60243666
87	0x3ef9ea37	0.48811504
88	0xbe32baaf	-0.17454027
89	0x3f0c13c2	0.5471765
90	0x3eb46471	0.3523288
91	0xbecd32aa	-0.40077716
92	0x3e70e623	0.2352529
93	0x3e8d4969	0.2759507
94	0xbefb28cb	-0.4905456
95	0xbf303550	-0.6883135
96	0x3e4a2523	0.19740729
97	0xbd151017	-0.036392298
98	0xbee2a648	-0.44267488
99	0xbe2eec29	-0.17082275
100	0x3f04384f	0.5164842
101	0xbf1ceb3d	-0.61296445
102	0x3ea3c1ea	0.31983882
103	0x3dfa9331	0.12235106
104	0xbf1f512c	-0.62233233
105	0xbf12c894	-0.5733731
106	0x3f3e52b7	0.7434496
107	0x3ea99e3f	0.33128545
108	0x3ed757a4	0.42059052
109	0xbbb9e098	-0.0056725256
110	0x3e99d65f	0.30046365
111	0x3ee35740	0.44402504
112	0x3edeab70	0.4349017
113	0xbefab835	-0.48968664
114	0x3cc71c8a	0.0243056
115	0x3e9e9b9a	0.3097809
116	0x3e966897	0.2937667
117	0x3ec4d51d	0.38443843
118	0xbf0e99a3	-0.5570318
119	0xbeeb25e2	-0.4592734
120	0xbeb2c5c3	-0.34916505
121	0x3d948b6d	0.07253156
122	0x3f134f09	0.57542473
123	0xbebab9b5	-0.36469808
124	0x3e9d8579	0.30765894
125	0xbea39ce9	-0.3195565
126	0xbf0af728	-0.5428338
127	0xbdfb4f4b	-0.12270983
128	0x3eaa516b	0.33265242
129	0x3f1523ab	0.5825755
130	0xbef8c3f9	-0.48587015
131	0x3e98b498	0.29825282
132	0x3ea9b5dd	0.33146563
133	0x3e2088ec	0.15677232
134	0x3e8355aa	0.25651294
135	0x3ee331f1	0.4437404
136	0x3e88b6ba	0.2670191
137	0x3db6ebc5	0.08931688
138	0xbeca23b7	-0.39480373
139	0xbef83c44	-0.4848348
140	0xbe877398	-0.2645538
141	0xbd89afeb	-0.06723007
142	0xbeb530d3	-0.35388812
143	0x3e584b8d	0.2112257
144	0x3e496413	0.19667082
145	0xbe878aa5	-0.26472965
146	0x3ea1c3b1	0.31594613
147	0x3df6e6fa	0.12055774
148	0x3e53d743	0.20687585
149	0x3e455a0c	0.19272631
150	0xbe80d1b2	-0.25159985
151	0x3f1afc7a	0.605415
152	0xbe9f5452	-0.3111902
153	0xbca27df1	-0.019835444
154	0xbf0b81ce	-0.5449494
155	0xbebe414e	-0.371592
156	0xbeacb147	-0.33729002
157	0xbe7cdf66	-0.24694595
158	0x3ed22a3c	0.41047847
159	0xbe4131f4	-0.18866712
160	0xbedce618	-0.43144298
161	0x3e63777a	0.22213545
162	0x3e102aef	0.14078878
163	0x3e630088	0.22168171
164	0xbed2e973	-0.41193733
165	0x3e5188c3	0.20462327
166	0xbe94b8e2	-0.29047304
167	0xbe3795ff	-0.17928313
168	0xbeeb925d	-0.46010104
169	0xbe86b976	-0.2631337
170	0xbe350fc6	-0.17681798
171	0x3ea222a2	0.31667048
172	0x3ce01150	0.027352005
173	0x3e8038ce	0.2504334
174	0x3f1b3aaa	0.6063639
175	0x3ef11795	0.47088304
176	0x3ec61678	0.38689017
177	0x3c969be2	0.018384878
178	0xbecc7ef0	-0.39940596
179	0x3ee70451	0.4512048
180	0xbe13d6d3	-0.14437418
181	0xbd3f2f6d	-0.046676088
182	0xbefea976	-0.49738663
183	0xbde98f7a	-0.11404319
184	0xbebea91a	-0.3723839
185	0x3f07d0da	0.5305306
186	0xbeff8e28	-0.49913144
187	0xbee66aee	-0.45003456
188	0xbca099fa	-0.019604672
189	0xbe8c7e45	-0.27440086
190	0x3eb9bcf7	0.3627698
191	0xbec78d7a	-0.38975126
192	0xbe8ad75a	-0.27117425
193	0x3d05f02f	0.03269976
194	0x3ed5fc95	0.41794267
195	0xbecfef35	-0.40612188
196	0x3e8ad133	0.2711273
197	0x3ebde867	0.3709137
198	0x3f1c1873	0.60974807
199	0xbf085668	-0.53256845
200	0x3e4a27d3	0.19741754
201	0xbeda93b9	-0.42690828
202	0x3efc5f15	0.49291292
203	0xbe655532	-0.2239578
204	0x3eab6eec	0.33483064
205	0xbdfbcae3	-0.12294557
206	0xbdb4725a	-0.08810873
207	0xbc96e9ae	-0.018421974
208	0x3dc900f5	0.09814636
209	0x3e8b58a4	0.27216065
210	0x3e0f5b55	0.13999684
211	0x3db2872f	0.087171905
212	0xbf5e2a23	-0.86783046
213	0x3e705476	0.2346972
214	0x3e887065	0.2664825
215	0x3e91488b	0.28375658
216	0x3ee87205	0.4539949
217	0xbf109ff1	-0.5649405
218	0xbe3aa37d	-0.18226428
219	0x3f15e339	0.5854984
220	0xbf0a1d2a	-0.5395075
221	0x3f46fb96	0.7772764
222	0xbee87da8	-0.45408368
223	0xbed039bb	-0.40669045
224	0x3e908394	0.28225386
225	0xbed46344	-0.41481984
226	0xbe077224	-0.13227135
227	0x3ed70c8c	0.4200176
228	0x3eed8bbd	0.46395674
229	0x3edd0d3e	0.43174165
230	0xbe0e59c5	-0.13901432
231	0xbee5c2c9	-0.44875172
232	0x3f1186f2	0.56846535
233	0xbdfbe28e	-0.12299071
234	0xbe733e42	-0.23754218
235	0x3e101ee7	0.14074288
236	0xbeceb900	-0.4037552
237	0x3edb17fe	0.42791742
238	0x3e8aadcf	0.2708573
239	0xbf112e9a	-0.56711733
240	0xbef2cce8	-0.47421956
241	0xbd4f267d	-0.050573815
242	0x3e785265	0.24250181
243	0x3d901b39	0.07036442
244	0xbeadcd4a	-0.33945686
245	0xbe0cecba	-0.13762179
246	0xbf0aec6e	-0.54267013
247	0xbed0ebc1	-0.40804866
248	0xbec4c7ad	-0.3843359
249	0x3efcd3af	0.49380252
250	0x3ecf7e5c	0.40526092
251	0xbea09663	-0.31364736
252	0x3e09ed38	0.13469398
253	0x3e7f32a5	0.24921663
254	0x3de2df5e	0.1107776
255	0xbeb08a2f	-0.34480426

fc1.bias f4 [256]
0	0xbe9eeaca	-0.31038505
1	0x3d822b50	0.063559175
2	0xbee2d755	-0.4430491
3	0x3e87e121	0.26538947
4	0xbf1fa59f	-0.6236209
5	0x3f0a243b	0.53961533
6	0x3e9de326	0.30837363
7	0xbe5303cc	-0.20606917
8	0x3daed7fb	0.08537289
9	0xbec26626	-0.37968558
10	0xbeef8e82	-0.46788412
11	0xbe95b5c6	-0.29240245
12	0xbf03886c	-0.5138004
13	0x3e8ac428	0.2710278
14	0xbec17489	-0.37784222
15	0xbe37e7fa	-0.17959586
16	0xbee287af	-0.44244143
17	0xbeb9b761	-0.3627272
18	0xbf31541c	-0.69268966
19	0xbed4768b	-0.4149669
20	0x3f31d8d0	0.69471455
21	0x3b46296f	0.0030237099
22	0xbf0cf553	-0.55061835
23	0xbdc5598a	-0.09636219
24	0xbe376d9f	-0.17912911
25	0x3e828575	0.25492445
26	0x3f52cd9b	0.8234498
27	0x3e0ec315	0.13941605
28	0x3e4e1264	0.20124203
29	0xbed8ac29	-0.42318848
30	0xbdf6415b	-0.12024184
31	0xbe57691f	-0.21036194
32	0xbdcd96ef	-0.10038554
33	0x3f35e1af	0.7104749
34	0x3e3013ba	0.17195025
35	0x3f45ad36	0.77217424
36	0xbf07eb54	-0.5309346
37	0xbe8e5bd0	-0.27804422
38	0x3e10d87c	0.14145082
39	0x3e5535b4	0.20821267
40	0xbf07dd88	-0.53072405
41	0xbe912c8f	-0.28354308
42	0x3dab8582	0.08375074
43	0xbf1b1532	-0.60579216
44	0xbdbaeb01	-0.09126855
45	0xbe7511d7	-0.23932587
46	0xbe1932bc	-0.1496076
47	0x3e9e88d8	0.30963778
48	0x3e459e02	0.19298556
49	0x3f167ae5	0.5878127
50	0x3eebbcea	0.46042567
51	0xbc8157e7	-0.015788985
52	0x3ef1aff0	0.47204542
53	0x3eeb40f7	0.45948002
54	0xbf19970a	-0.5999609
55	0x3da53cd4	0.08068243
56	0x3d8a8d4c	0.067652315
57	0xbeef9618	-0.467942
58	0xbeacbe6c	-0.3373903
59	0xbe0b9a6f	-0.1363313
60	0xbecedafb	-0.40401444
61	0xbe3468fd	-0.17618175
62	0x3e46f204	0.19428259
63	0x3f3ba442	0.7329751
64	0x3d33a205	0.043855686
65	0xbf0f21a1	-0.5591069
66	0x3d5380c7	0.051636484
67	0xbe32e3e4	-0.17469746
68	0x3e9cf3cd	0.30654755
69	0xbf0ed15b	-0.557882
70	0xbe9d1fbb	-0.3068827
71	0x3e8ae48b	0.2712749
72	0xbcccad94	-0.024985112
73	0xbf08121f	-0.5315265
74	0xbefff70e	-0.49993175
75	0xbbcb321b	-0.0062010414
76	0x3d0d1e23	0.03445257
77	0xbef568b6	-0.4793145
78	0xbef75ca4	-0.48312867
79	0xbe505389	-0.20344366
80	0xbdf27f96	-0.11840741
81	0x3ea0b6a1	0.31389335
82	0xbf0f35cb	-0.55941457
83	0xbe9ca70e	-0.30596203
84	0xbf1202f2	-0.57035744
85	0x3e157fbb	0.14599507
86	0xbe9707cd	-0.2949814
87	0xbd3a8d9b	-0.0455452
88	0xbef749da	-0.48298532
89	0xbee88a27	-0.45417902
90	0xbf0a4df2	-0.54025185
91	0xbf3c4cb7	-0.7355456
92	0x3eba9ad6	0.36446255
93	0xbda93759	-0.0826251
94	0xbf1aa167	-0.6040253
95	0x3ecf2340	0.4045658
96	0xbe06218c	-0.13098735
97	0x3e88b5ce	0.26701206
98	0xbe374491	-0.1789725
99	0xbef750fa	-0.48303968
100	0x3e01d85d	0.12680192
101	0x3eb811d2	0.35951096
102	0xbf101c80	-0.5629349
103	0xbe33b45d	-0.17549272
104	0x3debab0c	0.11507234
105	0x3d87b645	0.06626562
106	0xbe578738	-0.21047676
107	0xbe37c612	-0.17946652
108	0xbf141a67	-0.57852787
109	0x3c7cecca	0.015437314
110	0xbf1babd2	-0.6080905
111	0xbef43dd5	-0.47703424
112	0xbe3dcf02	-0.18535998
113	0xbed1fd4c	-0.41013563
114	0x3ed5e25b	0.41774258
115	0x3ec7ddf8	0.39036536
116	0x3ee5bbe4	0.44869912
117	0xbedf5658	-0.43620563
118	0x3e15089f	0.1455407
119	0x3ea8e341	0.3298588
120	0x3bd4393d	0.00647655
121	0x3eebffb6	0.4609353
122	0x3ea743bb	0.32668862
123	0x3ee22e22	0.44175822
124	0x3e755d14	0.23961288
125	0x3dbb763c	0.09153411
126	0xbed8fd66	-0.42380828
127	0xbea4cf60	-0.32189465
128	0xbe8c2bae	-0.27377075
129	0x3e9af59c	0.3026551
130	0xbe1ceb49	-0.15324129
131	0x3e43f46c	0.19136208
132	0xbf410137	-0.7539248
133	0xbe8b077d	-0.2715415
134	0xbe26c785	-0.16287048
135	0xbebebc0e	-0.3725285
136	0x3e0dd3e9	0.13850369
137	0xbf332ba6	-0.6998848
138	0xbe976d8f	-0.29575774
139	0xbe8ec07b	-0.27881226
140	0xbf05ce30	-0.5226774
141	0x3e2109db	0.15726416
142	0xbe3c1d61	-0.18370582
143	0x3e4a224b	0.19739644
144	0x3ed9e1b8	0.42555022
145	0x3f46c90f	0.7765054
146	0xbe05e341	-0.13074972
147	0x3dc6cff1	0.097076304
148	0x3f055b7d	0.52092725
149	0xbdcabd30	-0.09899366
150	0xbe63ed6c	-0.22258538
151	0xbd16b0b6	-0.03678962
152	0x3dbf8fa9	0.09353573
153	0x3f07f900	0.5311432
154	0xbf42ac14	-0.7604382
155	0x3e540f0f	0.2070887
156	0x3e72d8e0	0.23715544
157	0xbeaebce1	-0.34128478
158	0xbcad1fef	-0.021133391
159	0x3e4dbf87	0.20092593
160	0x3be314cb	0.006929969
161	0x3edeee03	0.43540964
162	0x3e83464f	0.2563958
163	0xbf34b2dd	-0.70585424
164	0xbe347e07	-0.176262
165	0x3e85aed8	0.26109958
166	0xbe8e2e41	-0.27769664
167	0x3e7c2afa	0.2462577
168	0x3e084811	0.13308741
169	0xbdbfd8e1	-0.09367538
170	0x3b867350	0.004103102
171	0x3d81eb59	0.06343717
172	0xbeca48a3	-0.39508542
173	0x3ecc11c2	0.39857298
174	0x3e3f321a	0.18671456
175	0x3ea5e05b	0.32397732
176	0x3f13b1b9	0.5769306
177	0xbe561bf7	-0.20909105
178	0xbed0bcac	-0.40768945
179	0x3cd7f7a3	0.0263632
180	0xbe9893f4	-0.2980038
181	0x3e50b3f0	0.2038114
182	0x3f3244e2	0.69636357
183	0xbf0ffe67	-0.5624756
184	0xbe30080a	-0.17190567
185	0x3f1720df	0.5903453
186	0xbeebfab4	-0.4608971
187	0xbdcc0a80	-0.0996294
188	0x3ecfe75f	0.4060621
189	0x3ece8c8f	0.40341613
190	0xbe0d2068	-0.13781893
191	0xbe7efcf4	-0.24901181
192	0xbe7505b0	-0.23927951
193	0xbf048992	-0.51772416
194	0xbeb2cc2c	-0.34921396
195	0xbf0a7b03	-0.5409395
196	0x3ee487dc	0.44634902
197	0x3e55c335	0.20875247
198	0x3ebd0fd4	0.36926138
199	0xbe147eed	-0.14501543
200	0x3e999ce4	0.3000251
201	0xbe894802	-0.2681275
202	0x3e7729cc	0.24137038
203	0xbe821767	-0.2540848
204	0xbe8b0e02	-0.27159125
205	0xbec89bab	-0.39181265
206	0xbec2f2cf	-0.38075873
207	0xbf0749ca	-0.5284697
208	0xbc736aed	-0.014857036
209	0xbee42c27	-0.44564936
210	0x3d52c525	0.051457543
211	0x3ebc78df	0.36810967
212	0xbda7b934	-0.081896216
213	0x3e8f5c96	0.28000325
214	0xbd9df48c	-0.07712659
215	0x3e2e2d12	0.1700938
216	0xbebea31c	-0.37233818
217	0xbdddcf93	-0.10830607
218	0xbe4501fb	-0.19239037
219	0x3e8079cc	0.25092924
220	0xbf04aa68	-0.5182252
221	0xbea62696	-0.32451314
222	0xbe160359	-0.14649715
223	0x3f457ebb	0.771465
224	0x3ec8021a	0.39064103
225	0xbf1377c3	-0.57604617
226	0xbf209fec	-0.6274402
227	0x3e9dc0cd	0.30811158
228	0x3dac51e4	0.08414057
229	0xbefd2fab	-0.4945043
230	0xbe971bb6	-0.2951333
231	0x3e813bc7	0.2524092
232	0xbeaf92af	-0.34291598
233	0xbf190eff	-0.5978851
234	0xbeb6829c	-0.35646522
235	0xbdd62405	-0.10456089
236	0xbe7cb661	-0.24678947
237	0x3eb3a21e	0.35084623
238	0x3e8ded77	0.27720234
239	0xbf000ab9	-0.5001636
240	0xbe9c4a04	-0.3052522
241	0xbee43b2e	-0.445764
242	0x3e3aafac	0.18231076
243	0x3f496b29	0.7867914
244	0x3f0fa8c8	0.56116915
245	0x3d62f2d0	0.055407345
246	0xbe7aa104	-0.24475485
247	0xbc6bce4d	-0.014392448
248	0x3e554c41	0.2082987
249	0xbf48ee08	-0.78488207
250	0xbe3e3081	-0.1857319
251	0xbef04859	-0.46930197
252	0xbf5cfac9	-0.8632017
253	0xbc9e14ef	-0.019297091
254	0xbebfa811	-0.37432912
255	0xbebb40c3	-0.36572847

fc2.weight f4 [64, 256]
0	0x3e459364	0.19294506
1	0x3e3a6bcd	0.18205185
2	0x3c1c4350	0.009537533
3	0xbdfbe728	-0.12299949
4	0x3ea970c4	0.33093846
5	0xbe2805ba	-0.16408435
6	0x3c1c7e30	0.00955157
7	0xbcac9d20	-0.021071017
8	0x3d3c76ae	0.04601162
9	0x3ead7e55	0.33885446
10	0x3d87c9aa	0.06630261
11	0xbc8f16f8	-0.017467007
12	0x3dc90ce0	0.09816909
13	0xbee75b43	-0.45186815
14	0x3dbc9c22	0.092094675
15	0x3e271b39	0.16318978
16	0xbd47c9c4	-0.048776403
17	0x3d40ff06	0.04711821
18	0x3d511fb4	0.051055625
19	0x3d5e3f9c	0.05425988
20	0xbec53017	-0.38513252
21	0x3e1b8f86	0.15191469
22	0x3d199c6a	0.037502684
23	0x3c6d03c8	0.014466234
24	0x3d8f8191	0.07007135
25	0xbc25ac28	-0.010111846
26	0xbf57288b	-0.8404624
27	0xbd6b5076	-0.05744978
28	0x3e120456	0.14259467
29	0x3e0b5f7c	0.13610643
30	0x3e84565e	0.25847143
31	0xbedba423	-0.42898664
32	0x3dac16d5	0.08402792
33	0xbe113f98	-0.14184415
34	0xbc578912	-0.013155239
35	0xbf07d521	-0.53059584
36	0x3e1a7131	0.15082242
37	0x3db14518	0.08655757
38	0xbda1823e	-0.0788617
39	0x3dd70f24	0.10500935
40	0xbd6ec8f2	-0.058297105
41	0xbbea5df0	-0.0071523115
42	0xbb588840	-0.0033040196
43	0x3e407e79	0.18798245
44	0xbccb5ba9	-0.02482398
45	0x3d617982	0.05504752
46	0x3d66387a	0.056206204
47	0x3d66b6aa	0.056326546
48	0xbd1511c2	-0.03639389
49	0xbcfbb86d	-0.03072759
50	0xbe397c5a	-0.18113843
51	0xbd47ec96	-0.04880961
52	0xbc8c6228	-0.017136648
53	0x3d788a34	0.060678676
54	0x3e0498a1	0.12948848
55	0x3d949420	0.07254815
56	0x3d70d5f4	0.05879779
57	0x3e06e7ca	0.13174358
58	0x3dd38151	0.103273995
59	0x3d2a1c18	0.0415307
60	0x3d700dd2	0.05860693
61	0x3c2f9b18	0.01071813
62	0xbd4f05ce	-0.050542645
63	0xbec38381	-0.38186267
64	0xbd0444fe	-0.03229236
65	0x3d534bd8	0.051586002
66	0x3e1090ac	0.14117688
67	0x3c95d9ac	0.01829227
68	0xbca4517b	-0.020058384
69	0xbd3c8b92	-0.046031542
70	0x3e2ded10	0.16984963
71	0x3b955ccf	0.004558183
72	0x3d892cb3	0.06697979
73	0x3e6eedb6	0.23332867
74	0xbc75d620	-0.015004665
75	0x3a772300	0.00094275177
76	0x3d72a40b	0.059238475
77	0x3cc502c8	0.024049178
78	0xbd43e2c0	-0.047823668
79	0x3d7f24b2	0.062290855
80	0xbcfdbbb0	-0.030973285
81	0xbd08c3fa	-0.033390023
82	0x3cfd8898	0.030948922
83	0x3dbfb0de	0.093599066
84	0x3e620b49	0.22074617
85	0xbed70016	-0.41992253
86	0xbd7fd198	-0.062455744
87	0x3def5e2b	0.11687883
88	0xbd2fa9da	-0.042886592
89	0x3c08bef0	0.008346304
90	0x3e08d410	0.13362145
91	0x3e999315	0.29995027
92	0xbd2ee7ac	-0.04270141
93	0xbd7ad1a2	-0.061235078
94	0x3ded45d4	0.11585584
95	0x3c250308	0.0100715235
96	0x3d3b8802	0.045784004
97	0x3a3edf02	0.00072811556
98	0x3d45284c	0.048134133
99	0x3ca19fe8	0.01972957
100	0xbc9251d0	-0.017861277
101	0xbc588480	-0.013215184
102	0xbd0bffdc	-0.034179553
103	0x3de58cfd	0.11208532
104	0xbd320866	-0.04346504
105	0x3cb00760	0.021487892
106	0x3dded39f	0.10880207
107	0x3d593bb4	0.053035453
108	0x3e59d5fa	0.21273032
109	0x3e6406b9	0.2226819
110	0x3d874cd1	0.066064484
111	0xbba73810	-0.0051031187
112	0x3d69b21e	0.05705463
113	0x3d3903f3	0.045169782
114	0xbf064425	-0.5244773
115	0x3d425922	0.047448285
116	0xbd78feb8	-0.060789794
117	0x3eaac5db	0.33354077
118	0x3d99106e	0.07473837
119	0xbb664d2a	-0.0035141208
120	0x3c288770	0.010286197
121	0xbe26f00e	-0.16302511
122	0xbd220fc0	-0.0395658
123	0xbce79588	-0.028269544
124	0xbdf6b7ee	-0.120468006
125	0xbb65f33b	-0.0035087604
126	0x3d99c363	0.0750797
127	0x3be0c320	0.006859198
128	0xbd26929c	-0.04066716
129	0xbcac5830	-0.021038145
130	0x3d193d20	0.03741181
131	0xbec63872	-0.3871494
132	0x3e470b43	0.1943789
133	0x3e16aec8	0.14715111
134	0xbd0e57fe	-0.034751885
135	0xbc88667c	-0.01665043
136	0x3bd13f64	0.0063857306
137	0x3e4d1f06	0.20031366
138	0x3e105e1d	0.14098401
139	0x3df5659e	0.119822726
140	0xbcbe553c	-0.023234002
141	0x3dd57355	0.104223885
142	0xbd39305c	-0.045212135
143	0x3d009d0d	0.031399775
144	0xbde76b64	-0.1129978
145	0xbf2fe78f	-0.68712705
146	0x3d664a93	0.056223463
147	0x3d976eac	0.07394156
148	0x3b97cd10	0.0046325997
149	0x3de45d31	0.11150587
150	0x3c981463	0.018564409
151	0xbd9b5e0a	-0.07586296
152	0x3cd26610	0.025683433
153	0xbe94fe47	-0.29100248
154	0x3e12c500	0.14332962
155	0x3d0f5500	0.03499317
156	0xbf0c4f3b	-0.54808396
157	0xbed6fb10	-0.4198842
158	0x3d9d8d03	0.076929115
159	0x3d4a2aad	0.049357105
160	0x3de4ee3d	0.11178253
161	0x3cfc3e74	0.030791499
162	0xbf0f0d72	-0.5587989
163	0x3e4a2a92	0.19742802
164	0x3e748c97	0.23881756
165	0x3cbf7e11	0.023375543
166	0x3d5c80a8	0.053833634
167	0x3d1f2f9c	0.038863763
168	0xbafac5c0	-0.001913242
169	0xbce4aef0	-0.027915448
170	0x3b87c360	0.0041431636
171	0x3dc5c70d	0.096571065
172	0x3d222ba6	0.039592408
173	0x3d0474bc	0.03233789
174	0x3d3a5ce7	0.045498755
175	0x3ccb48e0	0.024815023
176	0x3cc0e970	0.023548812
177	0x3db9d0ef	0.09073054
178	0x3cf89edc	0.030349188
179	0x3ca31db4	0.019911624
180	0x3e6cf453	0.23140077
181	0xbd7096a4	-0.058737412
182	0xbeeadc0e	-0.45871013
183	0x3e3bb3b8	0.18330276
184	0x3df9d02c	0.12197909
185	0xbdacaa18	-0.0843088
186	0x3d2cbe94	0.042173937
187	0x3cae225c	0.021256618
188	0xbd143a2f	-0.0361883
189	0x3b731b20	0.0037095025
190	0x3e153417	0.14570652
191	0x3d1379a4	0.036004677
192	0x3eaa9953	0.33320102
193	0xbcca7244	-0.02471269
194	0xbe9a99ab	-0.30195364
195	0xbd4fa9a4	-0.05069889
196	0xbbdfc2e2	-0.0068286518
197	0xbca2794e	-0.019833233
198	0xbda89352	-0.08231224
199	0x3d11bc92	0.035580225
200	0x3d5c1c25	0.05373778
201	0x3e29dd01	0.16588213
202	0x3b61aa41	0.0034433755
203	0x3dc1d340	0.09464121
204	0xbcc2c74c	-0.023776673
205	0x3d3aab26	0.045573376
206	0x3e0b10e7	0.13580666
207	0x3d30f468	0.043201834
208	0x3da81891	0.08207811
209	0x3df56e66	0.119839475
210	0x3e047d7e	0.12938496
211	0xbc9b411c	-0.018951945
212	0x3dfb49e1	0.12269951
213	0xbc89d90c	-0.016827129
214	0x3cf1ce38	0.029517278
215	0x3ccdc491	0.025118144
216	0x3c0c0a40	0.008547366
217	0x3e25b74f	0.16183208
218	0x3cd29458	0.025705501
219	0xbb2719c4	-0.0025497535
220	0xbcb99ca8	-0.022657707
221	0xbd32cdfe	-0.04365348
222	0x3e372dde	0.1788859
223	0xbf3aa9ad	-0.72915155
224	0xbd4b9c72	-0.049709745
225	0x3e83ee45	0.25767723
226	0x3ea8694f	0.32892844
227	0x3dc824d4	0.097726494
228	0x3d30467c	0.04303597
229	0xbd4443a0	-0.047916055
230	0x3e6e539e	0.23274085
231	0x3d22f454	0.03978379
232	0x3e8dcbad	0.27694455
233	0x3e7c94c3	0.24666123
234	0x3d3aab72	0.04557366
235	0xbede154b	-0.4337562
236	0x3e5048fe	0.20340344
237	0xbd7d2f43	-0.06181265
238	0xbcd5c0d8	-0.026092932
239	0x3e048f11	0.129452
240	0x3dfe9e79	0.1243257
241	0xbba1c9f0	-0.004937403
242	0x3d680103	0.05664159
243	0xbd958195	-0.073001064
244	0xbd05dd7c	-0.032681927
245	0x3d3b232f	0.04568785
246	0x3e34fbc6	0.17674169
247	0xba94bec0	-0.0011348352
248	0x3d28b834	0.041191295
249	0x3e2d50a6	0.16925296
250	0x3b08ee55	0.002089401
251	0xbcfd57d4	-0.030925669
252	0x3dc9d4ee	0.09855066
253	0xbd595a94	-0.053064898
254	0x3e7ed60f	0.24886344
255	0xbd1e2fe6	-0.0386199

fc2.bias f4 [64]
0	0xbddd5ed8	-0.10809106
1	0xbcdce666	-0.026965331
2	0xbcb16724	-0.021655627
3	0x3cdb9954	0.026806511
4	0xbd8e409d	-0.06945918
5	0x3c93cd70	0.018042296
6	0x3d4d67ee	0.050147943
7	0x3d5a4c90	0.053295672
8	0xbe16120a	-0.14655319
9	0x3c374570	0.011185989
10	0x3d00007a	0.031250454
11	0xbd24c3ac	-0.04022567
12	0xbc380578	-0.011231773
13	0xbe3da767	-0.1852089
14	0xbdd71974	-0.10502902
15	0x3caac044	0.020843633
16	0x3d4c013a	0.049805857
17	0xbdea14dc	-0.1142976
18	0xbe2837a7	-0.1642748
19	0xbdfe32a1	-0.124120004
20	0xbe1589f2	-0.14603403
21	0xbce0781b	-0.02740102
22	0x3c53e7f8	0.012933724
23	0xbe22cfb6	-0.15899548
24	0x3bd5d400	0.0065255165
25	0x3c52c9c0	0.012865484
26	0xbd152508	-0.03641227
27	0x3bda5ac0	0.0066636503
28	0xbd678d69	-0.056531344
29	0x3d236eff	0.039900776
30	0xbd58a1dc	-0.052888736
31	0xbb81ceb0	-0.0039614066
32	0xbb2bf757	-0.0026239955
33	0xbd549b3d	-0.05190586
34	0xbdcac47b	-0.09900757
35	0xbd286bc8	-0.041118413
36	0xbd241622	-0.04006017
37	0xbca1fe44	-0.019774564
38	0xbdb5281d	-0.088455416
39	0xba52f500	-0.0008047372
40	0xbdfb3ca1	-0.122674234
41	0xbd73de25	-0.059538025
42	0x3bc38754	0.00596706
43	0x3d348432	0.044071384
44	0xbe1d0814	-0.15335113
45	0x3c9fa1d4	0.019486345
46	0xbe0b2a0c	-0.13590258
47	0xbe2d209f	-0.16906975
48	0xbc765e7c	-0.015037175
49	0x3d0a1888	0.0337148
50	0x3c3cda60	0.011526674
51	0xbe4f8590	-0.20265794
52	0xbd1f4507	-0.03888419
53	0x3d03e1d2	0.03219778
54	0x3ccc238d	0.024919296
55	0x3ce3db80	0.027814627
56	0xbd15be73	-0.03655858
57	0xbe20e64f	-0.15712856
58	0xba81eb7b	-0.0009912098
59	0xbd1185d0	-0.035528004
60	0xbd92ca6b	-0.071675144
61	0x3cd00544	0.025393136
62	0x3d0ce110	0.034394324
63	0xbdd9306e	-0.1060494

fc3.weight f4 [2, 64]
0	0xbe4764f4	-0.19472104
1	0x3db7c086	0.08972268
2	0x3df0bd70	0.11754882
3	0xbcd381a0	-0.025818646
4	0xbe8757eb	-0.26434264
5	0xbc9009b0	-0.017582744
6	0x3c1b15d0	0.00946565
7	0xbd57c4ac	-0.052677795
8	0xbe1fe520	-0.15614748
9	0x3d33b978	0.04387805
10	0xbd8901e0	-0.06689811
11	0x3d06cec4	0.03291203
12	0x3d18ac84	0.0372739
13	0xbe1d3032	-0.15350416
14	0xbe6f88a5	-0.2339197
15	0x3c62bb15	0.013838549
16	0xbc896f80	-0.0167768
17	0xbe9cf4d4	-0.3065554
18	0xbe96710a	-0.29383117
19	0xbef1ea2e	-0.47248977
20	0xbedf72ee	-0.43642372
21	0xbc8ec2e3	-0.017426914
22	0x3d14b688	0.036306888
23	0xbe7ded33	-0.24797516
24	0xbdaf30ac	-0.08554205
25	0xbdc72dfa	-0.09725566
26	0xbd7c1ee8	-0.061552912
27	0x3d6aa8c8	0.05728987
28	0xbd88199a	-0.06645508
29	0xbd425780	-0.047446728
30	0x3d743928	0.05962482
31	0x3d2db528	0.042409092
32	0x3cbc9213	0.023018872
33	0x3ca72e7a	0.020407904
34	0xbe8a90b6	-0.2706353
35	0xbdb76f85	-0.089568175
36	0x3d583741	0.05278707
37	0x3d5bd164	0.053666487
38	0xbe335a13	-0.1751483
39	0xbd800a56	-0.062519714
40	0xbceb69c9	-0.028736966
41	0xbd870af6	-0.065938875
42	0xbc867fd8	-0.016418383
43	0x3d88bf5e	0.066771254
44	0xbebfe679	-0.37480524
45	0x3db2e003	0.08734133
46	0xbec88efe	-0.39171594
47	0xbe01e8b2	-0.12686422
48	0x3dde38bc	0.10850665
49	0xbc2a6cab	-0.010401885
50	0x3cef00c1	0.029175164
51	0xbeab0921	-0.33405402
52	0x3d3bf590	0.045888484
53	0x3ddcd608	0.10783011
54	0xbb4644ab	-0.0030253332
55	0x3cd4dac8	0.02598323
56	0x3b7265d4	0.0036986964
57	0xbe29f32f	-0.16596673
58	0x3d1827b3	0.037147235
59	0x3d81fdfc	0.06347272
60	0xbeabb7e6	-0.3353874
61	0xbd92427c	-0.07141587
62	0xbdffbba6	-0.12486963
63	0xbe959f5c	-0.29223144
64	0xbe8c2992	-0.27375466
65	0xbe0c8967	-0.1372429
66	0x3da354b6	0.07975142
67	0xbc379ce0	-0.0112068355
68	0xbe8c7da8	-0.27439618
69	0x3dce95e2	0.10087182
70	0xbda5e50a	-0.08100326
71	0x3dae3166	0.08505516
72	0xbeb02467	-0.34402773
73	0x3dbba2aa	0.09161885
74	0x3d1eb31e	0.03874504
75	0x3d8cbdf2	0.06872167
76	0x3c93f238	0.018059835
77	0xbea2ec2d	-0.31820813
78	0xbe5270ca	-0.20550838
79	0x3b5618aa	0.003266851
80	0xbd41f56c	-0.047353193
81	0xbe07340d	-0.1320345
82	0xbe2d66f2	-0.16933802
83	0x3d982219	0.074283786
84	0x3d61242b	0.054966133
85	0xbc821cd0	-0.01588288
86	0x3b804200	0.003914118
87	0xbe71c14e	-0.23608896
88	0x3df483a8	0.11939174
89	0xbdb57c64	-0.08861616
90	0x3d86af6c	0.06576428
91	0x3d679310	0.056536734
92	0xbc48d46e	-0.012257678
93	0x3dc83ee5	0.09777621
94	0x3d894c98	0.06704062
95	0xbdf91ef6	-0.121641085
96	0xbd654e16	-0.05598267
97	0x3d82e262	0.06390835
98	0xbe096297	-0.13416515
99	0x3d488418	0.0489541
100	0x3ddee868	0.10884172
101	0x3c9478eb	0.018124064
102	0xbe94b660	-0.2904539
103	0xbd9f3210	-0.077732205
104	0xbd4d82d0	-0.05017358
105	0x3c994678	0.01871036
106	0xbcfa8dfe	-0.030585285
107	0xbce95f48	-0.028487816
108	0x3d0945d8	0.033513874
109	0x3d47d5b6	0.048787795
110	0x3cac05bb	0.020998826
111	0xbec9de92	-0.3942762
112	0x3dcabe18	0.09899539
113	0x3cfaea5c	0.03062933
114	0x3d35bb31	0.044367973
115	0xbda57d15	-0.08080498
116	0x3ddc1647	0.107464366
117	0x3de375ae	0.1110643
118	0xbc50e7f7	-0.012750617
119	0xbdccee62	-0.100064054
120	0x3d8c6a9f	0.06856274
121	0xbea46c9a	-0.32114106
122	0xbc999d0a	-0.01875164
123	0xbbba2c46	-0.0056815473
124	0xbe011df5	-0.12609084
125	0xbc78a690	-0.01517643
126	0xbdfe184c	-0.12406978
127	0xbdd2058c	-0.10254964

fc3.bias f4 [2]
0	0x3f580bfe	0.843933
1	0x3f4f4179	0.8095928
