checkpoints/dubins3d-discrete-v0__hj_dqn__1__1638911814_evalFalse/dqn_checkpoint_10393.pth (torch, 72343 bytes, 6 tensors)

fc1.weight f4 [256, 3]
00000000: 2b5a bc3e 6e06 b8be 945f 9bbc 3138 c63e
00000010: 0b41 1bbf 51cd 153f 9a40 f3bd ea62 963e
00000020: 2360 a43d 5dd5 3dbd 9e2b 3e3e 0245 a4be
00000030: 2083 b33e 7ee8 42be 363b f43d 6d1f a3bd
00000040: a6c1 e23d e72d aabe 2066 ec3e 0d96 873c
00000050: 960b 7abe 7288 b2be e430 c6bd f102 7fbe
00000060: 8873 3dbe a076 e23c a437 b03e 091f fb3e
00000070: 863a 07bf 8545 fc3e 7a98 243e 90c8 ee3e
00000080: 03c2 d13e ecaa 06bf f487 0cbf 3894 8ebe
00000090: 8da0 0d3f 41ca 5abe 240d c83e 08e8 d3be
000000a0: 5be0 333f 7284 ffbc ec53 ce3e cb00 42be
000000b0: e276 11be 4b58 b83e 6319 d4be 8b48 803e
000000c0: 16b7 2abe 18a2 81bd 4318 0ebf 32f0 8cbe
000000d0: 8867 a03e 7bb5 0fbe 2922 213f 0bfa bd3e
000000e0: 65d2 313c 6b4f c5be e102 b43e 357c 373e
000000f0: 5dc0 efbe bd70 093f ef17 093f 5b70 133f
00000100: 2c42 dbbe 1fcc 42bc 933e 37bc 48b3 ac3d
00000110: ba56 e0be 49c4 d1be 3fcf a03e 19a2 0abe
00000120: dfef a13e a15f abbd 21b1 933e 04df cc3d
00000130: 3589 bd3d 3469 6c3c 9f9d fabe 0c4b 0b3f
00000140: 7ee8 afbd 0e09 dfbe c3d0 0f3d e17d c9bd
00000150: 0af9 ca3e 7d65 e3be 94cd 0dbf 78f2 f13e
00000160: 13d9 46be e9f6 013f 491f ac3e 7bd0 d7be
00000170: b647 623e b6ce 943e 39f0 e2be 935b 22bf
00000180: 6d2b 4f3e 7962 15bd 21af b8be 4ce4 16be
00000190: 4469 0b3f 351e 13bf cfa9 ad3e 22e1 093e
000001a0: be59 0cbf 7b5b 14bf 1443 353f e711 953e
000001b0: 3657 cf3e 3443 dabc 8790 903e 20c2 e43e
000001c0: 9f6e dd3e 7350 e9be f2bb 673d 7e50 b03e
000001d0: 62ce 773e ecb4 c33e 9a43 10bf a4df d0be
000001e0: c3c5 b2be 6d8b 943d 094f 133f b5b9 babe
000001f0: 7985 9d3e e99c a3be 28f7 0abf 4b4f fbbd
00000200: 6b51 aa3e 7bc8 103f a5fb 01bf 9702 8e3e
00000210: 3e88 b33e d992 293e b1ce 793e 64b1 df3e
00000220: 3f3f 833e ea1e c43d b723 cabe 443c f8be
00000230: 9873 87be ebaf 89bd d330 b5be 8d4b 583e
00000240: 7bda 4b3e 0105 88be bd43 833e 697b 1f3e
00000250: be0c 7b3e bb6b 263e 594a 6bbe e6bb 213f
00000260: 433c 95be f17d a2bc ce81 0bbf 4e41 bebe
00000270: 47b1 acbe 66df 7cbe 3c2a d23e f431 41be
00000280: 18e6 dcbe 7a77 633e b3ff f73d 3548 433e
00000290: 8029 9ebe 05ad 493e c337 9bbe 1604 1cbe
000002a0: 5d92 ebbe 76b9 86be c60f 35be 3c03 9a3e
000002b0: 260d e63b a035 6a3e 1582 193f b68d eb3e
000002c0: b3c5 bc3e e29b 963c f07e ccbe 5104 e73e
000002d0: d3d6 13be 6d2f 3fbd 76a9 febe 7a8f e9bd
000002e0: 1aa9 bebe dad0 073f 288e ffbe ee6a e6be
000002f0: fa99 a0bc 0c80 81be e92d c73e 75db babe
00000300: 5ad7 8abe 2ff0 053d 95fc d53e 35ef cfbe
00000310: 33d1 8a3e 67e8 bd3e 98dc 183f 14bf 0cbf
00000320: 5fbe 403e b993 dabe 155f fc3e 3255 65be
00000330: efc3 b63e fccb ddbd 4e43 a4bd aee9 96bc
00000340: f500 c93d a458 8b3e adaf 153e 7a7c b83d
00000350: 0f76 3abf f8e0 963e 7a6e 9f3e bc67 883e
00000360: 0df1 e23e 207b 14bf b303 2cbe bd63 113f
00000370: 8bc5 0fbf ccd1 3c3f a87d e8be bb39 d0be
00000380: 9483 903e 4463 d4be 2472 07be 8c0c d73e
00000390: 4546 f03e 14a3 dc3e b54f 15be c9c2 e5be
000003a0: f286 113f 8ee2 fbbd 423e 73be e71e 103e
000003b0: 00b9 cebe fec4 d93e 8110 873e d2f3 07bf
000003c0: e8cc f2be 7d26 4fbd 6552 783e 22d1 a53d
000003d0: b55e 9dbe 5f8f 96bd 6eec 0abf c1eb d0be
000003e0: adc7 c4be aaf3 f93e 4682 c93e 3a91 90be
000003f0: 7f3e d53d 63ec 603e 5f13 e53d 254c a5be
0.36787543 -0.35942405 -0.018966474 0.38714746 -0.6064612 0.5851641 -0.11877556 0.2937234
0.08026149 -0.046346057 0.18571326 -0.320839 0.35060978 -0.19034001 0.11925356 -0.07964978
0.11072092 -0.33238146 0.46171665 0.016551042 -0.24418482 -0.34869725 -0.09677294 -0.24903466
-0.18501103 0.027644455 0.3441745 0.49047115 -0.52823675 0.4927179 0.1607379 0.46637392
0.40968332 -0.52604556 -0.5489495 -0.27847457 0.55323106 -0.21366216 0.39072526 -0.41387963
0.70264214 -0.031191085 0.40298402 -0.18945615 -0.14205506 0.36004862 -0.4142562 0.25055346
-0.16671404 -0.06329745 -0.5550577 -0.27527004 0.31328988 -0.14034073 0.6294275 0.3710483
0.010853385 -0.38537154 0.35158446 0.17918475 -0.4682645 0.5368765 0.53552145 0.57593316
-0.42823923 -0.011889487 -0.011184352 0.08432633 -0.43816167 -0.40970066 0.31408116 -0.13538398
0.3162832 -0.08367849 0.28846076 0.10003474 0.09254686 0.014429379 -0.4894838 0.5441139
-0.08589266 -0.43561596 0.0351112 -0.098384626 0.39643127 -0.44413367 -0.5539181 0.472553
-0.19418745 0.5076738 0.3361762 -0.42151245 0.22097668 0.29063958 -0.443239 -0.6342098
0.2023141 -0.036470864 -0.36071113 -0.14735526 0.544575 -0.5746797 0.33918616 0.13464788
-0.54824436 -0.5795209 0.7080548 0.2911522 0.40496224 -0.026643373 0.28235266 0.44679356
0.4324846 -0.4556919 0.056575723 0.3443641 0.24199823 0.3822397 -0.5635315 -0.40795624
-0.34916505 0.07253156 0.57542473 -0.36469808 0.30765894 -0.3195565 -0.5428338 -0.12270983
0.33265242 0.5655591 -0.50774604 0.2773635 0.35064882 0.16559924 0.24395253 0.43690026
0.2563419 0.09576209 -0.39480373 -0.4848348 -0.2645538 -0.06723007 -0.35388812 0.2112257
0.19907562 -0.26566318 0.25637618 0.15574421 0.2451658 0.16252033 -0.2297758 0.63177335
-0.2914754 -0.019835444 -0.5449494 -0.371592 -0.33729002 -0.24694595 0.41047847 -0.18866712
-0.43144298 0.22213545 0.12109318 0.19070514 -0.30891037 0.19694908 -0.3031598 -0.15235934
-0.46010104 -0.2631337 -0.17681798 0.30080593 0.0070206104 0.22872019 0.59964114 0.46006554
0.36869583 0.018384878 -0.39940596 0.4512048 -0.14437418 -0.046676088 -0.49738663 -0.11404319
-0.3723839 0.5305306 -0.49913144 -0.45003456 -0.019604672 -0.25293005 0.38902214 -0.36495557
-0.27117425 0.03269976 0.41794267 -0.40612188 0.2711273 0.3709137 0.597116 -0.5497906
0.18822621 -0.42690828 0.49291292 -0.2239578 0.3569636 -0.108299226 -0.0802065 -0.018421974
0.09814636 0.27216065 0.14617796 0.09008117 -0.72836393 0.29468513 0.31138974 0.26641643
0.44324532 -0.58000374 -0.16798286 0.56792814 -0.561608 0.73757625 -0.45408368 -0.40669045
0.28225386 -0.41481984 -0.13227135 0.4200176 0.4692861 0.4309317 -0.14581187 -0.44875172
0.56846535 -0.12299071 -0.23754218 0.14074288 -0.4037552 0.42533106 0.2637978 -0.53106415
-0.47421956 -0.050573815 0.24250181 0.080965295 -0.30736318 -0.073515646 -0.54267013 -0.40804866
-0.3843359 0.48818713 0.39357203 -0.282358 0.10412311 0.21965174 0.11185335 -0.32284656

fc1.bias f4 [256]
00000000: ceff 9cbe c11d 7a3d 55d7 e2be a69a 8a3e
00000010: c60a 1fbf 7737 0b3f ebe4 ad3e cc03 53be
00000020: fbd7 ae3d 8743 c2be 0c4e edbe c6b5 95be
00000030: b9b4 02bf 4974 863e 5eab bdbe f35b 35be
00000040: af87 e2be 61b7 b9be 8c81 2fbf 8b76 d4be
00000050: 56fb 283f 8cd4 083c 53f5 0cbf 8a59 c5bd
00000060: 45dc 32be 9dd9 8d3e de2c 4c3f 15c3 0e3e
00000070: c699 5d3e e8f2 d7be 6af9 f1bd b56c 48be
00000080: ce23 9dbd b36b 373f f0f3 4e3e e5a0 3b3f
00000090: eb79 06bf f2ae 81be b9f9 1e3e e321 643e
000000a0: 88dd 07bf 8f2c 91be 8285 ab3d 6e71 1abf
000000b0: dcfd 5dbd 9784 65be bc32 19be d888 9e3e
000000c0: 66c7 4c3e 5752 193f f654 ed3e e757 81bc
000000d0: f0af f13e f740 eb3e 6c43 15bf e204 b03d
000000e0: 4c8d 8a3d f818 edbe 3ad6 a5be 6f9a 0bbe
000000f0: fbda cebe fd68 34be 04f2 463e 7941 3c3f
00000100: 05a2 333d a121 0fbf f00c 6c3d e4e3 32be
00000110: aeea aa3e 5bd1 0ebf eb91 8fbe 35ac a13e
00000120: 71bf 8bbc c51e 08bf 0ef7 ffbe 1b32 cbbb
00000130: 0ee3 613d b668 f5be a45c f7be 5e4c 3cbe
00000140: 967f f2bd 3bd8 a53e cb35 0fbf dd34 93be
00000150: 285f 13bf f91e 0b3e cd07 97be b06d 28bd
00000160: da49 f7be 278a e8be 2284 09bf 8ef6 3abf
00000170: d69a ba3e 5937 a9bd 9fa2 18bf 4023 cf3e
00000180: 8c21 06be bfb5 883e 9144 37be fa50 f7be
00000190: 5dd8 013e d211 b83e 801c 10bf 58e0 2bbe
000001a0: 0cab eb3d 45b6 873d 4195 4abe 12c6 37be
000001b0: 2f9c 12bf 056b aa3c 6860 1bbf d53d f4be
000001c0: 02cf 3dbe 4cfd d1be 4db8 d13e f8dd c73e
000001d0: e4bb e53e 1ec1 dcbe f479 213e 9f83 b33e
000001e0: 3d39 d43b cfb4 ed3e bb43 a73e 222e e23e
000001f0: 3c16 513e b7db a93d c6a0 d5be 60cf a4be
00000200: ae2b 8cbe 68c6 a53e 7703 05be 2775 383e
00000210: bc62 40bf dcde 8abe 85c7 26be 0ebc bebe
00000220: 9037 1c3e 8f96 30bf 0fe7 8abe 3122 8cbe
00000230: 30ce 05bf 3d0d 273e 611d 3cbe 1693 593e
00000240: 72a7 dc3e c4cd 3c3f 6f5f bfbd c54d c93d
00000250: a754 083f ab06 b6bd 8356 6dbe 47fe 9ebc
00000260: a98f bf3d 57ad 083f 297c 41bf 1798 5b3e
00000270: 5095 823e 2169 b3be 7413 0b3b f415 6a3e
00000280: 5557 283c 6fcc e73e 0d29 763e 326f 33bf
00000290: 5178 31be e409 963e 412e 8ebe fa2a 7c3e
000002a0: 1148 083e e1d8 bfbd 5073 863b 29d8 a63d
000002b0: a348 cabe 3a1b d63e 4ff0 4b3e 5be0 a53e
000002c0: b9b1 133f 926e 45be acbc d0be a3f7 d73c
000002d0: ca29 96be f0b3 503e a716 303f 8410 0ebf
000002e0: 18a9 29be d3dc 193f b4fa ebbe 800a ccbd
000002f0: 6e6d db3e 8f8c ce3e 9781 00be f4fc 7ebe
00000300: c97c 6dbe 9289 04bf 4a72 c4be 037b 0abf
00000310: 844e f33e 655c 793e d025 c13e ed7e 14be
00000320: 9592 9e3e 5c36 85be 89d9 8b3e 03ea 78be
00000330: 020e 8bbe c0c5 c5be dce2 bebe ca49 07bf
00000340: 5016 473c ff7f e3be b800 723d df78 bc3e
00000350: 486f 9ebd 965c 8f3e d762 84bd 1cb3 2c3e
00000360: 1ca3 bebe 544f d2bd fb01 45be ff27 873e
00000370: 68aa 04bf 9626 a6be 7368 0dbe fe39 433f
00000380: 1a02 c83e f401 12bf 539e 20bf 99bc a33e
00000390: e451 ac3d ab2f fdbe 2382 93be c73b 813e
000003a0: b850 b1be 40d5 17bf 9c82 b6be 88fa f8bd
000003b0: 6690 77be 7b49 b83e 77ed 8d3e b88e fabe
000003c0: 38d9 95be 2e3b e4be 411c 463e a605 4a3f
000003d0: c8a8 0f3f 2d2e b33d e429 70be 4dce 6bbc
000003e0: 414c 553e 82f5 46bf bf0c 24be 5948 f0be
000003f0: c1e3 5abf ef14 9ebc a5ba bdbe c340 bbbe
-0.30663913 0.06106353 -0.4430491 0.27071112 -0.62125814 0.5438151 0.33963713 -0.20606917
0.08537289 -0.37942144 -0.46348608 -0.29240245 -0.5105701 0.26260594 -0.37044805 -0.17710857
-0.44244143 -0.3627272 -0.6855705 -0.4149669 0.6600851 0.008351456 -0.55061835 -0.09636219
-0.17466839 0.27705088 0.7975596 0.13941605 0.21640691 -0.4217751 -0.1181515 -0.19572718
-0.07672845 0.7164871 0.20210242 0.7329238 -0.5252978 -0.25328785 0.15524949 0.22278552
-0.53072405 -0.28354308 0.08375074 -0.6032933 -0.054197177 -0.2241386 -0.1496076 0.30963778
0.1999794 0.59891266 0.46353883 -0.015788985 0.47204542 0.45948002 -0.58306 0.08594681
0.067652315 -0.46308112 -0.32390004 -0.1363313 -0.40401444 -0.17618175 0.19428259 0.73537403
0.043855686 -0.5591069 0.057629526 -0.17469746 0.3338217 -0.557882 -0.28041014 0.31576696
-0.01705906 -0.5317195 -0.49993175 -0.0062010414 0.055148177 -0.4793145 -0.48312867 -0.18388507
-0.11840741 0.32391533 -0.55941457 -0.2875127 -0.5756707 0.13586034 -0.2949814 -0.04112023
-0.48298532 -0.45417902 -0.53717244 -0.7303246 0.36446255 -0.0826251 -0.5962314 0.4045658
-0.13098735 0.2670116 -0.1789725 -0.48303968 0.12680192 0.35951096 -0.5629349 -0.16784799
0.11507234 0.06626562 -0.19783498 -0.17946652 -0.5726957 0.020802984 -0.6069398 -0.47703424
-0.18535998 -0.41013563 0.40960923 0.39036536 0.44869912 -0.43116087 0.15769178 0.35061356
0.00647655 0.46427009 0.32668862 0.44175822 0.20418638 0.082938604 -0.41724223 -0.32189465
-0.27377075 0.32377934 -0.12989603 0.1801344 -0.75150657 -0.27123153 -0.16287048 -0.3725285
0.1525557 -0.68979734 -0.2712941 -0.27369836 -0.5226774 0.16313644 -0.18370582 0.21247515
0.430965 0.73751473 -0.093443744 0.098292865 0.5325417 -0.088879906 -0.23177533 -0.019408358
0.09353573 0.53389496 -0.7558008 0.21444736 0.2550454 -0.35041144 0.0021221312 0.22859937
0.010274728 0.45273158 0.24039097 -0.70091546 -0.17331053 0.2930442 -0.27769664 0.2462577
0.13308741 -0.09367538 0.004103102 0.08146698 -0.39508542 0.41817647 0.19915889 0.32397732
0.5769306 -0.1928046 -0.40768945 0.0263632 -0.29328758 0.2038114 0.68784565 -0.5549395
-0.1656841 0.60102576 -0.4608971 -0.0996294 0.42856926 0.40341613 -0.12549435 -0.24901181
-0.23192133 -0.51772416 -0.38368446 -0.5409395 0.4752084 0.24351652 0.3772416 -0.14501543
0.30971208 -0.26018035 0.27314404 -0.24308018 -0.27159125 -0.38627434 -0.37282455 -0.5284697
0.012151316 -0.4443359 0.059082717 0.36810967 -0.07736069 0.28000325 -0.06464165 0.168652
-0.37233818 -0.10269037 -0.19239037 0.26397702 -0.5182252 -0.32451314 -0.13809375 0.76260364
0.39064103 -0.5703423 -0.62741584 0.31979826 0.08414057 -0.4945043 -0.28810224 0.2524092
-0.34631896 -0.5930977 -0.35646522 -0.1215716 -0.24176177 0.3599356 0.27720234 -0.4893701
-0.29267287 -0.445764 0.19346716 0.7891487 0.56116915 0.08749042 -0.2345348 -0.014392448
0.2082987 -0.77718365 -0.16020487 -0.46930197 -0.85503775 -0.019297091 -0.3705646 -0.36572847

fc2.weight f4 [64, 256]
00000000: 6bac 363e 8977 543e 5043 1c3c 66f8 18be
00000010: aada 983e ef1f 36be d5ac b2bb 209d acbc
00000020: ae76 3c3d 34eb ab3e 8478 3e3d f816 8fbc
00000030: dcb7 a33d 1990 c8be afcf 903d 53b7 253e
00000040: c4c9 47bd 06ff 403d 91d4 d13c 9c3f 5e3d
00000050: 9fd2 a7be 5d04 0e3e 6a9c 193d c803 6d3c
00000060: 8aad 6a3d 549d b0bc a9be 34bf 7650 6bbd
00000070: fa62 043e 38c2 f83d e973 853e 4428 cdbe
00000080: 0564 7d3d ab63 26be ea61 08bd b3ca e7be
00000090: d5ca 043e c944 803d bb6b bcbd 3bdd c83d
000000a0: f2c8 6ebd f05d eabb 4088 58bb 0f7d 303e
000000b0: 5901 19bd 8327 103d 7a38 663d aab6 663d
000000c0: b4ab e6bc 610d 2ebd 6742 51be 96ec 47bd
000000d0: 2862 8cbc 348a 783d 3ef9 a83d bc6c 8d3d
000000e0: f4d5 703d b7fc e13d 7de8 aa3d 181c 2a3d
000000f0: d20d 703d 189b 2f3c ce05 4fbd d627 cabe
00000100: fe44 04bd d84b 533d 847c 073e acd9 953c
00000110: 2957 00bd 928b 3cbd ee0c 013e 9fe7 fabb
00000120: c41b 763d 4a7b 6b3e 20d6 75bc 0023 773a
00000130: 11b1 233d c802 c53c c0e2 43bd 78c8 1b3d
00000140: b0bb fdbc 1dea 2f3c 9888 fd3c 542b 903d
00000150: 37a0 323e ad7e b9be 98d1 7fbd 9a75 e33d
00000160: daa9 2fbd f0be 083c cd6f dc3d 81df 8a3e
00000170: ace7 2ebd a2d1 7abd a0d0 b73d 0803 253c
00000180: 0288 3b3d 02df 3e3a 4c28 453d e89f a13c
00000190: d051 92bc 8084 58bc dcff 0bbd 6cbd c13d
000001a0: 6608 32bd 6007 b03c 9f49 b23d b43b 593d
000001b0: 0fad 383e bcc4 5f3e a25b 463d 1038 a7bb
000001c0: 1eb2 693d f303 393d bf83 ebbe 2259 423d
000001d0: b8fe 78bd 1c17 9b3e 1125 7b3d 8f37 9dbc
000001e0: 7087 283c 88fd 38be c00f 22bd 8895 e7bc
000001f0: bc88 38bd 0714 003d 7c9e 4d3d 20c3 e03b
00000200: 9c92 26bd 03ef f0bc 6407 d83b c065 afbe
00000210: 67ea 303e d2de 1a3e fe57 0ebd 7c66 88bc
00000220: 5c61 21b8 dbb0 253e 7ec9 e03d c1e4 d33d
00000230: 3c55 bebc 8672 bb3d 5c30 39bd 4156 843a
00000240: 1212 fbbd 80e1 17bf 7c71 053d f04b b53d
00000250: 363b 82bc 3a8f be3d ac0e 863c 4378 c2bd
00000260: 1066 d23c 8e6d a5be 72ba ea3d d312 243d
00000270: 3121 03bf 3c18 babe 724e 5d3d 79c4 e93c
00000280: 0c10 ef3d 4fe9 233c a4f6 f8be e4dc 273e
00000290: 2341 703e 98e5 853b a880 5c3d 9c2f 1f3d
000002a0: c0c5 faba f0ae e4bc 60c3 873b 9379 983d
000002b0: a62b 223d c4d5 cd3c 6b8e 0e3d e048 cb3c
000002c0: 70e9 c03c 0258 9c3d dc9e f83c b41d a33c
000002d0: 6577 5c3e a496 70bd 90e1 cdbe 28be 1c3e
000002e0: 0845 dd3d 4dd8 d7bd 94be 2c3d 5c22 ae3c
000002f0: 56eb 54bd 201b 733b 4419 023e a479 133d
00000300: 98ff b83e 4472 cabc 9e55 87be a4a9 4fbd
00000310: 9e57 c3bc beeb f3bc 906a d8bd 92bc 113d
00000320: 8a94 413d 7617 123e 9433 89bc 0f2c 963d
00000330: 4cc7 c2bc 88b2 e23c c1dd ed3d 68f4 303d
00000340: e70c 7e3d b421 e43d 9dd1 ee3d 1c41 9bbc
00000350: 7c3e a93d 0cd9 89bc 3508 663c aea0 853d
00000360: 400a 0c3c 4b94 173e 5894 d23c 6ddd 6bbc
00000370: a89c b9bc fecd 32bd 5290 243e ccfb 18bf
00000380: 729c 4bbd a6a9 643e c2e8 a13e 5b75 b53d
00000390: 7c46 303d a043 44bd f981 573e 54f4 223d
000003a0: 454c 933e af60 623e 72ab 3a3d 2b10 c1be
000003b0: a420 443e 6721 bdbd d8c0 d5bc 45e6 c13d
000003c0: 7cfb d33d f0c9 a1bb 9d25 ba3d 46ae a9bd
000003d0: 7cdd 05bd 5600 bc3c b6f2 1b3e c0be 94ba
000003e0: 34b8 283d 9fa8 0f3e 842b 77bc d457 fdbc
000003f0: df62 883d 945a 59bd ca4a 6f3e e62f 1ebd
0.1783921 0.20748724 0.009537533 -0.14938506 0.29854327 -0.17785619 -0.005452732 -0.021071017
0.04601162 0.33577883 0.04650165 -0.017467007 0.07994053 -0.39172438 0.070708625 0.16183214
-0.048776403 0.04711821 0.025614055 0.05425988 -0.3277788 0.13868852 0.037502684 0.014466234
0.057294406 -0.021559395 -0.70603424 -0.05744978 0.12928382 0.12146419 0.26064995 -0.40069783
0.061862964 -0.16248958 -0.033296503 -0.45271835 0.12968 0.0626312 -0.092002355 0.09807821
-0.058297105 -0.0071523115 -0.0033040196 0.17235206 -0.0373548 0.03519393 0.056206204 0.056326546
-0.028158046 -0.042493228 -0.20435487 -0.04880961 -0.017136648 0.060678676 0.08250664 0.06905505
0.05879779 0.1103453 0.08345125 0.0415307 0.05860693 0.01071813 -0.050542645 -0.39483517
-0.03229236 0.051586002 0.13231093 0.01829227 -0.031333122 -0.046031542 0.12602589 -0.007657006
0.060085073 0.2299625 -0.015004665 0.00094275177 0.039963786 0.024049178 -0.047823668 0.03803298
-0.030973285 0.010736969 0.030948922 0.07039514 0.1744393 -0.36229458 -0.062455744 0.11106415
-0.042886592 0.008346304 0.10763512 0.27123645 -0.04270141 -0.061235078 0.08975339 0.0100715235
0.045784004 0.00072811556 0.048134133 0.01972957 -0.017861277 -0.013215184 -0.034179553 0.094599575
-0.04346504 0.021487892 0.08705448 0.053035453 0.18034767 0.21852392 0.04842723 -0.0051031187
0.05705463 0.045169782 -0.45998952 0.047448285 -0.060789794 0.3029107 0.061314646 -0.019191531
0.010286197 -0.18065464 -0.0395658 -0.028269544 -0.045052275 0.0312691 0.05019997 0.006859198
-0.04066716 -0.029410845 0.006592678 -0.34257317 0.17276917 0.15124062 -0.034751885 -0.01665043
-3.8476064e-05 0.16180746 0.109759316 0.10346366 -0.023234002 0.09152703 -0.045212135 0.0010096506
-0.12259306 -0.5932846 0.03257893 0.088523746 -0.015897375 0.09304662 0.016364418 -0.09495594
0.025683433 -0.32310146 0.11461343 0.040057015 -0.5122252 -0.36346614 0.05402989 0.028536068
0.116729826 0.010004356 -0.48625672 0.16392857 0.23462348 0.0040862076 0.053833634 0.038863763
-0.001913242 -0.027915448 0.0041431636 0.074450634 0.039592408 0.025126345 0.03480379 0.024815023
0.023548812 0.07633974 0.030349188 0.019911624 0.2152992 -0.058737412 -0.40211153 0.15306914
0.10804182 -0.10539303 0.042173937 0.021256618 -0.051982246 0.0037095025 0.1270495 0.036004677
0.36132503 -0.02471269 -0.26432508 -0.05069889 -0.02384549 -0.029775497 -0.105672 0.035580225
0.0472608 0.14266762 -0.016748227 0.07332622 -0.023776673 0.027673021 0.11614562 0.043201834
0.062024023 0.11139241 0.11661074 -0.018951945 0.08263871 -0.016827129 0.014040043 0.06524788
0.008547366 0.14802663 0.025705501 -0.014396054 -0.022657707 -0.04365348 0.16070679 -0.5975921
-0.049709745 0.2233034 0.31622893 0.088602744 0.04303597 -0.047916055 0.21045674 0.03978379
0.28769127 0.22107194 0.04557366 -0.37707648 0.19153076 -0.092348866 -0.026092932 0.094677486
0.10350701 -0.004937403 0.090892054 -0.08285193 -0.032681927 0.022949379 0.15229306 -0.0011348352
0.041191295 0.14029168 -0.0150860585 -0.030925669 0.06659483 -0.053064898 0.23368374 -0.0386199

fc2.bias f4 [64]
00000000: ba8b d9bd 66e6 dcbc 2467 b1bc 5499 db3c
00000010: ab6c 92bd 70cd 933c ee67 4d3d 904c 5a3d
00000020: f9b7 0ebe 7045 373c 7a00 003d acc3 24bd
00000030: 7805 38bc 6eba 36be dbeb d7bd 44c0 aa3c
00000040: 3a01 4c3d 368c ebbd a10f 2bbe 25d4 10be
00000050: b51e 1cbe 1b78 e0bc f8e7 533c 7c78 24be
00000060: 00d4 d53b c0c9 523c 0825 15bd c05a da3b
00000070: 698d 67bd ff6e 233d dca1 58bd b0ce 81bb
00000080: 57f7 2bbb 3d9b 54bd 9808 cebd cf32 28bd
00000090: 2216 24bd 44fe a1bc 17c9 adbd 00f5 52ba
000000a0: 24c0 5fbd 25de 73bd 04bc 6d3d 3284 343d
000000b0: 0428 22be d4a1 9f3c 6b18 12be 1680 21be
000000c0: 7c5e 76bc 8818 0a3d 60da 3c3c 8b7b 4dbe
000000d0: 0745 1fbd d2e1 033d 8d23 cc3c 80db e33c
000000e0: 73be 15bd d714 1cbe 7beb 81ba d085 11bd
000000f0: 3843 92bd 4405 d03c 10e1 0c3d a032 d8bd
-0.10622354 -0.026965331 -0.021655627 0.026806511 -0.07149633 0.018042296 0.050147943 0.053295672
-0.13937367 0.011185989 0.031250454 -0.04022567 -0.011231773 -0.17844555 -0.10543033 0.020843633
0.049805857 -0.115013525 -0.1670518 -0.14143427 -0.15246089 -0.02740102 0.012933724 -0.16061586
0.0065255165 0.012865484 -0.03641227 0.0066636503 -0.056531344 0.039900776 -0.052888736 -0.0039614066
-0.0026239955 -0.05190586 -0.10060233 -0.04106408 -0.04006017 -0.019774564 -0.084856205 -0.0008047372
-0.0546266 -0.059538025 0.058040634 0.044071384 -0.15835577 0.019486345 -0.14267127 -0.15771517
-0.015037175 0.0337148 0.011526674 -0.20066659 -0.03888419 0.03219778 0.024919296 0.027814627
-0.03655858 -0.15242325 -0.0009912098 -0.035528004 -0.07141727 0.025393136 0.034394324 -0.10556531

fc3.weight f4 [2, 64]
00000000: bb84 40be 86c0 b73d 70bd f03d a081 d3bc
00000010: 5c9b 82be b009 90bc d015 1b3c acc4 57bd
00000020: c79a 1ebe 78b9 333d e001 89bd c4ce 063d
00000030: 84ac 183d 296b 1bbe 4c76 63be 15bb 623c
00000040: 806f 89bc d6d9 92be f7f4 8dbe 47d5 d2be
00000050: e2c4 bfbe e3c2 8ebc 88b6 143d b77b 73be
00000060: ac30 afbd fa2d c7bd e81e 7cbd c8a8 6a3d
00000070: 9a19 88bd 8057 42bd 2839 743d 28b5 2d3d
00000080: 1392 bc3c 7a2e a73c 04ac 80be f143 b7bd
00000090: 4137 583d 64d1 5b3d 400f 2ebe 560a 80bd
000000a0: caea bfbd f60a 87bd f025 92bd 5ebf 883d
000000b0: a9d9 a6be 03e0 b23d 787e b3be 9e86 03be
000000c0: bc38 de3d ab6c 2abc c100 ef3c bade 9abe
000000d0: 90f5 3b3d 08d6 dc3d ab44 46bb c8da d43c
000000e0: d465 723b 26e3 25be b327 183d fcfd 813d
000000f0: 4721 a1be 7c42 92bd a6bb ffbd 674d 89be
00000100: e6cb 6fbe 6789 0cbe b654 a33d e09c 37bc
00000110: f03a 75be e295 ce3d 0ae5 a5bd 6631 ae3d
00000120: 2548 96be aaa2 bb3d 1eb3 1e3d f2bd 8c3d
00000130: 38f2 933c b7db 8abe c314 37be aa18 563b
00000140: 6cf5 41bd 1600 f1bd 2954 19be 60cf 553c
00000150: d4d5 143c d01c 82bc 0042 803b 59ab 50be
00000160: a883 f43d 647c b5bd 6caf 863d 1093 673d
00000170: 6ed4 48bc e53e c83d 984c 893d f61e f9bd
00000180: 164e 65bd 62e2 823d 6d0a f1bd 5c3c 483d
00000190: 68e8 de3d eb78 943c c9ee 7bbe 1032 9fbd
000001a0: 1255 debd 7846 993c d602 adbd 485f e9bc
000001b0: 4510 64bc b6d5 473d 6f48 c7bb aa15 adbe
000001c0: 18be ca3d 5cea fa3c 31bb 353d d098 aebd
000001d0: 4716 dc3d ae75 e33d f7e7 50bc 62ee ccbd
000001e0: 9f6a 8c3d a271 8dbe 0a9d 99bc 462c babb
000001f0: 96c8 ecbd 90a6 78bc 4c18 febd 5637 c2bd
-0.18800633 0.08972268 0.11754882 -0.025818646 -0.25509155 -0.017582744 0.00946565 -0.052677795
-0.1548873 0.04387805 -0.06689811 0.03291203 0.0372739 -0.15177597 -0.22213095 0.013838549
-0.0167768 -0.2868182 -0.27725956 -0.41178343 -0.37454897 -0.017426914 0.036306888 -0.23777662
-0.08554205 -0.09725566 -0.061552912 0.05728987 -0.06645508 -0.047446728 0.05962482 0.042409092
0.023018872 0.020407904 -0.25131238 -0.08948506 0.05278707 0.053666487 -0.16998005 -0.062519714
-0.09370954 -0.065938875 -0.07136142 0.066771254 -0.32587937 0.08734133 -0.35057425 -0.12844321
0.10850665 -0.010401885 0.029175164 -0.30248052 0.045888484 0.10783011 -0.0030253332 0.02598323
0.0036986964 -0.16199932 0.037147235 0.06347272 -0.314707 -0.07141587 -0.12486963 -0.26816866
-0.23417625 -0.1372429 0.07975142 -0.0112068355 -0.23948264 0.10087182 -0.08100326 0.08505516
-0.29351917 0.09161885 0.03874504 0.06872167 0.018059835 -0.27120754 -0.17879014 0.003266851
-0.047353193 -0.117675945 -0.14973511 0.01304993 0.009084184 -0.01588288 0.003914118 -0.20377864
0.11939174 -0.08861616 0.06576428 0.056536734 -0.012257678 0.09777621 0.06704062 -0.121641085
-0.05598267 0.06390835 -0.11769567 0.04888569 0.10884172 0.018124064 -0.24602808 -0.077732205
-0.108560696 0.01871036 -0.084478065 -0.028487816 -0.013919895 0.048787795 -0.006081633 -0.3380559
0.09899539 0.03062933 0.044367973 -0.085252404 0.107464366 0.1110643 -0.012750617 -0.100064054
0.06856274 -0.27625757 -0.01875164 -0.0056815473 -0.11561696 -0.01517643 -0.12406978 -0.09483211

fc3.bias f4 [2]
00000000: dc38 193f 5504 103f
0.59852386 0.5625661
