checkpoints/dubins3d-discrete-v0__hj_dqn__1__1638911814_evalFalse/dqn_checkpoint_10230.pth (torch, 72343 bytes, 6 tensors)

fc1.weight f4 [256, 3]
0	0x3ebc7559	0.3680828
1	0xbeb9e3f4	-0.36306727
2	0xbd66bcf1	-0.056332532
3	0x3ec638bf	0.3871517
4	0xbf1b8026	-0.60742414
5	0x3f02e313	0.5112774
6	0xbdf3409a	-0.11877556
7	0x3e9662ea	0.2937234
8	0x3da46023	0.08026149
9	0xbd103165	-0.035203356
10	0x3e4d3506	0.20039758
11	0xbe88047a	-0.26565915
12	0x3eb2b97e	0.34907144
13	0xbe48bfed	-0.19604464
14	0x3d98dae4	0.07463625
15	0xbd90a7cd	-0.070632555
16	0x3dfc8d1d	0.12331603
17	0xbe89bba2	-0.26900965
18	0x3eff22be	0.49831194
19	0x3d321713	0.043479037
20	0xbe7c5f7a	-0.24645796
21	0xbeb28872	-0.34869725
22	0xbdc630e4	-0.09677294
23	0xbe7f02f1	-0.24903466
24	0xbe3d7388	-0.18501103
25	0x3ce276a0	0.027644455
26	0x3eb037a4	0.3441745
27	0x3efa5ea4	0.4890033
28	0xbf085044	-0.53247476
29	0x3edf04fe	0.43558496
30	0x3e413173	0.1886652
31	0x3eff72b3	0.49892196
32	0x3e9ab246	0.30214137
33	0xbf06aaec	-0.52604556
34	0xbf0c87f4	-0.5489495
35	0xbe8e9438	-0.27847457
36	0x3f0e696a	0.556296
37	0xbe59f6ae	-0.21285507
38	0x3ea90150	0.33008814
39	0xbecbca6d	-0.39802876
40	0x3f2b8005	0.6699222
41	0xbdb9e695	-0.09077183
42	0x3ed0be30	0.40770102
43	0xbe4115c1	-0.18855955
44	0xbe3831ca	-0.17987743
45	0x3eb87e27	0.36033747
46	0xbed55c02	-0.4167176
47	0x3e4f5d4b	0.20250432
48	0xbe2ab716	-0.16671404
49	0xbd81a218	-0.06329745
50	0xbf0e1843	-0.5550577
51	0xbe8cf032	-0.27527004
52	0x3ea06788	0.31328988
53	0xbe0fb57b	-0.14034073
54	0x3f230183	0.6367418
55	0x3ec05957	0.3756816
56	0xbd14831b	-0.036257844
57	0xbec54f6b	-0.38537154
58	0x3eb402e1	0.35158446
59	0x3e377c35	0.17918475
60	0xbee01140	-0.4376316
61	0x3f0499ba	0.5179707
62	0x3f05386c	0.5203922
63	0x3f148db5	0.5802873
64	0xbeda9ce1	-0.42697814
65	0xbd4c6983	-0.04990531
66	0xbc373e93	-0.011184352
67	0x3dacb348	0.08432633
68	0xbee056ba	-0.43816167
69	0xbed1c449	-0.40970066
70	0x3ea0cf3f	0.31408116
71	0xbe0aa219	-0.13538398
72	0x3ea61e49	0.3244498
73	0xbd9db0aa	-0.076997116
74	0x3e69a63e	0.22817323
75	0x3e0c2815	0.13687165
76	0x3e01e8dd	0.12686487
77	0x3d37c419	0.044864748
78	0xbee31a70	-0.44356108
79	0x3f06ee1b	0.5270707
80	0xbe34ed77	-0.1766871
81	0xbedf090e	-0.43561596
82	0x3d0fd0c3	0.0351112
83	0xbdc97de1	-0.098384626
84	0x3ecd515a	0.4010113
85	0xbee4d24b	-0.4469169
86	0xbf0954c8	-0.5364499
87	0x3ef425e2	0.47685152
88	0xbe433155	-0.19061787
89	0x3edadf06	0.42748278
90	0x3eabc51c	0.3354882
91	0xbed9f0bd	-0.4256648
92	0x3e37f1c5	0.17963322
93	0x3e8eb153	0.27869663
94	0xbec52758	-0.3850658
95	0xbf0b9d86	-0.54537237
96	0x3e5cc444	0.21559244
97	0xbd110849	-0.035408292
98	0xbea02610	-0.3127904
99	0xbe0cd95e	-0.13754794
100	0x3f0e7d0e	0.5565957
101	0xbf007bf6	-0.5018915
102	0x3eb9c720	0.36284733
103	0x3e13c347	0.14429961
104	0xbeff3765	-0.4984695
105	0xbf0a2343	-0.53960055
106	0x3f31a5eb	0.69393796
107	0x3e88edb6	0.2674386
108	0x3ed1d70d	0.40984383
109	0xbcccb532	-0.024988744
110	0x3e6c5680	0.23079872
111	0x3ef221d8	0.47291446
112	0x3ee6111d	0.4493493
113	0xbee94853	-0.45562991
114	0x3dbc9e7d	0.09209917
115	0x3ec6b60d	0.3881077
116	0x3e50a554	0.20375568
117	0x3ec4cd56	0.3843791
118	0xbf11f7dc	-0.5701883
119	0xbec3fede	-0.38280386
120	0xbeb2c5c3	-0.34916505
121	0x3d948b6d	0.07253156
122	0x3f134f09	0.57542473
123	0xbebab9b5	-0.36469808
124	0x3e9d8579	0.30765894
125	0xbea39ce9	-0.3195565
126	0xbf0af728	-0.5428338
127	0xbdfb4f4b	-0.12270983
128	0x3eaa516b	0.33265242
129	0x3f10b6cc	0.56528926
130	0xbf02d1ee	-0.5110158
131	0x3e64df73	0.22350864
132	0x3ed1fe19	0.41014174
133	0x3e5726d3	0.21010904
134	0x3e6c83cf	0.23097156
135	0x3ee7be79	0.45262507
136	0x3e88c71d	0.2671441
137	0x3d9bd130	0.07608259
138	0xbeca23b7	-0.39480373
139	0xbef83c44	-0.4848348
140	0xbe877398	-0.2645538
141	0xbd89afeb	-0.06723007
142	0xbeb530d3	-0.35388812
143	0x3e584b8d	0.2112257
144	0x3e5d424a	0.21607319
145	0xbe7e02bc	-0.2480573
146	0x3e4e292c	0.20132893
147	0x3e41d76c	0.18929833
148	0x3e92cfa4	0.28674042
149	0x3e1c9d10	0.1529429
150	0xbe627d5c	-0.22118133
151	0x3f24e235	0.64407665
152	0xbe78c679	-0.24294461
153	0xbca27df1	-0.019835444
154	0xbf0b81ce	-0.5449494
155	0xbebe414e	-0.371592
156	0xbeacb147	-0.33729002
157	0xbe7cdf66	-0.24694595
158	0x3ed22a3c	0.41047847
159	0xbe4131f4	-0.18866712
160	0xbedce618	-0.43144298
161	0x3e63777a	0.22213545
162	0x3e052628	0.13002837
163	0x3e3cf65c	0.18453354
164	0xbe89ae27	-0.2689068
165	0x3e4b3c2b	0.19847171
166	0xbe9dcaa5	-0.30818668
167	0xbe155ef9	-0.1458701
168	0xbeeb925d	-0.46010104
169	0xbe86b976	-0.2631337
170	0xbe350fc6	-0.17681798
171	0x3e9caf32	0.30602413
172	0x3c232663	0.009957883
173	0x3e2e51ff	0.17023467
174	0x3f1e495b	0.6183068
175	0x3ef42940	0.4768772
176	0x3ea66f2e	0.32506698
177	0x3c969be2	0.018384878
178	0xbecc7ef0	-0.39940596
179	0x3ee70451	0.4512048
180	0xbe13d6d3	-0.14437418
181	0xbd3f2f6d	-0.046676088
182	0xbefea976	-0.49738663
183	0xbde98f7a	-0.11404319
184	0xbebea91a	-0.3723839
185	0x3f07d0da	0.5305306
186	0xbeff8e28	-0.49913144
187	0xbee66aee	-0.45003456
188	0xbca099fa	-0.019604672
189	0xbe7ce668	-0.24697268
190	0x3ecbc7ef	0.39800975
191	0xbe9c5236	-0.30531472
192	0xbe8ad75a	-0.27117425
193	0x3d05f02f	0.03269976
194	0x3ed5fc95	0.41794267
195	0xbecfef35	-0.40612188
196	0x3e8ad133	0.2711273
197	0x3ebde867	0.3709137
198	0x3f1a3c80	0.60248566
199	0xbf0c5f2e	-0.5483273
200	0x3e1c56c2	0.1526747
201	0xbeda93b9	-0.42690828
202	0x3efc5f15	0.49291292
203	0xbe655532	-0.2239578
204	0x3ec6ee8a	0.38853866
205	0xbdaf445d	-0.08557961
206	0xbdbe6eba	-0.09298463
207	0xbc96e9ae	-0.018421974
208	0x3dc900f5	0.09814636
209	0x3e8b58a4	0.27216065
210	0x3e184f14	0.14873916
211	0x3d9d4346	0.07678847
212	0xbf204cdf	-0.62617296
213	0x3ebc59ed	0.36787358
214	0x3ebdacbf	0.37045857
215	0x3e879866	0.26483458
216	0x3ee3d4bf	0.4449825
217	0xbf158621	-0.5840779
218	0xbe38ef29	-0.18059982
219	0x3f115429	0.56769043
220	0xbf102c42	-0.5631753
221	0x3f29815a	0.66213
222	0xbee87da8	-0.45408368
223	0xbed039bb	-0.40669045
224	0x3e908394	0.28225386
225	0xbed46344	-0.41481984
226	0xbe077224	-0.13227135
227	0x3ed70c8c	0.4200176
228	0x3f004d80	0.50118256
229	0x3ee995c2	0.4562207
230	0xbe323c51	-0.17405821
231	0xbee5c2c9	-0.44875172
232	0x3f1186f2	0.56846535
233	0xbdfbe28e	-0.12299071
234	0xbe733e42	-0.23754218
235	0x3e101ee7	0.14074288
236	0xbeceb900	-0.4037552
237	0x3ee06460	0.4382658
238	0x3e8a0c3f	0.26962468
239	0xbf0627f9	-0.52404743
240	0xbef2cce8	-0.47421956
241	0xbd4f267d	-0.050573815
242	0x3e785265	0.24250181
243	0x3dcab2cf	0.09897386
244	0xbe9253fe	-0.28579706
245	0xba0d0096	-0.00053788105
246	0xbf0aec6e	-0.54267013
247	0xbed0ebc1	-0.40804866
248	0xbec4c7ad	-0.3843359
249	0x3f02b506	0.5105747
250	0x3ed02c07	0.4065859
251	0xbe8fd623	-0.2809306
252	0x3dbf1166	0.0932949
253	0x3e5d691b	0.21622126
254	0x3d6cbaa9	0.0577952
255	0xbe9bb6bc	-0.30412853

fc1.bias f4 [256]
0	0xbe89f6ac	-0.26946008
1	0x3dcaaeb6	0.09896605
2	0xbee2d755	-0.4430491
3	0x3e747125	0.23871286
4	0xbf14ba56	-0.58096826
5	0x3f0202f9	0.50785786
6	0x3ec44404	0.38333142
7	0xbe5303cc	-0.20606917
8	0x3daed7fb	0.08537289
9	0xbeae30d7	-0.34021637
10	0xbecc07bc	-0.3984965
11	0xbe95b5c6	-0.29240245
12	0xbeef00da	-0.46680337
13	0x3e6280c8	0.22119439
14	0xbea88476	-0.3291356
15	0xbe0dce44	-0.13848215
16	0xbee287af	-0.44244143
17	0xbeb9b761	-0.3627272
18	0xbf23f006	-0.6403812
19	0xbed4768b	-0.4149669
20	0x3f21f646	0.6326641
21	0x3d42aef3	0.047530126
22	0xbf0cf553	-0.55061835
23	0xbdc5598a	-0.09636219
24	0xbe02d6fb	-0.12777321
25	0x3e91505e	0.28381628
26	0x3f461489	0.77375084
27	0x3e0ec315	0.13941605
28	0x3e786b4e	0.24259683
29	0xbec15528	-0.37760282
30	0xbda55518	-0.08072871
31	0xbe5480a5	-0.20752199
32	0xbd3ca4fa	-0.04605577
33	0x3f2f1562	0.68392
34	0x3e6cae94	0.23113471
35	0x3f35ca35	0.7101167
36	0xbef451ce	-0.47718662
37	0xbe51549b	-0.2044243
38	0x3e286a46	0.1644679
39	0x3e7fb5be	0.24971673
40	0xbf07dd88	-0.53072405
41	0xbe912c8f	-0.28354308
42	0x3dab8582	0.08375074
43	0xbf1011e3	-0.5627729
44	0x3cf83770	0.030299872
45	0xbe3129bc	-0.17301077
46	0xbe1932bc	-0.1496076
47	0x3e9e88d8	0.30963778
48	0x3e795f6b	0.24352805
49	0x3f17c536	0.59285295
50	0x3edd1cb4	0.4318596
51	0xbc8157e7	-0.015788985
52	0x3ef1aff0	0.47204542
53	0x3eeb40f7	0.45948002
54	0xbf07becc	-0.5302551
55	0x3de1e8e3	0.11030748
56	0x3d8a8d4c	0.067652315
57	0xbed487cc	-0.41509855
58	0xbe88a0dd	-0.2668523
59	0xbe0b9a6f	-0.1363313
60	0xbecedafb	-0.40401444
61	0xbe3468fd	-0.17618175
62	0x3e46f204	0.19428259
63	0x3f332eb7	0.69993156
64	0x3d33a205	0.043855686
65	0xbf0f21a1	-0.5591069
66	0x3dcb45af	0.099254005
67	0xbe32e3e4	-0.17469746
68	0x3ec09ed6	0.37621182
69	0xbf0ed15b	-0.557882
70	0xbe88d549	-0.26725224
71	0x3ebb847b	0.36624512
72	0x3c8c9d8b	0.017164966
73	0xbefb0d27	-0.49033472
74	0xbefff70e	-0.49993175
75	0xbbcb321b	-0.0062010414
76	0x3ddaaeac	0.10677847
77	0xbef568b6	-0.4793145
78	0xbef75ca4	-0.48312867
79	0xbe12dae0	-0.14341307
80	0xbdf27f96	-0.11840741
81	0x3eac36f8	0.33635688
82	0xbf0f35cb	-0.55941457
83	0xbe7070e3	-0.23480563
84	0xbf07e51a	-0.53083956
85	0x3dc34dce	0.095363244
86	0xbe9707cd	-0.2949814
87	0x3b23a450	0.0024969764
88	0xbef749da	-0.48298532
89	0xbee88a27	-0.45417902
90	0xbef8ff88	-0.48632455
91	0xbf3115d7	-0.6917395
92	0x3eba9ad6	0.36446255
93	0xbda93759	-0.0826251
94	0xbf0d052c	-0.55086017
95	0x3ecf2340	0.4045658
96	0xbe06218c	-0.13098735
97	0x3e88b5c4	0.26701176
98	0xbe374491	-0.1789725
99	0xbef750fa	-0.48303968
100	0x3e01d85d	0.12680192
101	0x3eb811d2	0.35951096
102	0xbf101c80	-0.5629349
103	0xbe00b1ce	-0.12567827
104	0x3debab0c	0.11507234
105	0x3d87b645	0.06626562
106	0xbe1e5a9c	-0.15464252
107	0xbe37c612	-0.17946652
108	0xbf090738	-0.5352664
109	0x3d5da295	0.05411013
110	0xbf0d7e05	-0.55270416
111	0xbef43dd5	-0.47703424
112	0xbe3dcf02	-0.18535998
113	0xbed1fd4c	-0.41013563
114	0x3eba75f8	0.36418128
115	0x3ec7ddf8	0.39036536
116	0x3ee5bbe4	0.44869912
117	0xbec9e131	-0.3942962
118	0x3e585fd7	0.2113031
119	0x3eb32aeb	0.3499368
120	0x3bd4393d	0.00647655
121	0x3edda88c	0.43292654
122	0x3ea743bb	0.32668862
123	0x3ee22e22	0.44175822
124	0x3e80ebcf	0.25179908
125	0x3ddc7b58	0.107657135
126	0xbec04e39	-0.3755968
127	0xbea4cf60	-0.32189465
128	0xbe8c2bae	-0.27377075
129	0x3eae6d95	0.3406798
130	0xbe05bb21	-0.13059665
131	0x3e3a02b3	0.18165092
132	0xbf33ff1d	-0.70311147
133	0xbe6a5e98	-0.22887647
134	0xbe26c785	-0.16287048
135	0xbebebc0e	-0.3725285
136	0x3e456a8d	0.19278927
137	0xbf260d3c	-0.64863944
138	0xbe76b373	-0.24091892
139	0xbe71458d	-0.23561688
140	0xbf05ce30	-0.5226774
141	0x3e54b572	0.20772341
142	0xbe3c1d61	-0.18370582
143	0x3e3a5f81	0.18200494
144	0x3ecf9b04	0.40547955
145	0x3f374e1c	0.7160356
146	0xbd5ce887	-0.053932693
147	0x3e0d7890	0.13815522
148	0x3f01e538	0.50740385
149	0xbd6e5228	-0.05818382
150	0xbe265e60	-0.16246939
151	0xbce7ff03	-0.028319841
152	0x3dbf8fa9	0.09353573
153	0x3efeb036	0.49743813
154	0xbf361a66	-0.7113403
155	0x3e7b30a1	0.24530269
156	0x3e6e08c4	0.23245531
157	0xbec8c838	-0.39215255
158	0x3d2cd903	0.042199146
159	0x3e7ed621	0.24886371
160	0x3d3fc3fc	0.046817765
161	0x3ede846a	0.434604
162	0x3e535d6b	0.20641105
163	0xbf281489	-0.65656334
164	0xbe0af598	-0.13570249
165	0x3ea3ae97	0.3196914
166	0xbe8e2e41	-0.27769664
167	0x3e7c2afa	0.2462577
168	0x3e084811	0.13308741
169	0xbdbfd8e1	-0.09367538
170	0x3b867350	0.004103102
171	0x3defd619	0.11710758
172	0xbeca48a3	-0.39508542
173	0x3ed862fa	0.42263013
174	0x3e6c6475	0.23085196
175	0x3ea5e05b	0.32397732
176	0x3f13b1b9	0.5769306
177	0xbe06e88f	-0.13174652
178	0xbed0bcac	-0.40768945
179	0x3cd7f7a3	0.0263632
180	0xbe83a00a	-0.25708038
181	0x3e50b3f0	0.2038114
182	0x3f3497be	0.7054404
183	0xbf03bd61	-0.51460844
184	0xbe0660d0	-0.13122869
185	0x3f130ee0	0.5744457
186	0xbeebfab4	-0.4608971
187	0xbdcc0a80	-0.0996294
188	0x3ee0a109	0.4387286
189	0x3ece8c8f	0.40341613
190	0xbdb8dfaa	-0.090270355
191	0xbe7efcf4	-0.24901181
192	0xbe3f32ef	-0.18671773
193	0xbf048992	-0.51772416
194	0xbecfeb84	-0.40609372
195	0xbf0a7b03	-0.5409395
196	0x3ef7c3d7	0.483916
197	0x3e99cd07	0.30039236
198	0x3eb2c36a	0.34914714
199	0xbe147eed	-0.14501543
200	0x3eb84abe	0.35994524
201	0xbe684414	-0.2268222
202	0x3e9c527b	0.30531678
203	0xbe4f69fd	-0.20255275
204	0xbe8b0e02	-0.27159125
205	0xbeab8daf	-0.33506534
206	0xbea59fa1	-0.3234835
207	0xbf0749ca	-0.5284697
208	0x3d801b0a	0.06255157
209	0xbecc0eb1	-0.3985496
210	0x3dc96be8	0.098350346
211	0x3ebc78df	0.36810967
212	0xbd8bcc93	-0.06826129
213	0x3e8f5c96	0.28000325
214	0xbbc79274	-0.0060904566
215	0x3e559be8	0.20860255
216	0xbebea31c	-0.37233818
217	0xbd8d403b	-0.068970166
218	0xbe4501fb	-0.19239037
219	0x3e9fb45d	0.31192294
220	0xbf04aa68	-0.5182252
221	0xbea62696	-0.32451314
222	0xbdd3d256	-0.10342853
223	0x3f36cb0a	0.71403563
224	0x3ec8021a	0.39064103
225	0xbf08cc5e	-0.5343684
226	0xbf15fb2f	-0.585864
227	0x3eb4c193	0.35303935
228	0x3dac51e4	0.08414057
229	0xbefd2fab	-0.4945043
230	0xbe81e5c3	-0.25370607
231	0x3e813bc7	0.2524092
232	0xbe9bd725	-0.3043758
233	0xbf0e2cf0	-0.5553732
234	0xbeb6829c	-0.35646522
235	0xbe213433	-0.15742569
236	0xbe51579e	-0.2044358
237	0x3ea751a1	0.32679465
238	0x3e8ded77	0.27720234
239	0xbee73802	-0.45159918
240	0xbe77265a	-0.24135724
241	0xbee43b2e	-0.445764
242	0x3e647d94	0.22313529
243	0x3f43068b	0.7618186
244	0x3f0fa8c8	0.56116915
245	0x3dec1453	0.11527314
246	0xbe4f676f	-0.202543
247	0xbc6bce4d	-0.014392448
248	0x3e554c41	0.2082987
249	0xbf3a3c98	-0.7274871
250	0xbdbd1245	-0.09232
251	0xbef04859	-0.46930197
252	0xbf4e1313	-0.80497855
253	0xbc9e14ef	-0.019297091
254	0xbeaa9a9f	-0.33321092
255	0xbebb40c3	-0.36572847

fc2.weight f4 [64, 256]
0	0x3e32e0c8	0.1746856
1	0x3e7c3f17	0.24633442
2	0x3c1c4350	0.009537533
3	0xbe22d435	-0.15901263
4	0x3e88bd9a	0.26707155
5	0xbe2a45f3	-0.16628246
6	0xbbb2e0e8	-0.00545894
7	0xbcac9d20	-0.021071017
8	0x3d3c76ae	0.04601162
9	0x3ead840a	0.338898
10	0x3d04728b	0.0323358
11	0xbc8f16f8	-0.017467007
12	0x3d913503	0.07090189
13	0xbea31227	-0.31849787
14	0x3d79e84e	0.06101256
15	0x3e2f5b84	0.17124754
16	0xbd47c9c4	-0.048776403
17	0x3d40ff06	0.04711821
18	0x3c384467	0.011246777
19	0x3d5e3f9c	0.05425988
20	0xbe86a35b	-0.26296505
21	0x3e10ad39	0.14128579
22	0x3d199c6a	0.037502684
23	0x3c6d03c8	0.014466234
24	0x3d655591	0.055989806
25	0xbcb343b3	-0.021882867
26	0xbf0997ca	-0.53747237
27	0xbd6b5076	-0.05744978
28	0x3e0b1167	0.13580857
29	0x3debcaf1	0.115133174
30	0x3e8d9a03	0.27656564
31	0xbeaa5fb0	-0.3327613
32	0x3d6137bf	0.054984804
33	0xbe26988f	-0.16269134
34	0xbd17de18	-0.03707704
35	0xbeb783f9	-0.35842875
36	0x3def585c	0.11686775
37	0x3d54e252	0.05197365
38	0xbdc71b60	-0.09722018
39	0x3de4199e	0.111376986
40	0xbd6ec8f2	-0.058297105
41	0xbbea5df0	-0.0071523115
42	0xbb588840	-0.0033040196
43	0x3e263a41	0.1623316
44	0xbd23dd92	-0.040006228
45	0x3ce3edd3	0.027823364
46	0x3d66387a	0.056206204
47	0x3d66b6aa	0.056326546
48	0xbbe3cb39	-0.0069517163
49	0xbd25e37b	-0.040500145
50	0xbe57d38b	-0.21076791
51	0xbd47ec96	-0.04880961
52	0xbc8c6228	-0.017136648
53	0x3d788a34	0.060678676
54	0x3d3804fc	0.04492663
55	0x3db22be9	0.086997814
56	0x3d70d5f4	0.05879779
57	0x3dc58cc7	0.09645992
58	0x3d9a9da1	0.075495966
59	0x3d2a1c18	0.0415307
60	0x3d700dd2	0.05860693
61	0x3c2f9b18	0.01071813
62	0xbd4f05ce	-0.050542645
63	0xbec2d262	-0.38051134
64	0xbd0444fe	-0.03229236
65	0x3d534bd8	0.051586002
66	0x3e0e4eed	0.13897295
67	0x3c95d9ac	0.01829227
68	0xbce1aea8	-0.027549103
69	0xbd3c8b92	-0.046031542
70	0x3dc6ad0b	0.09700974
71	0xbc18f3e3	-0.009335491
72	0x3d8d1115	0.06888024
73	0x3e69f491	0.22847201
74	0xbc75d620	-0.015004665
75	0x3a772300	0.00094275177
76	0x3d0d3279	0.034471963
77	0x3cc502c8	0.024049178
78	0xbd43e2c0	-0.047823668
79	0x3ce83fac	0.028350674
80	0xbcfdbbb0	-0.030973285
81	0x3d9272b4	0.07150784
82	0x3cfd8898	0.030948922
83	0x3d775442	0.06038309
84	0x3e017b87	0.12644778
85	0xbe9876b4	-0.29778063
86	0xbd7fd198	-0.062455744
87	0x3df1eb7a	0.11812492
88	0xbd2fa9da	-0.042886592
89	0x3c08bef0	0.008346304
90	0x3dadf573	0.08494081
91	0x3e803b53	0.2504526
92	0xbd2ee7ac	-0.04270141
93	0xbd7ad1a2	-0.061235078
94	0x3d986006	0.0744019
95	0x3c250308	0.0100715235
96	0x3d3b8802	0.045784004
97	0x3a3edf02	0.00072811556
98	0x3d45284c	0.048134133
99	0x3ca19fe8	0.01972957
100	0xbc9251d0	-0.017861277
101	0xbc588480	-0.013215184
102	0xbd0bffdc	-0.034179553
103	0x3dba9990	0.09111321
104	0xbd320866	-0.04346504
105	0x3cb00760	0.021487892
106	0x3da26c7b	0.07930847
107	0x3d593bb4	0.053035453
108	0x3e2105b0	0.15724826
109	0x3e6fcdb1	0.23418309
110	0x3d0b13f0	0.03395456
111	0xbba73810	-0.0051031187
112	0x3d69b21e	0.05705463
113	0x3d3903f3	0.045169782
114	0xbec37ddf	-0.3818197
115	0x3d425922	0.047448285
116	0xbd78feb8	-0.060789794
117	0x3e90989b	0.2824143
118	0x3d7806d6	0.060553394
119	0xbcb16e48	-0.021659032
120	0x3c288770	0.010286197
121	0xbe37d76a	-0.17953268
122	0xbd220fc0	-0.0395658
123	0xbce79588	-0.028269544
124	0x3d4b94cd	0.049702454
125	0x3dab4f77	0.08364766
126	0x3d15c8a3	0.036568295
127	0x3be0c320	0.006859198
128	0xbd26929c	-0.04066716
129	0xbc9482ba	-0.018128742
130	0xbc7f20ce	-0.015571786
131	0xbe942e4d	-0.28941575
132	0x3e20d89b	0.15707628
133	0x3e2464a9	0.16054024
134	0xbd0e57fe	-0.034751885
135	0xbc88667c	-0.01665043
136	0x3c085af2	0.008322464
137	0x3e078b23	0.1323667
138	0x3dbea0c5	0.09308008
139	0x3dce0e48	0.10061318
140	0xbcbe553c	-0.023234002
141	0x3dbef256	0.09323566
142	0xbd39305c	-0.045212135
143	0x3c2151d5	0.00984617
144	0xbdf1ccb1	-0.1180662
145	0xbef479bd	-0.4774913
146	0x3cbdfcd9	0.023191856
147	0x3dea858e	0.11451255
148	0xbc8d306c	-0.017235003
149	0x3dbc094c	0.09181461
150	0x3c67046d	0.014100176
151	0xbde306c5	-0.110852756
152	0x3cd26610	0.025683433
153	0xbea7e038	-0.32788253
154	0x3dc08d93	0.09402003
155	0x3d8315ef	0.06400668
156	0xbee4b720	-0.44670963
157	0xbe9abe97	-0.30223534
158	0x3d3f3a21	0.046686295
159	0x3ccb8882	0.024845365
160	0x3e0b9622	0.1363149
161	0x3ba1f0a2	0.0049420157
162	0xbecb2bf2	-0.39681965
163	0x3e0bdff6	0.13659653
164	0x3e79153e	0.2432451
165	0x39e6b62e	0.00044004753
166	0x3d5c80a8	0.053833634
167	0x3d1f2f9c	0.038863763
168	0xbafac5c0	-0.001913242
169	0xbce4aef0	-0.027915448
170	0x3b87c360	0.0041431636
171	0x3d8c57e4	0.06852701
172	0x3d222ba6	0.039592408
173	0x3d43174d	0.047629643
174	0x3d2f05f0	0.04273027
175	0x3ccb48e0	0.024815023
176	0x3cc0e970	0.023548812
177	0x3d8f31af	0.06991898
178	0x3cf89edc	0.030349188
179	0x3ca31db4	0.019911624
180	0x3e598427	0.21241818
181	0xbd7096a4	-0.058737412
182	0xbead6b58	-0.3387096
183	0x3e085cca	0.13316646
184	0x3ddf9574	0.10917178
185	0xbddcf5e3	-0.10789087
186	0x3d2cbe94	0.042173937
187	0x3cae225c	0.021256618
188	0xbd453893	-0.048149657
189	0x3b731b20	0.0037095025
190	0x3dfdb128	0.123873055
191	0x3d1379a4	0.036004677
192	0x3ec3a64b	0.3821281
193	0xbcca7244	-0.02471269
194	0xbe66c7e7	-0.22537194
195	0xbd4fa9a4	-0.05069889
196	0xbcd72663	-0.026263421
197	0xbcf75561	-0.030192079
198	0xbde83892	-0.11338915
199	0x3d11bc92	0.035580225
200	0x3d6137af	0.054984745
201	0x3e0a0a5c	0.13480514
202	0xbcb345e6	-0.021883916
203	0x3d862d19	0.065515704
204	0xbcc2c74c	-0.023776673
205	0x3c9f6aaf	0.01946005
206	0x3ddd42a8	0.10803729
207	0x3d30f468	0.043201834
208	0x3d63594f	0.055505093
209	0x3ddc3eaf	0.107541434
210	0x3df52db8	0.11971611
211	0xbc9b411c	-0.018951945
212	0x3da2562b	0.079265915
213	0xbc89d90c	-0.016827129
214	0x3c200b75	0.009768357
215	0x3ded2c30	0.11580694
216	0x3c0c0a40	0.008547366
217	0x3e1b58dc	0.15170616
218	0x3cd29458	0.025705501
219	0xbc335fcf	-0.0109481355
220	0xbcb99ca8	-0.022657707
221	0xbd32cdfe	-0.04365348
222	0x3e224eee	0.15850422
223	0xbedebc82	-0.43503195
224	0xbd4b9c72	-0.049709745
225	0x3e4bd742	0.19906333
226	0x3e9b3196	0.3031127
227	0x3dcacdf2	0.09902562
228	0x3d30467c	0.04303597
229	0xbd4443a0	-0.047916055
230	0x3e501ecb	0.20324247
231	0x3d22f454	0.03978379
232	0x3e97a2fe	0.2961654
233	0x3e5283ed	0.20558138
234	0x3d3aab72	0.04557366
235	0xbea22894	-0.31671584
236	0x3e457873	0.19284229
237	0xbdd4ed11	-0.10396779
238	0xbcd5c0d8	-0.026092932
239	0x3d90cb6b	0.07070049
240	0x3dc2beb1	0.09509028
241	0xbba1c9f0	-0.004937403
242	0x3e0afea7	0.13573705
243	0xbd9de2e9	-0.07709295
244	0xbd05dd7c	-0.032681927
245	0x3c82f824	0.015987463
246	0x3e134bb8	0.14384353
247	0xba94bec0	-0.0011348352
248	0x3d28b834	0.041191295
249	0x3df3f7d4	0.11912504
250	0xbcadb53b	-0.021204581
251	0xbcfd57d4	-0.030925669
252	0x3d2e250f	0.04251581
253	0xbd595a94	-0.053064898
254	0x3e6b7e1b	0.22997324
255	0xbd1e2fe6	-0.0386199

fc2.bias f4 [64]
0	0xbd9e69c7	-0.07735019
1	0xbcdce666	-0.026965331
2	0xbcb16724	-0.021655627
3	0x3cdb9954	0.026806511
4	0xbd3ffa40	-0.046869516
5	0x3c93cd70	0.018042296
6	0x3d4d67ee	0.050147943
7	0x3d5a4c90	0.053295672
8	0xbde04687	-0.10950952
9	0x3c374570	0.011185989
10	0x3d00007a	0.031250454
11	0xbd24c3ac	-0.04022567
12	0xbc380578	-0.011231773
13	0xbe192d8c	-0.14958781
14	0xbd9c026e	-0.07617651
15	0x3caac044	0.020843633
16	0x3d4c013a	0.049805857
17	0xbdb3fa70	-0.087880015
18	0xbe0ffe5a	-0.14061871
19	0xbde29084	-0.110627204
20	0xbe050dbd	-0.12993522
21	0xbce0781b	-0.02740102
22	0x3c53e7f8	0.012933724
23	0xbe0948fa	-0.13406745
24	0x3bd5d400	0.0065255165
25	0x3c52c9c0	0.012865484
26	0xbd152508	-0.03641227
27	0x3bda5ac0	0.0066636503
28	0xbd678d69	-0.056531344
29	0x3d236eff	0.039900776
30	0xbd58a1dc	-0.052888736
31	0xbb81ceb0	-0.0039614066
32	0xbb2bf757	-0.0026239955
33	0xbd549b3d	-0.05190586
34	0xbd914790	-0.070937276
35	0x3c372630	0.011178538
36	0xbd241622	-0.04006017
37	0xbca1fe44	-0.019774564
38	0xbd66bfae	-0.056335144
39	0xba52f500	-0.0008047372
40	0xbd5fc024	-0.0546266
41	0xbd73de25	-0.059538025
42	0x3d6dbc04	0.058040634
43	0x3d348432	0.044071384
44	0xbe07c52b	-0.13258807
45	0x3c9fa906	0.019489776
46	0xbdf18612	-0.1179315
47	0xbe06189f	-0.1309533
48	0xbc765e7c	-0.015037175
49	0x3d0a1888	0.0337148
50	0x3c3cda60	0.011526674
51	0xbe30a22b	-0.17249362
52	0xbd1f4507	-0.03888419
53	0x3d03e1d2	0.03219778
54	0x3ccc238d	0.024919296
55	0x3ce3db80	0.027814627
56	0xbd15be73	-0.03655858
57	0xbdfe10b9	-0.12405533
58	0xba81eb7b	-0.0009912098
59	0xbd1185d0	-0.035528004
60	0xbd3de060	-0.04635656
61	0x3cd00544	0.025393136
62	0x3d0ce110	0.034394324
63	0xbda22f4f	-0.0791918

fc3.weight f4 [2, 64]
0	0xbe1df25b	-0.15424483
1	0x3db7c086	0.08972268
2	0x3df0bd70	0.11754882
3	0xbcd381a0	-0.025818646
4	0xbe61e164	-0.22058636
5	0xbc9009b0	-0.017582744
6	0x3c1b15d0	0.00946565
7	0xbd57c4ac	-0.052677795
8	0xbdfd5f4c	-0.12371692
9	0x3d33b978	0.04387805
10	0xbd8901e0	-0.06689811
11	0x3d06cec4	0.03291203
12	0x3d18ac84	0.0372739
13	0xbdfc195a	-0.12309523
14	0xbe3e1034	-0.18560869
15	0x3c62bb15	0.013838549
16	0xbc896f80	-0.0167768
17	0xbe78b4de	-0.24287745
18	0xbe72deb2	-0.23717764
19	0xbe9e9d51	-0.30979398
20	0xbe8babf9	-0.27279642
21	0xbc8ec2e3	-0.017426914
22	0x3d14b688	0.036306888
23	0xbe502fae	-0.20330688
24	0xbdaf30ac	-0.08554205
25	0xbdc72dfa	-0.09725566
26	0xbd7c1ee8	-0.061552912
27	0x3d6aa8c8	0.05728987
28	0xbd88199a	-0.06645508
29	0xbd425780	-0.047446728
30	0x3d743928	0.05962482
31	0x3d2db528	0.042409092
32	0x3cbc9213	0.023018872
33	0x3ca72e7a	0.020407904
34	0xbe53cc10	-0.20683312
35	0x3bbb86e0	0.0057228655
36	0x3d583741	0.05278707
37	0x3d5bd164	0.053666487
38	0xbe0aa990	-0.13541245
39	0xbd800a56	-0.062519714
40	0xbdbfeaca	-0.09370954
41	0xbd870af6	-0.065938875
42	0xbd9225f0	-0.07136142
43	0x3d88bf5e	0.066771254
44	0xbe678608	-0.22609723
45	0x3db2e06d	0.08734212
46	0xbe90c272	-0.2827335
47	0xbdc7d20e	-0.097568616
48	0x3dde38bc	0.10850665
49	0xbc2a6cab	-0.010401885
50	0x3cef00c1	0.029175164
51	0xbe7446a3	-0.23855071
52	0x3d3bf590	0.045888484
53	0x3ddcd608	0.10783011
54	0xbb4644ab	-0.0030253332
55	0x3cd4dac8	0.02598323
56	0x3b7265d4	0.0036986964
57	0xbe049d6c	-0.12950677
58	0x3d1827b3	0.037147235
59	0x3d81fdfc	0.06347272
60	0xbe8a450b	-0.270058
61	0xbd92427c	-0.07141587
62	0xbdffbba6	-0.12486963
63	0xbe5e20f0	-0.21692252
64	0xbe6729bf	-0.22574519
65	0xbe0c8967	-0.1372429
66	0x3da354b6	0.07975142
67	0xbc379ce0	-0.0112068355
68	0xbe6d44cb	-0.23170774
69	0x3dce95e2	0.10087182
70	0xbda5e50a	-0.08100326
71	0x3dae3166	0.08505516
72	0xbe8dee7b	-0.2772101
73	0x3dbba2aa	0.09161885
74	0x3d1eb31e	0.03874504
75	0x3d8cbdf2	0.06872167
76	0x3c93f238	0.018059835
77	0xbe83109d	-0.25598612
78	0xbe36d831	-0.17855908
79	0x3b5618aa	0.003266851
80	0xbd41f56c	-0.047353193
81	0xbdf9eac5	-0.12202982
82	0xbe1a93e3	-0.15095477
83	0xbd3f163e	-0.04665207
84	0xbd310cbd	-0.04322504
85	0xbc821cd0	-0.01588288
86	0x3b804200	0.003914118
87	0xbe49dda0	-0.1971345
88	0x3df483a8	0.11939174
89	0xbdb57c64	-0.08861616
90	0x3d86af6c	0.06576428
91	0x3d679310	0.056536734
92	0xbc48d46e	-0.012257678
93	0x3dc83ee5	0.09777621
94	0x3d894c98	0.06704062
95	0xbdf91ef6	-0.121641085
96	0xbd654e16	-0.05598267
97	0x3d82e262	0.06390835
98	0xbdfabba6	-0.12242822
99	0xbca0b2d0	-0.019616514
100	0x3ddee868	0.10884172
101	0x3c9478eb	0.018124064
102	0xbe70642f	-0.23475717
103	0xbd9f3210	-0.077732205
104	0xbdde5512	-0.108560696
105	0x3c994678	0.01871036
106	0xbdad02d6	-0.084478065
107	0xbce95f48	-0.028487816
108	0xbd871b90	-0.06597054
109	0x3d47d729	0.048789177
110	0xbd10e4fb	-0.035374623
111	0xbea2d2d7	-0.31801483
112	0x3dcabe18	0.09899539
113	0x3cfaea5c	0.03062933
114	0x3d35bb31	0.044367973
115	0xbddd19c1	-0.10795928
116	0x3ddc1647	0.107464366
117	0x3de375ae	0.1110643
118	0xbc50e7f7	-0.012750617
119	0xbdccee62	-0.100064054
120	0x3d8c6a9f	0.06856274
121	0xbe875f36	-0.26439828
122	0xbc999d0a	-0.01875164
123	0xbbba2c46	-0.0056815473
124	0xbdfb348d	-0.12265883
125	0xbc78a690	-0.01517643
126	0xbdfe184c	-0.12406978
127	0xbddabe6b	-0.106808506

fc3.bias f4 [2]
0	0x3e85ea8f	0.26155517
1	0x3e712935	0.23550875
