checkpoints/dubins3d-discrete-v0__hj_dqn__1__1638911828_evalFalse/dqn_checkpoint_10509.pth (torch, 72343 bytes, 6 tensors)

fc1.weight f4 [256, 3]
0	0x3ebfaca9	0.37436417
1	0xbeb1cada	-0.34725076
2	0xbc19d528	-0.009389199
3	0x3eca5134	0.39515078
4	0xbf17e707	-0.59336895
5	0x3f21af6f	0.63158315
6	0xbdf3409a	-0.11877556
7	0x3e9662ea	0.2937234
8	0x3da46023	0.08026149
9	0xbd78ed50	-0.060773194
10	0x3e2ad76f	0.16683744
11	0xbeb39fcb	-0.3508285
12	0x3eb80116	0.35938329
13	0xbe339b4a	-0.17539707
14	0x3e06da03	0.13169102
15	0xbdbfc5b1	-0.093638785
16	0x3dba61cb	0.09100684
17	0xbeb933ed	-0.3617243
18	0x3edba4c0	0.42899132
19	0xbb1b4a00	-0.002369523
20	0xbe82df00	-0.2556076
21	0xbeb28872	-0.34869725
22	0xbdc630e4	-0.09677294
23	0xbe7f02f1	-0.24903466
24	0xbe3d7388	-0.18501103
25	0x3ce276a0	0.027644455
26	0x3eb037a4	0.3441745
27	0x3eff8b3c	0.49910915
28	0xbf038a43	-0.51382846
29	0x3f054145	0.5205272
30	0x3e2385c8	0.15969002
31	0x3ef177f9	0.47161844
32	0x3ef9ed35	0.48813787
33	0xbf06aaec	-0.52604556
34	0xbf0c87f4	-0.5489495
35	0xbe8e9438	-0.27847457
36	0x3f0f2ac8	0.55924654
37	0xbe4f23a4	-0.2022844
38	0x3ed60524	0.41800797
39	0xbeddb40a	-0.4330142
40	0x3f3608d4	0.7110722
41	0x3ba18e2c	0.0049302783
42	0x3ed030fa	0.40662366
43	0xbe380f7e	-0.1797466
44	0xbe0a7aef	-0.13523458
45	0x3ebb897b	0.36628327
46	0xbece3297	-0.40272972
47	0x3e8c5edb	0.2741612
48	0xbe2ab716	-0.16671404
49	0xbd81a218	-0.06329745
50	0xbf0e1843	-0.5550577
51	0xbe8cf032	-0.27527004
52	0x3ea06788	0.31328988
53	0xbe0fb57b	-0.14034073
54	0x3f21f434	0.6326325
55	0x3ec2a289	0.3801463
56	0x3cdadec8	0.026717559
57	0xbec54f6b	-0.38537154
58	0x3eb402e1	0.35158446
59	0x3e377c35	0.17918475
60	0xbeec17b0	-0.46111822
61	0x3f125c75	0.5717233
62	0x3f142111	0.57862955
63	0x3f1477f1	0.57995516
64	0xbed64d72	-0.4185596
65	0x3ac7ad65	0.0015234171
66	0xbc373e93	-0.011184352
67	0x3dacb348	0.08432633
68	0xbee056ba	-0.43816167
69	0xbed1c449	-0.40970066
70	0x3ea0cf3f	0.31408116
71	0xbe0aa219	-0.13538398
72	0x3ea3d54d	0.31998673
73	0xbd990f89	-0.07473666
74	0x3ea461d4	0.32105887
75	0x3d8ddb0e	0.06926547
76	0x3d7da8c2	0.061928518
77	0xbb79fddd	-0.00381457
78	0xbefe7d37	-0.49704906
79	0x3f114bf6	0.5675653
80	0xbd06cf9a	-0.032912828
81	0xbedf090e	-0.43561596
82	0x3d0fd0c3	0.0351112
83	0xbdc97de1	-0.098384626
84	0x3ec90d3b	0.39267907
85	0xbee325cd	-0.44364777
86	0xbf199007	-0.59985393
87	0x3ef4df7d	0.47826758
88	0xbe3bee67	-0.18352662
89	0x3f0c8bc7	0.54900783
90	0x3eafd4d1	0.34342054
91	0xbed15bd5	-0.40890375
92	0x3e731674	0.23739034
93	0x3e90836e	0.28225273
94	0xbef7fa41	-0.48433116
95	0xbf3158e9	-0.6927629
96	0x3e45c70f	0.19314216
97	0xbd21aacc	-0.039469525
98	0xbee0b9ad	-0.4389166
99	0xbe252cf1	-0.16130425
100	0x3f0678b3	0.5252792
101	0xbf1d598d	-0.6146477
102	0x3ea2d978	0.3180654
103	0x3df88414	0.12134567
104	0xbf1e9e54	-0.6196034
105	0xbf117293	-0.5681545
106	0x3f3f5f72	0.74755013
107	0x3eaa2034	0.33227694
108	0x3ed1ede3	0.41001806
109	0xbc7ab605	-0.015302186
110	0x3e9b3564	0.3031417
111	0x3ede8a72	0.43465
112	0x3edafc1d	0.42770472
113	0xbef8f73c	-0.48626125
114	0x3cde6368	0.02714701
115	0x3e9fbd58	0.31199145
116	0x3e956867	0.29181215
117	0x3ec2a5d8	0.38017154
118	0xbf0f8209	-0.5605779
119	0xbee9caa3	-0.45662412
120	0xbeb2c5c3	-0.34916505
121	0x3d948b6d	0.07253156
122	0x3f134f09	0.57542473
123	0xbebab9b5	-0.36469808
124	0x3e9d8579	0.30765894
125	0xbea39ce9	-0.3195565
126	0xbf0af728	-0.5428338
127	0xbdfb4f4b	-0.12270983
128	0x3eaa516b	0.33265242
129	0x3f12a1be	0.5727805
130	0xbefd58e1	-0.49481872
131	0x3e99e5b7	0.3005807
132	0x3ea36db0	0.31919622
133	0x3e16718d	0.14691754
134	0x3e847866	0.25873107
135	0x3edde6e4	0.43340218
136	0x3e842e26	0.25816458
137	0x3dbcf185	0.09225754
138	0xbeca23b7	-0.39480373
139	0xbef83c44	-0.4848348
140	0xbe877398	-0.2645538
141	0xbd89afeb	-0.06723007
142	0xbeb530d3	-0.35388812
143	0x3e584b8d	0.2112257
144	0x3e44353f	0.19160937
145	0xbe89d82a	-0.26922733
146	0x3ea17abb	0.31538948
147	0x3e03e6c3	0.12880997
148	0x3e5b54c3	0.21419053
149	0x3e42725d	0.18988939
150	0xbe78540b	-0.2425081
151	0x3f1d1f18	0.6137557
152	0xbea05e9b	-0.31322178
153	0xbca27df1	-0.019835444
154	0xbf0b81ce	-0.5449494
155	0xbebe414e	-0.371592
156	0xbeacb147	-0.33729002
157	0xbe7cdf66	-0.24694595
158	0x3ed22a3c	0.41047847
159	0xbe4131f4	-0.18866712
160	0xbedce618	-0.43144298
161	0x3e63777a	0.22213545
162	0x3e049841	0.12948705
163	0x3e58b4fe	0.21162793
164	0xbecf51f5	-0.40492216
165	0x3e4d63de	0.20057628
166	0xbe966694	-0.29375136
167	0xbe3593c9	-0.17732157
168	0xbeeb925d	-0.46010104
169	0xbe86b976	-0.2631337
170	0xbe350fc6	-0.17681798
171	0x3e9cc07e	0.3061561
172	0x3c921045	0.017830024
173	0x3e818dca	0.2530349
174	0x3f1872a3	0.5954992
175	0x3eec41a4	0.4614383
176	0x3ec7694a	0.38947517
177	0x3c969be2	0.018384878
178	0xbecc7ef0	-0.39940596
179	0x3ee70451	0.4512048
180	0xbe13d6d3	-0.14437418
181	0xbd3f2f6d	-0.046676088
182	0xbefea976	-0.49738663
183	0xbde98f7a	-0.11404319
184	0xbebea91a	-0.3723839
185	0x3f07d0da	0.5305306
186	0xbeff8e28	-0.49913144
187	0xbee66aee	-0.45003456
188	0xbca099fa	-0.019604672
189	0xbe8787ff	-0.26470944
190	0x3ebe4a39	0.37166002
191	0xbec8a809	-0.391907
192	0xbe8ad75a	-0.27117425
193	0x3d05f02f	0.03269976
194	0x3ed5fc95	0.41794267
195	0xbecfef35	-0.40612188
196	0x3e8ad133	0.2711273
197	0x3ebde867	0.3709137
198	0x3f19d521	0.60090834
199	0xbf0a5ce1	-0.5404797
200	0x3e4c7b47	0.19968902
201	0xbeda93b9	-0.42690828
202	0x3efc5f15	0.49291292
203	0xbe655532	-0.2239578
204	0x3ea932f1	0.33046678
205	0xbe01286e	-0.12613079
206	0xbdb250e5	-0.08706836
207	0xbc96e9ae	-0.018421974
208	0x3dc900f5	0.09814636
209	0x3e8b58a4	0.27216065
210	0x3e0d9d11	0.13829447
211	0x3db0aa66	0.08626251
212	0xbf5cf9e2	-0.8631879
213	0x3e705edb	0.23473684
214	0x3e889657	0.266772
215	0x3e9150da	0.28381997
216	0x3ee48b45	0.44637504
217	0xbf1259ae	-0.5716809
218	0xbe3814a9	-0.17976631
219	0x3f136677	0.57578224
220	0xbf0c6623	-0.5484335
221	0x3f477185	0.7790759
222	0xbee87da8	-0.45408368
223	0xbed039bb	-0.40669045
224	0x3e908394	0.28225386
225	0xbed46344	-0.41481984
226	0xbe077224	-0.13227135
227	0x3ed70c8c	0.4200176
228	0x3ee8c8d2	0.45465714
229	0x3ed971e3	0.424697
230	0xbe0c44c1	-0.13698103
231	0xbee5c2c9	-0.44875172
232	0x3f1186f2	0.56846535
233	0xbdfbe28e	-0.12299071
234	0xbe733e42	-0.23754218
235	0x3e101ee7	0.14074288
236	0xbeceb900	-0.4037552
237	0x3ed6c22c	0.41945016
238	0x3e872b43	0.26400194
239	0xbf105506	-0.56379735
240	0xbef2cce8	-0.47421956
241	0xbd4f267d	-0.050573815
242	0x3e785265	0.24250181
243	0x3d9d7408	0.07688147
244	0xbeaaef28	-0.33385587
245	0xbe107d5b	-0.1411032
246	0xbf0aec6e	-0.54267013
247	0xbed0ebc1	-0.40804866
248	0xbec4c7ad	-0.3843359
249	0x3ef7a61b	0.48368916
250	0x3ecb4082	0.39697653
251	0xbe9eb9ff	-0.3100128
252	0x3dfa8cb4	0.12233868
253	0x3e7391bb	0.2378606
254	0x3dea4050	0.11438048
255	0xbeaf7f10	-0.34276628

fc1.bias f4 [256]
0	0xbea32440	-0.31863594
1	0x3d639501	0.055562023
2	0xbee2d755	-0.4430491
3	0x3e8c56e2	0.27410036
4	0xbf21fef3	-0.63279647
5	0x3f0c8c53	0.5490162
6	0x3e9c4b9d	0.30526438
7	0xbe5303cc	-0.20606917
8	0x3daed7fb	0.08537289
9	0xbec6e0ce	-0.38843387
10	0xbef51d89	-0.47874096
11	0xbe95b5c6	-0.29240245
12	0xbf05dc59	-0.5228935
13	0x3e8c4a3d	0.2740039
14	0xbec5ce29	-0.3863385
15	0xbe407794	-0.18795615
16	0xbee287af	-0.44244143
17	0xbeb9b761	-0.3627272
18	0xbf33b48b	-0.7019736
19	0xbed4768b	-0.4149669
20	0x3f32ec55	0.69891864
21	0xbb9d0119	-0.0047913906
22	0xbf0cf553	-0.55061835
23	0xbdc5598a	-0.09636219
24	0xbe408051	-0.18798949
25	0x3e85c5ec	0.26127565
26	0x3f5368de	0.8258189
27	0x3e0ec315	0.13941605
28	0x3e4ab021	0.1979375
29	0xbedd5a68	-0.43233037
30	0xbe0379b3	-0.12839393
31	0xbe50f552	-0.20406082
32	0xbdd414f6	-0.103555605
33	0x3f3828ef	0.7193746
34	0x3e2f04b8	0.17091644
35	0x3f46bcbf	0.77631754
36	0xbf0a65ed	-0.54061776
37	0xbe92410e	-0.28565258
38	0x3e13226f	0.14368604
39	0x3e519e3b	0.20470516
40	0xbf07dd88	-0.53072405
41	0xbe912c8f	-0.28354308
42	0x3dab8582	0.08375074
43	0xbf1d6312	-0.61479294
44	0xbdd073d8	-0.101783454
45	0xbe7e60c5	-0.24841602
46	0xbe1932bc	-0.1496076
47	0x3e9e88d8	0.30963778
48	0x3e40d3cd	0.18830796
49	0x3f185f89	0.59520775
50	0x3ef0082a	0.4688123
51	0xbc8157e7	-0.015788985
52	0x3ef1aff0	0.47204542
53	0x3eeb40f7	0.45948002
54	0xbf1c1be3	-0.6098005
55	0x3d9e6f01	0.07736016
56	0x3d8a8d4c	0.067652315
57	0xbef4856e	-0.4775805
58	0xbeb1bbad	-0.34713498
59	0xbe0b9a6f	-0.1363313
60	0xbecedafb	-0.40401444
61	0xbe3468fd	-0.17618175
62	0x3e46f204	0.19428259
63	0x3f3def3b	0.7419316
64	0x3d33a205	0.043855686
65	0xbf0f21a1	-0.5591069
66	0x3d32ec88	0.043682605
67	0xbe32e3e4	-0.17469746
68	0x3e9b33ca	0.3031295
69	0xbf0ed15b	-0.557882
70	0xbe9d9440	-0.30777168
71	0x3e8afee0	0.2714758
72	0xbd01ebfb	-0.03171919
73	0xbf0a626d	-0.54056436
74	0xbefff70e	-0.49993175
75	0xbbcb321b	-0.0062010414
76	0x3cdbb8ed	0.026821578
77	0xbef568b6	-0.4793145
78	0xbef75ca4	-0.48312867
79	0xbe57880f	-0.21047996
80	0xbdf27f96	-0.11840741
81	0x3ea3dddb	0.320052
82	0xbf0f35cb	-0.55941457
83	0xbea1044b	-0.31448588
84	0xbf14f12b	-0.58180493
85	0x3e16a6c3	0.14712052
86	0xbe9707cd	-0.2949814
87	0xbd5e0884	-0.05420734
88	0xbef749da	-0.48298532
89	0xbee88a27	-0.45417902
90	0xbf0cf5b6	-0.55062425
91	0xbf3e8645	-0.7442363
92	0x3eba9ad6	0.36446255
93	0xbda93759	-0.0826251
94	0xbf1cfe4c	-0.61325526
95	0x3ecf2340	0.4045658
96	0xbe06218c	-0.13098735
97	0x3e88b5ce	0.26701206
98	0xbe374491	-0.1789725
99	0xbef750fa	-0.48303968
100	0x3e01d85d	0.12680192
101	0x3eb811d2	0.35951096
102	0xbf101c80	-0.5629349
103	0xbe3c1d91	-0.18370654
104	0x3debab0c	0.11507234
105	0x3d87b645	0.06626562
106	0xbe5fc78c	-0.21853465
107	0xbe37c612	-0.17946652
108	0xbf1646b5	-0.5870164
109	0x3c0ac2b7	0.008469275
110	0xbf1e5813	-0.6185314
111	0xbef43dd5	-0.47703424
112	0xbe3dcf02	-0.18535998
113	0xbed1fd4c	-0.41013563
114	0x3ed71e50	0.42015314
115	0x3ec7ddf8	0.39036536
116	0x3ee5bbe4	0.44869912
117	0xbee3a2e1	-0.44460204
118	0x3e0c3138	0.1369065
119	0x3ead121a	0.33802873
120	0x3bd4393d	0.00647655
121	0x3ef06704	0.46953595
122	0x3ea743bb	0.32668862
123	0x3ee22e22	0.44175822
124	0x3e6f2c80	0.23356819
125	0x3dab284b	0.08357295
126	0xbedd77d3	-0.4325548
127	0xbea4cf60	-0.32189465
128	0xbe8c2bae	-0.27377075
129	0x3e9caef5	0.30602232
130	0xbe1a2a60	-0.15055227
131	0x3e441852	0.19149902
132	0xbf4382b0	-0.7637129
133	0xbe8f9576	-0.28043717
134	0xbe26c785	-0.16287048
135	0xbebebc0e	-0.3725285
136	0x3e07ca32	0.13260725
137	0xbf35752f	-0.7088193
138	0xbe997e99	-0.299794
139	0xbe92e396	-0.2868926
140	0xbf05ce30	-0.5226774
141	0x3e18b081	0.14911081
142	0xbe3c1d61	-0.18370582
143	0x3e52a3e6	0.20570335
144	0x3ede51f4	0.434219
145	0x3f47e124	0.7807791
146	0xbe08e63d	-0.13369079
147	0x3db6abf7	0.089195184
148	0x3f07aaf4	0.5299523
149	0xbdd73e48	-0.10509926
150	0xbe6cf39b	-0.23139803
151	0xbcffd0da	-0.031227518
152	0x3dbf8fa9	0.09353573
153	0x3f0a3fcb	0.5400359
154	0xbf451670	-0.7698736
155	0x3e4ef556	0.20210776
156	0x3e795e9b	0.24352495
157	0xbeae6225	-0.34059253
158	0xbcdb1a79	-0.026746022
159	0x3e5029da	0.20328465
160	0xba076a1c	-0.0005165653
161	0x3ee32ca9	0.4437001
162	0x3e82f710	0.2557912
163	0xbf372de0	-0.71554375
164	0xbe3cdf4d	-0.18444557
165	0x3e85ee25	0.26158252
166	0xbe8e2e41	-0.27769664
167	0x3e7c2afa	0.2462577
168	0x3e084811	0.13308741
169	0xbdbfd8e1	-0.09367538
170	0x3b867350	0.004103102
171	0x3d6f2a38	0.058389872
172	0xbeca48a3	-0.39508542
173	0x3ece95c2	0.4034863
174	0x3e3ab8af	0.18234514
175	0x3ea5e05b	0.32397732
176	0x3f13b1b9	0.5769306
177	0xbe60274c	-0.2188999
178	0xbed0bcac	-0.40768945
179	0x3cd7f7a3	0.0263632
180	0xbe9cb1a0	-0.30604267
181	0x3e50b3f0	0.2038114
182	0x3f32cea8	0.6984658
183	0xbf123a6c	-0.57120395
184	0xbe37ad8d	-0.17937298
185	0x3f1965b3	0.59920806
186	0xbeebfab4	-0.4608971
187	0xbdcc0a80	-0.0996294
188	0x3ed2eba6	0.4119541
189	0x3ece8c8f	0.40341613
190	0xbe139fda	-0.14416447
191	0xbe7efcf4	-0.24901181
192	0xbe7d9203	-0.2476273
193	0xbf048992	-0.51772416
194	0xbeb0aa14	-0.3450476
195	0xbf0a7b03	-0.5409395
196	0x3ee83c81	0.4535866
197	0x3e570006	0.20996103
198	0x3ec13b92	0.3774076
199	0xbe147eed	-0.14501543
200	0x3e958067	0.29199526
201	0xbe8cfca9	-0.27536514
202	0x3e77d974	0.24204046
203	0xbe862ca9	-0.26205948
204	0xbe8b0e02	-0.27159125
205	0xbecd8638	-0.40141463
206	0xbec7af4d	-0.3900093
207	0xbf0749ca	-0.5284697
208	0xbcb34040	-0.021881223
209	0xbee8fa89	-0.45503643
210	0x3d335318	0.043780416
211	0x3ebc78df	0.36810967
212	0xbda0683d	-0.07832382
213	0x3e8f5c96	0.28000325
214	0xbdb083ff	-0.08618926
215	0x3e267c23	0.16258292
216	0xbebea31c	-0.37233818
217	0xbdecb89b	-0.11558648
218	0xbe4501fb	-0.19239037
219	0x3e791b9c	0.24326938
220	0xbf04aa68	-0.5182252
221	0xbea62696	-0.32451314
222	0xbe1d711b	-0.15375178
223	0x3f467a11	0.7753001
224	0x3ec8021a	0.39064103
225	0xbf1596bc	-0.5843313
226	0xbf22fe75	-0.6366952
227	0x3e9b0b57	0.3028209
228	0x3dac51e4	0.08414057
229	0xbefd2fab	-0.4945043
230	0xbe9aeba6	-0.3025791
231	0x3e813bc7	0.2524092
232	0xbeb42238	-0.35182357
233	0xbf1b3adb	-0.6063668
234	0xbeb6829c	-0.35646522
235	0xbdd222d4	-0.10260549
236	0xbe8279b0	-0.25483465
237	0x3eb81d07	0.35959646
238	0x3e8ded77	0.27720234
239	0xbf0220d9	-0.5083137
240	0xbea11311	-0.3145986
241	0xbee43b2e	-0.445764
242	0x3e385c86	0.18004045
243	0x3f4b861a	0.795015
244	0x3f0fa8c8	0.56116915
245	0x3d62ab3a	0.055339076
246	0xbe80c7e1	-0.25152496
247	0xbc6bce4d	-0.014392448
248	0x3e554c41	0.2082987
249	0xbf4b7d6c	-0.79488254
250	0xbe488685	-0.19582565
251	0xbef04859	-0.46930197
252	0xbf5f86c3	-0.87315005
253	0xbc9e14ef	-0.019297091
254	0xbec3e4c6	-0.38260478
255	0xbebb40c3	-0.36572847

fc2.weight f4 [64, 256]
0	0x3e3d59f1	0.18491341
1	0x3e322954	0.17398578
2	0x3c1c4350	0.009537533
3	0xbe0464bf	-0.12929057
4	0x3ea483d5	0.3213183
5	0xbe2e699b	-0.17032473
6	0x3b2c5a26	0.002629885
7	0xbcac9d20	-0.021071017
8	0x3d3c76ae	0.04601162
9	0x3ea8e60c	0.32988012
10	0x3d7734c4	0.060353056
11	0xbc8f16f8	-0.017467007
12	0x3db84866	0.08998184
13	0xbee64457	-0.44974014
14	0x3dac9c54	0.08428255
15	0x3e1ef370	0.15522552
16	0xbd47c9c4	-0.048776403
17	0x3d40ff06	0.04711821
18	0x3d304ee2	0.04304398
19	0x3d5e3f9c	0.05425988
20	0xbec44d9a	-0.38340455
21	0x3e134027	0.14379941
22	0x3d199c6a	0.037502684
23	0x3c6d03c8	0.014466234
24	0x3d802c8b	0.06258496
25	0xbc7a0af3	-0.0152614
26	0xbf560513	-0.8360149
27	0xbd6b5076	-0.05744978
28	0x3e0a50c5	0.13507374
29	0x3e034443	0.12819009
30	0x3e7fe682	0.24990276
31	0xbedd854c	-0.4326576
32	0x3d9dd3e6	0.07706432
33	0xbe1822de	-0.14857051
34	0xbca73103	-0.020409113
35	0xbf073615	-0.528169
36	0x3e1265ad	0.14296599
37	0x3da20154	0.079104096
38	0xbdabcaaa	-0.083882645
39	0x3dc84f22	0.097807184
40	0xbd6ec8f2	-0.058297105
41	0xbbea5df0	-0.0071523115
42	0xbb588840	-0.0033040196
43	0x3e380f1c	0.17974514
44	0xbcfac59b	-0.030611804
45	0x3d42c9ea	0.04755584
46	0x3d66387a	0.056206204
47	0x3d66b6aa	0.056326546
48	0xbd2bbbe4	-0.041927233
49	0xbd17b6ca	-0.037039556
50	0xbe3f4d0e	-0.18681738
51	0xbd47ec96	-0.04880961
52	0xbc8c6228	-0.017136648
53	0x3d788a34	0.060678676
54	0x3dfb279a	0.12263413
55	0x3d855f5d	0.0651233
56	0x3d70d5f4	0.05879779
57	0x3dfe18da	0.12407084
58	0x3dc4215d	0.09576676
59	0x3d2a1c18	0.0415307
60	0x3d700dd2	0.05860693
61	0x3c2f9b18	0.01071813
62	0xbd4f05ce	-0.050542645
63	0xbec6386f	-0.3871493
64	0xbd0444fe	-0.03229236
65	0x3d534bd8	0.051586002
66	0x3e085c75	0.1331652
67	0x3c95d9ac	0.01829227
68	0xbcdac019	-0.026702927
69	0xbd3c8b92	-0.046031542
70	0x3e263d86	0.16234407
71	0xba843261	-0.0010085815
72	0x3d73e153	0.059541058
73	0x3e669935	0.22519381
74	0xbc75d620	-0.015004665
75	0x3a772300	0.00094275177
76	0x3d54cb0d	0.051951457
77	0x3cc502c8	0.024049178
78	0xbd43e2c0	-0.047823668
79	0x3d5f6857	0.054542866
80	0xbcfdbbb0	-0.030973285
81	0xbd127685	-0.03575756
82	0x3cfd8898	0.030948922
83	0x3db0144b	0.085976206
84	0x3e58e7a9	0.21182121
85	0xbed5fdbe	-0.41795152
86	0xbd7fd198	-0.062455744
87	0x3ddf19c6	0.10893588
88	0xbd2fa9da	-0.042886592
89	0x3c08bef0	0.008346304
90	0x3e017036	0.12640461
91	0x3e953cea	0.29148036
92	0xbd2ee7ac	-0.04270141
93	0xbd7ad1a2	-0.061235078
94	0x3ddc9e05	0.10772327
95	0x3c250308	0.0100715235
96	0x3d3b8802	0.045784004
97	0x3a3edf02	0.00072811556
98	0x3d45284c	0.048134133
99	0x3ca19fe8	0.01972957
100	0xbc9251d0	-0.017861277
101	0xbc588480	-0.013215184
102	0xbd0bffdc	-0.034179553
103	0x3dd539d5	0.10411421
104	0xbd320866	-0.04346504
105	0x3cb00760	0.021487892
106	0x3dcec6cc	0.10096511
107	0x3d593bb4	0.053035453
108	0x3e50c6f8	0.203884
109	0x3e5b96ec	0.21444291
110	0x3d72bdcb	0.059263032
111	0xbba73810	-0.0051031187
112	0x3d69b21e	0.05705463
113	0x3d3903f3	0.045169782
114	0xbf05b28a	-0.52225554
115	0x3d425922	0.047448285
116	0xbd78feb8	-0.060789794
117	0x3ea61dee	0.3244471
118	0x3d8ac85b	0.06776496
119	0xbc1a3604	-0.009412292
120	0x3c288770	0.010286197
121	0xbe2d33e0	-0.1691432
122	0xbd220fc0	-0.0395658
123	0xbce79588	-0.028269544
124	0xbe01e6b1	-0.12685658
125	0xbc3b0124	-0.011413846
126	0x3d8910ad	0.06692634
127	0x3be0c320	0.006859198
128	0xbd26929c	-0.04066716
129	0xbcdf2f10	-0.02724412
130	0x3d014963	0.031564128
131	0xbec56033	-0.38549957
132	0x3e3ef880	0.18649483
133	0x3e0ebfe2	0.13940385
134	0xbd0e57fe	-0.034751885
135	0xbc88667c	-0.01665043
136	0xb9d9411f	-0.00041437984
137	0x3e44843e	0.19191071
138	0x3e089049	0.1333629
139	0x3de4a5cd	0.111644365
140	0xbcbe553c	-0.023234002
141	0x3dc5e161	0.09662128
142	0xbd39305c	-0.045212135
143	0x3cc2a76d	0.023761475
144	0xbdf25b4a	-0.11833818
145	0xbf2f2d64	-0.68428636
146	0x3d4927e2	0.0491103
147	0x3d890c99	0.06691856
148	0xbb1873ce	-0.0023262384
149	0x3dd45ce2	0.103692785
150	0x3c5f8140	0.013641655
151	0xbda3876b	-0.07984813
152	0x3cd26610	0.025683433
153	0xbe9835e8	-0.29728627
154	0x3e0a545e	0.13508746
155	0x3ce5da20	0.028058112
156	0xbf0d1fa5	-0.5512641
157	0xbed5ef2e	-0.41784042
158	0x3d8db12a	0.06918557
159	0x3d2d8a33	0.042368125
160	0x3dd59984	0.104296714
161	0x3cc3cc2c	0.023901068
162	0xbf0e69f5	-0.5563043
163	0x3e41df9d	0.18932958
164	0x3e6c156f	0.23055051
165	0x3c86ed80	0.01647067
166	0x3d5c80a8	0.053833634
167	0x3d1f2f9c	0.038863763
168	0xbafac5c0	-0.001913242
169	0xbce4aef0	-0.027915448
170	0x3b87c360	0.0041431636
171	0x3db5f377	0.08884328
172	0x3d222ba6	0.039592408
173	0x3ccbf673	0.02489779
174	0x3d1be5c4	0.03806092
175	0x3ccb48e0	0.024815023
176	0x3cc0e970	0.023548812
177	0x3dae9f44	0.08526471
178	0x3cf89edc	0.030349188
179	0x3ca31db4	0.019911624
180	0x3e64686b	0.22305457
181	0xbd7096a4	-0.058737412
182	0xbee9da3e	-0.45674318
183	0x3e3317e0	0.17489576
184	0x3de9915c	0.11404678
185	0xbdbb4b55	-0.09145228
186	0x3d2cbe94	0.042173937
187	0x3cae225c	0.021256618
188	0xbd30370e	-0.043021254
189	0x3b731b20	0.0037095025
190	0x3e0d6a54	0.13810092
191	0x3d1379a4	0.036004677
192	0x3ea8d8fb	0.32978043
193	0xbcca7244	-0.02471269
194	0xbe9a0b41	-0.3008671
195	0xbd4fa9a4	-0.05069889
196	0xbc5b04db	-0.013367857
197	0xbcca2912	-0.024677787
198	0xbdb57a16	-0.08861177
199	0x3d11bc92	0.035580225
200	0x3d3ef4b6	0.046620093
201	0x3e215381	0.1575451
202	0xbb6ad715	-0.0035833765
203	0x3db1adc0	0.08675718
204	0xbcc2c74c	-0.023776673
205	0x3d1c2fce	0.038131528
206	0x3e031d18	0.12804067
207	0x3d30f468	0.043201834
208	0x3d9977c7	0.07493549
209	0x3de5b16a	0.1121548
210	0x3df8addd	0.12142537
211	0xbc9b411c	-0.018951945
212	0x3de8efaa	0.11373837
213	0xbc89d90c	-0.016827129
214	0x3cb98bb0	0.022649616
215	0x3c98b7e6	0.018642377
216	0x3c0c0a40	0.008547366
217	0x3e1d2588	0.15346348
218	0x3cd29458	0.025705501
219	0xbc255cb9	-0.010092908
220	0xbcb99ca8	-0.022657707
221	0xbd32cdfe	-0.04365348
222	0x3e2eeaf6	0.17081818
223	0xbf399159	-0.7248741
224	0xbd4b9c72	-0.049709745
225	0x3e7eadd5	0.24870999
226	0x3ea417e7	0.32049486
227	0x3db83382	0.08994199
228	0x3d30467c	0.04303597
229	0xbd4443a0	-0.047916055
230	0x3e65c6f7	0.2243918
231	0x3d22f454	0.03978379
232	0x3e899980	0.26874924
233	0x3e73cd75	0.23808844
234	0x3d3aab72	0.04557366
235	0xbedd2050	-0.43188715
236	0x3e47faed	0.19529314
237	0xbd8cd237	-0.06876033
238	0xbcd5c0d8	-0.026092932
239	0x3df83f66	0.12121467
240	0x3deef8ce	0.116685495
241	0xbba1c9f0	-0.004937403
242	0x3d598e38	0.053114146
243	0xbda10f25	-0.07864217
244	0xbd05dd7c	-0.032681927
245	0x3d1d8064	0.03845252
246	0x3e2c8912	0.16849163
247	0xba94bec0	-0.0011348352
248	0x3d28b834	0.041191295
249	0x3e253b03	0.16135792
250	0xbb947a55	-0.0045311847
251	0xbcfd57d4	-0.030925669
252	0x3db97168	0.09054834
253	0xbd595a94	-0.053064898
254	0x3e766363	0.2406135
255	0xbd1e2fe6	-0.0386199

fc2.bias f4 [64]
0	0xbdec10e5	-0.1152666
1	0xbcdce666	-0.026965331
2	0xbcb16724	-0.021655627
3	0x3cdb9954	0.026806511
4	0xbd9d5948	-0.07683045
5	0x3c93cd70	0.018042296
6	0x3d4d67ee	0.050147943
7	0x3d5a4c90	0.053295672
8	0xbe1cecc6	-0.15324697
9	0x3c374570	0.011185989
10	0x3d00007a	0.031250454
11	0xbd24c3ac	-0.04022567
12	0xbc380578	-0.011231773
13	0xbe448240	-0.19190311
14	0xbde713c4	-0.11283067
15	0x3caac044	0.020843633
16	0x3d4c013a	0.049805857
17	0xbdf96e03	-0.12179186
18	0xbe301ae9	-0.17197765
19	0xbe04f612	-0.12984493
20	0xbe1a61de	-0.15076396
21	0xbce0781b	-0.02740102
22	0x3c53e7f8	0.012933724
23	0xbe2a999c	-0.1666016
24	0x3bd5d400	0.0065255165
25	0x3c52c9c0	0.012865484
26	0xbd152508	-0.03641227
27	0x3bda5ac0	0.0066636503
28	0xbd678d69	-0.056531344
29	0x3d236eff	0.039900776
30	0xbd58a1dc	-0.052888736
31	0xbb81ceb0	-0.0039614066
32	0xbb2bf757	-0.0026239955
33	0xbd549b3d	-0.05190586
34	0xbddb0ff1	-0.106964
35	0xbd286bc8	-0.041118413
36	0xbd241622	-0.04006017
37	0xbca1fe44	-0.019774564
38	0xbdc3b4d2	-0.09555973
39	0xba52f500	-0.0008047372
40	0xbdfacf64	-0.12246588
41	0xbd73de25	-0.059538025
42	0x3bc38872	0.0059671933
43	0x3d348432	0.044071384
44	0xbe2449e9	-0.1604382
45	0x3c9fa1d4	0.019486345
46	0xbe10fa4c	-0.1415798
47	0xbe334639	-0.17507257
48	0xbc765e7c	-0.015037175
49	0x3d0a1888	0.0337148
50	0x3c3cda60	0.011526674
51	0xbe56e50a	-0.20985809
52	0xbd1f4507	-0.03888419
53	0x3d03e1d2	0.03219778
54	0x3ccc238d	0.024919296
55	0x3ce3db80	0.027814627
56	0xbd15be73	-0.03655858
57	0xbe27cf8f	-0.16387771
58	0xba81eb7b	-0.0009912098
59	0xbd1185d0	-0.035528004
60	0xbda17683	-0.078839324
61	0x3cd00544	0.025393136
62	0x3d0ce110	0.034394324
63	0xbde8e179	-0.113711305

fc3.weight f4 [2, 64]
0	0xbe41c609	-0.189232
1	0x3db7c086	0.08972268
2	0x3df0bd70	0.11754882
3	0xbcd381a0	-0.025818646
4	0xbe849cb6	-0.2590081
5	0xbc9009b0	-0.017582744
6	0x3c1b15d0	0.00946565
7	0xbd57c4ac	-0.052677795
8	0xbe19e70d	-0.15029545
9	0x3d33b978	0.04387805
10	0xbd8901e0	-0.06689811
11	0x3d06cec4	0.03291203
12	0x3d18ac84	0.0372739
13	0xbe177aa9	-0.14792885
14	0xbe6a4259	-0.22876872
15	0x3c62bb15	0.013838549
16	0xbc896f80	-0.0167768
17	0xbe9a8abe	-0.30183977
18	0xbe93ed9f	-0.28892228
19	0xbeef96f7	-0.46794865
20	0xbedcc81b	-0.43121418
21	0xbc8ec2e3	-0.017426914
22	0x3d14b688	0.036306888
23	0xbe78a795	-0.24282677
24	0xbdaf30ac	-0.08554205
25	0xbdc72dfa	-0.09725566
26	0xbd7c1ee8	-0.061552912
27	0x3d6aa8c8	0.05728987
28	0xbd88199a	-0.06645508
29	0xbd425780	-0.047446728
30	0x3d743928	0.05962482
31	0x3d2db528	0.042409092
32	0x3cbc9213	0.023018872
33	0x3ca72e7a	0.020407904
34	0xbe8807c2	-0.2656842
35	0xbdb76f85	-0.089568175
36	0x3d583741	0.05278707
37	0x3d5bd164	0.053666487
38	0xbe2d9307	-0.16950618
39	0xbd800a56	-0.062519714
40	0xbcec9983	-0.028881794
41	0xbd870af6	-0.065938875
42	0xbc868020	-0.016418517
43	0x3d88bf5e	0.066771254
44	0xbebe0da1	-0.37119773
45	0x3db2e003	0.08734133
46	0xbec646e3	-0.38725957
47	0xbdf78d39	-0.12087483
48	0x3dde38bc	0.10850665
49	0xbc2a6cab	-0.010401885
50	0x3cef00c1	0.029175164
51	0xbea89b37	-0.3293092
52	0x3d3bf590	0.045888484
53	0x3ddcd608	0.10783011
54	0xbb4644ab	-0.0030253332
55	0x3cd4dac8	0.02598323
56	0x3b7265d4	0.0036986964
57	0xbe24328d	-0.16034909
58	0x3d1827b3	0.037147235
59	0x3d81fdfc	0.06347272
60	0xbea95d91	-0.33079198
61	0xbd92427c	-0.07141587
62	0xbdffbba6	-0.12486963
63	0xbe9325fb	-0.28739914
64	0xbe88842f	-0.26663348
65	0xbe0c8967	-0.1372429
66	0x3da354b6	0.07975142
67	0xbc379ce0	-0.0112068355
68	0xbe890810	-0.26763964
69	0x3dce95e2	0.10087182
70	0xbda5e50a	-0.08100326
71	0x3dae3166	0.08505516
72	0xbeac2771	-0.3362384
73	0x3dbba2aa	0.09161885
74	0x3d1eb31e	0.03874504
75	0x3d8cbdf2	0.06872167
76	0x3c93f238	0.018059835
77	0xbe9f230b	-0.31081423
78	0xbe4bee8f	-0.19915222
79	0x3b5618aa	0.003266851
80	0xbd41f56c	-0.047353193
81	0xbe01b234	-0.12665635
82	0xbe2772b5	-0.16352351
83	0x3d9f6b2f	0.077841155
84	0x3d731335	0.05934449
85	0xbc821cd0	-0.01588288
86	0x3b804200	0.003914118
87	0xbe6b1dd5	-0.22960599
88	0x3df483a8	0.11939174
89	0xbdb57c64	-0.08861616
90	0x3d86af6c	0.06576428
91	0x3d679310	0.056536734
92	0xbc48d46e	-0.012257678
93	0x3dc83ee5	0.09777621
94	0x3d894c98	0.06704062
95	0xbdf91ef6	-0.121641085
96	0xbd654e16	-0.05598267
97	0x3d82e262	0.06390835
98	0xbe037cc3	-0.12840562
99	0x3d488418	0.0489541
100	0x3ddee868	0.10884172
101	0x3c9478eb	0.018124064
102	0xbe90e8f2	-0.28302723
103	0xbd9f3210	-0.077732205
104	0xbd4e2a8d	-0.05033355
105	0x3c994678	0.01871036
106	0xbcfa8e46	-0.03058542
107	0xbce95f48	-0.028487816
108	0x3d151a71	0.03640217
109	0x3d47d5b6	0.048787795
110	0x3ccbaeb0	0.02486357
111	0xbec5bbf3	-0.38619956
112	0x3dcabe18	0.09899539
113	0x3cfaea5c	0.03062933
114	0x3d35bb31	0.044367973
115	0xbd9ba308	-0.07599455
116	0x3ddc1647	0.107464366
117	0x3de375ae	0.1110643
118	0xbc50e7f7	-0.012750617
119	0xbdccee62	-0.100064054
120	0x3d8c6a9f	0.06856274
121	0xbea09f3d	-0.3137149
122	0xbc999d0a	-0.01875164
123	0xbbba2c46	-0.0056815473
124	0xbdf7c48a	-0.12098034
125	0xbc78a690	-0.01517643
126	0xbdfe184c	-0.12406978
127	0xbdc72a97	-0.0972492

fc3.bias f4 [2]
0	0x3f57ed44	0.84346414
1	0x3f4f02c0	0.8086357
