checkpoints/dubins3d-discrete-v0__hj_dqn__1__1638911828_evalFalse/dqn_checkpoint_10217.pth (torch, 72343 bytes, 6 tensors)

fc1.weight f4 [256, 3]
000000 68 aa bc 3e 28 12 ba be f6 a0 95 bd 17 77 c6 3e
       0.3684876 -0.36341977 -0.073060915 0.38762733
000010 b5 b0 1b bf c7 a1 fa 3e 9a 40 f3 bd ea 62 96 3e
       -0.6081651 0.4895155 -0.11877556 0.2937234
000020 23 60 a4 3d a2 8c 0f bd 51 2d 4e 3e 71 c5 7b be
       0.08026149 -0.035046227 0.20134474 -0.24587037
000030 11 e7 b2 3e e4 37 49 be cd 9f 62 3d c5 9a 90 bd
       0.34941915 -0.19650227 0.05532818 -0.0706077
000040 9f a0 fe 3d d0 8d 7c be 6e d8 ff 3e 33 8a 34 3d
       0.1243298 -0.24663472 0.4996981 0.04407711
000050 5e 0c 81 be 72 88 b2 be e4 30 c6 bd f1 02 7f be
       -0.25204748 -0.34869725 -0.09677294 -0.24903466
000060 88 73 3d be a0 76 e2 3c a4 37 b0 3e da 93 fa 3e
       -0.18501103 0.027644455 0.3441745 0.48940927
000070 9b 74 08 bf 8c 98 d4 3e 43 f0 44 3e 59 0e 00 3f
       -0.53302926 0.41522634 0.19232278 0.5002189
000080 ac 46 92 3e ec aa 06 bf f4 87 0c bf 38 94 8e be
       0.28569543 -0.52604556 -0.5489495 -0.27847457
000090 fd 9f 0e 3f 3c 1e 5a be e7 a8 9e 3e 2f 62 cb be
       0.5571287 -0.21300596 0.30988237 -0.39723346
0000a0 f9 dc 29 3f a8 09 c5 bd 01 2b d1 3e 41 fa 40 be
       0.663528 -0.096209824 0.40853122 -0.18845464
0000b0 d5 14 49 be 1e ba b8 3e 0b 8f d5 be f1 d3 3c 3e
       -0.19636853 0.36079496 -0.41710696 0.18440224
0000c0 16 b7 2a be 18 a2 81 bd 43 18 0e bf 32 f0 8c be
       -0.16671404 -0.06329745 -0.5550577 -0.27527004
0000d0 88 67 a0 3e 7b b5 0f be 49 3c 23 3f 5d 57 c0 3e
       0.31328988 -0.14034073 0.6376386 0.37566653
0000e0 3d e0 56 bd 6b 4f c5 be e1 02 b4 3e 35 7c 37 3e
       -0.052459944 -0.38537154 0.35158446 0.17918475
0000f0 58 bb dd be ed f4 03 3f e1 a3 04 3f 26 b4 14 3f
       -0.43306994 0.515456 0.5181256 0.58087385
000100 d4 b1 da be cd 39 86 bd 93 3e 37 bc 48 b3 ac 3d
       -0.42713797 -0.065539934 -0.011184352 0.08432633
000110 ba 56 e0 be 49 c4 d1 be 3f cf a0 3e 19 a2 0a be
       -0.43816167 -0.40970066 0.31408116 -0.13538398
000120 14 af a6 3e 82 73 9d bd 67 13 57 3e b8 37 0d 3e
       0.3255545 -0.07688047 0.21003495 0.13790786
000130 c6 3b 03 3e 7c 69 58 3d 66 c6 e8 be a0 ac 01 3f
       0.1281577 0.052834973 -0.45463866 0.5065403
000140 43 c9 45 be 0e 09 df be c3 d0 0f 3d e1 7d c9 bd
       -0.19315057 -0.43561596 0.0351112 -0.098384626
000150 e2 62 cd 3e 9d dc e4 be 3b 45 0b bf cc b0 f4 3e
       0.40114504 -0.44699565 -0.5440251 0.47791135
000160 5d 6e 43 be ba 36 cf 3e cc eb ab 3e b4 2e da be
       -0.19085069 0.4047144 0.33578336 -0.42613757
000170 73 06 26 3e fe e0 86 3e c2 0f c8 be 63 ac 03 bf
       0.16213398 0.2634353 -0.39074522 -0.51434916
000180 2f 7f 5d 3e 4a f9 0c bd 97 1f a1 be cd eb 0c be
       0.21630548 -0.034417428 -0.31469414 -0.13761826
000190 e4 c5 0e 3f 44 3e f5 be d6 42 ba 3e cf 02 15 3e
       0.5577071 -0.47899067 0.36379117 0.14551853
0001a0 68 b1 fe be 11 13 0a bf 24 c6 2f 3f 0a 9e 86 3e
       -0.49744725 -0.53935343 0.68661714 0.2629245
0001b0 98 46 d2 3e 3f 94 cc bc c7 ca 58 3e 83 eb f2 3e
       0.41069484 -0.024973033 0.21171103 0.47445306
0001c0 85 90 e6 3e 0d 99 ec be d8 98 c0 3d 57 6d c7 3e
       0.45032135 -0.46210518 0.09404153 0.38950607
0001d0 24 63 53 3e 13 db c4 3e bc f1 11 bf 16 bc c7 be
       0.20643288 0.3844839 -0.5700948 -0.39010686
0001e0 c3 c5 b2 be 6d 8b 94 3d 09 4f 13 3f b5 b9 ba be
       -0.34916505 0.07253156 0.57542473 -0.36469808
0001f0 79 85 9d 3e e9 9c a3 be 28 f7 0a bf 4b 4f fb bd
       0.30765894 -0.3195565 -0.5428338 -0.12270983
000200 6b 51 aa 3e 26 d7 10 3f 98 ee 02 bf cc 5c 50 3e
       0.33265242 0.5657829 -0.51145315 0.20347899
000210 6f d7 d3 3e 05 8d 59 3e 20 63 67 3e f5 8b e8 3e
       0.413753 0.21245201 0.22596407 0.4541928
000220 50 50 89 3e a4 8a 86 3d b7 23 ca be 44 3c f8 be
       0.26819086 0.06569412 -0.39480373 -0.4848348
000230 98 73 87 be eb af 89 bd d3 30 b5 be 8d 4b 58 3e
       -0.2645538 -0.06723007 -0.35388812 0.2112257
000240 38 39 5e 3e 31 18 7e be 9f bf 3f 3e 2c 56 43 3e
       0.21701515 -0.24813916 0.18725441 0.1907584
000250 3f 73 93 3e 0f 29 25 3e 6e 69 62 be 21 1f 25 3f
       0.28798863 0.16128944 -0.2211053 0.64500624
000260 7c d4 64 be f1 7d a2 bc ce 81 0b bf 4e 41 be be
       -0.22346681 -0.019835444 -0.5449494 -0.371592
000270 47 b1 ac be 66 df 7c be 3c 2a d2 3e f4 31 41 be
       -0.33729002 -0.24694595 0.41047847 -0.18866712
000280 18 e6 dc be 7a 77 63 3e 29 64 06 3e 1d 1e 3e 3e
       -0.43144298 0.22213545 0.13124146 0.18566175
000290 ee 9b 8d be 5b 69 4b 3e b5 d6 9d be 98 23 1e be
       -0.27658027 0.19864409 -0.3082787 -0.15443265
0002a0 5d 92 eb be 76 b9 86 be c6 0f 35 be af 2b 9d 3e
       -0.46010104 -0.2631337 -0.17681798 0.3069739
0002b0 92 82 22 3c 7d 1b 1a 3e 70 ad 1e 3f 90 64 f4 3e
       0.009918826 0.15049548 0.61983395 0.47732973
0002c0 e7 67 9f 3e e2 9b 96 3c f0 7e cc be 51 04 e7 3e
       0.3113396 0.018384878 -0.39940596 0.4512048
0002d0 d3 d6 13 be 6d 2f 3f bd 76 a9 fe be 7a 8f e9 bd
       -0.14437418 -0.046676088 -0.49738663 -0.11404319
0002e0 1a a9 be be da d0 07 3f 28 8e ff be ee 6a e6 be
       -0.3723839 0.5305306 -0.49913144 -0.45003456
0002f0 fa 99 a0 bc a9 12 7d be 7f 33 cc 3e d8 8c 91 be
       -0.019604672 -0.2471415 0.39883038 -0.28427768
000300 5a d7 8a be 2f f0 05 3d 95 fc d5 3e 35 ef cf be
       -0.27117425 0.03269976 0.41794267 -0.40612188
000310 33 d1 8a 3e 67 e8 bd 3e 41 60 1a 3f 44 68 0c bf
       0.2711273 0.3709137 0.6030312 -0.54846597
000320 b5 2a 0c 3e b9 93 da be 15 5f fc 3e 32 55 65 be
       0.13688166 -0.42690828 0.49291292 -0.2239578
000330 06 b6 c7 3e c0 b5 ad bd 3a 73 cc bd ae e9 96 bc
       0.3900606 -0.08481932 -0.09982915 -0.018421974
000340 f5 00 c9 3d a4 58 8b 3e d1 e4 17 3e 73 60 9e 3d
       0.09814636 0.27216065 0.1483338 0.0773324
000350 79 29 1f bf 9f 82 be 3e d2 7c bf 3e 53 96 89 3e
       -0.6217266 0.3720903 0.37399918 0.268725
000360 01 fe e3 3e 61 8f 15 bf 15 3f 46 be d7 80 11 3f
       0.44529727 -0.58421904 -0.19360001 0.5683722
000370 83 4d 10 bf 15 90 23 3f a8 7d e8 be bb 39 d0 be
       -0.56368273 0.63891727 -0.45408368 -0.40669045
000380 94 83 90 3e 44 63 d4 be 24 72 07 be 8c 0c d7 3e
       0.28225386 -0.41481984 -0.13227135 0.4200176
000390 f7 cc 00 3f 4a 16 ea 3e 69 8e 3a be c9 c2 e5 be
       0.5031275 0.4572013 -0.18218388 -0.44875172
0003a0 f2 86 11 3f 8e e2 fb bd 42 3e 73 be e7 1e 10 3e
       0.56846535 -0.12299071 -0.23754218 0.14074288
0003b0 00 b9 ce be c7 dc e0 3e 49 66 8a 3e 0c fe 07 bf
       -0.4037552 0.4391844 0.27031162 -0.5312202
0003c0 e8 cc f2 be 7d 26 4f bd 65 52 78 3e 8e f9 c9 3d
       -0.47421956 -0.050573815 0.24250181 0.09862052
0003d0 7f 41 92 be 3c 1f 8d 3b 6e ec 0a bf c1 eb d0 be
       -0.28565595 0.004306702 -0.54267013 -0.40804866
0003e0 ad c7 c4 be 59 14 03 3f 83 c3 d0 3e 9c 63 93 be
       -0.3843359 0.51202923 0.40774164 -0.28786933
0003f0 e6 b4 bc 3d 8c be 5c 3e a1 53 0f 3d b7 28 99 be
       0.09214191 0.21557063 0.034991864 -0.29913875

fc1.bias f4 [256]
000000 8c 95 86 be 42 fd d8 3d 55 d7 e2 be 18 dd 6c 3e
       -0.2628597 0.1059518 -0.4430491 0.23131216
000010 d0 d4 12 bf 1a 08 00 3f d0 24 c6 3e cc 03 53 be
       -0.57355976 0.5001236 0.3869996 -0.20606917
000020 fb d7 ae 3d 35 6b aa be 3a 65 c8 be c6 b5 95 be
       0.08537289 -0.33284917 -0.3913973 -0.29240245
000030 29 1a eb be 56 bc 5a 3e 80 00 a5 be 65 b5 06 be
       -0.45918396 0.21360907 -0.32226944 -0.13155134
000040 af 87 e2 be 61 b7 b9 be 0d 30 22 bf 8b 76 d4 be
       -0.44244143 -0.3627272 -0.6335457 -0.4149669
000050 20 05 21 3f 53 12 5d 3d 53 f5 0c bf 8a 59 c5 bd
       0.62898445 0.053972553 -0.55061835 -0.09636219
000060 e1 74 f6 bd 90 b5 8f 3e b9 95 40 3f 15 c3 0e 3e
       -0.12034012 0.2806821 0.7522846 0.13941605
000070 14 ee 7c 3e 8f 79 bd be b6 63 97 bd 2d 48 64 be
       0.24700195 -0.37006804 -0.07392065 -0.22293158
000080 3f 4c 2a bd 19 37 2d 3f 9f 14 70 3e b0 95 33 3f
       -0.04157662 0.676622 0.23445366 0.7015028
000090 e1 2a f0 be f7 0b 4c be f8 37 25 3e cc 7c 82 3e
       -0.46907714 -0.19926439 0.16134632 0.25485837
0000a0 88 dd 07 bf 8f 2c 91 be 82 85 ab 3d 04 2f 0e bf
       -0.53072405 -0.28354308 0.08375074 -0.5554049
0000b0 15 e9 1a 3d 0d d6 29 be bc 32 19 be d8 88 9e 3e
       0.03781994 -0.1658556 -0.1496076 0.30963778
0000c0 84 4f 7f 3e 91 65 16 3f 3b 9d d9 3e e7 57 81 bc
       0.24932677 0.5874873 0.4250277 -0.015788985
0000d0 f0 af f1 3e f7 40 eb 3e 01 ea 05 bf c6 80 eb 3d
       0.47204542 0.45948002 -0.52310187 0.11499171
0000e0 4c 8d 8a 3d e4 76 d0 be 03 e3 84 be 6f 9a 0b be
       0.067652315 -0.40715706 -0.25954446 -0.1363313
0000f0 fb da ce be fd 68 34 be 04 f2 46 3e c2 59 31 3f
       -0.40401444 -0.17618175 0.19428259 0.69277585
000100 05 a2 33 3d a1 21 0f bf 53 2c d9 3d e4 e3 32 be
       0.043855686 -0.5591069 0.10604157 -0.17469746
000110 44 d6 c2 3e 5b d1 0e bf c4 80 87 be 4e 50 bc 3e
       0.38054097 -0.557882 -0.26465428 0.36780018
000120 9a 73 be 3c 35 19 f7 be 0e f7 ff be 1b 32 cb bb
       0.023248482 -0.4826142 -0.49993175 -0.0062010414
000130 b9 07 e5 3d b6 68 f5 be a4 5c f7 be ea 35 0d be
       0.111831136 -0.4793145 -0.48312867 -0.13790098
000140 96 7f f2 bd 82 9d ac 3e cb 35 0f bf 48 ee 69 be
       -0.11840741 0.3371392 -0.55941457 -0.22844803
000150 4f c1 05 bf 70 b5 bb 3d cd 07 97 be 19 5a 25 3c
       -0.5224809 0.09165466 -0.2949814 0.010092282
000160 da 49 f7 be 27 8a e8 be c2 9c f4 be ad 4c 2f bf
       -0.48298532 -0.45417902 -0.47775847 -0.6847637
000170 d6 9a ba 3e 59 37 a9 bd aa 20 0b bf 40 23 cf 3e
       0.36446255 -0.0826251 -0.54346716 0.4045658
000180 8c 21 06 be c4 b5 88 3e 91 44 37 be fa 50 f7 be
       -0.13098735 0.26701176 -0.1789725 -0.48303968
000190 5d d8 01 3e d2 11 b8 3e 80 1c 10 bf 96 cd f3 bd
       0.12680192 0.35951096 -0.5629349 -0.11904447
0001a0 0c ab eb 3d 45 b6 87 3d 28 41 18 be 12 c6 37 be
       0.11507234 0.06626562 -0.14868605 -0.17946652
0001b0 83 4c 07 bf 75 5a 76 3d 52 1b 0b bf d5 3d f4 be
       -0.5285112 0.06014486 -0.5433856 -0.47703424
0001c0 02 cf 3d be 4c fd d1 be 6b e7 b6 3e f8 dd c7 3e
       -0.18535998 -0.41013563 0.35723433 0.39036536
0001d0 e4 bb e5 3e a9 7f c6 be 45 9f 5e 3e 94 ba b0 3e
       0.44869912 -0.38769272 0.21740444 0.34517348
0001e0 3d 39 d4 3b fd 34 da 3e bb 43 a7 3e 22 2e e2 3e
       0.00647655 0.42618552 0.32668862 0.44175822
0001f0 35 6c 81 3e 7a 65 e0 3d d0 da bc be 60 cf a4 be
       0.25277868 0.10956855 -0.3688569 -0.32189465
000200 ae 2b 8c be fe d1 af 3e fd e9 09 be 21 e6 3f 3e
       -0.27377075 0.343399 -0.13468166 0.18740131
000210 ea d8 31 bf 93 76 62 be 85 c7 26 be 0e bc be be
       -0.6947161 -0.22115545 -0.16287048 -0.3725285
000220 2e 7c 4b 3e d5 4f 24 bf e2 7b 72 be 0a 8c 6a be
       0.1987159 -0.64184314 -0.2368007 -0.22904983
000230 30 ce 05 bf 4e 5f 5b 3e 61 1d 3c be 64 d5 37 3e
       -0.5226774 0.21423075 -0.18370582 0.17952496
000240 3b 50 cc 3e 1f 32 35 3f ad 2a 4c bd 99 e5 14 3e
       0.3990496 0.70779604 -0.049845386 0.1454071
000250 65 49 00 3f a2 d5 57 bd dd c6 1e be e3 4c 02 bd
       0.5011199 -0.05269397 -0.15505548 -0.031811606
000260 a9 8f bf 3d 06 de fa 3e af 3c 34 bf 08 4e 80 3e
       0.09353573 0.48997515 -0.70405096 0.25059533
000270 0f 79 63 3e ef 33 c7 be 55 2f 42 3d cc 8c 80 3e
       0.22214149 -0.3890681 0.04740842 0.2510742
000280 2e ad 59 3d f0 5a db 3e 7a 71 50 3e 6a 39 26 bf
       0.053143673 0.42842817 0.20355788 -0.64931357
000290 bd ed 03 be a2 c8 a4 3e 41 2e 8e be fa 2a 7c 3e
       -0.12883659 0.3218432 -0.27769664 0.2462577
0002a0 11 48 08 3e e1 d8 bf bd 50 73 86 3b 49 e7 f8 3d
       0.13308741 -0.09367538 0.004103102 0.12153489
0002b0 a3 48 ca be 39 93 d9 3e cc 4b 71 3e 5b e0 a5 3e
       -0.39508542 0.42495134 0.2356407 0.32397732
0002c0 b9 b1 13 3f 5b a9 ff bd ac bc d0 be a3 f7 d7 3c
       0.5769306 -0.12483474 -0.40768945 0.0263632
0002d0 f6 46 80 be f0 b3 50 3e e9 62 35 3f 5b 06 02 bf
       -0.2505414 0.2038114 0.7085405 -0.5079095
0002e0 49 08 00 be ff 32 11 3f b4 fa eb be 80 0a cc bd
       -0.1250316 0.5671844 -0.4608971 -0.0996294
0002f0 0f 44 e1 3e 8f 8c ce 3e d6 3e ad bd f4 fc 7e be
       0.43997237 0.40341613 -0.08459251 -0.24901181
000300 05 17 38 be 92 89 04 bf 33 53 cf be 03 7b 0a bf
       -0.17977531 -0.51772416 -0.40493163 -0.5409395
000310 cc 65 f6 3e b0 42 9a 3e cb 75 af 3e ed 7e 14 be
       0.4812454 0.30129004 0.34269556 -0.14501543
000320 ab dd bb 3e 7a 2d 62 be ed 09 9d 3e 8f f3 48 be
       0.36692557 -0.2208766 0.30671635 -0.1962416
000330 02 0e 8b be f1 85 a7 be 6c b0 a1 be ca 49 07 bf
       -0.27159125 -0.32719377 -0.31579912 -0.5284697
000340 35 cd 8a 3d 73 e1 c7 be 33 6c d6 3d df 78 bc 3e
       0.067774214 -0.39039192 0.10469856 0.36810967
000350 52 45 87 bd 96 5c 8f 3e e5 1e 01 3a 7f 04 5d 3e
       -0.06605019 0.28000325 0.0004925563 0.21583746
000360 1c a3 be be f9 8c 80 bd fb 01 45 be 04 14 a3 3e
       -0.37233818 -0.062768884 -0.19239037 0.31851208
000370 68 aa 04 bf 96 26 a6 be 1e 6f c7 bd 15 10 33 3f
       -0.5182252 -0.32451314 -0.09737991 0.69946414
000380 1a 02 c8 3e 19 20 07 bf 39 ff 13 bf f9 a0 b7 3e
       0.39064103 -0.5278335 -0.57811314 0.35865
000390 e4 51 ac 3d ab 2f fd be 3b 66 7d be c7 3b 81 3e
       0.08414057 -0.4945043 -0.24746029 0.2524092
0003a0 84 d6 97 be bf 67 0c bf 9c 82 b6 be 1e d7 25 be
       -0.2965585 -0.54845804 -0.35646522 -0.16195342
0003b0 8d 94 4a be 0d 81 a3 3e 77 ed 8d 3e 10 01 e4 be
       -0.1978323 0.31934395 0.27720234 -0.4453206
0003c0 7d 07 70 be 2e 3b e4 be 53 17 6a 3e 9c 59 41 3f
       -0.23440357 -0.445764 0.2286046 0.7552736
0003d0 c8 a8 0f 3f 72 b3 f1 3d b1 93 49 be 4d ce 6b bc
       0.56116915 0.118018046 -0.19685246 -0.014392448
0003e0 41 4c 55 3e 48 29 38 bf 38 b3 af bd 59 48 f0 be
       0.2082987 -0.7193799 -0.08579105 -0.46930197
0003f0 8f 16 4c bf ef 14 9e bc 56 26 a7 be c3 40 bb be
       -0.7972192 -0.019297091 -0.32646435 -0.36572847

fc2.weight f4 [64, 256]
000000 52 f9 30 3e 24 76 79 3e 50 43 1c 3c fc 0d 1f be
       0.17282608 0.24361473 0.009537533 -0.15532678
000010 7c 97 84 3e 7c c8 22 be dd 2d 96 bb 20 9d ac bc
       0.25896823 -0.15896791 -0.004583104 -0.021071017
000020 ae 76 3c 3d e9 58 aa 3e 46 5f f1 3c f8 16 8f bc
       0.04601162 0.33270958 0.029464375 -0.017467007
000030 b2 7c 8a 3d b6 0c 9d be e0 07 75 3d 37 cf 2c 3e
       0.06762065 -0.3067376 0.059821963 0.16875921
000040 c4 c9 47 bd 06 ff 40 3d b6 be 1a 3c 9c 3f 5e 3d
       -0.048776403 0.04711821 0.009444883 0.05425988
000050 28 a4 81 be 71 b5 10 3e 6a 9c 19 3d c8 03 6d 3c
       -0.25320554 0.14131714 0.037502684 0.014466234
000060 3f 27 5e 3d 8d fe ad bc e7 6c 02 bf 76 50 6b bd
       0.054236647 -0.021239543 -0.5094742 -0.05744978
000070 f4 e0 0d 3e 6c 77 e4 3d 7e 79 8c 3e 0a 4b 9e be
       0.13855344 0.111555904 0.2743644 -0.30916625
000080 ea 33 65 3d ed 91 22 be f7 99 12 bd ea 18 b0 be
       0.055957712 -0.15875979 -0.035791364 -0.34394008
000090 49 69 e8 3d 66 4b 54 3d 3a 39 c8 bd b3 1b ea 3d
       0.113482065 0.051829718 -0.0977654 0.114310645
0000a0 f2 c8 6e bd f0 5d ea bb 40 88 58 bb ef 7c 21 3e
       -0.058297105 -0.0071523115 -0.0033040196 0.15770315
0000b0 ff b3 26 bd 19 f8 db 3c 7a 38 66 3d aa b6 66 3d
       -0.040699 0.0268517 0.056206204 0.056326546
0000c0 7f 65 ca bb b0 9e 22 bd 10 c2 54 be 96 ec 47 bd
       -0.00617665 -0.039702117 -0.20777154 -0.04880961
0000d0 28 62 8c bc 34 8a 78 3d 84 34 2b 3d ee df b7 3d
       -0.017136648 0.060678676 0.04179813 0.08978258
0000e0 f4 d5 70 3d 89 22 be 3d 20 e1 97 3d 18 1c 2a 3d
       0.05879779 0.09283931 0.07415986 0.0415307
0000f0 d2 0d 70 3d 18 9b 2f 3c ce 05 4f bd a2 97 be be
       0.05860693 0.01071813 -0.050542645 -0.37225062
000100 fe 44 04 bd d8 4b 53 3d 7c 07 0e 3e ac d9 95 3c
       -0.03229236 0.051586002 0.13870043 0.01829227
000110 bc 2c d9 bc 92 8b 3c bd f7 b5 c9 3d 51 2c 1b bc
       -0.026510589 -0.046031542 0.0984916 -0.009471015
000120 e4 cb 8e 3d a2 d5 62 3e 20 d6 75 bc 00 23 77 3a
       0.06972483 0.22151807 -0.015004665 0.00094275177
000130 9c 4e 0d 3d c8 02 c5 3c c0 e2 43 bd 7b 49 ea 3c
       0.034498796 0.024049178 -0.047823668 0.028599491
000140 b0 bb fd bc 00 12 a3 3d 98 88 fd 3c 8b 61 75 3d
       -0.030973285 0.079624176 0.030948922 0.059907477
000150 1c 6d ef 3d 9a 51 93 be 98 d1 7f bd de ee ed 3d
       0.11690733 -0.28773195 -0.062455744 0.11617826
000160 da a9 2f bd f0 be 08 3c 18 ed a2 3d e1 30 7d 3e
       -0.042886592 0.008346304 0.07955378 0.24725677
000170 ac e7 2e bd a2 d1 7a bd d8 41 94 3d 08 03 25 3c
       -0.04270141 -0.061235078 0.07239121 0.0100715235
000180 02 88 3b 3d 02 df 3e 3a 4c 28 45 3d e8 9f a1 3c
       0.045784004 0.00072811556 0.048134133 0.01972957
000190 d0 51 92 bc 80 84 58 bc dc ff 0b bd 84 76 b9 3d
       -0.017861277 -0.013215184 -0.034179553 0.09055808
0001a0 66 08 32 bd 60 07 b0 3c 8a 97 a1 3d b4 3b 59 3d
       -0.04346504 0.021487892 0.07890232 0.053035453
0001b0 4e 3d 1e 3e f5 3c 71 3e e0 32 eb 3c 10 38 a7 bb
       0.15453073 0.2355841 0.028710783 -0.0051031187
0001c0 1e b2 69 3d f3 03 39 3d bd 31 bd be 22 59 42 3d
       0.05705463 0.045169782 -0.3695201 0.047448285
0001d0 b8 fe 78 bd 9b 1d 8f 3e b6 3d 75 3d 66 c5 a6 bc
       -0.060789794 0.27952275 0.059873305 -0.020357799
0001e0 70 87 28 3c 92 1d 34 be c0 0f 22 bd 88 95 e7 bc
       0.010286197 -0.17589405 -0.0395658 -0.028269544
0001f0 05 22 41 3d 6b 58 9e 3d 53 48 0e 3d 20 c3 e0 3b
       0.047151584 0.07731708 0.034736942 0.006859198
000200 9c 92 26 bd 7c e1 73 bc 8a cf 83 bc f2 b1 90 be
       -0.04066716 -0.014885303 -0.016090173 -0.28260761
000210 d5 08 1c 3e ab 0d 1f 3e fe 57 0e bd 7c 66 88 bc
       0.15237744 0.15532558 -0.034751885 -0.01665043
000220 42 5a 15 3c 2f 01 05 3e c2 ad bf 3d 62 81 cc 3d
       0.009115757 0.12988733 0.093593135 0.09985615
000230 3c 55 be bc 7c 21 be 3d 5c 30 39 bd ec fc a3 3c
       -0.023234002 0.092837304 -0.045212135 0.020018063
000240 97 0f ed bd fe 65 eb be 77 90 c2 3c 53 fa e7 3d
       -0.11575239 -0.4597625 0.023750527 0.113270424
000250 dc 2b 62 bc 3a 50 bf 3d e4 d9 31 3c 37 6a e5 bd
       -0.013804402 0.09341474 0.010855172 -0.112018995
000260 10 66 d2 3c 0b 21 a3 be 78 d5 b9 3d 30 10 88 3d
       0.025683433 -0.31861147 0.09073919 0.066437125
000270 2f 23 da be e5 8f 95 be 4b ad 41 3d 59 62 db 3c
       -0.42604968 -0.29211345 0.047284406 0.026780294
000280 47 63 0b 3e 04 16 d8 3b 05 fa c3 be 89 e3 07 3e
       0.1361209 0.0065944213 -0.38276687 0.13270392
000290 f5 4c 77 3e 04 76 d8 3a a8 80 5c 3d 9c 2f 1f 3d
       0.2415045 0.0016514664 0.053833634 0.038863763
0002a0 c0 c5 fa ba f0 ae e4 bc 60 c3 87 3b 3b 57 8e 3d
       -0.001913242 -0.027915448 0.0041431636 0.06950232
0002b0 a6 2b 22 3d 3c af 5c 3d a7 41 37 3d e0 48 cb 3c
       0.039592408 0.053878054 0.044740345 0.024815023
0002c0 70 e9 c0 3c da a1 8c 3d dc 9e f8 3c b4 1d a3 3c
       0.023548812 0.06866808 0.030349188 0.019911624
0002d0 77 8a 58 3e a4 96 70 bd c7 fe a9 be 40 21 06 3e
       0.2114657 -0.058737412 -0.33202192 0.13098621
0002e0 48 43 e0 3d 2c 46 d7 bd 94 be 2c 3d 5c 22 ae 3c
       0.10950333 -0.10511431 0.042173937 0.021256618
0002f0 1a 9e 38 bd 20 1b 73 3b 68 58 ff 3d a4 79 13 3d
       -0.045072652 0.0037095025 0.12468034 0.036004677
000300 b6 31 bd 3e 44 72 ca bc e2 64 60 be a4 a9 4f bd
       0.3695199 -0.02471269 -0.21913484 -0.05069889
000310 9c ff cd bc 08 f8 f4 bc 2b 46 e4 bd 92 bc 11 3d
       -0.025146298 -0.029903427 -0.11146196 0.035580225
000320 66 cf 5f 3d a2 79 0a 3e 63 b0 ab bc 05 9f 84 3d
       0.05464115 0.13522962 -0.020958131 0.06475643
000330 4c c7 c2 bc f5 c4 8b 3c fa e4 d9 3d 68 f4 30 3d
       -0.023776673 0.01706169 0.10639377 0.043201834
000340 df a3 63 3d 11 df d0 3d e2 52 f5 3d 1c 41 9b bc
       0.0555762 0.101987965 0.11978699 -0.018951945
000350 5c a1 aa 3d 0c d9 89 bc 32 1c 0f 3c db 9d e8 3d
       0.08331558 -0.016827129 0.00873475 0.113582335
000360 40 0a 0c 3c 1d 35 1c 3e 58 94 d2 3c 9c 71 31 bc
       0.008547366 0.15254636 0.025705501 -0.010830309
000370 a8 9c b9 bc fe cd 32 bd 79 0e 23 3e 20 f7 d0 be
       -0.022657707 -0.04365348 0.1592349 -0.4081354
000380 72 9c 4b bd e2 99 49 3e aa fd 96 3e 0f f9 ce 3d
       -0.049709745 0.19687608 0.29490405 0.10106098
000390 7c 46 30 3d a0 43 44 bd 95 5b 50 3e 54 f4 22 3d
       0.04303597 -0.047916055 0.20347436 0.03978379
0003a0 64 1e 92 3e f1 2c 50 3e 72 ab 3a 3d 0e 50 9d be
       0.2853881 0.20329644 0.04557366 -0.3072514
0003b0 7e 7c 44 3e 59 1f cd bd d8 c0 d5 bc 97 78 8d 3d
       0.19188115 -0.10015745 -0.026092932 0.06907766
0003c0 da 70 c0 3d f0 c9 a1 bb e9 64 0d 3e fd 34 9a bd
       0.09396525 -0.004937403 0.13808025 -0.07529638
0003d0 7c dd 05 bd 54 63 8c 3c 05 26 14 3e c0 be 94 ba
       -0.032681927 0.017137207 0.14467628 -0.0011348352
0003e0 34 b8 28 3d 84 57 ed 3d 6a 1d b5 bc d4 57 fd bc
       0.041191295 0.11588958 -0.022108752 -0.030925669
0003f0 ba 8b 21 3d 94 5a 59 bd 25 ba 69 3e e6 2f 1e bd
       0.039439894 -0.053064898 0.22824915 -0.0386199

fc2.bias f4 [64]
000000 80 b1 93 bd 66 e6 dc bc 24 67 b1 bc 54 99 db 3c
       -0.0721159 -0.026965331 -0.021655627 0.026806511
000010 ef 0b 2f bd 70 cd 93 3c ee 67 4d 3d 90 4c 5a 3d
       -0.04273599 0.018042296 0.050147943 0.053295672
000020 d6 cd d3 bd 70 45 37 3c 7a 00 00 3d ac c3 24 bd
       -0.103419945 0.011185989 0.031250454 -0.04022567
000030 78 05 38 bc 72 49 14 be cc ba 92 bd 44 c0 aa 3c
       -0.011231773 -0.14481142 -0.07164535 0.020843633
000040 3a 01 4c 3d 5f 09 aa bd 0a 38 0a be f0 44 db bd
       0.049805857 -0.08302569 -0.1349794 -0.10706508
000050 8c f3 01 be 1b 78 e0 bc f8 e7 53 3c da 18 04 be
       -0.12690562 -0.02740102 0.012933724 -0.12900105
000060 00 d4 d5 3b c0 c9 52 3c 08 25 15 bd c0 5a da 3b
       0.0065255165 0.012865484 -0.03641227 0.0066636503
000070 69 8d 67 bd ff 6e 23 3d dc a1 58 bd b0 ce 81 bb
       -0.056531344 0.039900776 -0.052888736 -0.0039614066
000080 57 f7 2b bb 3d 9b 54 bd e8 a3 87 bd 30 26 37 3c
       -0.0026239955 -0.05190586 -0.066230595 0.011178538
000090 22 16 24 bd 44 fe a1 bc 6e 59 4e bd 00 f5 52 ba
       -0.04006017 -0.019774564 -0.050378256 -0.0008047372
0000a0 24 c0 5f bd 25 de 73 bd 04 bc 6d 3d 32 84 34 3d
       -0.0546266 -0.059538025 0.058040634 0.044071384
0000b0 54 94 03 be 78 bd 9f 3c e9 a1 e6 bd 63 40 ff bd
       -0.12849551 0.019499525 -0.11261351 -0.12463453
0000c0 7c 5e 76 bc 88 18 0a 3d 60 da 3c 3c e7 44 2b be
       -0.015037175 0.0337148 0.011526674 -0.16725503
0000d0 07 45 1f bd d2 e1 03 3d 8d 23 cc 3c 80 db e3 3c
       -0.03888419 0.03219778 0.024919296 0.027814627
0000e0 73 be 15 bd c1 05 f4 bd 7b eb 81 ba d0 85 11 bd
       -0.03655858 -0.1191516 -0.0009912098 -0.035528004
0000f0 af 6b 2c bd 44 05 d0 3c 10 e1 0c 3d 2b a2 92 bd
       -0.042094883 0.025393136 0.034394324 -0.07159837

fc3.weight f4 [2, 64]
000000 54 9c 1d be 86 c0 b7 3d 70 bd f0 3d a0 81 d3 bc
       -0.15391666 0.08972268 0.11754882 -0.025818646
000010 dc 4b 61 be b0 09 90 bc d0 15 1b 3c ac c4 57 bd
       -0.22001594 -0.017582744 0.00946565 -0.052677795
000020 30 de fe bd 78 b9 33 3d e0 01 89 bd c4 ce 06 3d
       -0.12444723 0.04387805 -0.06689811 0.03291203
000030 84 ac 18 3d 58 9c fd bd 02 56 3d be 15 bb 62 3c
       0.0372739 -0.12383336 -0.1848984 0.013838549
000040 80 6f 89 bc 99 14 77 be 61 b1 71 be a3 c3 99 be
       -0.0167768 -0.24128951 -0.23602821 -0.3003207
000050 32 c0 86 be e3 c2 8e bc 88 b6 14 3d f5 88 4f be
       -0.26318508 -0.017426914 0.036306888 -0.20267089
000060 ac 30 af bd fa 2d c7 bd e8 1e 7c bd c8 a8 6a 3d
       -0.08554205 -0.09725566 -0.061552912 0.05728987
000070 9a 19 88 bd 80 57 42 bd 28 39 74 3d 28 b5 2d 3d
       -0.06645508 -0.047446728 0.05962482 0.042409092
000080 13 92 bc 3c 7a 2e a7 3c 10 13 52 be e0 86 bb 3b
       0.023018872 0.020407904 -0.20515084 0.0057228655
000090 41 37 58 3d 64 d1 5b 3d 56 5a 0a be 56 0a 80 bd
       0.05278707 0.053666487 -0.13511023 -0.062519714
0000a0 ca ea bf bd f6 0a 87 bd f0 25 92 bd 5e bf 88 3d
       -0.09370954 -0.065938875 -0.07136142 0.066771254
0000b0 ca b6 5d be ab e1 b2 3d f8 5e 8e be 92 5b c9 bd
       -0.2165176 0.08734449 -0.2780683 -0.09831919
0000c0 bc 38 de 3d ab 6c 2a bc c1 00 ef 3c 71 1b 70 be
       0.10850665 -0.010401885 0.029175164 -0.23447968
0000d0 90 f5 3b 3d 08 d6 dc 3d ab 44 46 bb c8 da d4 3c
       0.045888484 0.10783011 -0.0030253332 0.02598323
0000e0 d4 65 72 3b c2 a4 04 be b3 27 18 3d fc fd 81 3d
       0.0036986964 -0.12953475 0.037147235 0.06347272
0000f0 34 6c 89 be 7c 42 92 bd a6 bb ff bd a0 b1 5b be
       -0.26840365 -0.07141587 -0.12486963 -0.21454477
000100 8c d0 5e be 67 89 0c be b6 54 a3 3d e0 9c 37 bc
       -0.21759242 -0.1372429 0.07975142 -0.0112068355
000110 bb 2c 65 be e2 95 ce 3d 0a e5 a5 bd 66 31 ae 3d
       -0.22380345 0.10087182 -0.08100326 0.08505516
000120 44 e8 88 be aa a2 bb 3d 1e b3 1e 3d f2 bd 8c 3d
       -0.26739705 0.09161885 0.03874504 0.06872167
000130 38 f2 93 3c f8 3f 7d be ef 39 2f be aa 18 56 3b
       0.018059835 -0.24731433 -0.17111944 0.003266851
000140 6c f5 41 bd a9 13 ea bd 32 c1 12 be f3 2c 19 bd
       -0.047353193 -0.11429531 -0.1433151 -0.037396383
000150 97 8d 0a bd d0 1c 82 bc 00 42 80 3b 50 00 42 be
       -0.033826437 -0.01588288 0.003914118 -0.18945432
000160 a8 83 f4 3d 64 7c b5 bd 6c af 86 3d 10 93 67 3d
       0.11939174 -0.08861616 0.06576428 0.056536734
000170 6e d4 48 bc e5 3e c8 3d 98 4c 89 3d f6 1e f9 bd
       -0.012257678 0.09777621 0.06704062 -0.121641085
000180 16 4e 65 bd 62 e2 82 3d 87 b3 ea bd d0 b2 a0 bc
       -0.05598267 0.06390835 -0.114600234 -0.019616514
000190 68 e8 de 3d eb 78 94 3c 3f 59 67 be 10 32 9f bd
       0.10884172 0.018124064 -0.22592638 -0.077732205
0001a0 12 55 de bd 78 46 99 3c d6 02 ad bd 48 5f e9 bc
       -0.108560696 0.01871036 -0.084478065 -0.028487816
0001b0 7a e3 66 bd 62 db 47 3d 95 97 e1 bc fd 8b 9d be
       -0.056369282 0.048793204 -0.0275381 -0.30770865
0001c0 18 be ca 3d 5c ea fa 3c 31 bb 35 3d c4 5c cb bd
       0.09899539 0.03062933 0.044367973 -0.09929803
0001d0 47 16 dc 3d ae 75 e3 3d f7 e7 50 bc 62 ee cc bd
       0.107464366 0.1110643 -0.012750617 -0.100064054
0001e0 9f 6a 8c 3d ed f9 82 be 0a 9d 99 bc 46 2c ba bb
       0.06856274 -0.25581303 -0.01875164 -0.0056815473
0001f0 e5 ee eb bd 90 a6 78 bc 4c 18 fe bd c1 c2 c9 bd
       -0.11520175 -0.01517643 -0.12406978 -0.098515995

fc3.bias f4 [2]
000000 44 e5 6a 3e bd 49 56 3e
       0.2293902 0.20926566
