checkpoints/dubins3d-discrete-v0__hj_dqn__1__1638911828_evalFalse/dqn_checkpoint_10537.pth (torch, 72343 bytes, 6 tensors)

fc1.weight f4 [256, 3]
0	0x3ec7d64c	0.39030683
1	0xbeb180a8	-0.3466847
2	0xbcd66456	-0.02617089
3	0x3ed25f01	0.41088107
4	0xbf1707e8	-0.5899644
5	0x3f1f38d8	0.6219611
6	0xbdf3409a	-0.11877556
7	0x3e9662ea	0.2937234
8	0x3da46023	0.08026149
9	0xbda48eee	-0.08035074
10	0x3e233cb6	0.15941128
11	0xbead6314	-0.33864653
12	0x3ec1376d	0.377376
13	0xbe31bf69	-0.17358173
14	0x3de70058	0.112793624
15	0xbde8b97b	-0.113635026
16	0x3dae6c4f	0.08516752
17	0xbeb1486c	-0.34625566
18	0x3ed902cc	0.42384946
19	0xbcac2f70	-0.021018714
20	0xbe89278c	-0.26787984
21	0xbeb28872	-0.34869725
22	0xbdc630e4	-0.09677294
23	0xbe7f02f1	-0.24903466
24	0xbe3d7388	-0.18501103
25	0x3ce276a0	0.027644455
26	0x3eb037a4	0.3441745
27	0x3f0431f0	0.516387
28	0xbf02d95a	-0.511129
29	0x3f016726	0.5054802
30	0x3e3514d4	0.17683727
31	0x3ef0bbfc	0.4701842
32	0x3ef30b27	0.47469446
33	0xbf06aaec	-0.52604556
34	0xbf0c87f4	-0.5489495
35	0xbe8e9438	-0.27847457
36	0x3f13aec4	0.57688546
37	0xbe4d40c1	-0.20044233
38	0x3ecdbb9a	0.4018219
39	0xbed84991	-0.42243627
40	0x3f3e1677	0.7425303
41	0x3d39d2b5	0.04536696
42	0x3ed82e3f	0.42222783
43	0xbe398711	-0.1811793
44	0xbe1e0f00	-0.1543541
45	0x3ec3e6be	0.3826198
46	0xbecd3f79	-0.40087488
47	0x3e850c52	0.25985962
48	0xbe2ab716	-0.16671404
49	0xbd81a218	-0.06329745
50	0xbf0e1843	-0.5550577
51	0xbe8cf032	-0.27527004
52	0x3ea06788	0.31328988
53	0xbe0fb57b	-0.14034073
54	0x3f2630cc	0.6491821
55	0x3ec1f9f6	0.37886018
56	0x3c002028	0.007820167
57	0xbec54f6b	-0.38537154
58	0x3eb402e1	0.35158446
59	0x3e377c35	0.17918475
60	0xbee7fc0b	-0.4530948
61	0x3f1a03f5	0.6016229
62	0x3f1cec22	0.6129781
63	0x3f180ac0	0.59391403
64	0xbed718f2	-0.4201122
65	0xbc6b99a5	-0.014379893
66	0xbc373e93	-0.011184352
67	0x3dacb348	0.08432633
68	0xbee056ba	-0.43816167
69	0xbed1c449	-0.40970066
70	0x3ea0cf3f	0.31408116
71	0xbe0aa219	-0.13538398
72	0x3eac2012	0.33618218
73	0xbd98a82f	-0.074539535
74	0x3e9cc7cf	0.30621192
75	0x3d3c92d4	0.046038464
76	0x3d3176d2	0.043326207
77	0xbad7d43d	-0.001646645
78	0xbef7c703	-0.4839402
79	0x3f1ac4a0	0.60456276
80	0x3c8a0f1c	0.016852908
81	0xbedf090e	-0.43561596
82	0x3d0fd0c3	0.0351112
83	0xbdc97de1	-0.098384626
84	0x3ecac7fb	0.39605698
85	0xbee7c926	-0.45270652
86	0xbf1dcc65	-0.61640006
87	0x3efdbe8d	0.4955944
88	0xbe39b5d1	-0.18135764
89	0x3f08f733	0.53502196
90	0x3eb7f999	0.35932615
91	0xbed08e46	-0.40733546
92	0x3e63ad28	0.22234023
93	0x3e886932	0.26642758
94	0xbf0066d1	-0.50156885
95	0xbf301471	-0.6878119
96	0x3e473160	0.19452429
97	0xbd5b9075	-0.05360456
98	0xbeecab8c	-0.4622463
99	0xbe392d99	-0.180838
100	0x3f04acad	0.5182598
101	0xbf1a4c7e	-0.6027297
102	0x3e9fd02a	0.31213504
103	0x3dd4f2ba	0.10397859
104	0xbf233c15	-0.6376355
105	0xbf0fe4a2	-0.5620824
106	0x3f46af02	0.7761079
107	0x3ebcc361	0.36867812
108	0x3edb3f64	0.428218
109	0xbc6d7ff3	-0.0144958375
110	0x3e91669d	0.283986
111	0x3ee27045	0.4422628
112	0x3ed34a7b	0.41267762
113	0xbf028f21	-0.5099965
114	0x3c872400	0.016496658
115	0x3e9c7328	0.30556607
116	0x3e9a4907	0.3013384
117	0x3ec5d1ba	0.3863657
118	0xbf10d9ee	-0.56582534
119	0xbef1bfa5	-0.47216526
120	0xbeb2c5c3	-0.34916505
121	0x3d948b6d	0.07253156
122	0x3f134f09	0.57542473
123	0xbebab9b5	-0.36469808
124	0x3e9d8579	0.30765894
125	0xbea39ce9	-0.3195565
126	0xbf0af728	-0.5428338
127	0xbdfb4f4b	-0.12270983
128	0x3eaa516b	0.33265242
129	0x3f1738c4	0.5907099
130	0xbefc11bb	-0.49232277
131	0x3e918e53	0.28428897
132	0x3ea9d04b	0.33166727
133	0x3e0a35f9	0.13497151
134	0x3e75fc25	0.24021967
135	0x3ee57b5f	0.44820687
136	0x3e8180d4	0.252936
137	0x3d92f265	0.07175139
138	0xbeca23b7	-0.39480373
139	0xbef83c44	-0.4848348
140	0xbe877398	-0.2645538
141	0xbd89afeb	-0.06723007
142	0xbeb530d3	-0.35388812
143	0x3e584b8d	0.2112257
144	0x3e4a7547	0.197713
145	0xbe8adbcd	-0.2712082
146	0x3ea1b2d6	0.31581753
147	0x3dd997c0	0.10624647
148	0x3e4e19f1	0.20127083
149	0x3e516447	0.20448409
150	0xbe85806e	-0.26074547
151	0x3f1bc5f6	0.6084894
152	0xbe99516e	-0.29944938
153	0xbca27df1	-0.019835444
154	0xbf0b81ce	-0.5449494
155	0xbebe414e	-0.371592
156	0xbeacb147	-0.33729002
157	0xbe7cdf66	-0.24694595
158	0x3ed22a3c	0.41047847
159	0xbe4131f4	-0.18866712
160	0xbedce618	-0.43144298
161	0x3e63777a	0.22213545
162	0x3e141f5e	0.1446509
163	0x3e4deecb	0.20110624
164	0xbee661e4	-0.4499656
165	0x3e520cd4	0.20512706
166	0xbe9992a5	-0.29994693
167	0xbe423259	-0.18964519
168	0xbeeb925d	-0.46010104
169	0xbe86b976	-0.2631337
170	0xbe350fc6	-0.17681798
171	0x3ea5e73c	0.3240298
172	0x3c95df80	0.01829505
173	0x3e702507	0.23451625
174	0x3f1c4798	0.61046743
175	0x3ee97e4f	0.45604178
176	0x3ebd8498	0.37015224
177	0x3c969be2	0.018384878
178	0xbecc7ef0	-0.39940596
179	0x3ee70451	0.4512048
180	0xbe13d6d3	-0.14437418
181	0xbd3f2f6d	-0.046676088
182	0xbefea976	-0.49738663
183	0xbde98f7a	-0.11404319
184	0xbebea91a	-0.3723839
185	0x3f07d0da	0.5305306
186	0xbeff8e28	-0.49913144
187	0xbee66aee	-0.45003456
188	0xbca099fa	-0.019604672
189	0xbe911f7a	-0.28344327
190	0x3ebbebaf	0.3670325
191	0xbec0f63e	-0.37687868
192	0xbe8ad75a	-0.27117425
193	0x3d05f02f	0.03269976
194	0x3ed5fc95	0.41794267
195	0xbecfef35	-0.40612188
196	0x3e8ad133	0.2711273
197	0x3ebde867	0.3709137
198	0x3f1d6490	0.6148157
199	0xbf0ad91c	-0.5423753
200	0x3e3ba1b3	0.18323402
201	0xbeda93b9	-0.42690828
202	0x3efc5f15	0.49291292
203	0xbe655532	-0.2239578
204	0x3ea85e8d	0.32884637
205	0xbe0ef74c	-0.13961524
206	0xbdc62ca9	-0.09676487
207	0xbc96e9ae	-0.018421974
208	0x3dc900f5	0.09814636
209	0x3e8b58a4	0.27216065
210	0x3e0c26ab	0.13686626
211	0x3d953152	0.07284798
212	0xbf63eefa	-0.89036524
213	0x3e5e5e3c	0.21715635
214	0x3e79800e	0.24365255
215	0x3e8fb231	0.28065637
216	0x3eeae421	0.45877174
217	0xbf12ea84	-0.5738909
218	0xbe4917b4	-0.19637948
219	0x3f18081b	0.5938737
220	0xbf0b6f1b	-0.5446641
221	0x3f440512	0.76570237
222	0xbee87da8	-0.45408368
223	0xbed039bb	-0.40669045
224	0x3e908394	0.28225386
225	0xbed46344	-0.41481984
226	0xbe077224	-0.13227135
227	0x3ed70c8c	0.4200176
228	0x3eec6789	0.4617274
229	0x3ed2bf04	0.41161358
230	0xbe1cbc36	-0.15306172
231	0xbee5c2c9	-0.44875172
232	0x3f1186f2	0.56846535
233	0xbdfbe28e	-0.12299071
234	0xbe733e42	-0.23754218
235	0x3e101ee7	0.14074288
236	0xbeceb900	-0.4037552
237	0x3edbc12f	0.42920825
238	0x3e822cb9	0.25424746
239	0xbf1606d5	-0.58604175
240	0xbef2cce8	-0.47421956
241	0xbd4f267d	-0.050573815
242	0x3e785265	0.24250181
243	0x3d75a985	0.05997612
244	0xbeb2ed64	-0.3494674
245	0xbe0b82ab	-0.13624065
246	0xbf0aec6e	-0.54267013
247	0xbed0ebc1	-0.40804866
248	0xbec4c7ad	-0.3843359
249	0x3efd73f1	0.4950252
250	0x3ec592d7	0.38588592
251	0xbeab8b50	-0.33504725
252	0x3e129316	0.14313921
253	0x3e74391c	0.2384991
254	0x3db51d1e	0.08843444
255	0xbea69084	-0.32532132

fc1.bias f4 [256]
0	0xbea1eb28	-0.31624722
1	0x3d79aeec	0.060957834
2	0xbee2d755	-0.4430491
3	0x3e87970a	0.2648242
4	0xbf210390	-0.6289606
5	0x3f0a8811	0.5411387
6	0x3e929e0a	0.286362
7	0xbe5303cc	-0.20606917
8	0x3daed7fb	0.08537289
9	0xbec4777a	-0.38372403
10	0xbef4324d	-0.47694626
11	0xbe95b5c6	-0.29240245
12	0xbf04d74b	-0.5189101
13	0x3e9c2d97	0.30503532
14	0xbec589c3	-0.38581666
15	0xbe3c9867	-0.18417512
16	0xbee287af	-0.44244143
17	0xbeb9b761	-0.3627272
18	0xbf337294	-0.7009671
19	0xbed4768b	-0.4149669
20	0x3f3a6377	0.7280802
21	0xbb90e5bf	-0.004421919
22	0xbf0cf553	-0.55061835
23	0xbdc5598a	-0.09636219
24	0xbe3dfa8e	-0.1855261
25	0x3e76d141	0.24103262
26	0x3f5cae2a	0.86203253
27	0x3e0ec315	0.13941605
28	0x3e420f1c	0.18951076
29	0xbedb100e	-0.42785686
30	0xbdfff273	-0.124974154
31	0xbe613206	-0.21991739
32	0xbdf059c4	-0.117358714
33	0x3f35ddae	0.7104138
34	0x3e1c523c	0.15265745
35	0x3f4ddb94	0.80413175
36	0xbf099e24	-0.5375693
37	0xbe98f6fc	-0.29875934
38	0x3e0d093c	0.13773054
39	0x3e4c8d32	0.19975737
40	0xbf07dd88	-0.53072405
41	0xbe912c8f	-0.28354308
42	0x3dab8582	0.08375074
43	0xbf1c3d46	-0.61030996
44	0xbde3f208	-0.11130148
45	0xbe80a9eb	-0.25129637
46	0xbe1932bc	-0.1496076
47	0x3e9e88d8	0.30963778
48	0x3e40724a	0.18793598
49	0x3f14e940	0.5816841
50	0x3eec742b	0.4618238
51	0xbc8157e7	-0.015788985
52	0x3ef1aff0	0.47204542
53	0x3eeb40f7	0.45948002
54	0xbf1e4601	-0.6182557
55	0x3d92cef9	0.07168383
56	0x3d8a8d4c	0.067652315
57	0xbef30fb6	-0.47472924
58	0xbeb30d2e	-0.34970993
59	0xbe0b9a6f	-0.1363313
60	0xbecedafb	-0.40401444
61	0xbe3468fd	-0.17618175
62	0x3e46f204	0.19428259
63	0x3f3c3ef1	0.7353354
64	0x3d33a205	0.043855686
65	0xbf0f21a1	-0.5591069
66	0x3d333b0d	0.043757487
67	0xbe32e3e4	-0.17469746
68	0x3e946275	0.28981367
69	0xbf0ed15b	-0.557882
70	0xbea4b6f0	-0.3217082
71	0x3e7c6368	0.24647295
72	0xbd053356	-0.03251966
73	0xbf08dfd0	-0.5346651
74	0xbefff70e	-0.49993175
75	0xbbcb321b	-0.0062010414
76	0x3c7ec015	0.015548726
77	0xbef568b6	-0.4793145
78	0xbef75ca4	-0.48312867
79	0xbe5fc3d8	-0.21852052
80	0xbdf27f96	-0.11840741
81	0x3e9bab9f	0.30404374
82	0xbf0f35cb	-0.55941457
83	0xbea5966f	-0.32341334
84	0xbf141279	-0.5784069
85	0x3e3dc6ce	0.18532869
86	0xbe9707cd	-0.2949814
87	0xbd507b6c	-0.050898954
88	0xbef749da	-0.48298532
89	0xbee88a27	-0.45417902
90	0xbf0c22b7	-0.5474047
91	0xbf3dec83	-0.74189013
92	0x3eba9ad6	0.36446255
93	0xbda93759	-0.0826251
94	0xbf1cf1bd	-0.61306363
95	0x3ecf2340	0.4045658
96	0xbe06218c	-0.13098735
97	0x3e88b5ce	0.26701206
98	0xbe374491	-0.1789725
99	0xbef750fa	-0.48303968
100	0x3e01d85d	0.12680192
101	0x3eb811d2	0.35951096
102	0xbf101c80	-0.5629349
103	0xbe3bf561	-0.18355323
104	0x3debab0c	0.11507234
105	0x3d87b645	0.06626562
106	0xbe641f2f	-0.2227752
107	0xbe37c612	-0.17946652
108	0xbf15ec9e	-0.58564174
109	0x3c0f6076	0.008751025
110	0xbf1d1ab5	-0.61368877
111	0xbef43dd5	-0.47703424
112	0xbe3dcf02	-0.18535998
113	0xbed1fd4c	-0.41013563
114	0x3eeb12d5	0.45912805
115	0x3ec7ddf8	0.39036536
116	0x3ee5bbe4	0.44869912
117	0xbee2e8b1	-0.44318154
118	0x3e0ab2e1	0.135448
119	0x3ea2beee	0.31786293
120	0x3bd4393d	0.00647655
121	0x3eed0279	0.4629095
122	0x3ea743bb	0.32668862
123	0x3ee22e22	0.44175822
124	0x3e74da77	0.23911463
125	0x3dbe7836	0.09300272
126	0xbedcf16a	-0.43152934
127	0xbea4cf60	-0.32189465
128	0xbe8c2bae	-0.27377075
129	0x3e957713	0.2919241
130	0xbe2f3498	-0.17109907
131	0x3e706582	0.23476222
132	0xbf428a45	-0.7599223
133	0xbe8cefb5	-0.27526632
134	0xbe26c785	-0.16287048
135	0xbebebc0e	-0.3725285
136	0x3e0516a8	0.12996924
137	0xbf3599d7	-0.70937866
138	0xbea0dbad	-0.314176
139	0xbe923b14	-0.28560698
140	0xbf05ce30	-0.5226774
141	0x3e18e1d9	0.14929904
142	0xbe3c1d61	-0.18370582
143	0x3e38a3b5	0.180312
144	0x3edb0f86	0.4278528
145	0x3f4f0047	0.808598
146	0xbe1a2923	-0.15054755
147	0x3dc0a3f1	0.09406269
148	0x3f03ae67	0.5143799
149	0xbddd2aa0	-0.10799146
150	0xbe67b96a	-0.22629324
151	0xbd1b2912	-0.037880965
152	0x3dbf8fa9	0.09353573
153	0x3f0865e1	0.53280455
154	0xbf448a85	-0.76773864
155	0x3e4d5602	0.2005234
156	0x3e68e4ce	0.22743532
157	0xbe94c9e1	-0.2906027
158	0xbd1a964f	-0.037741
159	0x3e3c9720	0.18417025
160	0x3b076ae3	0.0020663075
161	0x3edb5dfc	0.42845142
162	0x3e9e1981	0.30878833
163	0xbf36a78a	-0.71349394
164	0xbe39cd8e	-0.18144819
165	0x3e77853d	0.2417192
166	0xbe8e2e41	-0.27769664
167	0x3e7c2afa	0.2462577
168	0x3e084811	0.13308741
169	0xbdbfd8e1	-0.09367538
170	0x3b867350	0.004103102
171	0x3d3b6b0f	0.045756396
172	0xbeca48a3	-0.39508542
173	0x3ec446d1	0.3833528
174	0x3e34070b	0.17580812
175	0x3ea5e05b	0.32397732
176	0x3f13b1b9	0.5769306
177	0xbe63efb4	-0.22259408
178	0xbed0bcac	-0.40768945
179	0x3cd7f7a3	0.0263632
180	0xbe9b9e11	-0.30394033
181	0x3e50b3f0	0.2038114
182	0x3f394a12	0.7237865
183	0xbf1248ba	-0.5714222
184	0xbe36f023	-0.17865042
185	0x3f15ea29	0.58560425
186	0xbeebfab4	-0.4608971
187	0xbdcc0a80	-0.0996294
188	0x3ec8da09	0.39228848
189	0x3ece8c8f	0.40341613
190	0xbe17f865	-0.14840849
191	0xbe7efcf4	-0.24901181
192	0xbe75cd95	-0.24004205
193	0xbf048992	-0.51772416
194	0xbea39bcf	-0.3195481
195	0xbf0a7b03	-0.5409395
196	0x3edda1eb	0.43287596
197	0x3e386f86	0.18011293
198	0x3ebc8e6c	0.3682741
199	0xbe147eed	-0.14501543
200	0x3e963edb	0.2934483
201	0xbe8d66d9	-0.2761753
202	0x3e5d78f8	0.21628177
203	0xbe8796d8	-0.26482272
204	0xbe8b0e02	-0.27159125
205	0xbecc5a2e	-0.39912552
206	0xbec6f83b	-0.3886126
207	0xbf0749ca	-0.5284697
208	0xbd156e2c	-0.03648202
209	0xbee6375e	-0.44964117
210	0x3d333e6f	0.043760713
211	0x3ebc78df	0.36810967
212	0xbdc29b21	-0.09502245
213	0x3e8f5c96	0.28000325
214	0xbdae18c3	-0.08500817
215	0x3e2d45da	0.16921178
216	0xbebea31c	-0.37233818
217	0xbdec34c1	-0.115334995
218	0xbe4501fb	-0.19239037
219	0x3e769113	0.24078779
220	0xbf04aa68	-0.5182252
221	0xbea62696	-0.32451314
222	0xbe1db2c9	-0.15400232
223	0x3f4ee015	0.8081067
224	0x3ec8021a	0.39064103
225	0xbf1561ba	-0.58352244
226	0xbf21a373	-0.6314003
227	0x3e9866ac	0.29765832
228	0x3dac51e4	0.08414057
229	0xbefd2fab	-0.4945043
230	0xbe9af216	-0.30262822
231	0x3e813bc7	0.2524092
232	0xbeb14451	-0.34622434
233	0xbf1aaa69	-0.60416275
234	0xbeb6829c	-0.35646522
235	0xbd884b6d	-0.06655011
236	0xbe818563	-0.25297078
237	0x3eb2af40	0.3489933
238	0x3e8ded77	0.27720234
239	0xbf02e196	-0.51125467
240	0xbea2c8bd	-0.31793776
241	0xbee43b2e	-0.445764
242	0x3e3f818f	0.18701766
243	0x3f49b9fa	0.787994
244	0x3f0fa8c8	0.56116915
245	0x3d08c8df	0.03339469
246	0xbe81b9ad	-0.25336972
247	0xbc6bce4d	-0.014392448
248	0x3e554c41	0.2082987
249	0xbf4b0d55	-0.7931722
250	0xbe529169	-0.20563282
251	0xbef04859	-0.46930197
252	0xbf5f733b	-0.872852
253	0xbc9e14ef	-0.019297091
254	0xbec285c7	-0.3799269
255	0xbebb40c3	-0.36572847

fc2.weight f4 [64, 256]
0	0x3e5e2713	0.21694593
1	0x3e5246ca	0.20534816
2	0x3c1c4350	0.009537533
3	0xbe029428	-0.1275183
4	0x3eb77d77	0.3583791
5	0xbe2f4aa3	-0.17118315
6	0x3c391556	0.011296591
7	0xbcac9d20	-0.021071017
8	0x3d3c76ae	0.04601162
9	0x3ebb9248	0.3663504
10	0x3d6ca325	0.057772774
11	0xbc8f16f8	-0.017467007
12	0x3ddb9880	0.107224464
13	0xbf027b3e	-0.509693
14	0x3dd6382a	0.10459931
15	0x3e3d5aa3	0.18491606
16	0xbd47c9c4	-0.048776403
17	0x3d40ff06	0.04711821
18	0x3d585bec	0.05282204
19	0x3d5e3f9c	0.05425988
20	0xbedf857c	-0.43656528
21	0x3e25b7ea	0.16183439
22	0x3d199c6a	0.037502684
23	0x3c6d03c8	0.014466234
24	0x3d95e87b	0.07319733
25	0xbc3b270e	-0.011422886
26	0xbf71cb8b	-0.94451207
27	0xbd6b5076	-0.05744978
28	0x3e216dcc	0.1576454
29	0x3e1300dc	0.14355797
30	0x3e90c592	0.28275734
31	0xbedb3c2e	-0.4281935
32	0x3dbe52e7	0.09293156
33	0xbe1ca42b	-0.15297
34	0xbc326daa	-0.010890404
35	0xbf19592a	-0.5990168
36	0x3e208411	0.1567538
37	0x3db2121f	0.086948626
38	0xbdb240dc	-0.08703777
39	0x3e006a47	0.12540542
40	0xbd6ec8f2	-0.058297105
41	0xbbea5df0	-0.0071523115
42	0xbb588840	-0.0033040196
43	0x3e5b5951	0.2142079
44	0xbcd7aee4	-0.026328512
45	0x3d601b8f	0.054713782
46	0x3d66387a	0.056206204
47	0x3d66b6aa	0.056326546
48	0xbcfbe578	-0.030749068
49	0xbd111468	-0.03541985
50	0xbe4e61c4	-0.20154482
51	0xbd47ec96	-0.04880961
52	0xbc8c6228	-0.017136648
53	0x3d788a34	0.060678676
54	0x3e0c86e3	0.1372333
55	0x3dc0ae43	0.09408238
56	0x3d70d5f4	0.05879779
57	0x3e0c1509	0.136799
58	0x3dd050b8	0.10171646
59	0x3d2a1c18	0.0415307
60	0x3d700dd2	0.05860693
61	0x3c2f9b18	0.01071813
62	0xbd4f05ce	-0.050542645
63	0xbed0c372	-0.40774113
64	0xbd0444fe	-0.03229236
65	0x3d534bd8	0.051586002
66	0x3e1c03b2	0.15235785
67	0x3c95d9ac	0.01829227
68	0xbc9006ea	-0.017581422
69	0xbd3c8b92	-0.046031542
70	0x3e3dc1f0	0.18531013
71	0x3aa4e7fc	0.0012581344
72	0x3db7493a	0.08949514
73	0x3e840623	0.25785932
74	0xbc75d620	-0.015004665
75	0x3a772300	0.00094275177
76	0x3d6c116b	0.0576338
77	0x3cc502c8	0.024049178
78	0xbd43e2c0	-0.047823668
79	0x3d83f75c	0.064436644
80	0xbcfdbbb0	-0.030973285
81	0xbd041ed0	-0.032255948
82	0x3cfd8898	0.030948922
83	0x3dc070b9	0.093965
84	0x3e5b958f	0.21443771
85	0xbef3b763	-0.4760085
86	0xbd7fd198	-0.062455744
87	0x3dff7090	0.124726415
88	0xbd2fa9da	-0.042886592
89	0x3c08bef0	0.008346304
90	0x3e0bc029	0.13647522
91	0x3ea60503	0.324257
92	0xbd2ee7ac	-0.04270141
93	0xbd7ad1a2	-0.061235078
94	0x3dfcce9a	0.123440936
95	0x3c250308	0.0100715235
96	0x3d3b8802	0.045784004
97	0x3a3edf02	0.00072811556
98	0x3d45284c	0.048134133
99	0x3ca19fe8	0.01972957
100	0xbc9251d0	-0.017861277
101	0xbc588480	-0.013215184
102	0xbd0bffdc	-0.034179553
103	0x3df46e95	0.11935154
104	0xbd320866	-0.04346504
105	0x3cb00760	0.021487892
106	0x3de3fcec	0.111322254
107	0x3d593bb4	0.053035453
108	0x3e722865	0.23648222
109	0x3e79a7b4	0.2438038
110	0x3d857292	0.06515993
111	0xbba73810	-0.0051031187
112	0x3d69b21e	0.05705463
113	0x3d3903f3	0.045169782
114	0xbf158a2d	-0.58413965
115	0x3d425922	0.047448285
116	0xbd78feb8	-0.060789794
117	0x3eb6557d	0.35612097
118	0x3d903b44	0.07042554
119	0xbb71777c	-0.00368449
120	0x3c288770	0.010286197
121	0xbe3659f3	-0.1780775
122	0xbd220fc0	-0.0395658
123	0xbce79588	-0.028269544
124	0xbe1077a2	-0.14108136
125	0xbbe2c7b5	-0.0069207796
126	0x3da9d032	0.08291663
127	0x3be0c320	0.006859198
128	0xbd26929c	-0.04066716
129	0xbc2dcb05	-0.010607486
130	0x3d0f0bea	0.03492347
131	0xbedc8db5	-0.43076864
132	0x3e4b1912	0.19833782
133	0x3e2b6164	0.1673637
134	0xbd0e57fe	-0.034751885
135	0xbc88667c	-0.01665043
136	0x3c7552b7	0.014973334
137	0x3e57d658	0.2107786
138	0x3e17dda9	0.1483065
139	0x3e0c62bf	0.13709544
140	0xbcbe553c	-0.023234002
141	0x3dd71357	0.10501736
142	0xbd39305c	-0.045212135
143	0x3d3955c4	0.045247808
144	0xbdf45ea3	-0.11932113
145	0xbf4463d7	-0.76714844
146	0x3d71e1db	0.059053283
147	0x3dc4e8b0	0.09614694
148	0x3b98ab6a	0.004659106
149	0x3e0537d8	0.13009584
150	0x3beb7237	0.0071852463
151	0xbdbeb2b2	-0.09311427
152	0x3cd26610	0.025683433
153	0xbe9e24cc	-0.3088745
154	0x3e1a4472	0.15065172
155	0x3d65d900	0.05611515
156	0xbf0c5e0b	-0.54831
157	0xbef5d9a3	-0.48017606
158	0x3da01423	0.07816341
159	0x3d55ffb7	0.05224582
160	0x3e0682ad	0.13135786
161	0x3cef2ca1	0.029196085
162	0xbf2036b0	-0.62583447
163	0x3e52da41	0.2059107
164	0x3e86d28e	0.26332515
165	0x3cba18f1	0.022716971
166	0x3d5c80a8	0.053833634
167	0x3d1f2f9c	0.038863763
168	0xbafac5c0	-0.001913242
169	0xbce4aef0	-0.027915448
170	0x3b87c360	0.0041431636
171	0x3dc98277	0.09839337
172	0x3d222ba6	0.039592408
173	0x3d53e1eb	0.051729124
174	0x3d63da60	0.05562818
175	0x3ccb48e0	0.024815023
176	0x3cc0e970	0.023548812
177	0x3db3318d	0.087496854
178	0x3cf89edc	0.030349188
179	0x3ca31db4	0.019911624
180	0x3e8285aa	0.25492603
181	0xbd7096a4	-0.058737412
182	0xbf0263e5	-0.50933677
183	0x3e4b635e	0.19862124
184	0x3e13ba40	0.14426517
185	0xbdb2aed9	-0.08724756
186	0x3d2cbe94	0.042173937
187	0x3cae225c	0.021256618
188	0xbcf5b9f0	-0.029995888
189	0x3b731b20	0.0037095025
190	0x3e239a23	0.15976767
191	0x3d1379a4	0.036004677
192	0x3eb36136	0.35035104
193	0xbcca7244	-0.02471269
194	0xbeb19d5b	-0.34690365
195	0xbd4fa9a4	-0.05069889
196	0xbc0dbcc8	-0.008650966
197	0xbca307fa	-0.019901264
198	0xbdc086a9	-0.094006844
199	0x3d11bc92	0.035580225
200	0x3d599ae8	0.053126246
201	0x3e3f8a8b	0.18705194
202	0x3b130903	0.0022435791
203	0x3dd6d758	0.10490292
204	0xbcc2c74c	-0.023776673
205	0x3d3e148f	0.046406325
206	0x3e0e4cdd	0.13896509
207	0x3d30f468	0.043201834
208	0x3da438cf	0.08018648
209	0x3e04b910	0.1296122
210	0x3e0c0957	0.13675438
211	0xbc9b411c	-0.018951945
212	0x3e140b10	0.14457345
213	0xbc89d90c	-0.016827129
214	0x3cd6af86	0.026206743
215	0x3d2e073d	0.04248737
216	0x3c0c0a40	0.008547366
217	0x3e3c21f9	0.18372335
218	0x3cd29458	0.025705501
219	0x38b4f915	8.629464e-05
220	0xbcb99ca8	-0.022657707
221	0xbd32cdfe	-0.04365348
222	0x3e4740ef	0.19458364
223	0xbf54c543	-0.831135
224	0xbd4b9c72	-0.049709745
225	0x3e8fc6ed	0.28081456
226	0x3eb56219	0.35426405
227	0x3de1e40e	0.11029826
228	0x3d30467c	0.04303597
229	0xbd4443a0	-0.047916055
230	0x3e822fe8	0.25427175
231	0x3d22f454	0.03978379
232	0x3e98a478	0.2981298
233	0x3e8aa67c	0.27080142
234	0x3d3aab72	0.04557366
235	0xbefc09b9	-0.49226168
236	0x3e686a1b	0.22696726
237	0xbd8aafdb	-0.06771823
238	0xbcd5c0d8	-0.026092932
239	0x3e147de3	0.14501147
240	0x3dfed76b	0.124434315
241	0xbba1c9f0	-0.004937403
242	0x3d90cc52	0.07070221
243	0xbdbadf92	-0.09124674
244	0xbd05dd7c	-0.032681927
245	0x3d45c832	0.048286624
246	0x3e4a1a05	0.19736488
247	0xba94bec0	-0.0011348352
248	0x3d28b834	0.041191295
249	0x3e328682	0.17434123
250	0xb98c878b	-0.00026803868
251	0xbcfd57d4	-0.030925669
252	0x3dd5c995	0.10438839
253	0xbd595a94	-0.053064898
254	0x3e8bdb43	0.2731572
255	0xbd1e2fe6	-0.0386199

fc2.bias f4 [64]
0	0xbdf17306	-0.11789517
1	0xbcdce666	-0.026965331
2	0xbcb16724	-0.021655627
3	0x3cdb9954	0.026806511
4	0xbd9f6f7f	-0.07784938
5	0x3c93cd70	0.018042296
6	0x3d4d67ee	0.050147943
7	0x3d5a4c90	0.053295672
8	0xbe1c3123	-0.15253119
9	0x3c374570	0.011185989
10	0x3d00007a	0.031250454
11	0xbd24c3ac	-0.04022567
12	0xbc380578	-0.011231773
13	0xbe43c233	-0.1911705
14	0xbde8404c	-0.11340389
15	0x3caac044	0.020843633
16	0x3d4c013a	0.049805857
17	0xbde416c4	-0.11137155
18	0xbe297bcb	-0.1655113
19	0xbe0147f8	-0.1262511
20	0xbe15788c	-0.14596766
21	0xbce0781b	-0.02740102
22	0x3c53e7f8	0.012933724
23	0xbe2a93e9	-0.16657986
24	0x3bd5d400	0.0065255165
25	0x3c52c9c0	0.012865484
26	0xbd152508	-0.03641227
27	0x3bda5ac0	0.0066636503
28	0xbd678d69	-0.056531344
29	0x3d236eff	0.039900776
30	0xbd58a1dc	-0.052888736
31	0xbb81ceb0	-0.0039614066
32	0xbb2bf757	-0.0026239955
33	0xbd549b3d	-0.05190586
34	0xbdc8d1cf	-0.09805643
35	0xbd286bc8	-0.041118413
36	0xbd241622	-0.04006017
37	0xbca1fe44	-0.019774564
38	0xbdc53519	-0.09629268
39	0xba52f500	-0.0008047372
40	0xbdfbfeb5	-0.12304441
41	0xbd73de25	-0.059538025
42	0x3bc3855b	0.005966825
43	0x39d60b0c	0.0004082549
44	0xbe1b8637	-0.15187918
45	0x3c9fa1d4	0.019486345
46	0xbe09b1b3	-0.13446693
47	0xbe30c5b5	-0.17262919
48	0xbc765e7c	-0.015037175
49	0x3d0a1888	0.0337148
50	0x3c3cda60	0.011526674
51	0xbe484041	-0.19555761
52	0xbd1f4507	-0.03888419
53	0x3d03e1d2	0.03219778
54	0x3ccc238d	0.024919296
55	0x3ce3db80	0.027814627
56	0xbd15be73	-0.03655858
57	0xbe293327	-0.1652342
58	0xba81eb7b	-0.0009912098
59	0xbd1185d0	-0.035528004
60	0xbd8ab073	-0.06771936
61	0x3cd00544	0.025393136
62	0x3d0ce110	0.034394324
63	0xbdd03327	-0.101660065

fc3.weight f4 [2, 64]
0	0xbe54e891	-0.20791842
1	0x3db7c086	0.08972268
2	0x3df0bd70	0.11754882
3	0xbcd381a0	-0.025818646
4	0xbe8e1fdc	-0.27758682
5	0xbc9009b0	-0.017582744
6	0x3c1b15d0	0.00946565
7	0xbd57c4ac	-0.052677795
8	0xbe2e78e0	-0.17038298
9	0x3d33b978	0.04387805
10	0xbd8901e0	-0.06689811
11	0x3d06cec4	0.03291203
12	0x3d18ac84	0.0372739
13	0xbe2b0fc1	-0.16705228
14	0xbe7d5a09	-0.24741377
15	0x3c62bb15	0.013838549
16	0xbc896f80	-0.0167768
17	0xbea49f97	-0.32153007
18	0xbe9dbe7c	-0.3080939
19	0xbefcac9b	-0.49350438
20	0xbeeb6472	-0.4597507
21	0xbc8ec2e3	-0.017426914
22	0x3d14b688	0.036306888
23	0xbe85be54	-0.2612177
24	0xbdaf30ac	-0.08554205
25	0xbdc72dfa	-0.09725566
26	0xbd7c1ee8	-0.061552912
27	0x3d6aa8c8	0.05728987
28	0xbd88199a	-0.06645508
29	0xbd425780	-0.047446728
30	0x3d743928	0.05962482
31	0x3d2db528	0.042409092
32	0x3cbc9213	0.023018872
33	0x3ca72e7a	0.020407904
34	0xbe924256	-0.28566235
35	0xbdb76f85	-0.089568175
36	0x3d583741	0.05278707
37	0x3d5bd164	0.053666487
38	0xbe416c5c	-0.18888992
39	0xbd800a56	-0.062519714
40	0xbce94e32	-0.02847967
41	0xbd870af6	-0.065938875
42	0xbc867f59	-0.016418146
43	0x3d456d7c	0.048200116
44	0xbec9fb24	-0.39449418
45	0x3db2e003	0.08734133
46	0xbed1fdf5	-0.41014066
47	0xbe10e515	-0.14149888
48	0x3dde38bc	0.10850665
49	0xbc2a6cab	-0.010401885
50	0x3cef00c1	0.029175164
51	0xbeb42c98	-0.35190272
52	0x3d3bf590	0.045888484
53	0x3ddcd608	0.10783011
54	0xbb4644ab	-0.0030253332
55	0x3cd4dac8	0.02598323
56	0x3b7265d4	0.0036986964
57	0xbe37c015	-0.17944367
58	0x3d1827b3	0.037147235
59	0x3d81fdfc	0.06347272
60	0xbeb3702b	-0.35046515
61	0xbd92427c	-0.07141587
62	0xbdffbba6	-0.12486963
63	0xbe9dfc33	-0.30856475
64	0xbe9c1f17	-0.3049247
65	0xbe0c8967	-0.1372429
66	0x3da354b6	0.07975142
67	0xbc379ce0	-0.0112068355
68	0xbe9bed9c	-0.3045472
69	0x3dce95e2	0.10087182
70	0xbda5e50a	-0.08100326
71	0x3dae3166	0.08505516
72	0xbec1591b	-0.37763295
73	0x3dbba2aa	0.09161885
74	0x3d1eb31e	0.03874504
75	0x3d8cbdf2	0.06872167
76	0x3c93f238	0.018059835
77	0xbeb34b74	-0.35018504
78	0xbe707bf9	-0.23484792
79	0x3b5618aa	0.003266851
80	0xbd41f56c	-0.047353193
81	0xbe246d70	-0.16057372
82	0xbe4afec4	-0.19823748
83	0x3d2ce442	0.04220987
84	0x3caafdf2	0.020873044
85	0xbc821cd0	-0.01588288
86	0x3b804200	0.003914118
87	0xbe87fbd8	-0.2655933
88	0x3df483a8	0.11939174
89	0xbdb57c64	-0.08861616
90	0x3d86af6c	0.06576428
91	0x3d679310	0.056536734
92	0xbc48d46e	-0.012257678
93	0x3dc83ee5	0.09777621
94	0x3d894c98	0.06704062
95	0xbdf91ef6	-0.121641085
96	0xbd654e16	-0.05598267
97	0x3d82e262	0.06390835
98	0xbe27c820	-0.16384935
99	0x3d488418	0.0489541
100	0x3ddee868	0.10884172
101	0x3c9478eb	0.018124064
102	0xbea55b98	-0.32296443
103	0xbd9f3210	-0.077732205
104	0xbd4c58ce	-0.04988938
105	0x3c994678	0.01871036
106	0xbcfa8d7f	-0.030585049
107	0xbcc3afad	-0.02388748
108	0x3b3e859f	0.0029071344
109	0x3d47d5b6	0.048787795
110	0xbbcd231d	-0.0062602893
111	0xbedbbad4	-0.42915976
112	0x3dcabe18	0.09899539
113	0x3cfaea5c	0.03062933
114	0x3d35bb31	0.044367973
115	0xbde3ad43	-0.111170314
116	0x3ddc1647	0.107464366
117	0x3de375ae	0.1110643
118	0xbc50e7f7	-0.012750617
119	0xbdccee62	-0.100064054
120	0x3d8c6a9f	0.06856274
121	0xbeb4dd90	-0.3532529
122	0xbc999d0a	-0.01875164
123	0xbbba2c46	-0.0056815473
124	0xbe1d93a6	-0.15388355
125	0xbc78a690	-0.01517643
126	0xbdfe184c	-0.12406978
127	0xbe0774bf	-0.13228129

fc3.bias f4 [2]
0	0x3f5cf13b	0.8630559
1	0x3f52c5f8	0.82333326
