checkpoints/dubins3d-discrete-v0__hj_dqn__1__1638911828_evalFalse/dqn_checkpoint_10295.pth (torch, 72343 bytes, 6 tensors)

fc1.weight f4 [256, 3]
0.363154 -0.36463183 -0.02389332 0.3838671 -0.6071689 0.5611599 -0.11877556 0.2937234
0.08026149 -0.034162294 0.19750863 -0.3074803 0.34407598 -0.19739114 0.11253099 -0.06882378
0.12101989 -0.31680456 0.48393273 0.033576064 -0.2386702 -0.34869725 -0.09677294 -0.24903466
-0.18501103 0.027644455 0.3441745 0.48473507 -0.5331785 0.47857708 0.17567538 0.48936808
0.36011702 -0.52604556 -0.5489495 -0.27847457 0.5505063 -0.21514645 0.37442005 -0.40444493
0.69031703 -0.04652273 0.4009264 -0.1921314 -0.14750321 0.35561407 -0.41797012 0.2399437
-0.16671404 -0.06329745 -0.5550577 -0.27527004 0.31328988 -0.14034073 0.62930137 0.37162125
-0.0007472377 -0.38537154 0.35158446 0.17918475 -0.43437567 0.54711944 0.5496207 0.5741724
-0.4299879 -0.018908938 -0.011184352 0.08432633 -0.43816167 -0.40970066 0.31408116 -0.13538398
0.31706637 -0.08108183 0.26975998 0.12622562 0.115733944 0.025000358 -0.45461744 0.5514177
-0.1107982 -0.43561596 0.0351112 -0.098384626 0.3944281 -0.45095417 -0.5332244 0.47164485
-0.1923187 0.4814754 0.33087155 -0.42690536 0.21396407 0.27971208 -0.43050888 -0.6298207
0.20376404 -0.04396579 -0.32600814 -0.13699274 0.5531806 -0.5535849 0.3491506 0.13460766
-0.51572514 -0.5404595 0.7213765 0.30721545 0.4024454 -0.028667547 0.27088615 0.4579925
0.4390264 -0.4469462 0.08628774 0.3803398 0.21319006 0.37811193 -0.5738182 -0.38295156
-0.34916505 0.07253156 0.57542473 -0.36469808 0.30765894 -0.3195565 -0.5428338 -0.12270983
0.33265242 0.5604779 -0.51220715 0.26533726 0.38043278 0.19074894 0.24210547 0.4407506
0.2592739 0.0962816 -0.39480373 -0.4848348 -0.2645538 -0.06723007 -0.35388812 0.2112257
0.20810567 -0.25296545 0.23470591 0.18466544 0.27886084 0.14493941 -0.21943094 0.64209557
-0.28217953 -0.019835444 -0.5449494 -0.371592 -0.33729002 -0.24694595 0.41047847 -0.18866712
-0.43144298 0.22213545 0.11438121 0.17407359 -0.2686108 0.19332466 -0.3107099 -0.13826557
-0.46010104 -0.2631337 -0.17681798 0.29872736 0.0062621837 0.21379551 0.6057653 0.46839505
0.35734186 0.018384878 -0.39940596 0.4512048 -0.14437418 -0.046676088 -0.49738663 -0.11404319
-0.3723839 0.5305306 -0.49913144 -0.45003456 -0.019604672 -0.24445668 0.3967979 -0.3502242
-0.27117425 0.03269976 0.41794267 -0.40612188 0.2711273 0.3709137 0.5957291 -0.5517947
0.18251567 -0.42690828 0.49291292 -0.2239578 0.3765977 -0.09357589 -0.08139345 -0.018421974
0.09814636 0.27216065 0.13956216 0.06995711 -0.6645732 0.34396708 0.35161746 0.2605124
0.43932283 -0.58656895 -0.1612539 0.56355697 -0.5636454 0.71484256 -0.45408368 -0.40669045
0.28225386 -0.41481984 -0.13227135 0.4200176 0.48668927 0.44590983 -0.15532388 -0.44875172
0.56846535 -0.12299071 -0.23754218 0.14074288 -0.4037552 0.42734554 0.26217675 -0.5168957
-0.47421956 -0.050573815 0.24250181 0.09592065 -0.2890612 -0.032654244 -0.54267013 -0.40804866
-0.3843359 0.4955065 0.39597395 -0.2729951 0.09853686 0.21558984 0.09319531 -0.30767974
00000000: 52ef b93e 06b1 babe ecbb c3bc 3b8a c43e
00000010: 6c6f 1bbf 2da8 0f3f 9a40 f3bd ea62 963e
00000020: 2360 a43d c3ed 0bbd b43f 4a3e 0f6e 9dbe
00000030: ba2a b03e e720 4abe a676 e63d 7bf3 8cbd
00000040: 47d9 f73d 3534 a2be 08c6 f73e 0e87 093d
00000050: f665 74be 7288 b2be e430 c6bd f102 7fbe
00000060: 8873 3dbe a076 e23c a437 b03e 322f f83e
00000070: 637e 08bf 0e08 f53e 3fe4 333e 748e fa3e
00000080: 4261 b83e ecaa 06bf f487 0cbf 3894 8ebe
00000090: fbed 0c3f 5a4f 5cbe fcb3 bf3e 6813 cfbe
000000a0: 9eb8 303f 9e8e 3ebd 3a46 cd3e 18be 44be
000000b0: 150b 17be 0c13 b63e 2e00 d6be cdb3 753e
000000c0: 16b7 2abe 18a2 81bd 4318 0ebf 32f0 8cbe
000000d0: 8867 a03e 7bb5 0fbe e519 213f 2445 be3e
000000e0: 46e2 43ba 6b4f c5be e102 b43e 357c 373e
000000f0: 7d66 debe 0510 0c3f f1b3 0c3f f6fc 123f
00000100: 6027 dcbe ebe6 9abc 933e 37bc 48b3 ac3d
00000110: ba56 e0be 49c4 d1be 3fcf a03e 19a2 0abe
00000120: 8656 a23e 3b0e a6bd fb1d 8a3e 4a41 013e
00000130: eb05 ed3d 8dcd cc3c 9ec3 e8be b629 0d3f
00000140: 2bea e2bd 0e09 dfbe c3d0 0f3d e17d c9bd
00000150: 7bf2 c93e 77e3 e6be 6581 08bf 6f7b f13e
00000160: 31ef 44be f283 f63e ff67 a93e 5793 dabe
00000170: 6619 5b3e 6c36 8f3e a96b dcbe ee3b 21bf
00000180: 85a7 503e 7915 34bd 8aea a6be d347 0cbe
00000190: 3e9d 0d3f bdb7 0dbf dec3 b23e 97d6 093e
000001a0: 9006 04bf 8e5b 0abf 21ac 383f 584b 9d3e
000001b0: 530d ce3e 34d8 eabc 97b1 8a3e fe7d ea3e
000001c0: 11c8 e03e 22d6 e4be a0b7 b03d e6bb c23e
000001d0: 7f4e 5a3e e397 c13e c0e5 12bf 3a12 c4be
000001e0: c3c5 b2be 6d8b 943d 094f 133f b5b9 babe
000001f0: 7985 9d3e e99c a3be 28f7 0abf 4b4f fbbd
00000200: 6b51 aa3e 7b7b 0f3f 0220 03bf 49da 873e
00000210: 16c8 c23e b153 433e 7fea 773e 10aa e13e
00000220: 8cbf 843e 4a2f c53d b723 cabe 443c f8be
00000230: 9873 87be ebaf 89bd d330 b5be 8d4b 583e
00000240: a719 553e b084 81be bf56 703e f018 3d3e
00000250: d9c6 8e3e ff6a 143e 81b2 60be 6060 243f
00000260: d679 90be f17d a2bc ce81 0bbf 4e41 bebe
00000270: 47b1 acbe 66df 7cbe 3c2a d23e f431 41be
00000280: 18e6 dcbe 7a77 633e b240 ea3d 5940 323e
00000290: 5b87 89be e6f6 453e 5e15 9fbe 7d95 0dbe
000002a0: 5d92 ebbe 76b9 86be c60f 35be cbf2 983e
000002b0: 0133 cd3b 36ed 5a3e 6f13 1b3f 7ad1 ef3e
000002c0: 83f5 b63e e29b 963c f07e ccbe 5104 e73e
000002d0: d3d6 13be 6d2f 3fbd 76a9 febe 7a8f e9bd
000002e0: 1aa9 bebe dad0 073f 288e ffbe ee6a e6be
000002f0: fa99 a0bc da52 7abe 1829 cb3e 9650 b3be
00000300: 5ad7 8abe 2ff0 053d 95fc d53e 35ef cfbe
00000310: 33d1 8a3e 67e8 bd3e b481 183f 6b42 0dbf
00000320: 63e5 3a3e b993 dabe 155f fc3e 3255 65be
00000330: 6ad1 c03e b7a4 bfbd 9cb1 a6bd aee9 96bc
00000340: f500 c93d a458 8b3e 62e9 0e3e ac45 8f3d
00000350: 7821 2abf 741c b03e 3407 b43e e261 853e
00000360: ecee e03e 6229 16bf be1f 25be 4545 103f
00000370: 114b 10bf ecff 363f a87d e8be bb39 d0be
00000380: 9483 903e 4463 d4be 2472 07be 8c0c d73e
00000390: 562f f93e 4b4e e43e 390d 1fbe c9c2 e5be
000003a0: f286 113f 8ee2 fbbd 423e 73be e71e 103e
000003b0: 00b9 cebe 09cd da3e 083c 863e 4753 04bf
000003c0: e8cc f2be 7d26 4fbd 6552 783e 0c72 c43d
000003d0: d4ff 93be 75c0 05bd 6eec 0abf c1eb d0be
000003e0: adc7 c4be 07b3 fd3e 19bd ca3e 04c6 8bbe
000003f0: b1cd c93d 95c3 5c3e 2fdd be3d 3388 9dbe

fc1.bias f4 [256]
-0.29413813 0.07439123 -0.4430491 0.2637888 -0.6085525 0.53460526 0.3640825 -0.20606917
0.08537289 -0.36688325 -0.43127584 -0.29240245 -0.49479556 0.24457021 -0.35528335 -0.1640413
-0.44244143 -0.3627272 -0.66783315 -0.4149669 0.6653275 0.022733808 -0.55061835 -0.09636219
-0.15631276 0.28853506 0.79993606 0.13941605 0.22470598 -0.40478966 -0.10603438 -0.20636046
-0.066009976 0.70805013 0.21499127 0.74155945 -0.50806206 -0.23000158 0.1720165 0.2302292
-0.53072405 -0.28354308 0.08375074 -0.5897395 -0.01156123 -0.20288731 -0.1496076 0.30963778
0.21984854 0.60869485 0.4555912 -0.015788985 0.47204542 0.45948002 -0.5656316 0.09280939
0.067652315 -0.44561565 -0.29955605 -0.1363313 -0.40401444 -0.17618175 0.19428259 0.7251024
0.043855686 -0.5591069 0.07292809 -0.17469746 0.3572469 -0.557882 -0.28017038 0.3521896
-0.0057129827 -0.517601 -0.49993175 -0.0062010414 0.0819339 -0.4793145 -0.48312867 -0.16776967
-0.11840741 0.33637968 -0.55941457 -0.26458475 -0.55735534 0.12251261 -0.2949814 -0.025632234
-0.48298532 -0.45417902 -0.51899785 -0.7182989 0.36446255 -0.0826251 -0.5799698 0.4045658
-0.13098735 0.26701176 -0.1789725 -0.48303968 0.12680192 0.35951096 -0.5629349 -0.15128686
0.11507234 0.06626562 -0.18164867 -0.17946652 -0.5613169 0.031071803 -0.58634776 -0.47703424
-0.18535998 -0.41013563 0.39660287 0.39036536 0.44869912 -0.4200442 0.18402582 0.3609849
0.00647655 0.4566047 0.32668862 0.44175822 0.24367471 0.09383322 -0.40241954 -0.32189465
-0.27377075 0.33127353 -0.12396156 0.17566112 -0.7339866 -0.25664747 -0.16287048 -0.3725285
0.1704824 -0.67638934 -0.26157543 -0.2606786 -0.5226774 0.1830582 -0.18370582 0.18299413
0.42899895 0.7473088 -0.07723122 0.11260731 0.52736866 -0.079504594 -0.19182679 -0.019681316
0.09353573 0.5230841 -0.7395216 0.22547983 0.24489944 -0.35123083 0.018126268 0.23815654
0.023268439 0.4536137 0.24902289 -0.684425 -0.16087694 0.30751747 -0.27769664 0.2462577
0.13308741 -0.09367538 0.004103102 0.0969482 -0.39508542 0.41532716 0.21153069 0.32397732
0.5769306 -0.16475141 -0.40768945 0.0263632 -0.2815427 0.2038114 0.6712855 -0.5419059
-0.1545169 0.595558 -0.4608971 -0.0996294 0.4337252 0.40341613 -0.11327016 -0.24901181
-0.20902957 -0.51772416 -0.3765936 -0.5409395 0.48766497 0.2841225 0.3706794 -0.14501543
0.33212158 -0.24975814 0.29245707 -0.22940248 -0.27159125 -0.36559528 -0.35342357 -0.5284697
0.037555996 -0.42827243 0.07369647 0.36810967 -0.08937461 0.28000325 -0.033420105 0.1832867
-0.37233818 -0.092294514 -0.19239037 0.28500822 -0.5182252 -0.32451314 -0.12634356 0.7432275
0.39064103 -0.55950403 -0.61368376 0.33075437 0.08414057 -0.4945043 -0.2777781 0.2524092
-0.3319818 -0.5811371 -0.35646522 -0.12569596 -0.22976919 0.35072425 0.27720234 -0.47726575
-0.27201462 -0.445764 0.20424649 0.78382605 0.56116915 0.09909995 -0.22529064 -0.014392448
0.2082987 -0.75878817 -0.12806529 -0.46930197 -0.83645356 -0.019297091 -0.35811764 -0.36572847
00000000: 4699 96be 6e5a 983d 55d7 e2be 530f 873e
00000010: 19ca 1bbf e4db 083f 0569 ba3e cc03 53be
00000020: fbd7 ae3d 1fd8 bbbe 30d0 dcbe c6b5 95be
00000030: d855 fdbe 9d70 7a3e b3e7 b5be 71fa 27be
00000040: af87 e2be 61b7 b9be 1df7 2abf 8b76 d4be
00000050: e752 2a3f 403c ba3c 53f5 0cbf 8a59 c5bd
00000060: 7410 20be deba 933e 9cc8 4c3f 15c3 0e3e
00000070: 5319 663e 9740 cfbe 8e28 d9bd 2850 53be
00000080: 3d30 87bd c642 353f ac26 5c3e d7d6 3d3f
00000090: 5b10 02bf 8985 6bbe 1825 303e 34c1 6b3e
000000a0: 88dd 07bf 8f2c 91be 8285 ab3d 2bf9 16bf
000000b0: 506b 3dbc b1c1 4fbe bc32 19be d888 9e3e
000000c0: fa1f 613e 6dd3 1b3f 4043 e93e e757 81bc
000000d0: f0af f13e f740 eb3e 3ccd 10bf d912 be3d
000000e0: 4c8d 8a3d bc27 e4be 695f 99be 6f9a 0bbe
000000f0: fbda cebe fd68 34be 04f2 463e 50a0 393f
00000100: 05a2 333d a121 0fbf 535b 953d e4e3 32be
00000110: 11e9 b63e 5bd1 0ebf 7e72 8fbe 3252 b43e
00000120: f933 bbbb 8081 04bf 0ef7 ffbe 1b32 cbbb
00000130: f6cc a73d b668 f5be a45c f7be d0cb 2bbe
00000140: 967f f2bd f539 ac3e cb35 0fbf a777 87be
00000150: d7ae 0ebf e4e7 fa3d cd07 97be b1fa d1bc
00000160: da49 f7be 278a e8be 0bdd 04bf 70e2 37bf
00000170: d69a ba3e 5937 a9bd e778 14bf 4023 cf3e
00000180: 8c21 06be c4b5 883e 9144 37be fa50 f7be
00000190: 5dd8 013e d211 b83e 801c 10bf f1ea 1abe
000001a0: 0cab eb3d 45b6 873d 1c02 3abe 12c6 37be
000001b0: 77b2 0fbf 4b8a fe3c e31a 16bf d53d f4be
000001c0: 02cf 3dbe 4cfd d1be 880f cb3e f8dd c73e
000001d0: e4bb e53e 0910 d7be 4471 3c3e 03d3 b83e
000001e0: 3d39 d43b 17c8 e93e bb43 a73e 222e e23e
000001f0: dd85 793e a22b c03d ef09 cebe 60cf a4be
00000200: ae2b 8cbe af9c a93e 8fdf fdbd 82e0 333e
00000210: 8ce6 3bbf 4c67 83be 85c7 26be 0ebc bebe
00000220: f092 2e3e da27 2dbf 37ed 85be aa77 85be
00000230: 30ce 05bf 9c73 3b3e 611d 3cbe d062 3b3e
00000240: c0a5 db3e a14f 3f3f 672b 9ebd a99e e63d
00000250: a201 073f 4ed3 a2bd 3e6e 44be b63a a1bc
00000260: a98f bf3d d7e8 053f 4a51 3dbf 2fe4 663e
00000270: ebc6 7a3e 87d4 b3be 8a7d 943c 4fdf 733e
00000280: 749d be3c 0e40 e83e dbff 7e3e 7a36 2fbf
00000290: edbc 24be ee72 9d3e 412e 8ebe fa2a 7c3e
000002a0: 1148 083e e1d8 bfbd 5073 863b c78c c63d
000002b0: a348 cabe c3a5 d43e 809b 583e 5be0 a53e
000002c0: b9b1 133f 98b4 28be acbc d0be a3f7 d73c
000002d0: 5d26 90be f0b3 503e 5ed9 2b3f 58ba 0abf
000002e0: ae39 1ebe 7d76 183f b4fa ebbe 800a ccbd
000002f0: 3b11 de3e 8f8c ce3e 30fa e7bd f4fc 7ebe
00000300: d90b 56be 9289 04bf e0d0 c0be 037b 0abf
00000310: 39af f93e 8178 913e b1c9 bd3e ed7e 14be
00000320: d70b aa3e 99c0 7fbe efbc 953e 7ce8 6abe
00000330: 020e 8bbe 4e2f bbbe eff3 b4be ca49 07bf
00000340: 51d4 193d 8646 dbbe 2dee 963d df78 bc3e
00000350: 090a b7bd 965c 8f3e 85e3 08bd 82af 3b3e
00000360: 1ca3 bebe e804 bdbd fb01 45be 99ec 913e
00000370: 68aa 04bf 9626 a6be 3560 01be 2844 3e3f
00000380: 1a02 c83e a83b 0fbf 611a 1dbf a358 a93e
00000390: e451 ac3d ab2f fdbe ee38 8ebe c73b 813e
000003a0: 85f9 a9be 67c5 14bf 9c82 b6be 71b6 00be
000003b0: 9d48 6bbe 2192 b33e 77ed 8d3e 2d5c f4be
000003c0: 8045 8bbe 2e3b e4be fe25 513e d3a8 483f
000003d0: c8a8 0f3f eaf4 ca3d 97b2 66be 4dce 6bbc
000003e0: 414c 553e f13f 42bf 8c23 03be 5948 f0be
000003f0: d221 56bf ef14 9ebc 325b b7be c340 bbbe

fc2.weight f4 [64, 256]
0.17299531 0.23025458 0.009537533 -0.16780074 0.28044912 -0.18649109 -0.013537573 -0.021071017
0.04601162 0.33816093 0.033826374 -0.017467007 0.07040719 -0.35716718 0.059586853 0.16550091
-0.048776403 0.04711821 0.010590403 0.05425988 -0.29895902 0.13336138 0.037502684 0.014466234
0.051596932 -0.029152747 -0.6259378 -0.05744978 0.124684036 0.114192665 0.26783067 -0.39110476
0.050281275 -0.1743481 -0.044276156 -0.40939704 0.11814872 0.048573315 -0.101785935 0.098634355
-0.058297105 -0.0071523115 -0.0033040196 0.16539998 -0.044727266 0.024179831 0.056206204 0.056326546
-0.020699266 -0.049376734 -0.21898404 -0.04880961 -0.017136648 0.060678676 0.057693645 0.07353726
0.05879779 0.098662816 0.07226222 0.0415307 0.05860693 0.01071813 -0.050542645 -0.4018247
-0.03229236 0.051586002 0.13014078 0.01829227 -0.03696554 -0.046031542 0.09986134 -0.015560619
0.060075123 0.23082525 -0.015004665 0.00094275177 0.029014586 0.024049178 -0.047823668 0.024193887
-0.030973285 0.038388975 0.030948922 0.057090376 0.14714429 -0.33619133 -0.062455744 0.1106679
-0.042886592 0.008346304 0.09290076 0.2553991 -0.04270141 -0.061235078 0.07491121 0.0100715235
0.045784004 0.00072811556 0.048134133 0.01972957 -0.017861277 -0.013215184 -0.034179553 0.085820965
-0.04346504 0.021487892 0.07527655 0.053035453 0.1623199 0.22183385 0.038348444 -0.0051031187
0.05705463 0.045169782 -0.42489782 0.047448285 -0.060789794 0.28679597 0.05432853 -0.029100323
0.010286197 -0.1919854 -0.0395658 -0.028269544 0.005730028 0.062382966 0.03643092 0.006859198
-0.04066716 -0.03179734 -0.0141777415 -0.3186527 0.16033696 0.15776487 -0.034751885 -0.01665043
-0.0015411121 0.13871069 0.09183689 0.09619766 -0.023234002 0.08568436 -0.045212135 -0.015676744
-0.12957934 -0.540001 0.018957669 0.10234788 -0.027596649 0.085030645 0.012650979 -0.110652834
0.025683433 -0.34390512 0.09753965 0.048467934 -0.5030133 -0.3427729 0.041214194 0.017064892
0.12478886 -0.0023722332 -0.44849113 0.14369005 0.23655953 -0.0068114614 0.053833634 0.038863763
-0.001913242 -0.027915448 0.0041431636 0.06224519 0.039592408 0.026753344 0.031470172 0.024815023
0.023548812 0.0676264 0.030349188 0.019911624 0.20867798 -0.058737412 -0.36706045 0.13623051
0.10305849 -0.11739233 0.042173937 0.021256618 -0.059606634 0.0037095025 0.11830898 0.036004677
0.38233513 -0.02471269 -0.24972874 -0.05069889 -0.03379159 -0.03676294 -0.12009395 0.035580225
0.04554353 0.1313232 -0.0283868 0.062947825 -0.023776673 0.017844928 0.10541475 0.043201834
0.05043367 0.10847124 0.111518025 -0.018951945 0.0700943 -0.016827129 0.005168136 0.09628092
0.008547366 0.14377083 0.025705501 -0.019520767 -0.022657707 -0.04365348 0.15219139 -0.524732
-0.049709745 0.20372878 0.31096923 0.0868701 0.04303597 -0.047916055 0.19973607 0.03978379
0.29959062 0.20747295 0.04557366 -0.35533696 0.18796636 -0.11151424 -0.026092932 0.075034484
0.09193227 -0.004937403 0.11450672 -0.087971516 -0.032681927 0.010101937 0.14023925 -0.0011348352
0.041191295 0.12300912 -0.024906343 -0.030925669 0.047257885 -0.053064898 0.22751135 -0.0386199
00000000: af25 313e dbc7 6b3e 5043 1c3c f5d3 2bbe
00000010: 0797 8f3e 85f7 3ebe b2cc 5dbc 209d acbc
00000020: ae76 3c3d 6e23 ad3e 868d 0a3d f816 8fbc
00000030: a531 903d 9ede b6be 5811 743d 1279 293e
00000040: c4c9 47bd 06ff 403d 5f83 2d3c 9c3f 5e3d
00000050: 2811 99be e38f 083e 6a9c 193d c803 6d3c
00000060: 4e57 533d bed1 eebc 763d 20bf 7650 6bbd
00000070: 585a ff3d d8dd e93d 1a21 893e e23e c8be
00000080: bdf3 4d3d 4f88 32be ea5a 35bd 7d9c d1be
00000090: f5f7 f13d d0f4 463d 2575 d0bd cf00 ca3d
000000a0: f2c8 6ebd f05d eabb 4088 58bb 9d5e 293e
000000b0: f033 37bd c814 c63c 7a38 663d aab6 663d
000000c0: 8291 a9bc 423f 4abd 5a3d 60be 96ec 47bd
000000d0: 2862 8cbc 348a 783d 2c50 6c3d b49a 963d
000000e0: f4d5 703d bb0f ca3d 37fe 933d 181c 2a3d
000000f0: d20d 703d 189b 2f3c ce05 4fbd f8bb cdbe
00000100: fe44 04bd d84b 533d a043 053e acd9 953c
00000110: 2e69 17bd 928b 3cbd 1a84 cc3d f7f1 7ebc
00000120: 5511 763d 745d 6c3e 20d6 75bc 0023 773a
00000130: ffaf ed3c c802 c53c c0e2 43bd 4232 c63c
00000140: b0bb fdbc c23d 1d3d 9888 fd3c 99d7 693d
00000150: feac 163e 4521 acbe 98d1 7fbd daa5 e23d
00000160: daa9 2fbd f0be 083c c142 be3d acc3 823e
00000170: ace7 2ebd a2d1 7abd 0c6b 993d 0803 253c
00000180: 0288 3b3d 02df 3e3a 4c28 453d e89f a13c
00000190: d051 92bc 8084 58bc dcff 0bbd e7c2 af3d
000001a0: 6608 32bd 6007 b03c 982a 9a3d b43b 593d
000001b0: 3037 263e 6a28 633e 4213 1d3d 1038 a7bb
000001c0: 1eb2 693d f303 393d 358c d9be 2259 423d
000001d0: b8fe 78bd ecd6 923e 9887 5e3d cd63 eebc
000001e0: 7087 283c d297 44be c00f 22bd 8895 e7bc
000001f0: f5c2 bb3b 4885 7f3d 9738 153d 20c3 e03b
00000200: 9c92 26bd ed3d 02bd c249 68bc 7226 a3be
00000210: 5f2f 243e 1d8d 213e fe57 0ebd 7c66 88bc
00000220: 24ff c9ba 2d0a 0e3e fb14 bc3d 4703 c53d
00000230: 3c55 bebc 487b af3d 5c30 39bd 846c 80bc
00000240: 72b0 04be 813d 0abf 1d4d 9b3c c49b d13d
00000250: 5e12 e2bc 8c24 ae3d 0d46 4f3c f49d e2bd
00000260: 1066 d23c 5514 b0be dec2 c73d 5086 463d
00000270: 7bc5 00bf ee7f afbe 37d0 283d accb 8b3c
00000280: 4d91 ff3d 7877 1bbb a1a0 e5be 7c23 133e
00000290: a93c 723e ae32 dfbb a880 5c3d 9c2f 1f3d
000002a0: c0c5 faba f0ae e4bc 60c3 873b d0f4 7e3d
000002b0: a62b 223d d429 db3c dee6 003d e048 cb3c
000002c0: 70e9 c03c b67f 8a3d dc9e f83c b41d a33c
000002d0: aeaf 553e a496 70bd 59ef bbbe 0380 0b3e
000002e0: 5410 d33d 646b f0bd 94be 2c3d 5c22 ae3c
000002f0: 1626 74bd 201b 733b fa4b f23d a479 133d
00000300: 6ec1 c33e 4472 cabc e4b8 7fbe a4a9 4fbd
00000310: 0d69 0abd bd94 16bd d1f3 f5bd 92bc 113d
00000320: da8b 3a3d 9779 063e 6f8b e8bc caea 803d
00000330: 4cc7 c2bc 872f 923c b0e3 d73d 68f4 303d
00000340: 8993 4e3d 2b26 de3d 9063 e43d 1c41 9bbc
00000350: 9a8d 8f3d 0cd9 89bc 7859 a93b ee2e c53d
00000360: 400a 0c3c a938 133e 5894 d23c 04ea 9fbc
00000370: a89c b9bc fecd 32bd 0fd8 1b3e d654 06bf
00000380: 729c 4bbd 479e 503e 5c37 9f3e f3e8 b13d
00000390: 7c46 303d a043 44bd 9d87 4c3e 54f4 223d
000003a0: f163 993e ca73 543e 72ab 3a3d baee b5be
000003b0: 417a 403e 9461 e4bd d8c0 d5bc aeab 993d
000003c0: fc46 bc3d f0c9 a1bb 8082 ea3d 692a b4bd
000003d0: 7cdd 05bd 9882 253c e19a 0f3e c0be 94ba
000003e0: 34b8 283d 35ec fb3d 6308 ccbc d457 fdbc
000003f0: 7c91 413d 945a 59bd bcf8 683e e62f 1ebd

fc2.bias f4 [64]
-0.10032982 -0.026965331 -0.021655627 0.026806511 -0.064017355 0.018042296 0.050147943 0.053295672
-0.13497514 0.011185989 0.031250454 -0.04022567 -0.011231773 -0.17399476 -0.09670399 0.020843633
0.049805857 -0.10384299 -0.15712337 -0.122520894 -0.14176275 -0.02740102 0.012933724 -0.15233847
0.0065255165 0.012865484 -0.03641227 0.0066636503 -0.056531344 0.039900776 -0.052888736 -0.0039614066
-0.0026239955 -0.05190586 -0.08878643 0.011178538 -0.04006017 -0.019774564 -0.07947509 -0.0008047372
-0.0546266 -0.059538025 0.058040634 0.044071384 -0.14744627 0.019486345 -0.1311576 -0.1562178
-0.015037175 0.0337148 0.011526674 -0.1886715 -0.03888419 0.03219778 0.024919296 0.027814627
-0.03655858 -0.1479473 -0.0009912098 -0.035528004 -0.06130174 0.025393136 0.034394324 -0.094195336
00000000: b879 cdbd 66e6 dcbc 2467 b1bc 5499 db3c
00000010: 881b 83bd 70cd 933c ee67 4d3d 904c 5a3d
00000020: ec36 0abe 7045 373c 7a00 003d acc3 24bd
00000030: 7805 38bc af2b 32be be0c c6bd 44c0 aa3c
00000040: 3a01 4c3d a2ab d4bd f3e4 20be 3cec fabd
00000050: 412a 11be 1b78 e0bc f8e7 533c 9efe 1bbe
00000060: 00d4 d53b c0c9 523c 0825 15bd c05a da3b
00000070: 698d 67bd ff6e 233d dca1 58bd b0ce 81bb
00000080: 57f7 2bbb 3d9b 54bd a9d5 b5bd 3026 373c
00000090: 2216 24bd 44fe a1bc d6c3 a2bd 00f5 52ba
000000a0: 24c0 5fbd 25de 73bd 04bc 6d3d 3284 343d
000000b0: 28fc 16be d4a1 9f3c 2e4e 06be 8ff7 1fbe
000000c0: 7c5e 76bc 8818 0a3d 60da 3c3c 1a33 41be
000000d0: 0745 1fbd d2e1 033d 8d23 cc3c 80db e33c
000000e0: 73be 15bd 7f7f 17be 7beb 81ba d085 11bd
000000f0: 8917 7bbd 4405 d03c 10e1 0c3d 7ce9 c0bd

fc3.weight f4 [2, 64]
-0.17352982 0.08972268 0.11754882 -0.025818646 -0.23988847 -0.017582744 0.00946565 -0.052677795
-0.14259197 0.04387805 -0.06689811 0.03291203 0.0372739 -0.14026284 -0.20519696 0.013838549
-0.0167768 -0.26538542 -0.25808847 -0.36182895 -0.32529515 -0.017426914 0.036306888 -0.22242537
-0.08554205 -0.09725566 -0.061552912 0.05728987 -0.06645508 -0.047446728 0.05962482 0.042409092
0.023018872 0.020407904 -0.22997127 0.0057228655 0.05278707 0.053666487 -0.15570824 -0.062519714
-0.09370954 -0.065938875 -0.07136142 0.066771254 -0.27854735 0.08734133 -0.31612375 -0.11739376
0.10850665 -0.010401885 0.029175164 -0.2715139 0.045888484 0.10783011 -0.0030253332 0.02598323
0.0036986964 -0.14876498 0.037147235 0.06347272 -0.29280004 -0.07141587 -0.12486963 -0.24315555
-0.22859494 -0.1372429 0.07975142 -0.0112068355 -0.23457132 0.10087182 -0.08100326 0.08505516
-0.2825482 0.09161885 0.03874504 0.06872167 0.018059835 -0.26099536 -0.17863874 0.003266851
-0.047353193 -0.12172618 -0.15129219 -0.031953476 -0.028843645 -0.01588288 0.003914118 -0.19959578
0.11939174 -0.08861616 0.06576428 0.056536734 -0.012257678 0.09777621 0.06704062 -0.121641085
-0.05598267 0.06390835 -0.12176321 -0.019616514 0.10884172 0.018124064 -0.2384699 -0.077732205
-0.108560696 0.01871036 -0.084478065 -0.028487816 -0.051630024 0.048787795 -0.02879848 -0.3245636
0.09899539 0.03062933 0.044367973 -0.10176318 0.107464366 0.1110643 -0.012750617 -0.100064054
0.06856274 -0.26803982 -0.01875164 -0.0056815473 -0.12141804 -0.01517643 -0.12406978 -0.10400836
00000000: cdb1 31be 86c0 b73d 70bd f03d a081 d3bc
00000010: 53a5 75be b009 90bc d015 1b3c acc4 57bd
00000020: a103 12be 78b9 333d e001 89bd c4ce 063d
00000030: 84ac 183d 10a1 0fbe 271f 52be 15bb 623c
00000040: 806f 89bc 99e0 87be 2c24 84be a541 b9be
00000050: 168d a6be e3c2 8ebc 88b6 143d 7ac3 63be
00000060: ac30 afbd fa2d c7bd e81e 7cbd c8a8 6a3d
00000070: 9a19 88bd 8057 42bd 2839 743d 28b5 2d3d
00000080: 1392 bc3c 7a2e a73c 977d 6bbe e086 bb3b
00000090: 4137 583d 64d1 5b3d fb71 1fbe 560a 80bd
000000a0: caea bfbd f60a 87bd f025 92bd 5ebf 883d
000000b0: c29d 8ebe 03e0 b23d f9da a1be 246c f0bd
000000c0: bc38 de3d ab6c 2abc c100 ef3c df03 8bbe
000000d0: 90f5 3b3d 08d6 dc3d ab44 46bb c8da d43c
000000e0: d465 723b d955 18be b327 183d fcfd 813d
000000f0: e3e9 95be 7c42 92bd a6bb ffbd c5fd 78be
00000100: cb14 6abe 6789 0cbe b654 a33d e09c 37bc
00000110: 7733 70be e295 ce3d 0ae5 a5bd 6631 ae3d
00000120: 28aa 90be aaa2 bb3d 1eb3 1e3d f2bd 8c3d
00000130: 38f2 933c 2fa1 85be 13ed 36be aa18 563b
00000140: 6cf5 41bd 934b f9bd 57ec 1abe a6e1 02bd
00000150: 8249 ecbc d01c 82bc 0042 803b d662 4cbe
00000160: a883 f43d 647c b5bd 6caf 863d 1093 673d
00000170: 6ed4 48bc e53e c83d 984c 893d f61e f9bd
00000180: 164e 65bd 62e2 823d fd5e f9bd d0b2 a0bc
00000190: 68e8 de3d eb78 943c 7431 74be 1032 9fbd
000001a0: 1255 debd 7846 993c d602 adbd 485f e9bc
000001b0: 017a 53bd b6d5 473d caea ebbc 332d a6be
000001c0: 18be ca3d 5cea fa3c 31bb 353d 3769 d0bd
000001d0: 4716 dc3d ae75 e33d f7e7 50bc 62ee ccbd
000001e0: 9f6a 8c3d 843c 89be 0a9d 99bc 462c babb
000001f0: 05aa f8bd 90a6 78bc 4c18 febd 5602 d5bd

fc3.bias f4 [2]
0.4034176 0.37399226
00000000: c08c ce3e ea7b bf3e
