checkpoints/dubins3d-discrete-v0__hj_dqn__1__1638911828_evalFalse/dqn_checkpoint_10215.pth (torch, 72343 bytes, 6 tensors)

fc1.weight f4 [256, 3]
00000000: 941f bc3e 4da4 babe 76ab 98bd 01ea c53e
00000010: d5fd 1bbf 1f9f f93e 9a40 f3bd ea62 963e
00000020: 2360 a43d 248a 09bd c4d2 4f3e 64ff 79be
00000030: 3346 b23e 7797 4abe f1ad 5b3d f4a2 8dbd
00000040: f7f1 003e 338a 7abe 31d0 ff3e 1f46 343d
00000050: 984b 81be 7288 b2be e430 c6bd f102 7fbe
00000060: 8873 3dbe a076 e23c a437 b03e c5f8 f93e
00000070: 6ac9 08bf 42ad d33e dee5 443e ad0f 003f
00000080: 969a 913e ecaa 06bf f487 0cbf 3894 8ebe
00000090: 8f55 0e3f 8c59 5bbe a8bc 9d3e 3621 cbbe
000000a0: 4bd4 293f f9f5 c6bd dbab d03e 5604 42be
000000b0: 7394 4abe 7a28 b83e bf28 d6be b530 3b3e
000000c0: 16b7 2abe 18a2 81bd 4318 0ebf 32f0 8cbe
000000d0: 8867 a03e 7bb5 0fbe 3afc 223f 80d8 bf3e
000000e0: f59d 5cbd 6b4f c5be e102 b43e 357c 373e
000000f0: 8fc9 dcbe 8e48 043f 058b 043f ee73 143f
00000100: 5636 dbbe 170c 89bd 933e 37bc 48b3 ac3d
00000110: ba56 e0be 49c4 d1be 3fcf a03e 19a2 0abe
00000120: 232a a63e 848f 9fbd fe71 553e f950 0e3e
00000130: 6e20 043e 624e 5b3d fb4a e9be a033 013f
00000140: b84e 48be 0e09 dfbe c3d0 0f3d e17d c9bd
00000150: b6ff cc3e d240 e5be 0f73 0bbf 1f29 f43e
00000160: 998b 44be e626 ce3e 8d57 ab3e 5ad0 dabe
00000170: 7c71 243e dfff 863e 3268 c7be 5de1 02bf
00000180: dfd5 5c3e e87b 0fbd bb36 a1be 0b94 0bbe
00000190: 5423 0f3f a531 f4be 3019 ba3e c1b7 143e
000001a0: dda4 febe 9ddb 09bf e9d0 2f3f 151c 863e
000001b0: 50ab d13e 1fb1 d6bc f61d 573e 77b1 f23e
000001c0: 345f e63e b4dd ecbe c825 c33d e709 c83e
000001d0: 5d94 533e 1a67 c43e b42f 12bf ac12 c8be
000001e0: c3c5 b2be 6d8b 943d 094f 133f b5b9 babe
000001f0: 7985 9d3e e99c a3be 28f7 0abf 4b4f fbbd
00000200: 6b51 aa3e ae89 103f f841 03bf b287 4e3e
00000210: 66ad d33e 004d 593e 5110 673e f41a e83e
00000220: a6ea 883e 2ed0 843d b723 cabe 443c f8be
00000230: 9873 87be ebaf 89bd d330 b5be 8d4b 583e
00000240: ca7d 5d3e 1ad1 7ebe f179 3e3e f90c 453e
00000250: b24e 943e 5ddf 253e 301d 61be 0279 253f
00000260: 5c11 63be f17d a2bc ce81 0bbf 4e41 bebe
00000270: 47b1 acbe 66df 7cbe 3c2a d23e f431 41be
00000280: 18e6 dcbe 7a77 633e ae7c 053e 5d50 3d3e
00000290: 1ae3 8dbe bb97 4a3e e841 9ebe 7cf2 1ebe
000002a0: 5d92 ebbe 76b9 86be c60f 35be 0896 9c3e
000002b0: 8424 0f3c 1059 183e 427b 1e3f 5f0e f43e
000002c0: 41d9 9e3e e29b 963c f07e ccbe 5104 e73e
000002d0: d3d6 13be 6d2f 3fbd 76a9 febe 7a8f e9bd
000002e0: 1aa9 bebe dad0 073f 288e ffbe ee6a e6be
000002f0: fa99 a0bc d4c9 7bbe 69e4 cc3e 0698 90be
00000300: 5ad7 8abe 2ff0 053d 95fc d53e 35ef cfbe
00000310: 33d1 8a3e 67e8 bd3e b21b 1a3f c8af 0cbf
00000320: 99c1 0a3e b993 dabe 155f fc3e 3255 65be
00000330: b691 c73e cd3e aebd f6c6 cdbd aee9 96bc
00000340: f500 c93d a458 8b3e 1c45 173e d32f 9d3d
00000350: 2d0f 1fbf 0725 bf3e d0f7 bf3e f4cc 893e
00000360: 597a e33e ded4 15bf 4d70 47be c933 113f
00000370: d8a0 10bf fc06 233f a87d e8be bb39 d0be
00000380: 9483 903e 4463 d4be 2472 07be 8c0c d73e
00000390: b3b8 003f d6f3 e93e 5e42 3bbe c9c2 e5be
000003a0: f286 113f 8ee2 fbbd 423e 73be e71e 103e
000003b0: 00b9 cebe 2b7f e03e a410 8a3e b723 08bf
000003c0: e8cc f2be 7d26 4fbd 6552 783e e395 c93d
000003d0: 2b62 92be 34ef 963b 6eec 0abf c1eb d0be
000003e0: adc7 c4be bee1 023f ae6a d03e d7aa 93be
000003f0: 6e1a b93d aa1b 5b3e d9fd 073d f55f 98be
0.36742842 -0.36453477 -0.074545786 0.38655093 -0.6093419 0.48754212 -0.11877556 0.2937234
0.08026149 -0.033579007 0.20295244 -0.2441383 0.34819183 -0.19784342 0.05363268 -0.069158465
0.12592302 -0.24466781 0.49963525 0.044012185 -0.25252986 -0.34869725 -0.09677294 -0.24903466
-0.18501103 0.027644455 0.3441745 0.4882261 -0.53432333 0.41343123 0.19228312 0.5002392
0.28438252 -0.52604556 -0.5489495 -0.27847457 0.555993 -0.21420878 0.30807996 -0.39673775
0.6633956 -0.09714884 0.40756115 -0.18946967 -0.19783191 0.3596838 -0.41827962 0.18280299
-0.16671404 -0.06329745 -0.5550577 -0.27527004 0.31328988 -0.14034073 0.6366612 0.37469864
-0.053861577 -0.38537154 0.35158446 0.17918475 -0.43122527 0.5167321 0.51774627 0.57989395
-0.42814893 -0.06691759 -0.011184352 0.08432633 -0.43816167 -0.40970066 0.31408116 -0.13538398
0.32454023 -0.07791045 0.20844266 0.13898076 0.12902996 0.05354155 -0.45565018 0.504694
-0.19561279 -0.43561596 0.0351112 -0.098384626 0.40038842 -0.44776016 -0.5447244 0.47687623
-0.19193877 0.40264052 0.33465233 -0.42737085 0.16058916 0.2636709 -0.38946682 -0.5112513
0.2156596 -0.035030276 -0.3148707 -0.13630693 0.5591328 -0.47694126 0.36347342 0.14523222
-0.49735156 -0.5385073 0.68678147 0.261933 0.40951014 -0.026207505 0.21007523 0.4740102
0.4499451 -0.46262896 0.095286906 0.39070055 0.20662065 0.3835991 -0.5710404 -0.39076746
-0.34916505 0.07253156 0.57542473 -0.36469808 0.30765894 -0.3195565 -0.5428338 -0.12270983
0.33265242 0.5646008 -0.51272535 0.20168951 0.4134323 0.2122078 0.22564818 0.45333064
0.26741523 0.064850196 -0.39480373 -0.4848348 -0.2645538 -0.06723007 -0.35388812 0.2112257
0.21630016 -0.24884453 0.18601204 0.1924323 0.2896629 0.16198488 -0.2198379 0.6463777
-0.22174591 -0.019835444 -0.5449494 -0.371592 -0.33729002 -0.24694595 0.41047847 -0.18866712
-0.43144298 0.22213545 0.13035843 0.18487687 -0.27712327 0.19784443 -0.30909657 -0.15522188
-0.46010104 -0.2631337 -0.17681798 0.30583215 0.008736733 0.14877725 0.61906826 0.47667214
0.31025127 0.018384878 -0.39940596 0.4512048 -0.14437418 -0.046676088 -0.49738663 -0.11404319
-0.3723839 0.5305306 -0.49913144 -0.45003456 -0.019604672 -0.2458871 0.40018013 -0.28240985
-0.27117425 0.03269976 0.41794267 -0.40612188 0.2711273 0.3709137 0.6019851 -0.5495572
0.13550414 -0.42690828 0.49291292 -0.2239578 0.38978356 -0.08508072 -0.100477144 -0.018421974
0.09814636 0.27216065 0.14772457 0.07675137 -0.6213253 0.37332937 0.37493753 0.2691418
0.4442928 -0.58527935 -0.19476433 0.5671964 -0.5649543 0.6368253 -0.45408368 -0.40669045
0.28225386 -0.41481984 -0.13227135 0.4200176 0.5028183 0.45693845 -0.18287036 -0.44875172
0.56846535 -0.12299071 -0.23754218 0.14074288 -0.4037552 0.4384702 0.2696582 -0.53179497
-0.47421956 -0.050573815 0.24250181 0.09843042 -0.2859052 0.004606152 -0.54267013 -0.40804866
-0.3843359 0.51125705 0.4070639 -0.28841278 0.09038244 0.21397272 0.033201072 -0.2976071

fc1.bias f4 [256]
00000000: 93ce 86be 4a2a d83d 55d7 e2be 49a3 6d3e
00000010: 21f9 12bf 0536 003f 233e c63e cc03 53be
00000020: fbd7 ae3d b2ac aabe 072c c8be c6b5 95be
00000030: c254 ebbe 8885 5a3e 0630 a5be c22c 07be
00000040: af87 e2be 61b7 b9be 3747 22bf 8b76 d4be
00000050: 3453 213f 6583 5b3d 53f5 0cbf 8a59 c5bd
00000060: a02d f7bd 5efb 8f3e da1a 403f 15c3 0e3e
00000070: 4b96 7c3e baa5 bdbe d96b 98bd 1611 64be
00000080: cc9a 2bbd 975c 2d3f 7eef 6f3e c99a 333f
00000090: dc67 f0be 1a1c 4cbe 4b0b 263e 9e42 823e
000000a0: 88dd 07bf 8f2c 91be 8285 ab3d 7b4f 0ebf
000000b0: ab16 1b3d 0722 2abe bc32 19be d888 9e3e
000000c0: e223 7f3e a1ac 163f 51ea d93e e757 81bc
000000d0: f0af f13e f740 eb3e 85ff 05bf bdc7 ea3d
000000e0: 4c8d 8a3d 51af d0be 47f2 84be 6f9a 0bbe
000000f0: fbda cebe fd68 34be 04f2 463e e87d 313f
00000100: 05a2 333d a121 0fbf eb4e d83d e4e3 32be
00000110: 1ddc c23e 5bd1 0ebf 89b7 87be f1b7 bc3e
00000120: f9cf ba3c 4554 f7be 0ef7 ffbe 1b32 cbbb
00000130: 5222 e53d b668 f5be a45c f7be 7579 0dbe
00000140: 967f f2bd ad8c ac3e cb35 0fbf c639 6abe
00000150: f3f7 05bf 1151 bd3d cd07 97be c47d 1d3c
00000160: da49 f7be 278a e8be 60d9 f4be 436f 2fbf
00000170: d69a ba3e 5937 a9bd d83d 0bbf 4023 cf3e
00000180: 8c21 06be c4b5 883e 9144 37be fa50 f7be
00000190: 5dd8 013e d211 b83e 801c 10bf d670 f4bd
000001a0: 0cab eb3d 45b6 873d 48a7 18be 12c6 37be
000001b0: 3d71 07bf 9a60 743d 4b31 0bbf d53d f4be
000001c0: 02cf 3dbe 4cfd d1be 124d b73e f8dd c73e
000001d0: e4bb e53e 5dc6 c6be eab2 5e3e b73d b13e
000001e0: 3d39 d43b 6484 da3e bb43 a73e 222e e23e
000001f0: 5fd8 803e 33a2 dd3d 6e16 bdbe 60cf a4be
00000200: ae2b 8cbe c0c7 af3e 9c51 09be 2f17 413e
00000210: 72f5 31bf b9f4 62be 85c7 26be 0ebc bebe
00000220: 394d 4b3e 0371 24bf f8d3 72be 6afe 6abe
00000230: 30ce 05bf 5b3f 5b3e 611d 3cbe 26fd 383e
00000240: 4dc6 cc3e bcdb 343f 7b02 4dbd 317b 143e
00000250: 006e 003f b8a0 59bd 4a4e 1ebe 7472 febc
00000260: a98f bf3d f628 fb3e 6b57 34bf 9c1f 803e
00000270: 2960 633e 1ec9 c6be ddf0 403d 0b8b 803e
00000280: 9918 583d 26dc db3e 31a7 513e 7b50 26bf
00000290: 9966 04be e4d9 a43e 412e 8ebe fa2a 7c3e
000002a0: 1148 083e e1d8 bfbd 5073 863b 258c f83d
000002b0: a348 cabe a06a d93e 2306 713e 5be0 a53e
000002c0: b9b1 133f 14b9 ffbd acbc d0be a3f7 d73c
000002d0: ef82 80be f0b3 503e 79d5 353f b229 02bf
000002e0: f37e 00be 4057 113f b4fa ebbe 800a ccbd
000002f0: f744 e13e 8f8c ce3e a200 aebd f4fc 7ebe
00000300: 4ebf 38be 9289 04bf 89be cebe 037b 0abf
00000310: 9dad f63e 7b79 9a3e 15bb af3e ed7e 14be
00000320: 96be bb3e bda7 62be 6b15 9d3e f276 49be
00000330: 020e 8bbe 64a7 a7be d1d8 a1be ca49 07bf
00000340: 1df5 8a3d d621 c8be c1b8 d53d df78 bc3e
00000350: 3982 87bd 965c 8f3e 824d 593a 019e 5c3e
00000360: 1ca3 bebe 6b8b 81bd fb01 45be eef1 a23e
00000370: 68aa 04bf 9626 a6be df3f c8bd 9fb5 323f
00000380: 1a02 c83e b342 07bf ae1f 14bf 3c6b b73e
00000390: e451 ac3d ab2f fdbe 65ee 7dbe c73b 813e
000003a0: 8a17 98be 3089 0cbf 9c82 b6be be35 25be
000003b0: 471b 4bbe e6cc a33e 77ed 8d3e e83f e4be
000003c0: 6d50 70be 2e3b e4be dfd5 693e 1d83 413f
000003d0: c8a8 0f3f 6e84 f13d 4018 4abe 4dce 6bbc
000003e0: 414c 553e dc3f 38bf ef12 b0bd 5948 f0be
000003f0: ba33 4cbf ef14 9ebc 5261 a7be c340 bbbe
-0.2632948 0.10554941 -0.4430491 0.2320682 -0.5741139 0.5008243 0.38719282 -0.20606917
0.08537289 -0.3333488 -0.3909609 -0.29240245 -0.45963103 0.2134 -0.322632 -0.13200668
-0.44244143 -0.3627272 -0.63389915 -0.4149669 0.6301758 0.053592104 -0.55061835 -0.09636219
-0.12069249 0.28121465 0.7504097 0.13941605 0.24666707 -0.37040502 -0.07442445 -0.22272143
-0.041895673 0.67719406 0.23431203 0.7015806 -0.46954238 -0.19932595 0.16215245 0.2544145
-0.53072405 -0.28354308 0.08375074 -0.5559003 0.037863415 -0.16614543 -0.1496076 0.30963778
0.24916032 0.5885716 0.42561582 -0.015788985 0.47204542 0.45948002 -0.52343017 0.11463878
0.067652315 -0.40758756 -0.25966093 -0.1363313 -0.40401444 -0.17618175 0.19428259 0.6933274
0.043855686 -0.5591069 0.105619274 -0.17469746 0.38058558 -0.557882 -0.26507214 0.36859086
0.022804247 -0.4830648 -0.49993175 -0.0062010414 0.11188187 -0.4793145 -0.48312867 -0.13815863
-0.11840741 0.33701077 -0.55941457 -0.22873601 -0.52331465 0.09243978 -0.2949814 0.009612504
-0.48298532 -0.45417902 -0.47822094 -0.68529147 0.36446255 -0.0826251 -0.5439124 0.4045658
-0.13098735 0.26701176 -0.1789725 -0.48303968 0.12680192 0.35951096 -0.5629349 -0.11935584
0.11507234 0.06626562 -0.14907563 -0.17946652 -0.5290716 0.05966244 -0.5437209 -0.47703424
-0.18535998 -0.41013563 0.35800987 0.39036536 0.44869912 -0.38823214 0.21747938 0.34617397
0.00647655 0.4267913 0.32668862 0.44175822 0.25165078 0.10821953 -0.36931175 -0.32189465
-0.27377075 0.34332085 -0.13410038 0.188565 -0.69515145 -0.22163667 -0.16287048 -0.3725285
0.19853677 -0.6423494 -0.23713672 -0.22948614 -0.5226774 0.21410887 -0.18370582 0.18065318
0.3999504 0.7064779 -0.050051194 0.14500119 0.50167847 -0.05313179 -0.15459552 -0.031060435
0.09353573 0.49054688 -0.7044589 0.25024116 0.22204651 -0.38825315 0.047104705 0.2510608
0.052757833 0.42941397 0.20473935 -0.64966553 -0.12929763 0.32197487 -0.27769664 0.2462577
0.13308741 -0.09367538 0.004103102 0.121361054 -0.39508542 0.4246416 0.23537497 0.32397732
0.5769306 -0.12486473 -0.40768945 0.0263632 -0.25099894 0.2038114 0.7102886 -0.5084487
-0.12548427 0.5677376 -0.4608971 -0.0996294 0.43997929 0.40341613 -0.084962144 -0.24901181
-0.18041727 -0.51772416 -0.40379742 -0.5409395 0.4817933 0.30170807 0.3432242 -0.14501543
0.36668843 -0.221343 0.30680403 -0.1967428 -0.27159125 -0.32744896 -0.3161073 -0.5284697
0.06785033 -0.39088315 0.1043563 0.36810967 -0.06616635 0.28000325 0.00082894426 0.21544649
-0.37233818 -0.0632542 -0.19239037 0.31825203 -0.5182252 -0.32451314 -0.097778074 0.6980838
0.39064103 -0.5283615 -0.5786084 0.35824 0.08414057 -0.4945043 -0.24797972 0.2524092
-0.2970546 -0.5489683 -0.35646522 -0.16133782 -0.19834624 0.31992263 0.27720234 -0.44580007
-0.2346818 -0.445764 0.22835492 0.7559069 0.56116915 0.11792837 -0.19735813 -0.014392448
0.2082987 -0.7197244 -0.08597361 -0.46930197 -0.7976643 -0.019297091 -0.32691437 -0.36572847

fc2.weight f4 [64, 256]
00000000: 3b4a 303e 7bbe 783e 5043 1c3c 23ae 1fbe
00000010: 4deb 833e 3b20 23be 67f0 acbb 209d acbc
00000020: ae76 3c3d bdcb a93e 6dba e93c f816 8fbc
00000030: af78 883d 0096 9cbe ec03 723d 7215 2c3e
00000040: c4c9 47bd 06ff 403d 0138 0b3c 9c3f 5e3d
00000050: e037 81be cdf7 0f3e 6a9c 193d c803 6d3c
00000060: a4b8 5a3d f768 b3bc 0ded 01bf 7650 6bbd
00000070: 7472 0d3e cc75 e23d ff18 8c3e 786c 9dbe
00000080: 6ab3 623d 1712 23be 5661 15bd 467f afbe
00000090: fe6c e63d 08fc 503d c5cb c9bd b680 e93d
000000a0: f2c8 6ebd f05d eabb 4088 58bb cb94 203e
000000b0: 60d0 29bd f705 d53c 7a38 663d aab6 663d
000000c0: e3b6 dbbb 776f 25bd 3346 55be 96ec 47bd
000000d0: 2862 8cbc 348a 783d eb25 283d 755d b73d
000000e0: f4d5 703d 0d25 bc3d 3712 963d 181c 2a3d
000000f0: d20d 703d 189b 2f3c ce05 4fbd c2a7 bebe
00000100: fe44 04bd d84b 533d b44c 0d3e acd9 953c
00000110: fd9a debc 928b 3cbd 788b c83d 3b90 27bc
00000120: c1e6 8d3d d7c1 613e 20d6 75bc 0023 773a
00000130: 8815 0a3d c802 c53c c0e2 43bd b0e5 e33c
00000140: b0bb fdbc 6b5d a33d 9888 fd3c b5fb 713d
00000150: b3b9 ec3d 2cdb 92be 98d1 7fbd 2f31 ec3d
00000160: daa9 2fbd f0be 083c a1cd a03d 6d52 7c3e
00000170: ace7 2ebd a2d1 7abd 2f68 923d 0803 253c
00000180: 0288 3b3d 02df 3e3a 4c28 453d e89f a13c
00000190: d051 92bc 8084 58bc dcff 0bbd 1fd8 b73d
000001a0: 6608 32bd 6007 b03c 07f0 9f3d b43b 593d
000001b0: 2658 1d3e 46be 703e acbd e23c 1038 a7bb
000001c0: 1eb2 693d f303 393d f3b0 bcbe 2259 423d
000001d0: b8fe 78bd 67a7 8e3e fcf6 713d a606 acbc
000001e0: 7087 283c 30b2 34be c00f 22bd 8895 e7bc
000001f0: 069f 3e3d 22a0 9c3d 6da9 0a3d 20c3 e03b
00000200: 9c92 26bd ed99 7abc fe7a 8abc 6083 90be
00000210: 12e9 1a3e ad24 1e3e fe57 0ebd 7c66 88bc
00000220: bcf0 0b3c 2d0a 043e 2839 be3d 7810 cb3d
00000230: 3c55 bebc e982 bc3d 5c30 39bd eeca a73c
00000240: 183e eebd 06ab eabe e19b bc3c 6aed e63d
00000250: c879 6abc c957 be3d 136b 233c f5f5 e6bd
00000260: 1066 d23c 0e3b a3be febd b73d 2d78 873d
00000270: b554 d9be a611 95be 6c90 3e3d 144b d63c
00000280: bcda 0a3e e3bf c23b b65b c3be 91d7 063e
00000290: 7f97 763e 6ca5 7c3a a880 5c3d 9c2f 1f3d
000002a0: c0c5 faba f0ae e4bc 60c3 873b 10dd 8c3d
000002b0: a62b 223d 94df 5b3d 6f1d 353d e048 cb3c
000002c0: 70e9 c03c 760a 8b3d dc9e f83c b41d a33c
000002d0: eed6 573e a496 70bd bde6 a9be 7342 053e
000002e0: dd27 df3d 6274 d8bd 94be 2c3d 5c22 ae3c
000002f0: 29a4 3abd 201b 733b bc31 fe3d a479 133d
00000300: ec7e bc3e 4472 cabc 44dc 5fbe a4a9 4fbd
00000310: 7099 d3bc d194 fabc 3c83 e5bd 92bc 113d
00000320: acbb 5c3d aad6 093e da95 b1bc 8e1e 833d
00000330: 4cc7 c2bc 2e44 843c 5615 d83d 68f4 303d
00000340: 3a6f 603d cdbc ce3d acd4 f33d 1c41 9bbc
00000350: ede9 a93d 0cd9 89bc 2d74 013c 227a e73d
00000360: 400a 0c3c e3a0 1b3e 5894 d23c 3197 3dbc
00000370: a89c b9bc fecd 32bd 326d 223e f9e4 cfbe
00000380: 729c 4bbd f3b3 483e 0166 963e 9def cd3d
00000390: 7c46 303d a043 44bd 6cb8 4f3e 54f4 223d
000003a0: 6675 913e de57 4f3e 72ab 3a3d 55d5 9cbe
000003b0: 14d6 433e b439 cebd d8c0 d5bc 61dc 8b3d
000003c0: 75ab be3d f0c9 a1bb a738 0d3e 1a4c 9bbd
000003d0: 7cdd 05bd c6b2 863c b58c 133e c0be 94ba
000003e0: 34b8 283d 954e eb3d fdc3 bbbc d457 fdbc
000003f0: 0b7c 1d3d 945a 59bd 0b00 693e e62f 1ebd
0.17215817 0.24291413 0.009537533 -0.15593772 0.25765458 -0.15930264 -0.0052776816 -0.021071017
0.04601162 0.33163252 0.028531278 -0.017467007 0.066636436 -0.3058319 0.05908577 0.16805056
-0.048776403 0.04711821 0.008497239 0.05425988 -0.25237942 0.14059372 0.037502684 0.014466234
0.053398743 -0.021900637 -0.50752336 -0.05744978 0.13813192 0.11057624 0.2736282 -0.30746818
0.055346884 -0.1592487 -0.03646978 -0.3427679 0.11251257 0.051021606 -0.09853319 0.11401503
-0.058297105 -0.0071523115 -0.0033040196 0.1568176 -0.041458488 0.02600382 0.056206204 0.056326546
-0.0067051514 -0.040389504 -0.2082756 -0.04880961 -0.017136648 0.060678676 0.041051786 0.089533724
0.05879779 0.091867544 0.07327693 0.0415307 0.05860693 0.01071813 -0.050542645 -0.37237364
-0.03229236 0.051586002 0.13798791 0.01829227 -0.027173514 -0.046031542 0.097922266 -0.010227258
0.069287784 0.220466 -0.015004665 0.00094275177 0.03371194 0.024049178 -0.047823668 0.027819484
-0.030973285 0.079768024 0.030948922 0.059077937 0.11558857 -0.2868284 -0.062455744 0.115328185
-0.042886592 0.008346304 0.078517206 0.24640818 -0.04270141 -0.061235078 0.07148778 0.0100715235
0.045784004 0.00072811556 0.048134133 0.01972957 -0.017861277 -0.013215184 -0.034179553 0.08976769
-0.04346504 0.021487892 0.078094535 0.053035453 0.15365657 0.23510084 0.027678333 -0.0051031187
0.05705463 0.045169782 -0.36853752 0.047448285 -0.060789794 0.27862093 0.059073433 -0.020999264
0.010286197 -0.17646098 -0.0395658 -0.028269544 0.046538375 0.076477304 0.033852983 0.006859198
-0.04066716 -0.015295488 -0.01690435 -0.2822523 0.15127972 0.15443678 -0.034751885 -0.01665043
0.008541282 0.12894507 0.092882454 0.099152505 -0.023234002 0.09204657 -0.045212135 0.020482507
-0.11632937 -0.45833606 0.023023548 0.11275752 -0.0143112615 0.092940874 0.009974259 -0.11277381
0.025683433 -0.31880993 0.08971785 0.066147186 -0.4244744 -0.29115027 0.04652445 0.026158847
0.13560003 0.005943285 -0.38155907 0.1316817 0.24081229 0.0009637687 0.053833634 0.038863763
-0.001913242 -0.027915448 0.0041431636 0.06878102 0.039592408 0.053680018 0.044217523 0.024815023
0.023548812 0.06789105 0.030349188 0.019911624 0.21078083 -0.058737412 -0.33183852 0.1301363
0.10896275 -0.10569073 0.042173937 0.021256618 -0.04556671 0.0037095025 0.1241183 0.036004677
0.36815584 -0.02471269 -0.21861368 -0.05069889 -0.02583 -0.03058854 -0.112066716 0.035580225
0.053889915 0.13460794 -0.0216779 0.06402312 -0.023776673 0.016145792 0.105509445 0.043201834
0.054793574 0.10094605 0.11905798 -0.018951945 0.08296571 -0.016827129 0.007901234 0.11302592
0.008547366 0.15198092 0.025705501 -0.011571691 -0.022657707 -0.04365348 0.15861967 -0.4060438
-0.049709745 0.19599895 0.29374698 0.10055468 0.04303597 -0.047916055 0.20285195 0.03978379
0.2840988 0.20248362 0.04557366 -0.3063151 0.19124633 -0.100696 -0.026092932 0.06829143
0.093100466 -0.004937403 0.13791142 -0.075828746 -0.032681927 0.016442668 0.14409144 -0.0011348352
0.041191295 0.11489598 -0.022920603 -0.030925669 0.038448375 -0.053064898 0.22753923 -0.0386199

fc2.bias f4 [64]
00000000: bd5a 94bd 66e6 dcbc 2467 b1bc 5499 db3c
00000010: 7e70 30bd 70cd 933c ee67 4d3d 904c 5a3d
00000020: e53c d5bd 7045 373c 7a00 003d acc3 24bd
00000030: 7805 38bc b466 15be 96ca 93bd 44c0 aa3c
00000040: 3a01 4c3d db75 aabd e66e 0abe 40e7 dabd
00000050: 88be 01be 1b78 e0bc f8e7 533c c368 04be
00000060: 00d4 d53b c0c9 523c 0825 15bd c05a da3b
00000070: 698d 67bd ff6e 233d dca1 58bd b0ce 81bb
00000080: 57f7 2bbb 3d9b 54bd 0e1e 88bd 3026 373c
00000090: 2216 24bd 44fe a1bc 5e02 51bd 00f5 52ba
000000a0: 24c0 5fbd 25de 73bd 04bc 6d3d 3284 343d
000000b0: 4151 03be d2c3 9f3c 1a73 e6bd 6ea0 00be
000000c0: 7c5e 76bc 8818 0a3d 60da 3c3c f33a 2bbe
000000d0: 0745 1fbd d2e1 033d 8d23 cc3c 80db e33c
000000e0: 73be 15bd d514 f6bd 7beb 81ba d085 11bd
000000f0: 36c4 2dbd 4405 d03c 10e1 0c3d 72bc 92bd
-0.072438695 -0.026965331 -0.021655627 0.026806511 -0.04307603 0.018042296 0.050147943 0.053295672
-0.10412005 0.011185989 0.031250454 -0.04022567 -0.011231773 -0.1458996 -0.072163746 0.020843633
0.049805857 -0.083232604 -0.13518867 -0.10688639 -0.12670338 -0.02740102 0.012933724 -0.12930588
0.0065255165 0.012865484 -0.03641227 0.0066636503 -0.056531344 0.039900776 -0.052888736 -0.0039614066
-0.0026239955 -0.05190586 -0.066463575 0.011178538 -0.04006017 -0.019774564 -0.05102765 -0.0008047372
-0.0546266 -0.059538025 0.058040634 0.044071384 -0.12823965 0.019502554 -0.11252423 -0.12561199
-0.015037175 0.0337148 0.011526674 -0.16721706 -0.03888419 0.03219778 0.024919296 0.027814627
-0.03655858 -0.12015692 -0.0009912098 -0.035528004 -0.04242345 0.025393136 0.034394324 -0.07164849

fc3.weight f4 [2, 64]
00000000: 5df6 1cbe 86c0 b73d 70bd f03d a081 d3bc
00000010: 12a9 60be b009 90bc d015 1b3c acc4 57bd
00000020: 8c80 fdbd 78b9 333d e001 89bd c4ce 063d
00000030: 84ac 183d 1365 fcbd 7bb0 3cbe 15bb 623c
00000040: 806f 89bc ba5d 76be db04 71be 2afd 98be
00000050: fdf9 85be e3c2 8ebc 88b6 143d d7e8 4ebe
00000060: ac30 afbd fa2d c7bd e81e 7cbd c8a8 6a3d
00000070: 9a19 88bd 8057 42bd 2839 743d 28b5 2d3d
00000080: 1392 bc3c 7a2e a73c 0456 51be e086 bb3b
00000090: 4137 583d 64d1 5b3d 2ea6 09be 560a 80bd
000000a0: caea bfbd f60a 87bd f025 92bd 5ebf 883d
000000b0: dd2b 5cbe 0fe2 b23d bede 8dbe 96db c7bd
000000c0: bc38 de3d ab6c 2abc c100 ef3c 9313 6fbe
000000d0: 90f5 3b3d 08d6 dc3d ab44 46bb c8da d43c
000000e0: d465 723b 4df6 03be b327 183d fcfd 813d
000000f0: 9c10 89be 7c42 92bd a6bb ffbd a7db 5abe
00000100: 8ef3 5dbe 6789 0cbe b654 a33d e09c 37bc
00000110: fa55 64be e295 ce3d 0ae5 a5bd 6631 ae3d
00000120: 9a5f 88be aaa2 bb3d 1eb3 1e3d f2bd 8c3d
00000130: 38f2 933c 7c4f 7cbe fc72 2ebe aa18 563b
00000140: 6cf5 41bd 7180 e8bd 28f7 11be 9230 16bd
00000150: 2385 07bd d01c 82bc 0042 803b 8a30 41be
00000160: a883 f43d 647c b5bd 6caf 863d 1093 673d
00000170: 6ed4 48bc e53e c83d 984c 893d f61e f9bd
00000180: 164e 65bd 62e2 823d fe1b e9bd d0b2 a0bc
00000190: 68e8 de3d eb78 943c f76b 66be 1032 9fbd
000001a0: 1255 debd 7846 993c d602 adbd 485f e9bc
000001b0: 31e2 63bd b4dc 473d 80d5 dbbc 0efe 9cbe
000001c0: 18be ca3d 5cea fa3c 31bb 353d 55b9 c9bd
000001d0: 4716 dc3d ae75 e33d f7e7 50bc 62ee ccbd
000001e0: 9f6a 8c3d 9685 82be 0a9d 99bc 462c babb
000001f0: 3d69 eabd 90a6 78bc 4c18 febd 2b22 c8bd
-0.15328355 0.08972268 0.11754882 -0.025818646 -0.21939495 -0.017582744 0.00946565 -0.052677795
-0.12378034 0.04387805 -0.06689811 0.03291203 0.0372739 -0.12323966 -0.18426697 0.013838549
-0.0167768 -0.24059191 -0.23537008 -0.2988065 -0.26167288 -0.017426914 0.036306888 -0.20206009
-0.08554205 -0.09725566 -0.061552912 0.05728987 -0.06645508 -0.047446728 0.05962482 0.042409092
0.023018872 0.020407904 -0.20442969 0.0057228655 0.05278707 0.053666487 -0.13442299 -0.062519714
-0.09370954 -0.065938875 -0.07136142 0.066771254 -0.21501108 0.087345235 -0.27709 -0.097586796
0.10850665 -0.010401885 0.029175164 -0.2334731 0.045888484 0.10783011 -0.0030253332 0.02598323
0.0036986964 -0.12886925 0.037147235 0.06347272 -0.26770484 -0.07141587 -0.12486963 -0.21372853
-0.2167494 -0.1372429 0.07975142 -0.0112068355 -0.22298422 0.10087182 -0.08100326 0.08505516
-0.26635438 0.09161885 0.03874504 0.06872167 0.018059835 -0.24639696 -0.1703605 0.003266851
-0.047353193 -0.11352623 -0.14254439 -0.036667414 -0.033085953 -0.01588288 0.003914118 -0.18866172
0.11939174 -0.08861616 0.06576428 0.056536734 -0.012257678 0.09777621 0.06704062 -0.121641085
-0.05598267 0.06390835 -0.11382292 -0.019616514 0.10884172 0.018124064 -0.22502123 -0.077732205
-0.108560696 0.01871036 -0.084478065 -0.028487816 -0.055635635 0.048794463 -0.026835203 -0.30662578
0.09899539 0.03062933 0.044367973 -0.098498024 0.107464366 0.1110643 -0.012750617 -0.100064054
0.06856274 -0.25492543 -0.01875164 -0.0056815473 -0.11445854 -0.01517643 -0.12406978 -0.09772142

fc3.bias f4 [2]
00000000: ad75 673e 3219 523e
0.22603483 0.20517424
