checkpoints/dubins3d-discrete-v0__hj_dqn__1__1638911828_evalFalse/dqn_checkpoint_10332.pth (torch, 72343 bytes, 6 tensors)

fc1.weight f4 [256, 3]
00000000: 953c bd3e cc42 b7be dcc1 cebc 9fb6 c73e
00000010: 1de7 19bf 9057 113f 9a40 f3bd ea62 963e
00000020: 2360 a43d 956a 3ebd 4fdf 3c3e b6cc 9dbe
00000030: 433e b43e 5877 41be a1a1 e33d b05c a4bd
00000040: 5244 df3d 9b00 a3be a415 f03e 13d0 ae3c
00000050: cab7 75be 7288 b2be e430 c6bd f102 7fbe
00000060: 8873 3dbe a076 e23c a437 b03e cb0d fc3e
00000070: d57e 06bf ee10 f63e 77bc 2f3e 6292 f73e
00000080: 9b5a c23e ecaa 06bf f487 0cbf 3894 8ebe
00000090: e376 0e3f 2731 56be c94e c13e 7969 d7be
000000a0: c9ca 2e3f d2c3 56bd 42c3 cf3e ea80 3fbe
000000b0: 61ec 17be fe64 b93e 20a5 d2be 009c 763e
000000c0: 16b7 2abe 18a2 81bd 4318 0ebf 32f0 8cbe
000000d0: 8867 a03e 7bb5 0fbe 6119 223f f225 c03e
000000e0: 6a1a 933a 6b4f c5be e102 b43e 357c 373e
000000f0: 3208 e6be 616d 0a3f 51b6 0a3f 2e2e 143f
00000100: 19ba d9be 8854 9bbc 933e 37bc 48b3 ac3d
00000110: ba56 e0be 49c4 d1be 3fcf a03e 19a2 0abe
00000120: 826f a43e 522a 9ebd f46f 8c3e c105 d73d
00000130: c48b c63d 0f63 c53c f100 f4be 6644 0a3f
00000140: 7ac7 eabd 0e09 dfbe c3d0 0f3d e17d c9bd
00000150: 4bdf ca3e e58a e5be 71ff 0abf 621d f43e
00000160: 5b20 40be a36d fa3e e8f4 ac3e 04d8 d6be
00000170: 3759 5a3e 246f 8e3e 62b6 e2be ba92 1fbf
00000180: 444a 4f3e 52af 31bd 6a9c aebe 7d9b 17be
00000190: d3b6 0a3f d1e4 0ebf ba36 ae3e 2e08 043e
000001a0: 7b60 07bf fe7b 0ebf 4c01 373f 1928 9a3e
000001b0: b900 d13e d2c8 babc 8f04 8b3e 9080 e73e
000001c0: 0072 de3e cafc e6be 6c98 883d 034d b83e
000001d0: 1ddd 693e 7350 c33e bfba 11bf 708b cabe
000001e0: c3c5 b2be 6d8b 943d 094f 133f b5b9 babe
000001f0: 7985 9d3e e99c a3be 28f7 0abf 4b4f fbbd
00000200: 6b51 aa3e 9150 113f 223f 01bf 5473 883e
00000210: 54dc b93e 39f9 343e f522 783e 6202 e23e
00000220: 452a 853e 70d0 c03d b723 cabe 443c f8be
00000230: 9873 87be ebaf 89bd d330 b5be 8d4b 583e
00000240: 070b 533e c8de 82be d895 773e 2b92 273e
00000250: 745c 833e e4ba 203e 525c 6bbe 7293 213f
00000260: c248 90be f17d a2bc ce81 0bbf 4e41 bebe
00000270: 47b1 acbe 66df 7cbe 3c2a d23e f431 41be
00000280: 18e6 dcbe 7a77 633e 0f5c f53d 9b0c 393e
00000290: d7e6 93be 1a30 493e 0e24 9dbe 326a 15be
000002a0: 5d92 ebbe 76b9 86be c60f 35be 69cf 9b3e
000002b0: 84ec 403c f7ac 5d3e 13f5 1a3f b656 ef3e
000002c0: 07aa b83e e29b 963c f07e ccbe 5104 e73e
000002d0: d3d6 13be 6d2f 3fbd 76a9 febe 7a8f e9bd
000002e0: 1aa9 bebe dad0 073f 288e ffbe ee6a e6be
000002f0: fa99 a0bc a50d 82be c11d c63e 3b4a b4be
00000300: 5ad7 8abe 2ff0 053d 95fc d53e 35ef cfbe
00000310: 33d1 8a3e 67e8 bd3e 79b3 193f ca01 0cbf
00000320: 8e99 393e b993 dabe 155f fc3e 3255 65be
00000330: 112f bb3e aca6 d2bd b65c a7bd aee9 96bc
00000340: f500 c93d a458 8b3e 61e2 0f3e d76f 963d
00000350: e30d 31bf 8a03 a03e dcdd a73e 08e9 873e
00000360: 4a95 e33e f5af 14bf f126 2bbe b51b 123f
00000370: 8b7a 0ebf 4980 383f a87d e8be bb39 d0be
00000380: 9483 903e 4463 d4be 2472 07be 8c0c d73e
00000390: 6981 f53e d336 e13e 84bc 1bbe c9c2 e5be
000003a0: f286 113f 8ee2 fbbd 423e 73be e71e 103e
000003b0: 00b9 cebe 6bea da3e 75b9 863e 6c1b 06bf
000003c0: e8cc f2be 7d26 4fbd 6552 783e b2a4 a63d
000003d0: 79b9 9bbe f201 4ebd 6eec 0abf c1eb d0be
000003e0: adc7 c4be 19d7 fc3e 465d ca3e eef4 8ebe
000003f0: 9ce7 da3d 7011 653e 23da c53d 8a44 a4be
0.36960283 -0.3579315 -0.025238924 0.39006516 -0.60118276 0.56774235 -0.11877556 0.2937234
0.08026149 -0.046488363 0.1844456 -0.30820245 0.35203752 -0.18893182 0.11114813 -0.08025491
0.10901703 -0.318364 0.4689151 0.021339452 -0.23995891 -0.34869725 -0.09677294 -0.24903466
-0.18501103 0.027644455 0.3441745 0.49229273 -0.5253728 0.4805979 0.17161737 0.4835387
0.3795975 -0.52604556 -0.5489495 -0.27847457 0.55650157 -0.20917188 0.3775542 -0.42072657
0.68278176 -0.052432843 0.40578657 -0.1870152 -0.14836265 0.36209863 -0.41141605 0.24082947
-0.16671404 -0.06329745 -0.5550577 -0.27527004 0.31328988 -0.14034073 0.63319975 0.3752895
0.0011223082 -0.38537154 0.35158446 0.17918475 -0.44928128 0.5407315 0.5418444 0.57882965
-0.42524794 -0.018961206 -0.011184352 0.08432633 -0.43816167 -0.40970066 0.31408116 -0.13538398
0.32116324 -0.07722916 0.27429163 0.10499144 0.09694627 0.024095086 -0.47656968 0.5401062
-0.114638284 -0.43561596 0.0351112 -0.098384626 0.39623484 -0.4483253 -0.5429602 0.47678667
-0.18762343 0.4891177 0.337806 -0.41961682 0.21323095 0.2781917 -0.44279772 -0.6233326
0.20243174 -0.04338009 -0.3410371 -0.14805408 0.5418522 -0.55817896 0.34026128 0.12893745
-0.5288159 -0.5565795 0.71486354 0.30108717 0.40820864 -0.022800837 0.27151915 0.45215273
0.4344635 -0.45114738 0.06669697 0.35996255 0.22838254 0.38147315 -0.56925577 -0.39559507
-0.34916505 0.07253156 0.57542473 -0.36469808 0.30765894 -0.3195565 -0.5428338 -0.12270983
0.33265242 0.5676356 -0.5048696 0.26650488 0.3630091 0.17673196 0.24232085 0.44142443
0.26008812 0.09414756 -0.39480373 -0.4848348 -0.2645538 -0.06723007 -0.35388812 0.2112257
0.20609675 -0.25560594 0.24178255 0.16364352 0.25656474 0.15696293 -0.22984436 0.6311561
-0.2818051 -0.019835444 -0.5449494 -0.371592 -0.33729002 -0.24694595 0.41047847 -0.18866712
-0.43144298 0.22213545 0.119804494 0.18071215 -0.28887054 0.19647256 -0.3069157 -0.14591292
-0.46010104 -0.2631337 -0.17681798 0.3043168 0.01177514 0.21648012 0.60530204 0.46745843
0.3606722 0.018384878 -0.39940596 0.4512048 -0.14437418 -0.046676088 -0.49738663 -0.11404319
-0.3723839 0.5305306 -0.49913144 -0.45003456 -0.019604672 -0.25401035 0.38694575 -0.35212883
-0.27117425 0.03269976 0.41794267 -0.40612188 0.2711273 0.3709137 0.6003948 -0.5469023
0.18124983 -0.42690828 0.49291292 -0.2239578 0.36559346 -0.102856964 -0.0817198 -0.018421974
0.09814636 0.27216065 0.140512 0.073455505 -0.69161814 0.312527 0.32786453 0.26544976
0.44449836 -0.5808099 -0.16714074 0.5707353 -0.55655736 0.7207075 -0.45408368 -0.40669045
0.28225386 -0.41481984 -0.13227135 0.4200176 0.47950295 0.4398714 -0.15208632 -0.44875172
0.56846535 -0.12299071 -0.23754218 0.14074288 -0.4037552 0.42756972 0.26313367 -0.5238559
-0.47421956 -0.050573815 0.24250181 0.08136882 -0.30414942 -0.050294824 -0.54267013 -0.40804866
-0.3843359 0.49382856 0.39524287 -0.27921242 0.10688707 0.22369933 0.09660747 -0.3208354

fc1.bias f4 [256]
00000000: 1ed2 96be 565b 963d 55d7 e2be 69c0 843e
00000010: f3b7 1bbf db0a 083f f6b8 b23e cc03 53be
00000020: fbd7 ae3d 39d4 bbbe 4707 e3be c6b5 95be
00000030: 6b2b febe 9500 753e 89e1 b6be 99b4 28be
00000040: af87 e2be 61b7 b9be 3ed5 2bbf 8b76 d4be
00000050: b346 293f fe23 ab3c 53f5 0cbf 8a59 c5bd
00000060: 0862 23be e93e 8c3e e779 4a3f 15c3 0e3e
00000070: c05c 643e d18b d0be e253 d9bd 5713 55be
00000080: 196e 8ebd 5070 343f 7ccb 533e 91be 3c3f
00000090: d0a7 02bf cd83 75be e07f 203e 3f2c 6b3e
000000a0: 88dd 07bf 8f2c 91be 8285 ab3d 6216 17bf
000000b0: 12f2 07bd 51f2 55be bc32 19be d888 9e3e
000000c0: b1c9 593e 493a 183f 1eb8 e73e e757 81bc
000000d0: f0af f13e f740 eb3e f196 11bf 4d90 bc3d
000000e0: 4c8d 8a3d fc69 e5be 7772 9dbe 6f9a 0bbe
000000f0: fbda cebe fd68 34be 04f2 463e 3127 393f
00000100: 05a2 333d a121 0fbf b431 913d e4e3 32be
00000110: 109a b03e 5bd1 0ebf 343d 8fbe 2dba a73e
00000120: 0668 d1bb bcab 04bf 0ef7 ffbe 1b32 cbbb
00000130: 72fd 913d b668 f5be a45c f7be f789 30be
00000140: 967f f2bd 9c1a a63e cb35 0fbf f422 8bbe
00000150: 6f20 0fbf b90d f73d cd07 97be 91cc e0bc
00000160: da49 f7be 278a e8be c06c 05bf 5dcd 37bf
00000170: d69a ba3e 5937 a9bd bdff 14bf 4023 cf3e
00000180: 8c21 06be bfb5 883e 9144 37be fa50 f7be
00000190: 5dd8 013e d211 b83e 801c 10bf 994a 1ebe
000001a0: 0cab eb3d 45b6 873d 85d8 3dbe 12c6 37be
000001b0: d19e 0fbf e5d1 ff3c 2720 17bf d53d f4be
000001c0: 02cf 3dbe 4cfd d1be 0384 c83e f8dd c73e
000001d0: e4bb e53e d6cd d6be 256e 313e 8735 b13e
000001e0: 3d39 d43b bd25 e83e bb43 a73e 222e e23e
000001f0: 0bb1 6d3e 3a82 ba3d 8be7 cebe 60cf a4be
00000200: ae2b 8cbe 70df a63e 88f2 07be 63c2 303e
00000210: fe73 3cbf 7dd8 83be 85c7 26be 0ebc bebe
00000220: a771 283e ea59 2dbf 846f 87be 6ed5 85be
00000230: 30ce 05bf 7996 353e 611d 3cbe a20b 433e
00000240: f3b7 d73e f6a4 3e3f c1da afbd c2a3 e33d
00000250: f0a6 053f b11d a3bd 5bef 53be 1ce2 d1bc
00000260: a98f bf3d f581 053f 20d5 3dbf 4a64 653e
00000270: 6003 7b3e d2fd b5be 51e9 563c 018d 6c3e
00000280: a36d b43c 2be7 e23e 8485 773e b0c6 2fbf
00000290: 4815 25be 5efc 973e 412e 8ebe fa2a 7c3e
000002a0: 1148 083e e1d8 bfbd 5073 863b f915 bb3d
000002b0: a348 cabe 09d7 d33e 814a 553e 5be0 a53e
000002c0: b9b1 133f 2f5b 33be acbc d0be a3f7 d73c
000002d0: 2b4c 90be f0b3 503e ea96 2b3f 2bdd 0abf
000002e0: 0994 1ebe df20 173f b4fa ebbe 800a ccbd
000002f0: 05ec da3e 8f8c ce3e a24d ebbd f4fc 7ebe
00000300: 5adc 58be 9289 04bf f69b c4be 037b 0abf
00000310: c961 f23e d7ba 833e 6ea8 bb3e ed7e 14be
00000320: 2059 a63e 00f6 7fbe 383d 8f3e 3c9e 6cbe
00000330: 020e 8bbe b2a9 bdbe f22d b7be ca49 07bf
00000340: 953b df3c c809 dcbe bf61 913d df78 bc3e
00000350: e717 bdbd 965c 8f3e 9318 3fbd c1ad 393e
00000360: 1ca3 bebe d186 bcbd fb01 45be 255a 8e3e
00000370: 68aa 04bf 9626 a6be b762 02be 6219 3c3f
00000380: 1a02 c83e 9420 0fbf a32c 1dbf fbae a83e
00000390: e451 ac3d ab2f fdbe 2803 8ebe c73b 813e
000003a0: 8807 abbe d2bc 14bf 9c82 b6be a0b5 fbbd
000003b0: 0787 6bbe e5fc b13e 77ed 8d3e e69d f4be
000003c0: 3cf8 8dbe 2e3b e4be 6997 4e3e 0e85 473f
000003d0: c8a8 0f3f 1ad7 ba3d 4b9a 66be 4dce 6bbc
000003e0: 414c 553e 5d12 43bf fbd5 11be 5948 f0be
000003f0: 1cda 56bf ef14 9ebc 247f b7be c340 bbbe
-0.29457182 0.0734164 -0.4430491 0.25928047 -0.6082756 0.53141564 0.3490674 -0.20606917
0.08537289 -0.3668535 -0.4434149 -0.29240245 -0.496425 0.23926003 -0.35718945 -0.16475143
-0.44244143 -0.3627272 -0.67122257 -0.4149669 0.66123503 0.020891186 -0.55061835 -0.09636219
-0.15955365 0.27391747 0.7909226 0.13941605 0.22301006 -0.4073167 -0.106117025 -0.20808159
-0.06954593 0.70483875 0.20683092 0.7372828 -0.5103731 -0.2397606 0.1567378 0.22966097
-0.53072405 -0.28354308 0.08375074 -0.5901853 -0.03318984 -0.20893218 -0.1496076 0.30963778
0.21268345 0.59463936 0.45257658 -0.015788985 0.47204542 0.45948002 -0.56870943 0.09207211
0.067652315 -0.44807422 -0.30751392 -0.1363313 -0.40401444 -0.17618175 0.19428259 0.72325426
0.043855686 -0.5591069 0.07089558 -0.17469746 0.3449254 -0.557882 -0.27976382 0.32759228
-0.0063905744 -0.51824546 -0.49993175 -0.0062010414 0.07128419 -0.4793145 -0.48312867 -0.1724013
-0.11840741 0.32442176 -0.55941457 -0.27175105 -0.55908865 0.12063164 -0.2949814 -0.027441295
-0.48298532 -0.45417902 -0.52119064 -0.71797734 0.36446255 -0.0826251 -0.58202726 0.4045658
-0.13098735 0.2670116 -0.1789725 -0.48303968 0.12680192 0.35951096 -0.5629349 -0.15458144
0.11507234 0.06626562 -0.18539627 -0.17946652 -0.5610171 0.031228015 -0.59033436 -0.47703424
-0.18535998 -0.41013563 0.39163217 0.39036536 0.44869912 -0.41953915 0.17327173 0.3461115
0.00647655 0.45341292 0.32668862 0.44175822 0.23212068 0.0910687 -0.40411028 -0.32189465
-0.27377075 0.32592344 -0.13276112 0.17261653 -0.7361449 -0.25751105 -0.16287048 -0.3725285
0.16449605 -0.6771532 -0.26452267 -0.26139396 -0.5226774 0.17733182 -0.18370582 0.19047406
0.4213253 0.7447046 -0.08586646 0.11115219 0.5220785 -0.079646476 -0.20696776 -0.025620513
0.09353573 0.52151424 -0.7415333 0.22401538 0.24513006 -0.35545212 0.01311715 0.23100664
0.022024935 0.44316992 0.24172026 -0.6866255 -0.161214 0.29684728 -0.27769664 0.2462577
0.13308741 -0.09367538 0.004103102 0.0913505 -0.39508542 0.41374996 0.20829202 0.32397732
0.5769306 -0.17515253 -0.40768945 0.0263632 -0.28183112 0.2038114 0.6702715 -0.54243726
-0.15486158 0.5903453 -0.4608971 -0.0996294 0.42758194 0.40341613 -0.11489417 -0.24901181
-0.21177807 -0.51772416 -0.3840024 -0.5409395 0.4734023 0.25728485 0.3665194 -0.14501543
0.32489872 -0.24996185 0.27976394 -0.23107237 -0.27159125 -0.3704353 -0.3577724 -0.5284697
0.02725009 -0.42976213 0.07098722 0.36810967 -0.09233075 0.28000325 -0.046654295 0.18132688
-0.37233818 -0.09205402 -0.19239037 0.2780315 -0.5182252 -0.32451314 -0.12732969 0.7347623
0.39064103 -0.55909085 -0.61396235 0.32946 0.08414057 -0.4945043 -0.27736783 0.2524092
-0.33404183 -0.58100617 -0.35646522 -0.122905016 -0.23000728 0.34763256 0.27720234 -0.47776717
-0.2772845 -0.445764 0.20174946 0.779374 0.56116915 0.091230586 -0.22519796 -0.014392448
0.2082987 -0.76199895 -0.14241783 -0.46930197 -0.8392656 -0.019297091 -0.35839188 -0.36572847

fc2.weight f4 [64, 256]
00000000: 4a77 353e f1af 633e 5043 1c3c 138e 1cbe
00000010: 188a 933e cbb6 32be 80f1 c1bb 209d acbc
00000020: ae76 3c3d e62e ad3e 1a62 283d f816 8fbc
00000030: a1e3 9d3d 5894 bcbe 6270 893d ed95 293e
00000040: c4c9 47bd 06ff 403d 2230 a73c 9c3f 5e3d
00000050: f57c 9dbe eaca 0e3e 6a9c 193d c803 6d3c
00000060: 45fb 673d 3bef b1bc 0bdd 25bf 7650 6bbd
00000070: 5c19 063e 22f6 f43d 4c7d 883e 5a7e c5be
00000080: 162b 703d 0495 27be 8695 10bd f77f d8be
00000090: d631 003e 912b 6f3d 3136 c0bd 2485 d13d
000000a0: f2c8 6ebd f05d eabb 4088 58bb 1bd6 2d3e
000000b0: 8f46 1ebd 7913 043d 7a38 663d aab6 663d
000000c0: 2b0a abbc 73d2 2bbd 06a7 54be 96ec 47bd
000000d0: 2862 8cbc 348a 783d 5449 893d 9cfb 983d
000000e0: f4d5 703d 44a7 d73d c8a8 a43d 181c 2a3d
000000f0: d20d 703d 189b 2f3c ce05 4fbd ef7a c8be
00000100: fe44 04bd d84b 533d 9de3 093e acd9 953c
00000110: cd72 f9bc 928b 3cbd e988 ea3d 6b79 0abc
00000120: 9b70 813d 3ea3 6c3e 20d6 75bc 0023 773a
00000130: 8ef3 193d c802 c53c c0e2 43bd 5879 0b3d
00000140: b0bb fdbc ac10 103d 9888 fd3c 2013 883d
00000150: f183 1f3e 0d20 b0be 98d1 7fbd 281d e93d
00000160: daa9 2fbd f0be 083c 28fa ca3d 5048 873e
00000170: ace7 2ebd a2d1 7abd 0177 ac3d 0803 253c
00000180: 0288 3b3d 02df 3e3a 4c28 453d e89f a13c
00000190: d051 92bc 8084 58bc dcff 0bbd 51e2 be3d
000001a0: 6608 32bd 6007 b03c d4b0 ab3d b43b 593d
000001b0: fb4c 303e c4e8 643e 00d5 313d 1038 a7bb
000001c0: 1eb2 693d f303 393d a23b dfbe 2259 423d
000001d0: b8fe 78bd b33c 973e 86b2 783d 4a4a a5bc
000001e0: 7087 283c 1449 39be c00f 22bd 8895 e7bc
000001f0: a6c8 58bc a6b6 493d 11c2 383d 20c3 e03b
00000200: 9c92 26bd 5b2b d6bc 6e95 baba f0f1 a6be
00000210: ada1 2b3e 414d 1f3e fe57 0ebd 7c66 88bc
00000220: d57e 2e3b 489c 1a3e 5c0c d33d fe00 d23d
00000230: 3c55 bebc 662c bc3d 5c30 39bd c467 09bb
00000240: f57e f7bd 4c5d 0ebf c0c4 ea3c 2446 ca3d
00000250: 5512 8bbc a7a8 bc3d 81a6 813c d198 cebd
00000260: 1066 d23c 3c5f a7be f503 dc3d f01b 463d
00000270: 6adb febe 2e00 b2be 614e 503d d3e4 d83c
00000280: 1470 fd3d ac50 ff3b d357 ebbe fad5 1d3e
00000290: afe4 733e 4ee1 0c3b a880 5c3d 9c2f 1f3d
000002a0: c0c5 faba f0ae e4bc 60c3 873b ede5 923d
000002b0: a62b 223d 91b9 013d 1388 173d e048 cb3c
000002c0: 70e9 c03c 2e65 963d dc9e f83c b41d a33c
000002d0: 978c 5b3e a496 70bd efc4 c1be ca4f 153e
000002e0: 03f6 dd3d 4b07 dbbd 94be 2c3d 5c22 ae3c
000002f0: 0080 52bd 201b 733b fc80 003e a479 133d
00000300: b771 bd3e 4472 cabc b7f3 81be a4a9 4fbd
00000310: d137 cdbc ae21 f6bc b36d dfbd 92bc 113d
00000320: 97ce 4b3d 92d1 0e3e 5dc3 9cbc 4353 8f3d
00000330: 4cc7 c2bc 7544 ca3c 97c2 e73d 68f4 303d
00000340: d892 723d 0ce1 e23d eb8f f03d 1c41 9bbc
00000350: b85e a33d 0cd9 89bc 3586 493c 69f8 ac3d
00000360: 400a 0c3c fc8b 183e 5894 d23c a6cd 5cbc
00000370: a89c b9bc fecd 32bd 838a 233e 107d 0cbf
00000380: 729c 4bbd 1ecc 5b3e 8746 a03e b115 bc3d
00000390: 7c46 303d a043 44bd c897 543e 54f4 223d
000003a0: 72d5 953e 8013 5d3e 72ab 3a3d cb7b b8be
000003b0: f8d7 443e fd75 c7bd d8c0 d5bc 4d43 af3d
000003c0: 993b cd3d f0c9 a1bb f269 db3d a4cf a6bd
000003d0: 7cdd 05bd c075 a23c 8940 183e c0be 94ba
000003e0: 34b8 283d 53eb 073e 86bb 90bc d457 fdbc
000003f0: d273 6d3d 945a 59bd 6b5e 6e3e e62f 1ebd
0.17721286 0.22235085 0.009537533 -0.15288572 0.28816295 -0.17452542 -0.0059186816 -0.021071017
0.04601162 0.33824843 0.041109182 -0.017467007 0.077094324 -0.36831927 0.067108884 0.16561098
-0.048776403 0.04711821 0.020408694 0.05425988 -0.30759397 0.13944593 0.037502684 0.014466234
0.056636114 -0.02172052 -0.6479041 -0.05744978 0.13095611 0.119610086 0.26658094 -0.3857296
0.05863484 -0.16365439 -0.035298847 -0.4228513 0.12519011 0.058391158 -0.09385336 0.10230473
-0.058297105 -0.0071523115 -0.0033040196 0.16976206 -0.03864151 0.032245133 0.056206204 0.056326546
-0.020878872 -0.041948747 -0.2076684 -0.04880961 -0.017136648 0.060678676 0.06703439 0.07469866
0.05879779 0.1052995 0.08040005 0.0415307 0.05860693 0.01071813 -0.050542645 -0.3915629
-0.03229236 0.051586002 0.13465734 0.01829227 -0.03045025 -0.046031542 0.11451895 -0.0084518
0.06320306 0.23109147 -0.015004665 0.00094275177 0.037585787 0.024049178 -0.047823668 0.03405127
-0.030973285 0.03517215 0.030948922 0.06644273 0.15577675 -0.34399453 -0.062455744 0.11382514
-0.042886592 0.008346304 0.09910995 0.26422358 -0.04270141 -0.061235078 0.08421136 0.0100715235
0.045784004 0.00072811556 0.048134133 0.01972957 -0.017861277 -0.013215184 -0.034179553 0.0932051
-0.04346504 0.021487892 0.08383337 0.053035453 0.17216866 0.22354418 0.043416023 -0.0051031187
0.05705463 0.045169782 -0.43600184 0.047448285 -0.060789794 0.29538497 0.06071713 -0.020177025
0.010286197 -0.18094283 -0.0395658 -0.028269544 -0.013231432 0.049246453 0.04510695 0.006859198
-0.04066716 -0.02614372 -0.0014235207 -0.3260646 0.16760893 0.15556814 -0.034751885 -0.01665043
0.002662589 0.15098679 0.10305092 0.102540955 -0.023234002 0.09188156 -0.045212135 -0.002096639
-0.12084762 -0.5561111 0.02865827 0.098766595 -0.016976515 0.092118554 0.015826466 -0.10087741
0.025683433 -0.32689846 0.10742942 0.048366487 -0.49776775 -0.34765762 0.050855998 0.0264763
0.12374893 0.0077915993 -0.45965442 0.15413657 0.23817705 0.0021496597 0.053833634 0.038863763
-0.001913242 -0.027915448 0.0041431636 0.07172761 0.039592408 0.03167111 0.036995005 0.024815023
0.023548812 0.07343517 0.030349188 0.019911624 0.2144035 -0.058737412 -0.3784556 0.14581218
0.10837939 -0.106947504 0.042173937 0.021256618 -0.0513916 0.0037095025 0.12549204 0.036004677
0.3700082 -0.02471269 -0.25381252 -0.05069889 -0.02505103 -0.030045357 -0.10909595 0.035580225
0.049757566 0.13947132 -0.019136125 0.06998303 -0.023776673 0.024690846 0.11316412 0.043201834
0.059222072 0.110780805 0.117462 -0.018951945 0.079770505 -0.016827129 0.012300064 0.08445818
0.008547366 0.1489715 0.025705501 -0.013476765 -0.022657707 -0.04365348 0.15970807 -0.5487833
-0.049709745 0.21464583 0.31303808 0.09183825 0.04303597 -0.047916055 0.20761025 0.03978379
0.29264408 0.2158947 0.04557366 -0.36031947 0.1922301 -0.09739301 -0.026092932 0.085577585
0.10021133 -0.004937403 0.10713567 -0.08145073 -0.032681927 0.019831538 0.14868368 -0.0011348352
0.041191295 0.13273363 -0.017667543 -0.030925669 0.057971783 -0.053064898 0.23278205 -0.0386199

fc2.bias f4 [64]
00000000: 958a c7bd 66e6 dcbc 2467 b1bc 5499 db3c
00000010: 21f9 83bd 70cd 933c ee67 4d3d 904c 5a3d
00000020: 5776 05be 7045 373c 7a00 003d acc3 24bd
00000030: 7805 38bc 2c9f 2dbe 5071 c5bd 44c0 aa3c
00000040: 3a01 4c3d 79d1 d8bd 40d6 20be 38d8 febd
00000050: a668 13be 1b78 e0bc f8e7 533c 7ae4 1abe
00000060: 00d4 d53b c0c9 523c 0825 15bd c05a da3b
00000070: 698d 67bd ff6e 233d dca1 58bd b0ce 81bb
00000080: 57f7 2bbb 3d9b 54bd fde4 bbbd 47ba 2ebc
00000090: 2216 24bd 44fe a1bc daaa 9abd 00f5 52ba
000000a0: 24c0 5fbd 25de 73bd 04bc 6d3d 3284 343d
000000b0: b6fd 19be d4a1 9f3c 0bf4 05be 6373 19be
000000c0: 7c5e 76bc 8818 0a3d 60da 3c3c a3dc 42be
000000d0: 0745 1fbd d2e1 033d 8d23 cc3c 80db e33c
000000e0: 73be 15bd d095 13be 7beb 81ba d085 11bd
000000f0: 0cc2 80bd 4405 d03c 10e1 0c3d 4777 c5bd
-0.09743229 -0.026965331 -0.021655627 0.026806511 -0.06444002 0.018042296 0.050147943 0.053295672
-0.13033424 0.011185989 0.031250454 -0.04022567 -0.011231773 -0.1695525 -0.09640753 0.020843633
0.049805857 -0.10586829 -0.1570673 -0.12443584 -0.14395389 -0.02740102 0.012933724 -0.1512622
0.0065255165 0.012865484 -0.03641227 0.0066636503 -0.056531344 0.039900776 -0.052888736 -0.0039614066
-0.0026239955 -0.05190586 -0.091745354 -0.010664529 -0.04006017 -0.019774564 -0.075521186 -0.0008047372
-0.0546266 -0.059538025 0.058040634 0.044071384 -0.1503819 0.019486345 -0.13081376 -0.14985423
-0.015037175 0.0337148 0.011526674 -0.19029479 -0.03888419 0.03219778 0.024919296 0.027814627
-0.03655858 -0.14412618 -0.0009912098 -0.035528004 -0.062870115 0.025393136 0.034394324 -0.09641891

fc3.weight f4 [2, 64]
00000000: 4261 38be 86c0 b73d 70bd f03d a081 d3bc
00000010: 0f83 7cbe b009 90bc d015 1b3c acc4 57bd
00000020: dd48 18be 78b9 333d e001 89bd c4ce 063d
00000030: 84ac 183d e666 15be 8a6f 59be 15bb 623c
00000040: 806f 89bc d93c 8cbe 1025 88be 8ac2 c2be
00000050: cb0b b0be e3c2 8ebc 88b6 143d a6b2 6abe
00000060: ac30 afbd fa2d c7bd e81e 7cbd c8a8 6a3d
00000070: 9a19 88bd 8057 42bd 2839 743d 28b5 2d3d
00000080: 1392 bc3c 7a2e a73c c12b 74be 3e08 30bd
00000090: 4137 583d 64d1 5b3d 6342 26be 560a 80bd
000000a0: caea bfbd f60a 87bd f025 92bd 5ebf 883d
000000b0: 55a5 97be 03e0 b23d dd70 a8be b6a1 fcbd
000000c0: bc38 de3d ab6c 2abc c100 ef3c 3818 91be
000000d0: 90f5 3b3d 08d6 dc3d ab44 46bb c8da d43c
000000e0: d465 723b 74d7 1ebe b327 183d fcfd 813d
000000f0: ff54 9abe 7c42 92bd a6bb ffbd 0d77 81be
00000100: 34f9 69be 6789 0cbe b654 a33d e09c 37bc
00000110: 6f61 70be e295 ce3d 0ae5 a5bd 6631 ae3d
00000120: 61af 91be aaa2 bb3d 1eb3 1e3d f2bd 8c3d
00000130: 38f2 933c 20a7 86be ff49 35be aa18 563b
00000140: 6cf5 41bd f198 f3bd 0dd3 18be 7d49 52bc
00000150: 0a66 22bc d01c 82bc 0042 803b 5645 4cbe
00000160: a883 f43d 647c b5bd 6caf 863d 1093 673d
00000170: 6ed4 48bc e53e c83d 984c 893d f61e f9bd
00000180: 164e 65bd 62e2 823d f425 f3bd 3101 2e3c
00000190: 68e8 de3d eb78 943c adaf 74be 1032 9fbd
000001a0: 1255 debd 7846 993c d602 adbd 485f e9bc
000001b0: 0d6c 04bd b6d5 473d 37bb 97bc 987d a7be
000001c0: 18be ca3d 5cea fa3c 31bb 353d a9c1 bebd
000001d0: 4716 dc3d ae75 e33d f7e7 50bc 62ee ccbd
000001e0: 9f6a 8c3d 3eae 89be 0a9d 99bc 462c babb
000001f0: ecbe f1bd 90a6 78bc 4c18 febd 3788 cabd
-0.18005851 0.08972268 0.11754882 -0.025818646 -0.2465937 -0.017582744 0.00946565 -0.052677795
-0.14871545 0.04387805 -0.06689811 0.03291203 0.0372739 -0.14590034 -0.21233955 0.013838549
-0.0167768 -0.27390173 -0.26590776 -0.38039047 -0.34383997 -0.017426914 0.036306888 -0.22919711
-0.08554205 -0.09725566 -0.061552912 0.05728987 -0.06645508 -0.047446728 0.05962482 0.042409092
0.023018872 0.020407904 -0.23844816 -0.04297661 0.05278707 0.053666487 -0.16236262 -0.062519714
-0.09370954 -0.065938875 -0.07136142 0.066771254 -0.29618326 0.08734133 -0.32898608 -0.123355314
0.10850665 -0.010401885 0.029175164 -0.2833879 0.045888484 0.10783011 -0.0030253332 0.02598323
0.0036986964 -0.15511876 0.037147235 0.06347272 -0.30142972 -0.07141587 -0.12486963 -0.2528614
-0.2284897 -0.1372429 0.07975142 -0.0112068355 -0.23474668 0.10087182 -0.08100326 0.08505516
-0.28454116 0.09161885 0.03874504 0.06872167 0.018059835 -0.2629938 -0.17704009 0.003266851
-0.047353193 -0.11894406 -0.1492426 -0.012834904 -0.009912023 -0.01588288 0.003914118 -0.19948325
0.11939174 -0.08861616 0.06576428 0.056536734 -0.012257678 0.09777621 0.06704062 -0.121641085
-0.05598267 0.06390835 -0.11872473 0.010620401 0.10884172 0.018124064 -0.2389514 -0.077732205
-0.108560696 0.01871036 -0.084478065 -0.028487816 -0.032329608 0.048787795 -0.018521888 -0.32713008
0.09899539 0.03062933 0.044367973 -0.093142815 0.107464366 0.1110643 -0.012750617 -0.100064054
0.06856274 -0.2689075 -0.01875164 -0.0056815473 -0.118039936 -0.01517643 -0.12406978 -0.09889262

fc3.bias f4 [2]
00000000: 03df f13e 41c8 e23e
0.47240457 0.44293407
