checkpoints/dubins3d-discrete-v0__hj_dqn__1__1638911828_evalFalse/dqn_checkpoint_10547.pth (torch, 72343 bytes, 6 tensors)

fc1.weight f4 [256, 3]
00000000: 6798 c83e bb92 b2be 9216 c1bc cdec d23e
00000010: af4d 17bf 3c0f 213f 9a40 f3bd ea62 963e
00000020: 2360 a43d f949 a7bd a43c 243e 1f11 b0be
00000030: a5f5 c13e f108 34be b31c ed3d 7785 ebbd
00000040: 5e80 b13d 88c6 b3be fa29 d93e a6d2 cbbc
00000050: e582 89be 7288 b2be e430 c6bd f102 7fbe
00000060: 8873 3dbe a076 e23c a437 b03e 5885 043f
00000070: 364d 03bf 80a3 023f fa4f 353e 6d61 ef3e
00000080: 4b78 f83e ecaa 06bf f487 0cbf 3894 8ebe
00000090: dc07 143f 8541 4fbe ee36 d03e 83b2 dbbe
000000a0: 007f 3e3f 9dc1 673d 0fe2 d83e 7256 3cbe
000000b0: f6d6 1bbe b793 c43e 8a25 cebe 5155 873e
000000c0: 16b7 2abe 18a2 81bd 4318 0ebf 32f0 8cbe
000000d0: 8867 a03e 7bb5 0fbe 5c7f 263f 3a94 c03e
000000e0: 902b 363c 6b4f c5be e102 b43e 357c 373e
000000f0: 65ba eabe 63bf 1a3f 420d 1f3f 7556 183f
00000100: a44a d8be 32c0 3abc 933e 37bc 48b3 ac3d
00000110: ba56 e0be 49c4 d1be 3fcf a03e 19a2 0abe
00000120: 38b3 ac3e 72f5 9cbd 30a8 9f3e 42a6 373d
00000130: 9e09 2f3d 7a5a 34bb 1f99 fdbe b467 1a3f
00000140: ad42 f23c 0e09 dfbe c3d0 0f3d e17d c9bd
00000150: 0f68 cb3e 5546 e9be cbf9 1ebf 3d62 fe3e
00000160: 3460 3bbe a6a2 0a3f 4aa6 b83e d27c d1be
00000170: 8d5a 673e c302 8b3e 5d13 ffbe 9497 32bf
00000180: 9680 483e 38af 6dbd 1c2b f1be 629f 3abe
00000190: b8e7 043f 92d3 1bbf dc4b a03e d807 cd3d
000001a0: e44d 25bf 36c5 11bf 1f10 473f b777 c03e
000001b0: 5ef0 db3e ab1c 8bbc 2d84 933e b5db e23e
000001c0: 5cb3 d03e 3321 03bf 771c 733c e0df 9c3e
000001d0: 43ba 9d3e a68d c63e 1a8c 11bf 2641 f4be
000001e0: c3c5 b2be 6d8b 943d 094f 133f b5b9 babe
000001f0: 7985 9d3e e99c a3be 28f7 0abf 4b4f fbbd
00000200: 6b51 aa3e df98 173f d20b fdbe 43c7 933e
00000210: b34c aa3e 39f7 053e 742a 7a3e 4739 e63e
00000220: 9cd4 7f3e 4cb4 963d b723 cabe 443c f8be
00000230: 9873 87be ebaf 89bd d330 b5be 8d4b 583e
00000240: 6d67 4a3e fb51 8bbe c079 a63e 7e45 d53d
00000250: 09fb 4e3e 2d74 543e c13d 86be 691c 1c3f
00000260: f859 9bbe f17d a2bc ce81 0bbf 4e41 bebe
00000270: 47b1 acbe 66df 7cbe 3c2a d23e f431 41be
00000280: 18e6 dcbe 7a77 633e 3830 163e 7cf7 473e
00000290: c7ba ebbe 3688 533e 4998 9abe 908a 44be
000002a0: 5d92 ebbe 76b9 86be c60f 35be 6f94 a63e
000002b0: 0366 823c e704 753e 9c8f 1c3f 14f1 e73e
000002c0: dcf5 bf3e e29b 963c f07e ccbe 5104 e73e
000002d0: d3d6 13be 6d2f 3fbd 76a9 febe 7a8f e9bd
000002e0: 1aa9 bebe dad0 073f 288e ffbe ee6a e6be
000002f0: fa99 a0bc 2dd3 91be aab7 bc3e c443 c3be
00000300: 5ad7 8abe 2ff0 053d 95fc d53e 35ef cfbe
00000310: 33d1 8a3e 67e8 bd3e dbaa 1d3f 5780 0bbf
00000320: cdbf 3e3e b993 dabe 155f fc3e 3255 65be
00000330: 5a94 a83e a60a 12be 99d2 c5bd aee9 96bc
00000340: f500 c93d a458 8b3e c2e8 0b3e e936 883d
00000350: 0442 68bf 74d9 5b3e f6a3 753e 22b5 913e
00000360: 3eaa eb3e 7484 13bf 94f3 48be 475c 183f
00000370: 91d0 0bbf fdb0 453f a87d e8be bb39 d0be
00000380: 9483 903e 4463 d4be 2472 07be 8c0c d73e
00000390: ff76 ec3e 4583 d03e 45a1 1abe c9c2 e5be
000003a0: f286 113f 8ee2 fbbd 423e 73be e71e 103e
000003b0: 00b9 cebe c665 dc3e 1426 803e bbab 16bf
000003c0: e8cc f2be 7d26 4fbd 6552 783e 0941 8c3d
000003d0: 6cd3 afbe 8c66 15be 6eec 0abf c1eb d0be
000003e0: adc7 c4be 44fa fd3e 4323 c33e bf7f acbe
000003f0: 87f3 133e 2a26 713e 30a8 be3d 4d6c a8be
0.39178774 -0.3487757 -0.023570333 0.4119629 -0.5910291 0.6291387 -0.11877556 0.2937234
0.08026149 -0.08168406 0.16038758 -0.34388062 0.37882724 -0.17581536 0.115777396 -0.11500066
0.08667062 -0.35112405 0.42414838 -0.024880718 -0.26857677 -0.34869725 -0.09677294 -0.24903466
-0.18501103 0.027644455 0.3441745 0.51765966 -0.5128969 0.5103073 0.1770629 0.46754017
0.48529276 -0.52604556 -0.5489495 -0.27847457 0.5782449 -0.20239837 0.40666908 -0.4290963
0.74412537 0.05658113 0.4235997 -0.18392351 -0.1521872 0.38393947 -0.40263015 0.2643228
-0.16671404 -0.06329745 -0.5550577 -0.27527004 0.31328988 -0.14034073 0.65038085 0.37613088
0.011118785 -0.38537154 0.35158446 0.17918475 -0.45845333 0.6044828 0.62129605 0.5950692
-0.42244446 -0.011398362 -0.011184352 0.08432633 -0.43816167 -0.40970066 0.31408116 -0.13538398
0.33730483 -0.076640025 0.31183004 0.04483629 0.04273378 -0.0027519749 -0.49530885 0.6031449
0.02957281 -0.43561596 0.0351112 -0.098384626 0.39727828 -0.45561472 -0.62099904 0.49684325
-0.18298417 0.5415443 0.36064368 -0.40915543 0.22593136 0.27150545 -0.4981946 -0.6976254
0.19580302 -0.05802843 -0.47103202 -0.18224862 0.51916075 -0.60869706 0.31307876 0.10011262
-0.64571977 -0.56941545 0.77758974 0.37591335 0.42956823 -0.016981443 0.2881178 0.44308248
0.4076184 -0.51222533 0.0148383295 0.30639553 0.3080617 0.38779944 -0.56854403 -0.47705954
-0.34916505 0.07253156 0.57542473 -0.36469808 0.30765894 -0.3195565 -0.5428338 -0.12270983
0.33265242 0.5921764 -0.4942308 0.28862962 0.33261642 0.13082589 0.24430257 0.44965574
0.24983448 0.07358608 -0.39480373 -0.4848348 -0.2645538 -0.06723007 -0.35388812 0.2112257
0.19766016 -0.27210984 0.32514763 0.10413645 0.2021295 0.20747443 -0.2621899 0.6098085
-0.30342078 -0.019835444 -0.5449494 -0.371592 -0.33729002 -0.24694595 0.41047847 -0.18866712
-0.43144298 0.22213545 0.14666831 0.19528002 -0.46040937 0.20657429 -0.3019431 -0.19193482
-0.46010104 -0.2631337 -0.17681798 0.3253512 0.015917784 0.23927651 0.6115663 0.45301116
0.37492263 0.018384878 -0.39940596 0.4512048 -0.14437418 -0.046676088 -0.49738663 -0.11404319
-0.3723839 0.5305306 -0.49913144 -0.45003456 -0.019604672 -0.28481427 0.36858875 -0.3813764
-0.27117425 0.03269976 0.41794267 -0.40612188 0.2711273 0.3709137 0.6158883 -0.54492706
0.18627854 -0.42690828 0.49291292 -0.2239578 0.32925683 -0.14261875 -0.09659309 -0.018421974
0.09814636 0.27216065 0.13663009 0.06651098 -0.9072573 0.2146967 0.23988327 0.28458506
0.46028322 -0.5762398 -0.19624168 0.59515804 -0.5461512 0.7722319 -0.45408368 -0.40669045
0.28225386 -0.41481984 -0.13227135 0.4200176 0.46184537 0.4072515 -0.15100582 -0.44875172
0.56846535 -0.12299071 -0.23754218 0.14074288 -0.4037552 0.43046397 0.2502905 -0.5885579
-0.47421956 -0.050573815 0.24250181 0.06848342 -0.3434099 -0.145899 -0.54267013 -0.40804866
-0.3843359 0.49605 0.3811284 -0.33691213 0.14448367 0.23549715 0.09309423 -0.32895127

fc1.bias f4 [256]
00000000: 007f a3be d0df 6f3d 55d7 e2be d6a3 883e
00000010: 59d7 21bf 0c32 0b3f e11d 903e cc03 53be
00000020: fbd7 ae3d 0bf4 c5be 8a7f f6be c6b5 95be
00000030: d5a6 05bf 429d 9c3e 4f72 c7be 9290 3fbe
00000040: af87 e2be 61b7 b9be d96d 34bf 8b76 d4be
00000050: baf7 3a3f dfec fdbb 53f5 0cbf 8a59 c5bd
00000060: 9175 41be 037b 763e fbf9 5b3f 15c3 0e3e
00000070: 82f7 3e3e e397 dcbe 27e2 02be c700 5cbe
00000080: baef f8bd f465 363f ee9b 183e 1f01 4e3f
00000090: 338e 0abf 46f1 9bbe 0a32 0d3e 05b0 493e
000000a0: 88dd 07bf 8f2c 91be 8285 ab3d 6b06 1dbf
000000b0: f135 f0bd bed0 82be bc32 19be d888 9e3e
000000c0: cde3 3d3e e22a 153f aca4 ed3e e757 81bc
000000d0: f0af f13e f740 eb3e 42c0 1fbf a8f6 8d3d
000000e0: 4c8d 8a3d e0e9 f4be 6e51 b5be 6f9a 0bbe
000000f0: fbda cebe fd68 34be 04f2 463e 39eb 3c3f
00000100: 05a2 333d a121 0fbf 41a2 243d e4e3 32be
00000110: 2058 923e 5bd1 0ebf 103d a7be 5bb6 763e
00000120: 31d7 11bd ff97 09bf 0ef7 ffbe 1b32 cbbb
00000130: d4f6 213c b668 f5be a45c f7be fe61 64be
00000140: 967f f2bd 19cd 9f3e cb35 0fbf df64 a8be
00000150: 6428 15bf 05d5 413e cd07 97be cb1f 5dbd
00000160: da49 f7be 278a e8be b71d 0dbf 8eca 3ebf
00000170: d69a ba3e 5937 a9bd 97fd 1dbf 4023 cf3e
00000180: 8c21 06be ceb5 883e 9144 37be fa50 f7be
00000190: 5dd8 013e d211 b83e 801c 10bf 8070 3fbe
000001a0: 0cab eb3d 45b6 873d 6cb0 68be 12c6 37be
000001b0: c2cd 16bf d108 ba3b 70f7 1dbf d53d f4be
000001c0: 02cf 3dbe 4cfd d1be b472 ec3e f8dd c73e
000001d0: e4bb e53e 87ab e4be 5c2d 073e 0c65 a23e
000001e0: 3d39 d43b 1a42 ee3e bb43 a73e 222e e23e
000001f0: bb71 733e 6c5c bc3d 64cd debe 60cf a4be
00000200: ae2b 8cbe 0add 943e 394d 32be f030 753e
00000210: f669 43bf db6e 8ebe 85c7 26be 0ebc bebe
00000220: bef2 013e 31a0 36bf ab34 a3be 26f4 93be
00000230: 30ce 05bf 6fb2 153e 611d 3cbe b52b 413e
00000240: be77 dc3e d737 4f3f b777 1fbe 826c bb3d
00000250: 5feb 033f f2cb e3bd ca58 6abe 6b6c 15bd
00000260: a98f bf3d 8104 093f 7978 45bf 01bb 4a3e
00000270: 6000 6d3e a6de 91be 2426 2dbd 8a93 393e
00000280: 64fb 3eba 1fd2 db3e 06f9 9f3e 2796 37bf
00000290: 16c5 3cbe 98fb 733e 412e 8ebe fa2a 7c3e
000002a0: 1148 083e e1d8 bfbd 5073 863b 401b 283d
000002b0: a348 cabe 6b0a c33e 3aaa 303e 5be0 a53e
000002c0: b9b1 133f d600 69be acbc d0be a3f7 d73c
000002d0: ff2a 9dbe f0b3 503e 7bbb 393f b94a 13bf
000002e0: 7b19 3abe b32b 163f b4fa ebbe 800a ccbd
000002f0: 0d1e c83e 8f8c ce3e 3af3 1bbe f4fc 7ebe
00000300: dabd 76be 9289 04bf 0598 a2be 037b 0abf
00000310: 44c5 dc3e 2d18 333e 0784 bd3e ed7e 14be
00000320: 77ae 943e fd14 8fbe 3eb3 583e 6ecf 89be
00000330: 020e 8bbe 1539 cebe 1ded c8be ca49 07bf
00000340: d93d 2dbd 52cb e7be 358c 263d df78 bc3e
00000350: e193 c2bd 965c 8f3e 2072 b5bd b44a 2b3e
00000360: 1ca3 bebe 35ba f2bd fb01 45be d9cd 723e
00000370: 68aa 04bf 9626 a6be 7406 21be 4310 4f3f
00000380: 1a02 c83e 8942 16bf 256b 22bf e4a2 963e
00000390: e451 ac3d ab2f fdbe 46ad 9cbe c73b 813e
000003a0: c6ac b2be d482 1bbf 9c82 b6be 788f 80bd
000003b0: 5729 83be ac91 b33e 77ed 8d3e 5fee 03bf
000003c0: 5539 a5be 2e3b e4be 6212 3f3e c953 4a3f
000003d0: c8a8 0f3f d844 ee3c 056f 83be 4dce 6bbc
000003e0: 414c 553e 0c12 4cbf c4ce 58be 5948 f0be
000003f0: 3191 60bf ef14 9ebc b619 c4be c340 bbbe
-0.3193283 0.058563054 -0.4430491 0.26687497 -0.6321922 0.5437324 0.28147796 -0.20606917
0.08537289 -0.38662753 -0.4814418 -0.29240245 -0.5220769 0.30588728 -0.38954398 -0.18707493
-0.44244143 -0.3627272 -0.70480114 -0.4149669 0.7303425 -0.0077491845 -0.55061835 -0.09636219
-0.18892504 0.24070363 0.85928315 0.13941605 0.18649104 -0.4308463 -0.12781583 -0.21484672
-0.12155099 0.7124932 0.14903232 0.8047046 -0.5412323 -0.30457515 0.1378862 0.19696052
-0.53072405 -0.28354308 0.08375074 -0.6133792 -0.117290385 -0.25549883 -0.1496076 0.30963778
0.1854393 0.5826856 0.46414697 -0.015788985 0.47204542 0.45948002 -0.6240274 0.069318116
0.067652315 -0.47834682 -0.35413688 -0.1363313 -0.40401444 -0.17618175 0.19428259 0.7379642
0.043855686 -0.5591069 0.0401938 -0.17469746 0.2858286 -0.557882 -0.32663774 0.24093
-0.035605613 -0.5374755 -0.49993175 -0.0062010414 0.009885509 -0.4793145 -0.48312867 -0.22303006
-0.11840741 0.31211165 -0.55941457 -0.3288946 -0.58264756 0.18928917 -0.2949814 -0.0539854
-0.48298532 -0.45417902 -0.55123466 -0.74527824 0.36446255 -0.0826251 -0.6171507 0.4045658
-0.13098735 0.26701206 -0.1789725 -0.48303968 0.12680192 0.35951096 -0.5629349 -0.18695259
0.11507234 0.06626562 -0.2272355 -0.17946652 -0.5890771 0.0056773205 -0.61705685 -0.47703424
-0.18535998 -0.41013563 0.46181262 0.39036536 0.44869912 -0.44662115 0.13200897 0.31717718
0.00647655 0.46534806 0.32668862 0.44175822 0.23773853 0.091973156 -0.43516076 -0.32189465
-0.27377075 0.2907489 -0.1741227 0.2394445 -0.7633356 -0.2781895 -0.16287048 -0.3725285
0.12690255 -0.7133818 -0.3187612 -0.28897208 -0.5226774 0.14618848 -0.18370582 0.18864329
0.43060106 0.8094458 -0.15573011 0.091515556 0.5153102 -0.11122884 -0.22885433 -0.03648035
0.09353573 0.535225 -0.7713695 0.19797899 0.23144674 -0.2849018 -0.0422727 0.18122688
-0.0007285385 0.42933747 0.31244677 -0.7171349 -0.18434557 0.23826444 -0.27769664 0.2462577
0.13308741 -0.09367538 0.004103102 0.041041613 -0.39508542 0.38093886 0.17252436 0.32397732
0.5769306 -0.22754225 -0.40768945 0.0263632 -0.30696866 0.2038114 0.725517 -0.5753589
-0.18173783 0.5866043 -0.4608971 -0.0996294 0.39085427 0.40341613 -0.15229502 -0.24901181
-0.2409586 -0.51772416 -0.31756607 -0.5409395 0.43119252 0.17489691 0.3701479 -0.14501543
0.29039356 -0.279457 0.21162125 -0.2691607 -0.27159125 -0.40277925 -0.39243403 -0.5284697
-0.04229531 -0.4527231 0.040661056 0.36810967 -0.09500862 0.28000325 -0.08859658 0.16727716
-0.37233818 -0.118519224 -0.19239037 0.23711337 -0.5182252 -0.32451314 -0.15725118 0.8088419
0.39064103 -0.58695275 -0.6344474 0.2942115 0.08414057 -0.4945043 -0.30600947 0.2524092
-0.3489744 -0.607465 -0.35646522 -0.062773645 -0.25617477 0.35072076 0.27720234 -0.515356
-0.32270303 -0.445764 0.18659356 0.79034096 0.56116915 0.029085562 -0.2567064 -0.014392448
0.2082987 -0.7971504 -0.21172625 -0.46930197 -0.87721545 -0.019297091 -0.38300866 -0.36572847

fc2.weight f4 [64, 256]
00000000: 8fe7 653e ce09 5b3e 5043 1c3c 00fd 05be
00000010: e99b bc3e 3104 34be f2a5 3f3c 209d acbc
00000020: ae76 3c3d f093 c03e 00d3 683d f816 8fbc
00000030: effe e23d ce53 07bf 0676 de3d 7e10 453e
00000040: c4c9 47bd 06ff 403d 57a2 5c3d 9c3f 5e3d
00000050: 91d4 e7be 72cc 283e 6a9c 193d c803 6d3c
00000060: d6ed 993d 9004 49bc f702 7abf 7650 6bbd
00000070: cb01 253e 6f88 163e 5cfd 943e f040 ddbe
00000080: fed0 c23d 50f7 20be 1d2f 2dbc 66e0 1ebf
00000090: 2f83 233e b99a b23d 5571 b6bd 2b7a 053e
000000a0: f2c8 6ebd f05d eabb 4088 58bb 144f 643e
000000b0: 7b3e d6bc 13df 613d 7a38 663d aab6 663d
000000c0: e49b e9bc 3d48 17bd d738 55be 96ec 47bd
000000d0: 2862 8cbc 348a 783d a523 103e 9311 cc3d
000000e0: f4d5 703d ad1f 0f3e e19c d03d 181c 2a3d
000000f0: d20d 703d 189b 2f3c ce05 4fbd 4ca9 d5be
00000100: fe44 04bd d84b 533d 6799 1f3e acd9 953c
00000110: 96bf 8abc 928b 3cbd 54d8 403e 526f fe39
00000120: 2c0f c43d 61c4 883e 20d6 75bc 0023 773a
00000130: fb22 6b3d c802 c53c c0e2 43bd c348 853d
00000140: b0bb fdbc 7e20 0fbd 9888 fd3c ca34 c13d
00000150: 2723 5e3e 84e4 fcbe 98d1 7fbd 79f9 023e
00000160: daa9 2fbd f0be 083c 0622 0f3e eed5 a93e
00000170: ace7 2ebd a2d1 7abd 0e34 013e 0803 253c
00000180: 0288 3b3d 02df 3e3a 4c28 453d e89f a13c
00000190: d051 92bc 8084 58bc dcff 0bbd 594d f93d
000001a0: 6608 32bd 6007 b03c ba1e e63d b43b 593d
000001b0: 9b92 793e 06ee 7f3e 856c 893d 1038 a7bb
000001c0: 1eb2 693d f303 393d a983 1abf 2259 423d
000001d0: b8fe 78bd 160f ba3e 4702 8f3d d9c1 90bb
000001e0: 7087 283c 3eff 3bbe c00f 22bd 8895 e7bc
000001f0: 2934 12be 9264 86bb e5cd af3d 20c3 e03b
00000200: 9c92 26bd b1d9 0fbc 6299 0a3d c4ff e3be
00000210: 7ec3 4d3e 95b8 333e fe57 0ebd 7c66 88bc
00000220: e8dc 8f3c be78 5b3e c1aa 193e c2a3 113e
00000230: 3c55 bebc 7381 d83d 5c30 39bd 8fd5 353d
00000240: df4a fabd bbd0 4abf 0069 743d 1ff0 d33d
00000250: 7e94 5c3b 1a18 0a3e bcec be3b f0a3 c8bd
00000260: 1066 d23c 0f23 a2be a852 1d3e 3531 7d3d
00000270: e46c 0dbf 69de ffbe 51a8 a03d 29c2 563d
00000280: 5716 0d3e e02f e63c 40dc 25bf 1094 563e
00000290: 90c5 8a3e a463 b63c a880 5c3d 9c2f 1f3d
000002a0: c0c5 faba f0ae e4bc 60c3 873b 0543 ca3d
000002b0: a62b 223d eb75 5e3d cd55 6e3d e048 cb3c
000002c0: 70e9 c03c 2f98 b33d dc9e f83c b41d a33c
000002d0: 0e10 863e a496 70bd 2fa0 06bf 8e68 503e
000002e0: 0419 1a3e 434b b6bd 94be 2c3d 5c22 ae3c
000002f0: 7b3e f0bc 201b 733b 357c 273e a479 133d
00000300: 313c b93e 4472 cabc 17d3 b8be a4a9 4fbd
00000310: 456a 1cbc 74f2 a3bc 94cc c8bd 92bc 113d
00000320: 8b8c 5b3d 4b7e 453e 222f e03a eae0 dd3d
00000330: 4cc7 c2bc 8557 433d f4e5 0f3e 68f4 303d
00000340: f589 a33d 89c4 093e 1371 0e3e 1c41 9bbc
00000350: b824 173e 0cd9 89bc 2284 d43c c11d 4c3d
00000360: 400a 0c3c 3163 423e 5894 d23c 53db 923a
00000370: a89c b9bc fecd 32bd 1290 4b3e 6301 5dbf
00000380: 729c 4bbd 9a48 933e 726d ba3e 426c e83d
00000390: 7c46 303d a043 44bd b837 853e 54f4 223d
000003a0: 3c01 9e3e 9355 8e3e 72ab 3a3d f8ab 02bf
000003b0: f491 6f3e a528 91bd d8c0 d5bc 0f6f 193e
000003c0: 0004 003e f0c9 a1bb 809c 9a3d 7fd7 c5bd
000003d0: 7cdd 05bd a936 473d 36c5 4f3e c0be 94ba
000003e0: 34b8 283d 3a03 353e e4ac aab9 d457 fdbc
000003f0: 4bed da3d 945a 59bd 1799 8f3e e62f 1ebd
0.22451614 0.21390459 0.009537533 -0.13084793 0.368377 -0.17579724 0.011697279 -0.021071017
0.04601162 0.37612867 0.05684185 -0.017467007 0.11083781 -0.5286225 0.10862355 0.19244573
-0.048776403 0.04711821 0.053865757 0.05425988 -0.45279363 0.1648424 0.037502684 0.014466234
0.07516067 -0.012269154 -0.97660774 -0.05744978 0.16113965 0.14700483 0.29099548 -0.43213606
0.09512518 -0.15719342 -0.010570315 -0.62061155 0.15968011 0.08720917 -0.08908335 0.13034885
-0.058297105 -0.0071523115 -0.0033040196 0.22295791 -0.02615284 0.05514438 0.056206204 0.056326546
-0.028516717 -0.036934126 -0.20822464 -0.04880961 -0.017136648 0.060678676 0.14076097 0.099642895
0.05879779 0.13976927 0.10186172 0.0415307 0.05860693 0.01071813 -0.050542645 -0.41730726
-0.03229236 0.051586002 0.15585862 0.01829227 -0.016937058 -0.046031542 0.18832523 0.00048529595
0.09573206 0.26712325 -0.015004665 0.00094275177 0.057406407 0.024049178 -0.047823668 0.06508019
-0.030973285 -0.034943096 0.030948922 0.09433897 0.21693097 -0.49393094 -0.062455744 0.12790479
-0.042886592 0.008346304 0.13977823 0.33171028 -0.04270141 -0.061235078 0.12617514 0.0100715235
0.045784004 0.00072811556 0.048134133 0.01972957 -0.017861277 -0.013215184 -0.034179553 0.12172956
-0.04346504 0.021487892 0.112363294 0.053035453 0.24372332 0.24993142 0.067101516 -0.0051031187
0.05705463 0.045169782 -0.6035715 0.047448285 -0.060789794 0.36339635 0.06982856 -0.0044176397
0.010286197 -0.18359086 -0.0395658 -0.028269544 -0.1427771 -0.0041013444 0.08584193 0.006859198
-0.04066716 -0.008779929 0.033837683 -0.4453107 0.20094106 0.17550881 -0.034751885 -0.01665043
0.017561391 0.21432778 0.15006544 0.14222625 -0.023234002 0.105715655 -0.045212135 0.04439312
-0.12221312 -0.7922475 0.05967045 0.10348534 0.0033657844 0.13485757 0.005826561 -0.097968936
0.025683433 -0.31667373 0.15363562 0.061814506 -0.5524428 -0.49974373 0.07844604 0.05243126
0.13778053 0.028099 -0.647892 0.20954919 0.27103853 0.02226431 0.053833634 0.038863763
-0.001913242 -0.027915448 0.0041431636 0.09876064 0.039592408 0.054311674 0.058187295 0.024815023
0.023548812 0.08769261 0.030349188 0.019911624 0.26184124 -0.058737412 -0.5258817 0.20352384
0.15048605 -0.08901074 0.042173937 0.021256618 -0.029326668 0.0037095025 0.16355975 0.036004677
0.36178735 -0.02471269 -0.3609855 -0.05069889 -0.009546821 -0.020013072 -0.09804645 0.035580225
0.05360083 0.19286458 0.001710389 0.108339146 -0.023776673 0.047690887 0.14052564 0.043201834
0.079852976 0.13453878 0.13910322 -0.018951945 0.14760101 -0.016827129 0.025941912 0.049833063
0.008547366 0.18983151 0.025705501 0.001120428 -0.022657707 -0.04365348 0.19879177 -0.8633024
-0.049709745 0.28766328 0.36411625 0.113487735 0.04303597 -0.047916055 0.26019073 0.03978379
0.30860317 0.27799663 0.04557366 -0.51043653 0.2339552 -0.070878305 -0.026092932 0.14983772
0.12501526 -0.004937403 0.07549381 -0.09660243 -0.032681927 0.048636112 0.20290074 -0.0011348352
0.041191295 0.17677012 -0.0003255374 -0.030925669 0.10689791 -0.053064898 0.28046486 -0.0386199

fc2.bias f4 [64]
00000000: 7b20 f8bd 66e6 dcbc 2467 b1bc 5499 db3c
00000010: e8dd a5bd 70cd 933c ee67 4d3d 904c 5a3d
00000020: d0a6 1fbe 7045 373c 7a00 003d acc3 24bd
00000030: 7805 38bc 333b 47be 8489 ebbd 44c0 aa3c
00000040: 3a01 4c3d d837 e5bd 43c1 2abe 7858 04be
00000050: 6234 16be 1b78 e0bc f8e7 533c c07c 2cbe
00000060: 00d4 d53b c0c9 523c 0825 15bd c05a da3b
00000070: 698d 67bd ff6e 233d dca1 58bd b0ce 81bb
00000080: 57f7 2bbb 3d9b 54bd 1431 ccbd c86b 28bd
00000090: 2216 24bd 44fe a1bc e417 ccbd 00f5 52ba
000000a0: f109 fcbd 25de 73bd 3e85 c33b 0e3b 33bc
000000b0: 66e2 1dbe d4a1 9f3c 85b3 0abe d25b 34be
000000c0: 7c5e 76bc 8818 0a3d 60da 3c3c ba1f 49be
000000d0: 0745 1fbd d2e1 033d 8d23 cc3c 80db e33c
000000e0: 73be 15bd 8e7f 2dbe 7beb 81ba d085 11bd
000000f0: d867 8bbd 4405 d03c 10e1 0c3d 5e21 d1bd
-0.1211557 -0.026965331 -0.021655627 0.026806511 -0.08098966 0.018042296 0.050147943 0.053295672
-0.15590978 0.011185989 0.031250454 -0.04022567 -0.011231773 -0.19456176 -0.115008384 0.020843633
0.049805857 -0.11192292 -0.16675286 -0.12924373 -0.1466842 -0.02740102 0.012933724 -0.16844463
0.0065255165 0.012865484 -0.03641227 0.0066636503 -0.056531344 0.039900776 -0.052888736 -0.0039614066
-0.0026239955 -0.05190586 -0.099702984 -0.041118413 -0.04006017 -0.019774564 -0.09965494 -0.0008047372
-0.12306584 -0.059538025 0.0059668114 -0.010939373 -0.15418395 0.019486345 -0.13545044 -0.17613152
-0.015037175 0.0337148 0.011526674 -0.19641009 -0.03888419 0.03219778 0.024919296 0.027814627
-0.03655858 -0.1694319 -0.0009912098 -0.035528004 -0.06806916 0.025393136 0.034394324 -0.102114424

fc3.weight f4 [2, 64]
00000000: 3459 57be 86c0 b73d 70bd f03d a081 d3bc
00000010: 7e82 8fbe b009 90bc d015 1b3c acc4 57bd
00000020: db55 30be 78b9 333d e001 89bd c4ce 063d
00000030: 84ac 183d 4adf 2cbe ae39 80be 15bb 623c
00000040: 806f 89bc 3cd2 a6be eba7 9fbe 7f93 01bf
00000050: 38bc f1be e3c2 8ebc 88b6 143d 432e 87be
00000060: ac30 afbd fa2d c7bd e81e 7cbd c8a8 6a3d
00000070: 9a19 88bd 8057 42bd 2839 743d 28b5 2d3d
00000080: 1392 bc3c 7a2e a73c 9a6c 94be 856f b7bd
00000090: 4137 583d 64d1 5b3d 06c5 43be 560a 80bd
000000a0: f42e e9bc f60a 87bd 517f 86bc 5fd0 313d
000000b0: 1037 d0be 03e0 b23d 7c33 d6be a18f 12be
000000c0: bc38 de3d ab6c 2abc c100 ef3c df81 b7be
000000d0: 90f5 3b3d 08d6 dc3d ab44 46bb c8da d43c
000000e0: d465 723b 73d2 39be b327 183d fcfd 813d
000000f0: 9bb3 b5be 7c42 92bd a6bb ffbd be9b a0be
00000100: eb9b a2be 6789 0cbe b654 a33d e09c 37bc
00000110: c92c a2be e295 ce3d 0ae5 a5bd 6631 ae3d
00000120: 0458 c8be aaa2 bb3d 1eb3 1e3d f2bd 8c3d
00000130: 38f2 933c 4ef9 b9be b0af 7cbe aa18 563b
00000140: 6cf5 41bd 6c90 30be ab29 57be 4f4a f63c
00000150: feef 013c d01c 82bc 0042 803b 951d 8ebe
00000160: a883 f43d 647c b5bd 6caf 863d 1093 673d
00000170: 6ed4 48bc e53e c83d 984c 893d f61e f9bd
00000180: 164e 65bd 62e2 823d a457 34be 1884 483d
00000190: 68e8 de3d eb78 943c f922 acbe 1032 9fbd
000001a0: 8f47 4cbd 7846 993c 778d fabc ea02 babc
000001b0: fb4d 23bc b6d5 473d b3d7 8dbc 5106 e3be
000001c0: 18be ca3d 5cea fa3c 31bb 353d ec90 febd
000001d0: 4716 dc3d ae75 e33d f7e7 50bc 62ee ccbd
000001e0: 9f6a 8c3d 2489 bbbe 0a9d 99bc 462c babb
000001f0: ae73 29be 90a6 78bc 4c18 febd 3940 14be
-0.21030122 0.08972268 0.11754882 -0.025818646 -0.28029245 -0.017582744 0.00946565 -0.052677795
-0.17220251 0.04387805 -0.06689811 0.03291203 0.0372739 -0.16882053 -0.25044006 0.013838549
-0.0167768 -0.3258227 -0.311828 -0.50615686 -0.47213912 -0.017426914 0.036306888 -0.26402482
-0.08554205 -0.09725566 -0.061552912 0.05728987 -0.06645508 -0.047446728 0.05962482 0.042409092
0.023018872 0.020407904 -0.28989106 -0.089568175 0.05278707 0.053666487 -0.19118127 -0.062519714
-0.028464772 -0.065938875 -0.016418131 0.04341161 -0.4066701 0.08734133 -0.41836154 -0.14312603
0.10850665 -0.010401885 0.029175164 -0.3584127 0.045888484 0.10783011 -0.0030253332 0.02598323
0.0036986964 -0.18146686 0.037147235 0.06347272 -0.3548859 -0.07141587 -0.12486963 -0.31368822
-0.3175958 -0.1372429 0.07975142 -0.0112068355 -0.31674793 0.10087182 -0.08100326 0.08505516
-0.3912965 0.09161885 0.03874504 0.06872167 0.018059835 -0.36323017 -0.24676394 0.003266851
-0.047353193 -0.17242593 -0.21011989 0.03006473 0.007930754 -0.01588288 0.003914118 -0.27756944
0.11939174 -0.08861616 0.06576428 0.056536734 -0.012257678 0.09777621 0.06704062 -0.121641085
-0.05598267 0.06390835 -0.17611557 0.0489541 0.10884172 0.018124064 -0.33620432 -0.077732205
-0.04987293 0.01871036 -0.030585034 -0.022706468 -0.009967322 0.048787795 -0.017314767 -0.44340757
0.09899539 0.03062933 0.044367973 -0.124299854 0.107464366 0.1110643 -0.012750617 -0.100064054
0.06856274 -0.36628067 -0.01875164 -0.0056815473 -0.16548035 -0.01517643 -0.12406978 -0.14477624

fc3.bias f4 [2]
00000000: 40ab 5f3f cfbc 553f
0.8737068 0.83491224
