checkpoints/dubins3d-discrete-v0__hj_dqn__1__1638911828_evalFalse/dqn_checkpoint_10368.pth (torch, 72343 bytes, 6 tensors)

fc1.weight f4 [256, 3]
000000 3b 7d bd 3e ee fc b7 be 05 1f b0 bc d4 2d c8 3e
       0.37009606 -0.35935158 -0.021499166 0.39097464
000010 ae 3a 1a bf 60 4d 15 3f 9a 40 f3 bd ea 62 96 3e
       -0.6024579 0.5832119 -0.11877556 0.2937234
000020 23 60 a4 3d 35 74 48 bd 38 e7 3c 3e 59 a5 a2 be
       0.08026149 -0.04893895 0.18447578 -0.31766775
000030 72 b0 b4 3e 76 de 42 be 00 01 ee 3d c1 bc a8 bd
       0.35290867 -0.19030175 0.116212845 -0.08239127
000040 0a 12 e0 3d 01 84 a8 be 0b 4a ed 3e 05 7c 8c 3c
       0.10940941 -0.3291321 0.46345553 0.01714898
000050 53 5f 78 be 72 88 b2 be e4 30 c6 bd f1 02 7f be
       -0.24255113 -0.34869725 -0.09677294 -0.24903466
000060 88 73 3d be a0 76 e2 3c a4 37 b0 3e 11 8f fc 3e
       -0.18501103 0.027644455 0.3441745 0.493279
000070 7a d1 06 bf d1 fd fa 3e 88 8f 2b 3e 8b c5 f3 3e
       -0.52663386 0.49021772 0.16753972 0.4761165
000080 e7 39 d1 3e ec aa 06 bf f4 87 0c bf 38 94 8e be
       0.40864488 -0.52604556 -0.5489495 -0.27847457
000090 49 7a 0e 3f d4 96 58 be 0b a2 c6 3e 29 2c d2 be
       0.5565534 -0.21151286 0.38795504 -0.41049317
0000a0 b2 d5 33 3f cb ed 10 bd 03 65 cf 3e aa 53 42 be
       0.7024795 -0.035383027 0.40506753 -0.18977228
0000b0 1b 76 14 be a3 cb b9 3e e2 51 d3 be 0c 4f 7e 3e
       -0.14498179 0.36288175 -0.4127341 0.24834841
0000c0 16 b7 2a be 18 a2 81 bd 43 18 0e bf 32 f0 8c be
       -0.16671404 -0.06329745 -0.5550577 -0.27527004
0000d0 88 67 a0 3e 7b b5 0f be b2 e6 21 3f dd a2 be 3e
       0.31328988 -0.14034073 0.6324264 0.3723363
0000e0 29 97 06 3c 6b 4f c5 be e1 02 b4 3e 35 7c 37 3e
       0.00821475 -0.38537154 0.35158446 0.17918475
0000f0 e1 2a e6 be bd 01 0d 3f 5d f3 09 3f 3e 08 14 3f
       -0.4495459 0.5508078 0.5388697 0.57825077
000100 2e 03 db be 55 21 6a bc 93 3e 37 bc 48 b3 ac 3d
       -0.42775863 -0.014290174 -0.011184352 0.08432633
000110 ba 56 e0 be 49 c4 d1 be 3f cf a0 3e 19 a2 0a be
       -0.43816167 -0.40970066 0.31408116 -0.13538398
000120 fe e0 a3 3e 9b 59 a5 bd b7 3e 92 3e c3 40 ca 3d
       0.32007593 -0.080737315 0.28563473 0.098756336
000130 11 94 be 3d d7 be 94 3c c5 1e f3 be c0 b1 0d 3f
       0.09305585 0.018157406 -0.47484413 0.5534935
000140 83 00 c0 bd 0e 09 df be c3 d0 0f 3d e1 7d c9 bd
       -0.093750976 -0.43561596 0.0351112 -0.098384626
000150 5f 49 ca 3e c2 40 e6 be 20 2d 0e bf 51 38 f4 3e
       0.39509103 -0.4497128 -0.55537605 0.47699216
000160 b0 5c 42 be 73 57 01 3f 07 57 ad 3e 63 81 d7 be
       -0.1898067 0.5052406 0.3385546 -0.42090902
000170 b3 bc 5f 3e b3 d7 8f 3e 40 55 e5 be 3c ad 21 bf
       0.21849327 0.28094253 -0.44791603 -0.6315496
000180 ee c0 4b 3e b0 8a 3d bd f8 df b9 be 61 04 1a be
       0.19897816 -0.04627484 -0.36303687 -0.15040733
000190 5f c0 0a 3f 17 86 12 bf c5 d5 ab 3e 50 33 01 3e
       0.54199785 -0.57235855 0.3356153 0.1261723
0001a0 e9 86 0c bf 2f b1 0e bf 88 7b 39 3f 8b 5c 98 3e
       -0.54893357 -0.5573911 0.7245412 0.29758105
0001b0 40 f1 d0 3e 54 a1 cf bc 40 fb 8e 3e 2e ff e4 3e
       0.4080906 -0.025345482 0.27926064 0.44725937
0001c0 3c c3 db 3e 0d 0a ea be 34 3b 7c 3d a7 0e b6 3e
       0.4292239 -0.45710793 0.061579898 0.35558054
0001d0 63 b8 7a 3e 45 f7 c2 3e a3 fb 11 bf dd 37 d2 be
       0.244844 0.38079277 -0.5702459 -0.41058245
0001e0 c3 c5 b2 be 6d 8b 94 3d 09 4f 13 3f b5 b9 ba be
       -0.34916505 0.07253156 0.57542473 -0.36469808
0001f0 79 85 9d 3e e9 9c a3 be 28 f7 0a bf 4b 4f fb bd
       0.30765894 -0.3195565 -0.5428338 -0.12270983
000200 6b 51 aa 3e a9 80 11 3f e6 a4 01 bf 72 b3 8c 3e
       0.33265242 0.56836945 -0.5064224 0.27480656
000210 66 23 b6 3e ed 12 2d 3e 0c f5 79 3e e4 dd e0 3e
       0.35573882 0.16901751 0.24409884 0.4391929
000220 3d 0d 83 3e 3d 79 c0 3d b7 23 ca be 44 3c f8 be
       0.25596038 0.09398124 -0.39480373 -0.4848348
000230 98 73 87 be eb af 89 bd d3 30 b5 be 8d 4b 58 3e
       -0.2645538 -0.06723007 -0.35388812 0.2112257
000240 d1 16 51 3e f8 a3 84 be a0 15 83 3e 1f 06 22 3e
       0.2041886 -0.25906348 0.25602436 0.15822648
000250 c7 9d 81 3e 65 a0 2a 3e 29 7b 6d be 5a 9b 21 3f
       0.25315687 0.16662748 -0.23191513 0.6312767
000260 47 ed 93 be f1 7d a2 bc ce 81 0b bf 4e 41 be be
       -0.28891966 -0.019835444 -0.5449494 -0.371592
000270 47 b1 ac be 66 df 7c be 3c 2a d2 3e f4 31 41 be
       -0.33729002 -0.24694595 0.41047847 -0.18866712
000280 18 e6 dc be 7a 77 63 3e 41 5a f2 3d 72 5b 36 3e
       -0.43144298 0.22213545 0.11833621 0.17808321
000290 e0 c7 a0 be ad 33 49 3e 59 45 9d be 6f b6 1d be
       -0.31402493 0.19648619 -0.3071697 -0.15401624
0002a0 5d 92 eb be 76 b9 86 be c6 0f 35 be 20 b5 9b 3e
       -0.46010104 -0.2631337 -0.17681798 0.30411625
0002b0 ad 1d 14 3c 41 ab 67 3e 22 6b 1a 3f 3f 0a ed 3e
       0.009040278 0.22623922 0.6031972 0.4629688
0002c0 50 ae bc 3e e2 9b 96 3c f0 7e cc be 51 04 e7 3e
       0.3685174 0.018384878 -0.39940596 0.4512048
0002d0 d3 d6 13 be 6d 2f 3f bd 76 a9 fe be 7a 8f e9 bd
       -0.14437418 -0.046676088 -0.49738663 -0.11404319
0002e0 1a a9 be be da d0 07 3f 28 8e ff be ee 6a e6 be
       -0.3723839 0.5305306 -0.49913144 -0.45003456
0002f0 fa 99 a0 bc 9a e4 82 be da 78 c6 3e 87 66 b9 be
       -0.019604672 -0.25565034 0.38764077 -0.36211035
000300 5a d7 8a be 2f f0 05 3d 95 fc d5 3e 35 ef cf be
       -0.27117425 0.03269976 0.41794267 -0.40612188
000310 33 d1 8a 3e 67 e8 bd 3e 2b 8d 19 3f 63 a1 0c bf
       0.2711273 0.3709137 0.5998103 -0.54933757
000320 85 6d 3d 3e b9 93 da be 15 5f fc 3e 32 55 65 be
       0.1849881 -0.42690828 0.49291292 -0.2239578
000330 a8 e1 b8 3e 26 b5 d9 bd 89 4f a7 bd ae e9 96 bc
       0.36109662 -0.106302544 -0.08169467 -0.018421974
000340 f5 00 c9 3d a4 58 8b 3e 18 af 0d 3e 9e 38 95 3d
       0.09814636 0.27216065 0.13836324 0.072861895
000350 6d 2a 3b bf e8 d6 98 3e f0 5e a2 3e c3 74 89 3e
       -0.7311161 0.2985146 0.31713057 0.26846895
000360 df a1 e3 3e 72 fd 14 bf f8 da 2e be 54 4b 12 3f
       0.44459435 -0.58199227 -0.17075717 0.5714619
000370 e5 f0 0e bf 93 4f 3c 3f a8 7d e8 be bb 39 d0 be
       -0.55836326 0.7355892 -0.45408368 -0.40669045
000380 94 83 90 3e 44 63 d4 be 24 72 07 be 8c 0c d7 3e
       0.28225386 -0.41481984 -0.13227135 0.4200176
000390 f1 1d f2 3e 11 9a dd 3e 53 60 17 be c9 c2 e5 be
       0.47288468 0.43281606 -0.14782839 -0.44875172
0003a0 f2 86 11 3f 8e e2 fb bd 42 3e 73 be e7 1e 10 3e
       0.56846535 -0.12299071 -0.23754218 0.14074288
0003b0 00 b9 ce be 46 92 d9 3e a8 d5 84 3e f1 46 08 bf
       -0.4037552 0.4249441 0.25944257 -0.5323325
0003c0 e8 cc f2 be 7d 26 4f bd 65 52 78 3e fe 87 97 3d
       -0.47421956 -0.050573815 0.24250181 0.07398985
0003d0 76 4c a0 be ec 30 93 bd 6e ec 0a bf c1 eb d0 be
       -0.31308335 -0.071870655 -0.54267013 -0.40804866
0003e0 ad c7 c4 be df 9c fa 3e 24 a3 c7 3e c8 80 92 be
       -0.3843359 0.48947808 0.38991654 -0.28613877
0003f0 ba f4 dc 3d e3 ad 62 3e 93 1d df 3d 72 3a a1 be
       0.107888654 0.22136645 0.10894313 -0.31489903

fc1.bias f4 [256]
000000 76 72 9a be 64 1d 8a 3d 55 d7 e2 be b7 c1 87 3e
       -0.30165452 0.06743887 -0.4430491 0.2651498
000010 e0 aa 1d bf 0b b7 09 3f fb 39 af 3e cc 03 53 be
       -0.6158886 0.53794926 0.34223923 -0.20606917
000020 fb d7 ae 3d 4f 5b bf be d2 98 e8 be c6 b5 95 be
       0.08537289 -0.3737435 -0.45429093 -0.29240245
000030 32 1e 01 bf 46 c0 85 3e df 32 bb be a9 a0 2f be
       -0.504367 0.26123255 -0.3656225 -0.1715113
000040 af 87 e2 be 61 b7 b9 be be 06 2e bf 8b 76 d4 be
       -0.44244143 -0.3627272 -0.6797904 -0.4149669
000050 c2 6a 2c 3f 82 14 58 3c 53 f5 0c bf 8a 59 c5 bd
       0.673504 0.013188483 -0.55061835 -0.09636219
000060 63 46 2c be 40 31 8c 3e 0e 67 4e 3f 15 c3 0e 3e
       -0.16823725 0.27381325 0.80626 0.13941605
000070 0a 31 5e 3e 44 40 d4 be 79 68 e7 bd 61 5e 52 be
       0.21698394 -0.4145528 -0.112992235 -0.20543815
000080 48 97 9f bd 81 e1 35 3f 06 d9 4c 3e 78 cd 3f 3f
       -0.077925265 0.71047217 0.20004663 0.74922895
000090 d0 e3 04 bf 5c 47 80 be 7d d3 21 3e b1 b9 64 3e
       -0.51910114 -0.25054443 0.15803333 0.2233646
0000a0 88 dd 07 bf 8f 2c 91 be 82 85 ab 3d bb f7 18 bf
       -0.53072405 -0.28354308 0.08375074 -0.59753007
0000b0 eb f8 3f bd 12 54 60 be bc 32 19 be d8 88 9e 3e
       -0.046868246 -0.2190707 -0.1496076 0.30963778
0000c0 b0 75 53 3e 27 2f 19 3f e5 be ea 3e e7 57 81 bc
       0.20650363 0.59837574 0.45848766 -0.015788985
0000d0 f0 af f1 3e f7 40 eb 3e e4 e3 14 bf d7 d1 b2 3d
       0.47204542 0.45948002 -0.58160233 0.0873143
0000e0 4c 8d 8a 3d ed d5 e9 be 47 8c a2 be 6f 9a 0b be
       0.067652315 -0.45671025 -0.31747648 -0.1363313
0000f0 fb da ce be fd 68 34 be 04 f2 46 3e 05 ce 3a 3f
       -0.40401444 -0.17618175 0.19428259 0.7297061
000100 05 a2 33 3d a1 21 0f bf 0c e0 80 3d e4 e3 32 be
       0.043855686 -0.5591069 0.062927336 -0.17469746
000110 55 4e ad 3e 5b d1 0e bf 73 8d 92 be 36 c7 a2 3e
       0.33848825 -0.557882 -0.28623542 0.3179261
000120 e1 50 58 bc 52 7d 06 bf 0e f7 ff be 1b 32 cb bb
       -0.013202877 -0.52534974 -0.49993175 -0.0062010414
000130 84 57 76 3d b6 68 f5 be a4 5c f7 be 66 1e 3a be
       0.060142055 -0.4793145 -0.48312867 -0.18175659
000140 96 7f f2 bd c1 ac a2 3e cb 35 0f bf 9c 3b 91 be
       -0.11840741 0.31772426 -0.55941457 -0.2836579
000150 74 7f 11 bf a8 25 0e 3e cd 07 97 be fb bd 0f bd
       -0.56835103 0.13881552 -0.2949814 -0.03509329
000160 da 49 f7 be 27 8a e8 be 50 b7 07 bf 5c d6 39 bf
       -0.48298532 -0.45417902 -0.5301409 -0.7259271
000170 d6 9a ba 3e 59 37 a9 bd 0c 58 17 bf 40 23 cf 3e
       0.36446255 -0.0826251 -0.59118724 0.4045658
000180 8c 21 06 be bf b5 88 3e 91 44 37 be fa 50 f7 be
       -0.13098735 0.2670116 -0.1789725 -0.48303968
000190 5d d8 01 3e d2 11 b8 3e 80 1c 10 bf df 5e 26 be
       0.12680192 0.35951096 -0.5629349 -0.16247128
0001a0 0c ab eb 3d 45 b6 87 3d fb 3e 47 be 12 c6 37 be
       0.11507234 0.06626562 -0.19457619 -0.17946652
0001b0 a4 98 11 bf dc 80 c7 3c 39 38 19 bf d5 3d f4 be
       -0.56873536 0.024353437 -0.59851414 -0.47703424
0001c0 02 cf 3d be 4c fd d1 be d7 2a d1 3e f8 dd c7 3e
       -0.18535998 -0.41013563 0.40852997 0.39036536
0001d0 e4 bb e5 3e de c0 da be 0d 0b 29 3e e5 2a b1 3e
       0.44869912 -0.4272527 0.16508122 0.34603038
0001e0 3d 39 d4 3b 67 20 eb 3e bb 43 a7 3e 22 2e e2 3e
       0.00647655 0.4592316 0.32668862 0.44175822
0001f0 a9 e5 61 3e b9 96 b2 3d 5c 35 d3 be 60 cf a4 be
       0.22060265 0.08720154 -0.41251647 -0.32189465
000200 ae 2b 8c be fb 12 a5 3e c1 15 0b be 7d e9 3c 3e
       -0.27377075 0.32241043 -0.13582517 0.18448444
000210 42 a4 3e bf 22 88 87 be 85 c7 26 be 0e bc be be
       -0.7446939 -0.2647105 -0.16287048 -0.3725285
000220 51 8f 21 3e 1e b3 2f bf d9 7c 8c be 40 c5 89 be
       0.15777327 -0.68632686 -0.27439 -0.26908302
000230 30 ce 05 bf 3e 5a 2e 3e 61 1d 3c be 5a 33 50 3e
       -0.5226774 0.17026612 -0.18370582 0.20332089
000240 ac db da 3e 2b 7b 3f 3f f9 de c6 bd 1f 9a d6 3d
       0.4274572 0.74797314 -0.097104974 0.10478615
000250 a0 8d 06 3f 51 ba b1 bd 08 eb 60 be e0 ea af bc
       0.5255985 -0.08678115 -0.21964657 -0.021474302
000260 a9 8f bf 3d 21 21 07 3f 95 fb 3f bf 8b 72 5f 3e
       0.09353573 0.52784926 -0.7499326 0.21821038
000270 14 e0 7c 3e 43 6b b0 be 10 d3 2d 3b 0e 63 66 3e
       0.24694854 -0.34456834 0.0026523508 0.22498724
000280 3e 23 80 3c 42 31 e5 3e 2f 05 81 3e 0d e1 31 bf
       0.015641805 0.44764143 0.25199267 -0.69484025
000290 61 2d 2c be 48 35 95 3e 41 2e 8e be fa 2a 7c 3e
       -0.16814186 0.29142213 -0.27769664 0.2462577
0002a0 11 48 08 3e e1 d8 bf bd 50 73 86 3b 37 47 a9 3d
       0.13308741 -0.09367538 0.004103102 0.08265536
0002b0 a3 48 ca be 6b a1 d2 3e 70 72 4e 3e 5b e0 a5 3e
       -0.39508542 0.41138777 0.20160842 0.32397732
0002c0 b9 b1 13 3f e3 06 3f be ac bc d0 be a3 f7 d7 3c
       0.5769306 -0.18654971 -0.40768945 0.0263632
0002d0 0b e2 93 be f0 b3 50 3e f3 db 2f 3f 4f 0e 0d bf
       -0.28883395 0.2038114 0.6869499 -0.5509996
0002e0 c1 9a 25 be e8 0c 18 3f b4 fa eb be 80 0a cc bd
       -0.16172315 0.59394693 -0.4608971 -0.0996294
0002f0 a2 05 d9 3e 8f 8c ce 3e 0e 63 fc bd f4 fc 7e be
       0.4238711 0.40341613 -0.12323581 -0.24901181
000300 ea 64 66 be 92 89 04 bf cf 65 bd be 03 7b 0a bf
       -0.22499433 -0.51772416 -0.36991736 -0.5409395
000310 e9 8b f0 3e a1 dd 7e 3e 93 49 be 3e ed 7e 14 be
       0.46981743 0.24889232 0.37165508 -0.14501543
000320 61 6d a2 3e f8 9e 83 be ae f9 8a 3e 8d ab 75 be
       0.31724074 -0.2570722 0.27143615 -0.23991223
000330 02 0e 8b be 0c 25 c2 be 0c c6 bb be ca 49 07 bf
       -0.27159125 -0.3791889 -0.36674535 -0.5284697
000340 2b bc 77 3c e7 f9 df be d5 8b 82 3d df 78 bc 3e
       0.015120546 -0.43745348 0.06374327 0.36810967
000350 62 2d ad bd 96 5c 8f 3e 81 29 61 bd e8 f9 33 3e
       -0.08455922 0.28000325 -0.05497122 0.175758
000360 1c a3 be be e8 12 cb bd fb 01 45 be a5 11 8a 3e
       -0.37233818 -0.099157155 -0.19239037 0.26966587
000370 68 aa 04 bf 96 26 a6 be 3a c3 09 be 3b bd 42 3f
       -0.5182252 -0.32451314 -0.1345338 0.7606999
000380 1a 02 c8 3e 3f 0f 11 bf b9 0e 1f bf 83 c1 a4 3e
       0.39064103 -0.5666389 -0.6213184 0.32178888
000390 e4 51 ac 3d ab 2f fd be 99 ea 91 be c7 3b 81 3e
       0.08414057 -0.4945043 -0.28499296 0.2524092
0003a0 f9 18 af be 55 b2 16 bf 9c 82 b6 be e5 c1 e4 bd
       -0.3419874 -0.58865863 -0.35646522 -0.11169795
0003b0 1a 0c 73 be 38 97 b4 3e 77 ed 8d 3e af 2a f9 be
       -0.23735085 0.3527162 0.27720234 -0.48665377
0003c0 82 10 93 be 2e 3b e4 be 56 6f 4b 3e 90 02 49 3f
       -0.28723532 -0.445764 0.1986669 0.78519535
0003d0 c8 a8 0f 3f db 59 aa 3d f3 f2 6d be 4d ce 6b bc
       0.56116915 0.0831792 -0.23237209 -0.014392448
0003e0 41 4c 55 3e c4 6e 45 bf 8a 07 1f be 59 48 f0 be
       0.2082987 -0.7712214 -0.1553022 -0.46930197
0003f0 d3 6b 59 bf ef 14 9e bc 79 30 bb be c3 40 bb be
       -0.8493015 -0.019297091 -0.3656042 -0.36572847

fc2.weight f4 [64, 256]
000000 5f c4 3a 3e a2 e2 5e 3e 50 43 1c 3c c9 7f 1b be
       0.18238972 0.21766141 0.009537533 -0.15185465
000010 84 bc 98 3e 4a a4 35 be fc 76 ba bb 20 9d ac bc
       0.29831326 -0.17738453 -0.0056904536 -0.021071017
000020 ae 76 3c 3d 5a a0 ae 3e b6 10 29 3d f8 16 8f bc
       0.04601162 0.34106714 0.041275702 -0.017467007
000030 e5 a1 a2 3d 42 ed c6 be dc df 91 3d b4 21 2b 3e
       0.07941035 -0.38852888 0.07122776 0.16712075
000040 c4 c9 47 bd 06 ff 40 3d c9 d7 ba 3c 9c 3f 5e 3d
       -0.048776403 0.04711821 0.022807973 0.05425988
000050 45 ea a5 be 6d 0d 10 3e 6a 9c 19 3d c8 03 6d 3c
       -0.32405296 0.14067622 0.037502684 0.014466234
000060 26 68 68 3d 58 9b b8 bc 0f 99 31 bf 76 50 6b bd
       0.05673995 -0.022535011 -0.69374174 -0.05744978
000070 8b b0 08 3e 10 90 f7 3d 5c 0e 89 3e f9 11 c5 be
       0.13348596 0.120880246 0.26768768 -0.38490275
000080 b8 0d 7f 3d e1 42 29 be c8 08 0b bd f4 c6 e4 be
       0.062268943 -0.16529419 -0.03394392 -0.4468304
000090 56 d3 02 3e 9b 31 77 3d 3f 3f c3 bd b7 5c d6 3d
       0.12775931 0.06035004 -0.095335476 0.10466903
0000a0 f2 c8 6e bd f0 5d ea bb 40 88 58 bb 56 94 33 3e
       -0.058297105 -0.0071523115 -0.0033040196 0.17537054
0000b0 2c 3d 1f bd 98 71 07 3d 7a 38 66 3d aa b6 66 3d
       -0.038876697 0.033067316 0.056206204 0.056326546
0000c0 2a 1d c8 bc 97 b5 33 bd ac 46 57 be 96 ec 47 bd
       -0.024427969 -0.04387435 -0.21023053 -0.04880961
0000d0 28 62 8c bc 34 8a 78 3d 4a a9 9d 3d d5 bf 9c 3d
       -0.017136648 0.060678676 0.07698305 0.076537766
0000e0 f4 d5 70 3d e8 1b dd 3d 6e 9a a5 3d 18 1c 2a 3d
       0.05879779 0.10796338 0.08086096 0.0415307
0000f0 d2 0d 70 3d 18 9b 2f 3c ce 05 4f bd f8 d1 cb be
       0.05860693 0.01071813 -0.050542645 -0.3980863
000100 fe 44 04 bd d8 4b 53 3d b0 63 0a 3e ac d9 95 3c
       -0.03229236 0.051586002 0.1351459 0.01829227
000110 4b 76 fc bc 92 8b 3c bd 10 92 ff 3d b4 91 19 bc
       -0.030818125 -0.046031542 0.12479031 -0.009373117
000120 80 7f 87 3d 33 10 6f 3e 20 d6 75 bc 00 23 77 3a
       0.066161156 0.23346023 -0.015004665 0.00094275177
000130 16 bc 1b 3d c8 02 c5 3c c0 e2 43 bd c1 da 14 3d
       0.03802117 0.024049178 -0.047823668 0.036341432
000140 b0 bb fd bc a3 7b d5 3c 98 88 fd 3c 1b 93 8b 3d
       -0.030973285 0.026059931 0.030948922 0.068151675
000150 38 b6 26 3e fd 8c b8 be 98 d1 7f bd 63 24 e7 3d
       0.16280448 -0.36045066 -0.062455744 0.11286237
000160 da a9 2f bd f0 be 08 3c 3c df d2 3d c3 8c 8b 3e
       -0.042886592 0.008346304 0.10296485 0.2725583
000170 ac e7 2e bd a2 d1 7a bd 2d 84 b4 3d 08 03 25 3c
       -0.04270141 -0.061235078 0.08814273 0.0100715235
000180 02 88 3b 3d 02 df 3e 3a 4c 28 45 3d e8 9f a1 3c
       0.045784004 0.00072811556 0.048134133 0.01972957
000190 d0 51 92 bc 80 84 58 bc dc ff 0b bd b4 6c c2 3d
       -0.017861277 -0.013215184 -0.034179553 0.0949339
0001a0 66 08 32 bd 60 07 b0 3c 49 63 af 3d b4 3b 59 3d
       -0.04346504 0.021487892 0.08563859 0.053035453
0001b0 99 c6 39 3e c2 d2 66 3e 37 2f 35 3d 10 38 a7 bb
       0.18142165 0.22541335 0.04423448 -0.0051031187
0001c0 1e b2 69 3d f3 03 39 3d 65 cd e9 be 22 59 42 3d
       0.05705463 0.045169782 -0.45664516 0.047448285
0001d0 b8 fe 78 bd b2 ac 9b 3e e1 e6 72 3d e1 4e a4 bc
       -0.060789794 0.30405194 0.059302215 -0.020057144
0001e0 70 87 28 3c 9d a0 3c be c0 0f 22 bd 88 95 e7 bc
       0.010286197 -0.18420644 -0.0395658 -0.028269544
0001f0 fe 3b 0a bd d9 21 14 3d 88 6b 48 3d 20 c3 e0 3b
       -0.03374862 0.036165092 0.048930675 0.006859198
000200 9c 92 26 bd b6 da d3 bc 54 4e 0f 3b b9 3b ae be
       -0.04066716 -0.025861125 0.0021866756 -0.3402994
000210 c1 d5 2d 3e a0 4f 1f 3e fe 57 0e bd 7c 66 88 bc
       0.16976072 0.15557718 -0.034751885 -0.01665043
000220 71 dc 27 3b 72 84 22 3e a2 cf dd 3d 89 a8 d9 3d
       0.002561357 0.15870836 0.108306184 0.10627849
000230 3c 55 be bc f2 8c ba 3d 5c 30 39 bd af 65 0f 3c
       -0.023234002 0.091089144 -0.045212135 0.008752271
000240 17 0f fd bd 87 9e 15 bf 22 1d ff 3c f0 09 c6 3d
       -0.12356394 -0.5844502 0.031141821 0.09669864
000250 ea cd 84 bc a6 4f c6 3d 8f 67 4f 3c fb 84 d0 bd
       -0.016211469 0.096831605 0.012658968 -0.10181614
000260 10 66 d2 3c 2c ad a7 be 0d 47 e5 3d 68 de 45 3d
       0.025683433 -0.32749307 0.111951925 0.048307806
000270 a2 59 fe be 93 e8 b9 be f0 14 57 3d d7 97 e6 3c
       -0.4967776 -0.36310253 0.052510202 0.028148575
000280 41 da fc 3d c8 bf 09 3c fb a7 f6 be 33 37 24 3e
       0.12346316 0.008407541 -0.48175034 0.16036682
000290 41 7e 76 3e 2d 88 35 3b a8 80 5c 3d 9c 2f 1f 3d
       0.240716 0.0027699575 0.053833634 0.038863763
0002a0 c0 c5 fa ba f0 ae e4 bc 60 c3 87 3b fd 3f 96 3d
       -0.001913242 -0.027915448 0.0041431636 0.073364235
0002b0 a6 2b 22 3d cc 87 09 3d 32 48 1b 3d e0 48 cb 3c
       0.039592408 0.03357677 0.037910648 0.024815023
0002c0 70 e9 c0 3c f5 34 97 3d dc 9e f8 3c b4 1d a3 3c
       0.023548812 0.073831476 0.030349188 0.019911624
0002d0 d8 df 60 3e a4 96 70 bd 9d c7 cb be 2e 41 1c 3e
       0.2196039 -0.058737412 -0.3980073 0.15259239
0002e0 4e 25 e7 3d ed 9c da bd 94 be 2c 3d 5c 22 ae 3c
       0.11286412 -0.106744625 0.042173937 0.021256618
0002f0 e3 81 4e bd 20 1b 73 3b 79 64 04 3e a4 79 13 3d
       -0.05041684 0.0037095025 0.12928952 0.036004677
000300 8f e4 bb 3e 44 72 ca bc 15 1e 87 be a4 a9 4f bd
       0.36697814 -0.02471269 -0.26390138 -0.05069889
000310 d4 57 ce bc 64 cd f8 bc 41 32 e1 bd 92 bc 11 3d
       -0.025188364 -0.030371375 -0.10995913 0.035580225
000320 5f 33 42 3d a2 74 15 3e e1 06 97 bc 91 e0 96 3d
       0.047412273 0.14595273 -0.018435897 0.073670514
000330 4c c7 c2 bc 9a 43 d0 3c 7b b8 ea 3d 68 f4 30 3d
       -0.023776673 0.02542286 0.11460968 0.043201834
000340 e7 38 75 3d 7e f0 e3 3d 65 bf f1 3d 1c 41 9b bc
       0.05986872 0.111298546 0.11804084 -0.018951945
000350 e3 42 b4 3d 0c d9 89 bc 6e c4 3f 3c 9e 30 9b 3d
       0.0880182 -0.016827129 0.011704547 0.07577632
000360 40 0a 0c 3c 7f f2 1c 3e 58 94 d2 3c 6b 40 66 bc
       0.008547366 0.1532688 0.025705501 -0.014053444
000370 a8 9c b9 bc fe cd 32 bd 07 71 27 3e ca 07 17 bf
       -0.022657707 -0.04365348 0.1635171 -0.5899626
000380 72 9c 4b bd e4 9e 65 3e f7 bf a2 3e 79 de bd 3d
       -0.049709745 0.22423893 0.31787083 0.09270949
000390 7c 46 30 3d a0 43 44 bd 88 02 5b 3e 54 f4 22 3d
       0.04303597 -0.047916055 0.21387684 0.03978379
0003a0 75 4e 95 3e 75 ca 64 3e 72 ab 3a 3d a2 91 c0 be
       0.2916142 0.22342856 0.04557366 -0.3761111
0003b0 1b 26 49 3e 0c c4 c3 bd d8 c0 d5 bc 95 ea bf 3d
       0.19643442 -0.09558877 -0.026092932 0.09370915
0003c0 a3 75 cf 3d f0 c9 a1 bb 6a f8 d0 3d cc 4c b1 bd
       0.10129859 -0.004937403 0.10203631 -0.08657226
0003d0 7c dd 05 bd 19 5a b3 3c e0 1c 1f 3e c0 be 94 ba
       -0.032681927 0.021893548 0.15538359 -0.0011348352
0003e0 34 b8 28 3d c0 3c 0c 3e cd 97 8e bc d4 57 fd bc
       0.041191295 0.1369505 -0.017406369 -0.030925669
0003f0 47 25 81 3d 94 5a 59 bd 17 99 73 3e e6 2f 1e bd
       0.06305938 -0.053064898 0.23788868 -0.0386199

fc2.bias f4 [64]
000000 63 b0 d5 bd 66 e6 dc bc 24 67 b1 bc 54 99 db 3c
       -0.10434034 -0.026965331 -0.021655627 0.026806511
000010 38 38 8a bd 70 cd 93 3c ee 67 4d 3d 90 4c 5a 3d
       -0.06749004 0.018042296 0.050147943 0.053295672
000020 61 c1 0e be 70 45 37 3c 7a 00 00 3d ac c3 24 bd
       -0.13940956 0.011185989 0.031250454 -0.04022567
000030 78 05 38 bc e6 e2 36 be 4a a7 cc bd 44 c0 aa 3c
       -0.011231773 -0.17859992 -0.09992845 0.020843633
000040 3a 01 4c 3d 64 e4 df bd ec b5 24 be 30 9d 06 be
       0.049805857 -0.10932234 -0.16085023 -0.131459
000050 4c e6 17 be 1b 78 e0 bc f8 e7 53 3c 97 88 1f be
       -0.14833945 -0.02740102 0.012933724 -0.15579449
000060 00 d4 d5 3b c0 c9 52 3c 08 25 15 bd c0 5a da 3b
       0.0065255165 0.012865484 -0.03641227 0.0066636503
000070 69 8d 67 bd ff 6e 23 3d dc a1 58 bd b0 ce 81 bb
       -0.056531344 0.039900776 -0.052888736 -0.0039614066
000080 57 f7 2b bb 3d 9b 54 bd 8b c6 c0 bd 23 70 25 bd
       -0.0026239955 -0.05190586 -0.09412869 -0.040390145
000090 22 16 24 bd 44 fe a1 bc 49 30 ac bd 00 f5 52 ba
       -0.04006017 -0.019774564 -0.08407647 -0.0008047372
0000a0 24 c0 5f bd 25 de 73 bd 04 bc 6d 3d 32 84 34 3d
       -0.0546266 -0.059538025 0.058040634 0.044071384
0000b0 0e 4b 1c be d4 a1 9f 3c d6 c0 0a be e6 7d 24 be
       -0.15263006 0.019486345 -0.13550124 -0.16063651
0000c0 7c 5e 76 bc 88 18 0a 3d 60 da 3c 3c bc ec 45 be
       -0.015037175 0.0337148 0.011526674 -0.19328588
0000d0 07 45 1f bd d2 e1 03 3d 8d 23 cc 3c 80 db e3 3c
       -0.03888419 0.03219778 0.024919296 0.027814627
0000e0 73 be 15 bd 19 7c 1b be 7b eb 81 ba d0 85 11 bd
       -0.03655858 -0.15184058 -0.0009912098 -0.035528004
0000f0 fb b1 86 bd 44 05 d0 3c 10 e1 0c 3d dd 5b ca bd
       -0.06576916 0.025393136 0.034394324 -0.09880803

fc3.weight f4 [2, 64]
000000 c6 8b 3e be 86 c0 b7 3d 70 bd f0 3d a0 81 d3 bc
       -0.18608007 0.08972268 0.11754882 -0.025818646
000010 70 a9 81 be b0 09 90 bc d0 15 1b 3c ac c4 57 bd
       -0.25324583 -0.017582744 0.00946565 -0.052677795
000020 36 d4 1c be 78 b9 33 3d e0 01 89 bd c4 ce 06 3d
       -0.15315327 0.04387805 -0.06689811 0.03291203
000030 84 ac 18 3d ac aa 19 be b1 31 61 be 15 bb 62 3c
       0.0372739 -0.15006512 -0.21991612 0.013838549
000040 80 6f 89 bc ad 61 91 be 0f a4 8c be ed 85 cf be
       -0.0167768 -0.28394833 -0.27468917 -0.40531865
000050 cc eb bc be e3 c2 8e bc 88 b6 14 3d ac 83 71 be
       -0.3689865 -0.017426914 0.036306888 -0.23585385
000060 ac 30 af bd fa 2d c7 bd e8 1e 7c bd c8 a8 6a 3d
       -0.08554205 -0.09725566 -0.061552912 0.05728987
000070 9a 19 88 bd 80 57 42 bd 28 39 74 3d 28 b5 2d 3d
       -0.06645508 -0.047446728 0.05962482 0.042409092
000080 13 92 bc 3c 7a 2e a7 3c 66 82 7e be 5b 27 b5 bd
       0.023018872 0.020407904 -0.2485443 -0.08845397
000090 41 37 58 3d 64 d1 5b 3d 5f 1b 2c be 56 0a 80 bd
       0.05278707 0.053666487 -0.16807316 -0.062519714
0000a0 ca ea bf bd f6 0a 87 bd f0 25 92 bd 5e bf 88 3d
       -0.09370954 -0.065938875 -0.07136142 0.066771254
0000b0 f9 29 a4 be 03 e0 b2 3d 5e 1d b1 be 4d f8 01 be
       -0.32063273 0.08734133 -0.34592718 -0.12692375
0000c0 bc 38 de 3d ab 6c 2a bc c1 00 ef 3c cb d5 98 be
       0.10850665 -0.010401885 0.029175164 -0.2985061
0000d0 90 f5 3b 3d 08 d6 dc 3d ab 44 46 bb c8 da d4 3c
       0.045888484 0.10783011 -0.0030253332 0.02598323
0000e0 d4 65 72 3b 10 24 24 be b3 27 18 3d fc fd 81 3d
       0.0036986964 -0.16029382 0.037147235 0.06347272
0000f0 8e 9b 9f be 7c 42 92 bd a6 bb ff bd 73 9c 87 be
       -0.31173366 -0.07141587 -0.12486963 -0.2648655
000100 f7 e2 71 be 67 89 0c be b6 54 a3 3d e0 9c 37 bc
       -0.23621736 -0.1372429 0.07975142 -0.0112068355
000110 b4 33 77 be e2 95 ce 3d 0a e5 a5 bd 66 31 ae 3d
       -0.24140817 0.10087182 -0.08100326 0.08505516
000120 a7 48 97 be aa a2 bb 3d 1e b3 1e 3d f2 bd 8c 3d
       -0.29547617 0.09161885 0.03874504 0.06872167
000130 38 f2 93 3c c2 d4 8b be 5d 2b 3a be aa 18 56 3b
       0.018059835 -0.2731076 -0.18180604 0.003266851
000140 6c f5 41 bd dc 8a f7 bd 38 56 1c be 67 ce 10 3b
       -0.047353193 -0.12087032 -0.15267265 0.0022095682
000150 d8 d0 87 3b d0 1c 82 bc 00 42 80 3b ff be 52 be
       0.004144769 -0.01588288 0.003914118 -0.20580672
000160 a8 83 f4 3d 64 7c b5 bd 6c af 86 3d 10 93 67 3d
       0.11939174 -0.08861616 0.06576428 0.056536734
000170 6e d4 48 bc e5 3e c8 3d 98 4c 89 3d f6 1e f9 bd
       -0.012257678 0.09777621 0.06704062 -0.121641085
000180 16 4e 65 bd 62 e2 82 3d 92 6d f7 bd d2 c2 44 3d
       -0.05598267 0.06390835 -0.12081446 0.048037358
000190 68 e8 de 3d eb 78 94 3c e2 d1 7d be 10 32 9f bd
       0.10884172 0.018124064 -0.24787095 -0.077732205
0001a0 12 55 de bd 78 46 99 3c d6 02 ad bd 48 5f e9 bc
       -0.108560696 0.01871036 -0.084478065 -0.028487816
0001b0 e1 2b 96 bc b6 d5 47 3d 5c 8f 39 bc a5 d3 ad be
       -0.01833147 0.048787795 -0.011325683 -0.33950534
0001c0 18 be ca 3d 5c ea fa 3c 31 bb 35 3d 53 25 b8 bd
       0.09899539 0.03062933 0.044367973 -0.08991494
0001d0 47 16 dc 3d ae 75 e3 3d f7 e7 50 bc 62 ee cc bd
       0.107464366 0.1110643 -0.012750617 -0.100064054
0001e0 9f 6a 8c 3d 87 5d 8e be 0a 9d 99 bc 46 2c ba bb
       0.06856274 -0.2780573 -0.01875164 -0.0056815473
0001f0 ca 19 f4 bd 90 a6 78 bc 4c 18 fe bd a8 54 ca bd
       -0.119189814 -0.01517643 -0.12406978 -0.09879428

fc3.bias f4 [2]
000000 53 69 0b 3f a4 e8 02 3f
       0.54457587 0.5113623
