checkpoints/dubins3d-discrete-v0__hj_dqn__1__1638911828_evalFalse/dqn_checkpoint_10463.pth (torch, 72343 bytes, 6 tensors)

fc1.weight f4 [256, 3]
0	0x3ebca212	0.368424
1	0xbeb68cd5	-0.3565432
2	0xbc940eb0	-0.01807341
3	0x3ec86b93	0.39144573
4	0xbf192e8e	-0.5983666
5	0x3f1cc4aa	0.61237586
6	0xbdf3409a	-0.11877556
7	0x3e9662ea	0.2937234
8	0x3da46023	0.08026149
9	0xbd58bab9	-0.052912448
10	0x3e34a181	0.17639734
11	0xbeac0ee2	-0.33605105
12	0x3eb45019	0.3521736
13	0xbe3eaf6d	-0.18621607
14	0x3df8d0e3	0.12149217
15	0xbdae1ade	-0.08501218
16	0x3dd19fb0	0.10235536
17	0xbeb16bed	-0.34652653
18	0x3ee0953a	0.4386385
19	0xb9af1237	-0.00033392172
20	0xbe835371	-0.25649598
21	0xbeb28872	-0.34869725
22	0xbdc630e4	-0.09677294
23	0xbe7f02f1	-0.24903466
24	0xbe3d7388	-0.18501103
25	0x3ce276a0	0.027644455
26	0x3eb037a4	0.3441745
27	0x3efc56f8	0.49285102
28	0xbf05d4cd	-0.52277833
29	0x3f01a7b4	0.5064652
30	0x3e232369	0.15931477
31	0x3ef07d12	0.4697042
32	0x3eeacf57	0.45861313
33	0xbf06aaec	-0.52604556
34	0xbf0c87f4	-0.5489495
35	0xbe8e9438	-0.27847457
36	0x3f0df802	0.55456555
37	0xbe5697df	-0.20956372
38	0x3ece9440	0.4034748
39	0xbedd5fe5	-0.43237224
40	0x3f33b905	0.7020419
41	0xbc7dc7fd	-0.015489575
42	0x3ecd83e2	0.4013968
43	0xbe41238a	-0.18861213
44	0xbe11fc47	-0.14256392
45	0x3eb902b7	0.36134884
46	0xbed20d44	-0.41025746
47	0x3e85b108	0.26111627
48	0xbe2ab716	-0.16671404
49	0xbd81a218	-0.06329745
50	0xbf0e1843	-0.5550577
51	0xbe8cf032	-0.27527004
52	0x3ea06788	0.31328988
53	0xbe0fb57b	-0.14034073
54	0x3f20cd5c	0.62813354
55	0x3ebea4b0	0.37235022
56	0x3c84801f	0.016174374
57	0xbec54f6b	-0.38537154
58	0x3eb402e1	0.35158446
59	0x3e377c35	0.17918475
60	0xbef05cf1	-0.4694591
61	0x3f0db56b	0.55354947
62	0x3f0d98f8	0.55311537
63	0x3f132e54	0.57492566
64	0xbeda7b9e	-0.42672437
65	0xbbf6beac	-0.007530054
66	0xbc373e93	-0.011184352
67	0x3dacb348	0.08432633
68	0xbee056ba	-0.43816167
69	0xbed1c449	-0.40970066
70	0x3ea0cf3f	0.31408116
71	0xbe0aa219	-0.13538398
72	0x3ea220f1	0.31665757
73	0xbda48aec	-0.0803431
74	0x3e9c4685	0.30522552
75	0x3da945e7	0.08265286
76	0x3d997c9e	0.07494472
77	0x3b700f2b	0.0036630135
78	0xbefbae53	-0.49156436
79	0x3f0fe74a	0.56212294
80	0xbd40d9af	-0.0470826
81	0xbedf090e	-0.43561596
82	0x3d0fd0c3	0.0351112
83	0xbdc97de1	-0.098384626
84	0x3ec7173b	0.3888491
85	0xbee71bd1	-0.4513841
86	0xbf168e89	-0.5881124
87	0x3ef30ccf	0.4747071
88	0xbe418f7e	-0.18902394
89	0x3f07b581	0.5301133
90	0x3eace6f0	0.3376994
91	0xbed5bdea	-0.41746455
92	0x3e681990	0.22666001
93	0x3e98723c	0.29774654
94	0xbee88fff	-0.4542236
95	0xbf2882cd	-0.65824586
96	0x3e40eaa7	0.18839513
97	0xbd4dbad7	-0.050227012
98	0xbed609db	-0.41804394
99	0xbe1d00d4	-0.15332347
100	0x3f0909a8	0.5353036
101	0xbf18d721	-0.5970326
102	0x3ea3d0f3	0.31995353
103	0x3df00e95	0.11721531
104	0xbf19a6f4	-0.60020375
105	0xbf1241d0	-0.5713167
106	0x3f3bf113	0.73414725
107	0x3ea0ac6d	0.3138155
108	0x3ecf6a62	0.4051085
109	0xbcc1bc75	-0.023649434
110	0x3e945d20	0.289773
111	0x3edd7d5d	0.43259707
112	0x3ed7858a	0.4209407
113	0xbef5d33e	-0.48012727
114	0x3d4313b8	0.047626227
115	0x3eac24c7	0.3362181
116	0x3e8e33b7	0.2777383
117	0x3ec07309	0.37587765
118	0xbf11d556	-0.5696615
119	0xbee3d3c9	-0.44497517
120	0xbeb2c5c3	-0.34916505
121	0x3d948b6d	0.07253156
122	0x3f134f09	0.57542473
123	0xbebab9b5	-0.36469808
124	0x3e9d8579	0.30765894
125	0xbea39ce9	-0.3195565
126	0xbf0af728	-0.5428338
127	0xbdfb4f4b	-0.12270983
128	0x3eaa516b	0.33265242
129	0x3f1130e4	0.56715226
130	0xbf00dc1b	-0.50335854
131	0x3e931c1d	0.28732386
132	0x3ea90693	0.33012828
133	0x3e1ac8f1	0.15115716
134	0x3e7c0494	0.24611121
135	0x3edcc0e0	0.43115902
136	0x3e8131e3	0.25233373
137	0x3db2691e	0.08711456
138	0xbeca23b7	-0.39480373
139	0xbef83c44	-0.4848348
140	0xbe877398	-0.2645538
141	0xbd89afeb	-0.06723007
142	0xbeb530d3	-0.35388812
143	0x3e584b8d	0.2112257
144	0x3e494081	0.19653513
145	0xbe876080	-0.2644081
146	0x3e962bf6	0.29330415
147	0x3e14f21c	0.14545482
148	0x3e6fd686	0.23421678
149	0x3e3de18f	0.18543075
150	0xbe6fef36	-0.23431095
151	0x3f1fe089	0.6245199
152	0xbe9a34ec	-0.301185
153	0xbca27df1	-0.019835444
154	0xbf0b81ce	-0.5449494
155	0xbebe414e	-0.371592
156	0xbeacb147	-0.33729002
157	0xbe7cdf66	-0.24694595
158	0x3ed22a3c	0.41047847
159	0xbe4131f4	-0.18866712
160	0xbedce618	-0.43144298
161	0x3e63777a	0.22213545
162	0x3de7e823	0.113235734
163	0x3e3bfbb9	0.18357743
164	0xbec591f3	-0.38587913
165	0x3e48209e	0.19543692
166	0xbe9afdd4	-0.3027178
167	0xbe301efb	-0.17199318
168	0xbeeb925d	-0.46010104
169	0xbe86b976	-0.2631337
170	0xbe350fc6	-0.17681798
171	0x3e9a415d	0.30127993
172	0x3c2769d0	0.010218099
173	0x3e750a00	0.23929596
174	0x3f180ec4	0.5939753
175	0x3eea0b08	0.4571154
176	0x3ec12d22	0.37729746
177	0x3c969be2	0.018384878
178	0xbecc7ef0	-0.39940596
179	0x3ee70451	0.4512048
180	0xbe13d6d3	-0.14437418
181	0xbd3f2f6d	-0.046676088
182	0xbefea976	-0.49738663
183	0xbde98f7a	-0.11404319
184	0xbebea91a	-0.3723839
185	0x3f07d0da	0.5305306
186	0xbeff8e28	-0.49913144
187	0xbee66aee	-0.45003456
188	0xbca099fa	-0.019604672
189	0xbe839af1	-0.25704148
190	0x3ec3959f	0.3820009
191	0xbec182d5	-0.3779513
192	0xbe8ad75a	-0.27117425
193	0x3d05f02f	0.03269976
194	0x3ed5fc95	0.41794267
195	0xbecfef35	-0.40612188
196	0x3e8ad133	0.2711273
197	0x3ebde867	0.3709137
198	0x3f18aa05	0.5963443
199	0xbf0c552e	-0.54817474
200	0x3e432acd	0.19059296
201	0xbeda93b9	-0.42690828
202	0x3efc5f15	0.49291292
203	0xbe655532	-0.2239578
204	0x3eaf879b	0.34283146
205	0xbdf3b8b6	-0.11900465
206	0xbdb661e3	-0.08905389
207	0xbc96e9ae	-0.018421974
208	0x3dc900f5	0.09814636
209	0x3e8b58a4	0.27216065
210	0x3e07d050	0.13263059
211	0x3d973aef	0.073842876
212	0xbf52ddb3	-0.82369536
213	0x3e873399	0.26406553
214	0x3e944188	0.28956246
215	0x3e8e2aca	0.2776702
216	0x3ee2022f	0.4414229
217	0xbf1494c2	-0.58039486
218	0xbe39ce98	-0.18145216
219	0x3f122b05	0.5709689
220	0xbf0e20dd	-0.55518895
221	0x3f42bd34	0.7606995
222	0xbee87da8	-0.45408368
223	0xbed039bb	-0.40669045
224	0x3e908394	0.28225386
225	0xbed46344	-0.41481984
226	0xbe077224	-0.13227135
227	0x3ed70c8c	0.4200176
228	0x3eea44df	0.4575567
229	0x3ed8f2d6	0.4237277
230	0xbe118e71	-0.14214493
231	0xbee5c2c9	-0.44875172
232	0x3f1186f2	0.56846535
233	0xbdfbe28e	-0.12299071
234	0xbe733e42	-0.23754218
235	0x3e101ee7	0.14074288
236	0xbeceb900	-0.4037552
237	0x3ed4d378	0.41567588
238	0x3e82ecfb	0.25571427
239	0xbf0ead61	-0.55733305
240	0xbef2cce8	-0.47421956
241	0xbd4f267d	-0.050573815
242	0x3e785265	0.24250181
243	0x3d9e853b	0.077402554
244	0xbea568af	-0.3230643
245	0xbdd86e00	-0.10567856
246	0xbf0aec6e	-0.54267013
247	0xbed0ebc1	-0.40804866
248	0xbec4c7ad	-0.3843359
249	0x3ef529b3	0.47883376
250	0x3ec5c688	0.3862803
251	0xbe9d665a	-0.3074215
252	0x3de238fc	0.11046025
253	0x3e668e17	0.2251514
254	0x3ddd4cb7	0.10805648
255	0xbeb22895	-0.34796587

fc1.bias f4 [256]
0	0xbea30617	-0.31840584
1	0x3d66c9d6	0.05634483
2	0xbee2d755	-0.4430491
3	0x3e8d6d82	0.2762261
4	0xbf221d92	-0.6332637
5	0x3f0d2ad8	0.551435
6	0x3ea17a74	0.31538737
7	0xbe5303cc	-0.20606917
8	0x3daed7fb	0.08537289
9	0xbec71908	-0.38886285
10	0xbef2a71f	-0.47393128
11	0xbe95b5c6	-0.29240245
12	0xbf0579f5	-0.52139217
13	0x3e879683	0.2648202
14	0xbec50933	-0.3848358
15	0xbe3fc69c	-0.18728107
16	0xbee287af	-0.44244143
17	0xbeb9b761	-0.3627272
18	0xbf331b63	-0.69963664
19	0xbed4768b	-0.4149669
20	0x3f2e34f6	0.6804956
21	0xbb838ab2	-0.0040143365
22	0xbf0cf553	-0.55061835
23	0xbdc5598a	-0.09636219
24	0xbe3e0228	-0.1855551
25	0x3e8a1a65	0.26973262
26	0x3f51c6b9	0.8194385
27	0x3e0ec315	0.13941605
28	0x3e4c23c5	0.1993552
29	0xbedc65bb	-0.43046364
30	0xbe03704d	-0.12835808
31	0xbe413c82	-0.18870738
32	0xbdd087c3	-0.101821445
33	0x3f38ce84	0.7219012
34	0x3e353b58	0.17698419
35	0x3f433652	0.7625476
36	0xbf09e4f5	-0.53864986
37	0xbe8f30d7	-0.2796695
38	0x3e2299a4	0.15878922
39	0x3e52a9cb	0.20572583
40	0xbf07dd88	-0.53072405
41	0xbe912c8f	-0.28354308
42	0x3dab8582	0.08375074
43	0xbf1d3a02	-0.6141664
44	0xbdae8247	-0.08520942
45	0xbe793c71	-0.24339463
46	0xbe1932bc	-0.1496076
47	0x3e9e88d8	0.30963778
48	0x3e4690e3	0.19391207
49	0x3f1ab8ae	0.6043805
50	0x3ef137bf	0.47112843
51	0xbc8157e7	-0.015788985
52	0x3ef1aff0	0.47204542
53	0x3eeb40f7	0.45948002
54	0xbf1d5626	-0.6145958
55	0x3d9c68a8	0.07637149
56	0x3d8a8d4c	0.067652315
57	0xbef3905a	-0.4757107
58	0xbeaf16f3	-0.34197196
59	0xbe0b9a6f	-0.1363313
60	0xbecedafb	-0.40401444
61	0xbe3468fd	-0.17618175
62	0x3e46f204	0.19428259
63	0x3f3e598d	0.74355394
64	0x3d33a205	0.043855686
65	0xbf0f21a1	-0.5591069
66	0x3d387d74	0.045041516
67	0xbe32e3e4	-0.17469746
68	0x3ea22799	0.31670836
69	0xbf0ed15b	-0.557882
70	0xbe9d0601	-0.30668643
71	0x3e972ad8	0.29524875
72	0xbcfc296b	-0.030781468
73	0xbf0a2ed2	-0.5397769
74	0xbefff70e	-0.49993175
75	0xbbcb321b	-0.0062010414
76	0x3d10a90b	0.035317462
77	0xbef568b6	-0.4793145
78	0xbef75ca4	-0.48312867
79	0xbe5369c1	-0.2064581
80	0xbdf27f96	-0.11840741
81	0x3ea41869	0.32049873
82	0xbf0f35cb	-0.55941457
83	0xbe9f6f73	-0.31139717
84	0xbf15e496	-0.5855192
85	0x3e073f06	0.13207635
86	0xbe9707cd	-0.2949814
87	0xbd55b81d	-0.052177537
88	0xbef749da	-0.48298532
89	0xbee88a27	-0.45417902
90	0xbf0cb41f	-0.5496234
91	0xbf3e869b	-0.7442414
92	0x3eba9ad6	0.36446255
93	0xbda93759	-0.0826251
94	0xbf1cbb06	-0.61222875
95	0x3ecf2340	0.4045658
96	0xbe06218c	-0.13098735
97	0x3e88b5ce	0.26701206
98	0xbe374491	-0.1789725
99	0xbef750fa	-0.48303968
100	0x3e01d85d	0.12680192
101	0x3eb811d2	0.35951096
102	0xbf101c80	-0.5629349
103	0xbe395316	-0.18098101
104	0x3debab0c	0.11507234
105	0x3d87b645	0.06626562
106	0xbe5ee44f	-0.2176678
107	0xbe37c612	-0.17946652
108	0xbf167409	-0.58770806
109	0x3c04854b	0.00808842
110	0xbf1dcdbd	-0.61642057
111	0xbef43dd5	-0.47703424
112	0xbe3dcf02	-0.18535998
113	0xbed1fd4c	-0.41013563
114	0x3ecf3938	0.40473342
115	0x3ec7ddf8	0.39036536
116	0x3ee5bbe4	0.44869912
117	0xbee423bf	-0.44558522
118	0x3e149c7c	0.14512819
119	0x3eb198de	0.3468694
120	0x3bd4393d	0.00647655
121	0x3ef1dd49	0.4723914
122	0x3ea743bb	0.32668862
123	0x3ee22e22	0.44175822
124	0x3e68a682	0.22719768
125	0x3da87255	0.08224932
126	0xbedd0b3d	-0.43172637
127	0xbea4cf60	-0.32189465
128	0xbe8c2bae	-0.27377075
129	0x3e9fa58c	0.3118099
130	0xbe161f33	-0.14660339
131	0x3e38c311	0.18043162
132	0xbf433f1f	-0.7626819
133	0xbe8f3d4f	-0.27976462
134	0xbe26c785	-0.16287048
135	0xbebebc0e	-0.3725285
136	0x3e0f1f0e	0.1397669
137	0xbf3562d3	-0.7085392
138	0xbe99d650	-0.3004632
139	0xbe92b6a2	-0.28654963
140	0xbf05ce30	-0.5226774
141	0x3e1cf765	0.15328749
142	0xbe3c1d61	-0.18370582
143	0x3e4b9fe9	0.1988522
144	0x3ee18809	0.440491
145	0x3f4585ec	0.77157474
146	0xbe01abc8	-0.12663186
147	0x3dbaad02	0.0911503
148	0x3f07ff1e	0.5312365
149	0xbdd6efc4	-0.104949504
150	0xbe69dc13	-0.22837858
151	0xbc985235	-0.018593887
152	0x3dbf8fa9	0.09353573
153	0x3f0a873b	0.54112595
154	0xbf44d86a	-0.7689272
155	0x3e50be3b	0.20385067
156	0x3e817b05	0.2528917
157	0xbeb679c6	-0.3563978
158	0xbcb985a8	-0.02264674
159	0x3e554cfb	0.20830147
160	0x3a59aaa8	0.0008303323
161	0x3ee6ec0b	0.45101961
162	0x3e7bbeb0	0.2458446
163	0xbf36e6d1	-0.7144595
164	0xbe3c97ff	-0.18417357
165	0x3e8af30f	0.27138564
166	0xbe8e2e41	-0.27769664
167	0x3e7c2afa	0.2462577
168	0x3e084811	0.13308741
169	0xbdbfd8e1	-0.09367538
170	0x3b867350	0.004103102
171	0x3d74caa6	0.059763573
172	0xbeca48a3	-0.39508542
173	0x3ed007c0	0.40630913
174	0x3e3cfd76	0.18456063
175	0x3ea5e05b	0.32397732
176	0x3f13b1b9	0.5769306
177	0xbe59af36	-0.21258244
178	0xbed0bcac	-0.40768945
179	0x3cd7f7a3	0.0263632
180	0xbe9c962e	-0.30583328
181	0x3e50b3f0	0.2038114
182	0x3f327256	0.6970571
183	0xbf125d64	-0.5717375
184	0xbe37436d	-0.17896815
185	0x3f19d669	0.6009279
186	0xbeebfab4	-0.4608971
187	0xbdcc0a80	-0.0996294
188	0x3ed493ec	0.41519105
189	0x3ece8c8f	0.40341613
190	0xbe1280f8	-0.1430701
191	0xbe7efcf4	-0.24901181
192	0xbe8132d3	-0.25234088
193	0xbf048992	-0.51772416
194	0xbeb8372e	-0.359796
195	0xbf0a7b03	-0.5409395
196	0x3eee47fd	0.46539298
197	0x3e65c782	0.22439387
198	0x3ec323ea	0.38113338
199	0xbe147eed	-0.14501543
200	0x3e995fae	0.2995581
201	0xbe8d14e2	-0.27554995
202	0x3e7ff816	0.24996981
203	0xbe8613d8	-0.26187015
204	0xbe8b0e02	-0.27159125
205	0xbecbd545	-0.3981115
206	0xbec619a3	-0.38691434
207	0xbf0749ca	-0.5284697
208	0xbc4ada95	-0.012381216
209	0xbee83e26	-0.45359915
210	0x3d3b42c7	0.04571798
211	0x3ebc78df	0.36810967
212	0xbda522d1	-0.08063281
213	0x3e8f5c96	0.28000325
214	0xbd969976	-0.07353489
215	0x3e28e256	0.1649259
216	0xbebea31c	-0.37233818
217	0xbdee16bc	-0.1162543
218	0xbe4501fb	-0.19239037
219	0x3e7f77bd	0.2494802
220	0xbf04aa68	-0.5182252
221	0xbea62696	-0.32451314
222	0xbe1c2602	-0.15248874
223	0x3f467af6	0.77531374
224	0x3ec8021a	0.39064103
225	0xbf15e60b	-0.5855414
226	0xbf22f796	-0.63659036
227	0x3e9b5555	0.3033854
228	0x3dac51e4	0.08414057
229	0xbefd2fab	-0.4945043
230	0xbe9b32bf	-0.30312154
231	0x3e813bc7	0.2524092
232	0xbeb579bb	-0.35444435
233	0xbf1b4217	-0.6064772
234	0xbeb6829c	-0.35646522
235	0xbdf62a84	-0.12019828
236	0xbe8260af	-0.2546439
237	0x3eb94814	0.36187804
238	0x3e8ded77	0.27720234
239	0xbf024af6	-0.5089563
240	0xbe9f6010	-0.31127977
241	0xbee43b2e	-0.445764
242	0x3e406b46	0.18790922
243	0x3f4c4e86	0.7980732
244	0x3f0fa8c8	0.56116915
245	0x3d713898	0.058891863
246	0xbe80c2ad	-0.25148526
247	0xbc6bce4d	-0.014392448
248	0x3e554c41	0.2082987
249	0xbf4ae574	-0.7925637
250	0xbe4178d5	-0.1889375
251	0xbef04859	-0.46930197
252	0xbf5f1ceb	-0.871535
253	0xbc9e14ef	-0.019297091
254	0xbec3b1e5	-0.3822166
255	0xbebb40c3	-0.36572847

fc2.weight f4 [64, 256]
0	0x3e39add4	0.18132716
1	0x3e3ab623	0.18233542
2	0x3c1c4350	0.009537533
3	0xbe1391a3	-0.14411025
4	0x3e9e8ea1	0.30968192
5	0xbe38d5d9	-0.18050326
6	0xbbdfa2c3	-0.0068248226
7	0xbcac9d20	-0.021071017
8	0x3d3c76ae	0.04601162
9	0x3ea809b0	0.3281989
10	0x3d3cba86	0.04607632
11	0xbc8f16f8	-0.017467007
12	0x3da23eff	0.07922172
13	0xbedcfeac	-0.4316305
14	0x3d99c8e9	0.07509024
15	0x3e1e99e4	0.15488392
16	0xbd47c9c4	-0.048776403
17	0x3d40ff06	0.04711821
18	0x3ce9322c	0.028466307
19	0x3d5e3f9c	0.05425988
20	0xbebaef4d	-0.36510697
21	0x3e0bc3bc	0.13648885
22	0x3d199c6a	0.037502684
23	0x3c6d03c8	0.014466234
24	0x3d5a42e6	0.053286456
25	0xbcc585dc	-0.02411168
26	0xbf4c5a88	-0.7982564
27	0xbd6b5076	-0.05744978
28	0x3e0606e8	0.13088572
29	0x3df20996	0.118182346
30	0x3e80c848	0.25152802
31	0xbed2d679	-0.41179255
32	0x3d8b231e	0.067938074
33	0xbe269022	-0.1626592
34	0xbd00cc6f	-0.031444963
35	0xbf015b74	-0.5053017
36	0x3e05ded8	0.1307329
37	0x3d86cc2f	0.06581914
38	0xbdc39ff4	-0.09551993
39	0x3dc843d2	0.09778561
40	0xbd6ec8f2	-0.058297105
41	0xbbea5df0	-0.0071523115
42	0xbb588840	-0.0033040196
43	0x3e329170	0.17438293
44	0xbd22f9e3	-0.03978909
45	0x3d0f42f3	0.034975957
46	0x3d66387a	0.056206204
47	0x3d66b6aa	0.056326546
48	0xbd29f9c0	-0.041497946
49	0xbd42905c	-0.047500953
50	0xbe51337c	-0.20429796
51	0xbd47ec96	-0.04880961
52	0xbc8c6228	-0.017136648
53	0x3d788a34	0.060678676
54	0x3dd85997	0.10563963
55	0x3d88c5f0	0.066783786
56	0x3d70d5f4	0.05879779
57	0x3de4de4d	0.11175213
58	0x3da903a8	0.082526505
59	0x3d2a1c18	0.0415307
60	0x3d700dd2	0.05860693
61	0x3c2f9b18	0.01071813
62	0xbd4f05ce	-0.050542645
63	0xbecd2909	-0.4007037
64	0xbd0444fe	-0.03229236
65	0x3d534bd8	0.051586002
66	0x3e029c99	0.1275505
67	0x3c95d9ac	0.01829227
68	0xbd0d6d1a	-0.034527875
69	0xbd3c8b92	-0.046031542
70	0x3e17c417	0.14820896
71	0xbc3148ee	-0.01082061
72	0x3d72c233	0.059267234
73	0x3e636ec3	0.22210221
74	0xbc75d620	-0.015004665
75	0x3a772300	0.00094275177
76	0x3d22881e	0.039680593
77	0x3cc502c8	0.024049178
78	0xbd43e2c0	-0.047823668
79	0x3d2aa0d3	0.04165728
80	0xbcfdbbb0	-0.030973285
81	0xbc5a407b	-0.013321037
82	0x3cfd8898	0.030948922
83	0x3d94d443	0.07267048
84	0x3e40608c	0.1878683
85	0xbecdbc4f	-0.4018273
86	0xbd7fd198	-0.062455744
87	0x3dd1ffb2	0.10253848
88	0xbd2fa9da	-0.042886592
89	0x3c08bef0	0.008346304
90	0x3de54d5d	0.111963965
91	0x3e906a7f	0.2820625
92	0xbd2ee7ac	-0.04270141
93	0xbd7ad1a2	-0.061235078
94	0x3dc212f3	0.094762705
95	0x3c250308	0.0100715235
96	0x3d3b8802	0.045784004
97	0x3a3edf02	0.00072811556
98	0x3d45284c	0.048134133
99	0x3ca19fe8	0.01972957
100	0xbc9251d0	-0.017861277
101	0xbc588480	-0.013215184
102	0xbd0bffdc	-0.034179553
103	0x3dc160f9	0.09442324
104	0xbd320866	-0.04346504
105	0x3cb00760	0.021487892
106	0x3db5f130	0.088838935
107	0x3d593bb4	0.053035453
108	0x3e46395a	0.19357815
109	0x3e5c0c32	0.21489027
110	0x3d3c19ed	0.045923162
111	0xbba73810	-0.0051031187
112	0x3d69b21e	0.05705463
113	0x3d3903f3	0.045169782
114	0xbf00df7a	-0.50341
115	0x3d425922	0.047448285
116	0xbd78feb8	-0.060789794
117	0x3ea11d31	0.31467584
118	0x3d67452a	0.056462444
119	0xbc9e6c73	-0.019338822
120	0x3c288770	0.010286197
121	0xbe3c4dbb	-0.18389027
122	0xbd220fc0	-0.0395658
123	0xbce79588	-0.028269544
124	0xbdd8ccba	-0.105859235
125	0xbc0ec678	-0.008714311
126	0x3d603a37	0.054743018
127	0x3be0c320	0.006859198
128	0xbd26929c	-0.04066716
129	0xbcff943c	-0.031198613
130	0x3c82c7cd	0.015964413
131	0xbebea295	-0.37233415
132	0x3e30d3e5	0.17268331
133	0x3e0e60d5	0.13904126
134	0xbd0e57fe	-0.034751885
135	0xbc88667c	-0.01665043
136	0xbb9c14d0	-0.004763223
137	0x3e342180	0.17590904
138	0x3df672e3	0.12033632
139	0x3dd7a769	0.10529978
140	0xbcbe553c	-0.023234002
141	0x3db1931f	0.08670639
142	0xbd39305c	-0.045212135
143	0x3c8785a5	0.016543219
144	0xbe033358	-0.12812555
145	0xbf283002	-0.65698254
146	0x3d17b6e7	0.037039664
147	0x3d94954e	0.0725504
148	0xbc5c4626	-0.013444459
149	0x3dc9e24f	0.09857618
150	0x3baee285	0.005337062
151	0xbdc306dc	-0.09522793
152	0x3cd26610	0.025683433
153	0xbea15b7a	-0.31515104
154	0x3df6e258	0.120548904
155	0x3d046bfe	0.032329552
156	0xbf0668bd	-0.5250357
157	0xbece0705	-0.4023973
158	0x3d675543	0.056477796
159	0x3d017913	0.031609606
160	0x3ddad52c	0.106851906
161	0x3c3c6d9f	0.011500745
162	0xbf098993	-0.53725547
163	0x3e31f417	0.17378269
164	0x3e6b922c	0.23004979
165	0x3ba13d1d	0.0049206153
166	0x3d5c80a8	0.053833634
167	0x3d1f2f9c	0.038863763
168	0xbafac5c0	-0.001913242
169	0xbce4aef0	-0.027915448
170	0x3b87c360	0.0041431636
171	0x3d9d4e22	0.07680918
172	0x3d222ba6	0.039592408
173	0x3ccc15cd	0.02491274
174	0x3d075c3e	0.033046953
175	0x3ccb48e0	0.024815023
176	0x3cc0e970	0.023548812
177	0x3d9af274	0.075657755
178	0x3cf89edc	0.030349188
179	0x3ca31db4	0.019911624
180	0x3e5ff706	0.21871576
181	0xbd7096a4	-0.058737412
182	0xbee17b09	-0.4403918
183	0x3e270c23	0.16313224
184	0x3de30871	0.110855944
185	0xbdd4db2d	-0.10393367
186	0x3d2cbe94	0.042173937
187	0x3cae225c	0.021256618
188	0xbd50889e	-0.05091154
189	0x3b731b20	0.0037095025
190	0x3e067580	0.1313076
191	0x3d1379a4	0.036004677
192	0x3eb014f8	0.34390998
193	0xbcca7244	-0.02471269
194	0xbe93f4f0	-0.2889781
195	0xbd4fa9a4	-0.05069889
196	0xbcc90325	-0.024537632
197	0xbd036dbd	-0.032087076
198	0xbdd5e8d4	-0.10444799
199	0x3d11bc92	0.035580225
200	0x3d1e70f1	0.038681928
201	0x3e1aa408	0.15101635
202	0xbc80a2ce	-0.015702631
203	0x3d9ece2d	0.07754169
204	0xbcc2c74c	-0.023776673
205	0x3cd4c780	0.025974035
206	0x3deda814	0.11604324
207	0x3d30f468	0.043201834
208	0x3d7ffda5	0.062497754
209	0x3dd55bd4	0.104179054
210	0x3de8a03a	0.11358686
211	0xbc9b411c	-0.018951945
212	0x3dd21312	0.102575436
213	0xbc89d90c	-0.016827129
214	0x3c31667c	0.010827657
215	0x3cfec883	0.03110147
216	0x3c0c0a40	0.008547366
217	0x3e19f974	0.15036565
218	0x3cd29458	0.025705501
219	0xbc9ae06b	-0.018905839
220	0xbcb99ca8	-0.022657707
221	0xbd32cdfe	-0.04365348
222	0x3e27fef5	0.16405852
223	0xbf30201d	-0.68799
224	0xbd4b9c72	-0.049709745
225	0x3e737aef	0.23777364
226	0x3ea0d5a5	0.31412998
227	0x3dafef3c	0.08590552
228	0x3d30467c	0.04303597
229	0xbd4443a0	-0.047916055
230	0x3e5f4ec6	0.21807393
231	0x3d22f454	0.03978379
232	0x3e89bc47	0.26901457
233	0x3e6b8eac	0.23003644
234	0x3d3aab72	0.04557366
235	0xbed44400	-0.4145813
236	0x3e45102d	0.19244452
237	0xbdada2a0	-0.08478284
238	0xbcd5c0d8	-0.026092932
239	0x3ddecaf3	0.10878553
240	0x3dd49ba2	0.10381247
241	0xbba1c9f0	-0.004937403
242	0x3d8dc4b4	0.06922284
243	0xbdbb5a98	-0.09148139
244	0xbd05dd7c	-0.032681927
245	0x3cda903f	0.02668011
246	0x3e25948f	0.16169952
247	0xba94bec0	-0.0011348352
248	0x3d28b834	0.041191295
249	0x3e15d7cb	0.146331
250	0xbc8347d0	-0.016025454
251	0xbcfd57d4	-0.030925669
252	0x3d994357	0.07483547
253	0xbd595a94	-0.053064898
254	0x3e720a18	0.23636663
255	0xbd1e2fe6	-0.0386199

fc2.bias f4 [64]
0	0xbdf7b002	-0.12094118
1	0xbcdce666	-0.026965331
2	0xbcb16724	-0.021655627
3	0x3cdb9954	0.026806511
4	0xbda96aef	-0.08272349
5	0x3c93cd70	0.018042296
6	0x3d4d67ee	0.050147943
7	0x3d5a4c90	0.053295672
8	0xbe201b44	-0.15635401
9	0x3c374570	0.011185989
10	0x3d00007a	0.031250454
11	0xbd24c3ac	-0.04022567
12	0xbc380578	-0.011231773
13	0xbe481e18	-0.1954273
14	0xbdecff7b	-0.115721665
15	0x3caac044	0.020843633
16	0x3d4c013a	0.049805857
17	0xbdf16b60	-0.11788058
18	0xbe2ffadd	-0.1718554
19	0xbe07f460	-0.13276815
20	0xbe1ba5ea	-0.1520001
21	0xbce0781b	-0.02740102
22	0x3c53e7f8	0.012933724
23	0xbe2ed19f	-0.17072152
24	0x3bd5d400	0.0065255165
25	0x3c52c9c0	0.012865484
26	0xbd152508	-0.03641227
27	0x3bda5ac0	0.0066636503
28	0xbd678d69	-0.056531344
29	0x3d236eff	0.039900776
30	0xbd58a1dc	-0.052888736
31	0xbb81ceb0	-0.0039614066
32	0xbb2bf757	-0.0026239955
33	0xbd549b3d	-0.05190586
34	0xbdd6ce83	-0.10488608
35	0xbd286bc1	-0.041118387
36	0xbd241622	-0.04006017
37	0xbca1fe44	-0.019774564
38	0xbdceabcb	-0.10091361
39	0xba52f500	-0.0008047372
40	0xbd58ca4d	-0.052927304
41	0xbd73de25	-0.059538025
42	0x3bc50d9e	0.006013586
43	0x3d348432	0.044071384
44	0xbe249eab	-0.16076152
45	0x3c9fa1d4	0.019486345
46	0xbe0dac17	-0.13835178
47	0xbe3588d8	-0.17727983
48	0xbc765e7c	-0.015037175
49	0x3d0a1888	0.0337148
50	0x3c3cda60	0.011526674
51	0xbe4e2e4b	-0.20134847
52	0xbd1f4507	-0.03888419
53	0x3d03e1d2	0.03219778
54	0x3ccc238d	0.024919296
55	0x3ce3db80	0.027814627
56	0xbd15be73	-0.03655858
57	0xbe2d83ef	-0.1694486
58	0xba81eb7b	-0.0009912098
59	0xbd1185d0	-0.035528004
60	0xbd986d63	-0.07442739
61	0x3cd00544	0.025393136
62	0x3d0ce110	0.034394324
63	0xbddcc5ec	-0.10779938

fc3.weight f4 [2, 64]
0	0xbe440194	-0.19141227
1	0x3db7c086	0.08972268
2	0x3df0bd70	0.11754882
3	0xbcd381a0	-0.025818646
4	0xbe84f46b	-0.25967726
5	0xbc9009b0	-0.017582744
6	0x3c1b15d0	0.00946565
7	0xbd57c4ac	-0.052677795
8	0xbe1f3001	-0.15545656
9	0x3d33b978	0.04387805
10	0xbd8901e0	-0.06689811
11	0x3d06cec4	0.03291203
12	0x3d18ac84	0.0372739
13	0xbe1c2cf8	-0.15251529
14	0xbe699c1e	-0.2281346
15	0x3c62bb15	0.013838549
16	0xbc896f80	-0.0167768
17	0xbe987c10	-0.29782152
18	0xbe929df8	-0.28636146
19	0xbee803cb	-0.45315394
20	0xbed2f2e7	-0.41200945
21	0xbc8ec2e3	-0.017426914
22	0x3d14b688	0.036306888
23	0xbe78e5cc	-0.2430641
24	0xbdaf30ac	-0.08554205
25	0xbdc72dfa	-0.09725566
26	0xbd7c1ee8	-0.061552912
27	0x3d6aa8c8	0.05728987
28	0xbd88199a	-0.06645508
29	0xbd425780	-0.047446728
30	0x3d743928	0.05962482
31	0x3d2db528	0.042409092
32	0x3cbc9213	0.023018872
33	0x3ca72e7a	0.020407904
34	0xbe8626c0	-0.2620144
35	0xbdb76f80	-0.08956814
36	0x3d583741	0.05278707
37	0x3d5bd164	0.053666487
38	0xbe30bc78	-0.17259395
39	0xbd800a56	-0.062519714
40	0xbda31e68	-0.07964784
41	0xbd870af6	-0.065938875
42	0xbc86e16e	-0.016464915
43	0x3d88bf5e	0.066771254
44	0xbeb8a912	-0.3606649
45	0x3db2e003	0.08734133
46	0xbebf032b	-0.37307104
47	0xbe027934	-0.12741548
48	0x3dde38bc	0.10850665
49	0xbc2a6cab	-0.010401885
50	0x3cef00c1	0.029175164
51	0xbea3df31	-0.3200622
52	0x3d3bf590	0.045888484
53	0x3ddcd608	0.10783011
54	0xbb4644ab	-0.0030253332
55	0x3cd4dac8	0.02598323
56	0x3b7265d4	0.0036986964
57	0xbe27f7b3	-0.16403084
58	0x3d1827b3	0.037147235
59	0x3d81fdfc	0.06347272
60	0xbea6f402	-0.32608038
61	0xbd92427c	-0.07141587
62	0xbdffbba6	-0.12486963
63	0xbe9023c2	-0.2815228
64	0xbe80107a	-0.2501257
65	0xbe0c8967	-0.1372429
66	0x3da354b6	0.07975142
67	0xbc379ce0	-0.0112068355
68	0xbe819cd3	-0.2531496
69	0x3dce95e2	0.10087182
70	0xbda5e50a	-0.08100326
71	0x3dae3166	0.08505516
72	0xbea16c77	-0.31528065
73	0x3dbba2aa	0.09161885
74	0x3d1eb31e	0.03874504
75	0x3d8cbdf2	0.06872167
76	0x3c93f238	0.018059835
77	0xbe9531c4	-0.2913953
78	0xbe40710f	-0.18793128
79	0x3b5618aa	0.003266851
80	0xbd41f56c	-0.047353193
81	0xbdf5a919	-0.119951434
82	0xbe1e7b8c	-0.15476817
83	0x3d5ec5b6	0.05438777
84	0x3d262ba8	0.040568978
85	0xbc821cd0	-0.01588288
86	0x3b804200	0.003914118
87	0xbe5d39a8	-0.21604025
88	0x3df483a8	0.11939174
89	0xbdb57c64	-0.08861616
90	0x3d86af6c	0.06576428
91	0x3d679310	0.056536734
92	0xbc48d46e	-0.012257678
93	0x3dc83ee5	0.09777621
94	0x3d894c98	0.06704062
95	0xbdf91ef6	-0.121641085
96	0xbd654e16	-0.05598267
97	0x3d82e262	0.06390835
98	0xbdf7465d	-0.120739676
99	0x3d48840f	0.048954066
100	0x3ddee868	0.10884172
101	0x3c9478eb	0.018124064
102	0xbe8769f1	-0.26448014
103	0xbd9f3210	-0.077732205
104	0xbdd37c18	-0.103264034
105	0x3c994678	0.01871036
106	0xbcfaef91	-0.030631812
107	0xbce95f48	-0.028487816
108	0x3c61d5c6	0.013783878
109	0x3d47d5b6	0.048787795
110	0x3c86e288	0.01646544
111	0xbeb9cda5	-0.36289707
112	0x3dcabe18	0.09899539
113	0x3cfaea5c	0.03062933
114	0x3d35bb31	0.044367973
115	0xbd9cc644	-0.07655004
116	0x3ddc1647	0.107464366
117	0x3de375ae	0.1110643
118	0xbc50e7f7	-0.012750617
119	0xbdccee62	-0.100064054
120	0x3d8c6a9f	0.06856274
121	0xbe96fc28	-0.29489255
122	0xbc999d0a	-0.01875164
123	0xbbba2c46	-0.0056815473
124	0xbdedcdda	-0.11611529
125	0xbc78a690	-0.01517643
126	0xbdfe184c	-0.12406978
127	0xbdbec8e8	-0.093156636

fc3.bias f4 [2]
0	0x3f40bdc7	0.7528958
1	0x3f38730c	0.7205055
