checkpoints/dubins3d-discrete-v0__hj_dqn__1__1638911828_evalFalse/dqn_checkpoint_10341.pth (torch, 72343 bytes, 6 tensors)

fc1.weight f4 [256, 3]
0	0x3eba5fa7	0.36401102
1	0xbeb954ca	-0.361975
2	0xbc81a275	-0.015824536
3	0x3ec4346c	0.38321245
4	0xbf1b4fb9	-0.6066852
5	0x3f14a088	0.5805745
6	0xbdf3409a	-0.11877556
7	0x3e9662ea	0.2937234
8	0x3da46023	0.08026149
9	0xbd241924	-0.04006304
10	0x3e41e67b	0.18935578
11	0xbea41587	-0.32047674
12	0x3eb111ee	0.34583992
13	0xbe462b9f	-0.19352578
14	0x3dfab3b3	0.12241306
15	0xbd966703	-0.07343867
16	0x3de9f075	0.11422817
17	0xbea9eb5d	-0.3318738
18	0x3eeed3a4	0.46645844
19	0x3ca3f6b4	0.020015098
20	0xbe740f1b	-0.23833887
21	0xbeb28872	-0.34869725
22	0xbdc630e4	-0.09677294
23	0xbe7f02f1	-0.24903466
24	0xbe3d7388	-0.18501103
25	0x3ce276a0	0.027644455
26	0x3eb037a4	0.3441745
27	0x3ef8be03	0.48582467
28	0xbf07c3c2	-0.5303308
29	0x3efc3a9a	0.4926346
30	0x3e2478de	0.16061732
31	0x3ef2fa43	0.4745656
32	0x3eca8b9a	0.39559633
33	0xbf06aaec	-0.52604556
34	0xbf0c87f4	-0.5489495
35	0xbe8e9438	-0.27847457
36	0x3f0cabdb	0.5494973
37	0xbe5bc39f	-0.21461342
38	0x3ec794c7	0.38980696
39	0xbed75b60	-0.420619
40	0x3f2f4f04	0.68479943
41	0xbd631eae	-0.05544918
42	0x3ecccef6	0.4000165
43	0xbe43d1d3	-0.1912301
44	0xbe0e64f0	-0.13905692
45	0x3eb63f57	0.355952
46	0xbed5017b	-0.41602692
47	0x3e80cc12	0.25155693
48	0xbe2ab716	-0.16671404
49	0xbd81a218	-0.06329745
50	0xbf0e1843	-0.5550577
51	0xbe8cf032	-0.27527004
52	0x3ea06788	0.31328988
53	0xbe0fb57b	-0.14034073
54	0x3f2063ef	0.62652487
55	0x3ebda00f	0.37036178
56	0x3c3c49f6	0.011492243
57	0xbec54f6b	-0.38537154
58	0x3eb402e1	0.35158446
59	0x3e377c35	0.17918475
60	0xbee88520	-0.45414066
61	0x3f09b5e8	0.5379319
62	0x3f096f70	0.53685665
63	0x3f12c194	0.57326627
64	0xbedbca93	-0.4292799
65	0xbc246d63	-0.010035845
66	0xbc373e93	-0.011184352
67	0x3dacb348	0.08432633
68	0xbee056ba	-0.43816167
69	0xbed1c449	-0.40970066
70	0x3ea0cf3f	0.31408116
71	0xbe0aa219	-0.13538398
72	0x3ea0c461	0.31399825
73	0xbda991d4	-0.08279768
74	0x3e92609e	0.28589338
75	0x3ddf8dfc	0.10915753
76	0x3dcbe944	0.09956601
77	0x3c995a5f	0.01871985
78	0xbef3a9db	-0.47590527
79	0x3f0b00b7	0.54297966
80	0xbdeda632	-0.11603965
81	0xbedf090e	-0.43561596
82	0x3d0fd0c3	0.0351112
83	0xbdc97de1	-0.098384626
84	0x3eca3963	0.39496908
85	0xbee5ad44	-0.44858754
86	0xbf0acb15	-0.5421613
87	0x3ef0376a	0.46917278
88	0xbe465f45	-0.1937228
89	0x3f00c010	0.50293064
90	0x3eaa065a	0.3320797
91	0xbed90606	-0.42387408
92	0x3e649eea	0.22326246
93	0x3e97131a	0.2950676
94	0xbedb1f06	-0.42797107
95	0xbf2322ae	-0.6372479
96	0x3e4fb4b3	0.20283775
97	0xbd2d12d3	-0.04225428
98	0xbeafeed4	-0.343619
99	0xbe108ef5	-0.14117034
100	0x3f0c16ab	0.5472209
101	0xbf1269f5	-0.5719293
102	0x3eaf4dca	0.34239036
103	0x3e061c2c	0.13096684
104	0xbf086db4	-0.53292394
105	0xbf1020fc	-0.5630033
106	0x3f35f56c	0.7107761
107	0x3e9751ad	0.295545
108	0x3ecd66b0	0.40117407
109	0xbce679e3	-0.028134292
110	0x3e913a62	0.28364855
111	0x3ee566e3	0.4480506
112	0x3edd4bc9	0.43221882
113	0xbee54e65	-0.44786373
114	0x3d862afa	0.06551166
115	0x3eb73a1c	0.3578652
116	0x3e6b0cde	0.22954127
117	0x3ec2b41d	0.3802804
118	0xbf11c447	-0.5694012
119	0xbeca46e1	-0.395072
120	0xbeb2c5c3	-0.34916505
121	0x3d948b6d	0.07253156
122	0x3f134f09	0.57542473
123	0xbebab9b5	-0.36469808
124	0x3e9d8579	0.30765894
125	0xbea39ce9	-0.3195565
126	0xbf0af728	-0.5428338
127	0xbdfb4f4b	-0.12270983
128	0x3eaa516b	0.33265242
129	0x3f0fa299	0.5610748
130	0xbf028687	-0.5098652
131	0x3e8e8203	0.27833566
132	0x3eb58dc5	0.35459724
133	0x3e2f91c3	0.17145447
134	0x3e7e6e5a	0.24846783
135	0x3eded8b8	0.43524718
136	0x3e8304ab	0.255895
137	0x3dcf9bee	0.10137163
138	0xbeca23b7	-0.39480373
139	0xbef83c44	-0.4848348
140	0xbe877398	-0.2645538
141	0xbd89afeb	-0.06723007
142	0xbeb530d3	-0.35388812
143	0x3e584b8d	0.2112257
144	0x3e4cbb6b	0.1999337
145	0xbe8550d9	-0.26038244
146	0x3e804bea	0.25057918
147	0x3e2aa3aa	0.16663995
148	0x3e841404	0.2579652
149	0x3e1c2154	0.15247089
150	0xbe655b59	-0.22398128
151	0x3f22af4f	0.6354875
152	0xbe96096e	-0.2930407
153	0xbca27df1	-0.019835444
154	0xbf0b81ce	-0.5449494
155	0xbebe414e	-0.371592
156	0xbeacb147	-0.33729002
157	0xbe7cdf66	-0.24694595
158	0x3ed22a3c	0.41047847
159	0xbe4131f4	-0.18866712
160	0xbedce618	-0.43144298
161	0x3e63777a	0.22213545
162	0x3dedbe3b	0.11608549
163	0x3e37a6ff	0.17934798
164	0xbe91e9db	-0.2849873
165	0x3e475bc3	0.19468598
166	0xbe9d847c	-0.3076514
167	0xbe13759d	-0.14400335
168	0xbeeb925d	-0.46010104
169	0xbe86b976	-0.2631337
170	0xbe350fc6	-0.17681798
171	0x3e9814a0	0.29703236
172	0x3bca6a48	0.0061772205
173	0x3e6a89f4	0.22904187
174	0x3f1901d0	0.5976839
175	0x3eec84d7	0.461951
176	0x3ebdf909	0.3710406
177	0x3c969be2	0.018384878
178	0xbecc7ef0	-0.39940596
179	0x3ee70451	0.4512048
180	0xbe13d6d3	-0.14437418
181	0xbd3f2f6d	-0.046676088
182	0xbefea976	-0.49738663
183	0xbde98f7a	-0.11404319
184	0xbebea91a	-0.3723839
185	0x3f07d0da	0.5305306
186	0xbeff8e28	-0.49913144
187	0xbee66aee	-0.45003456
188	0xbca099fa	-0.019604672
189	0xbe7d7323	-0.24750952
190	0x3ec8a4a6	0.39188117
191	0xbebaa926	-0.36457175
192	0xbe8ad75a	-0.27117425
193	0x3d05f02f	0.03269976
194	0x3ed5fc95	0.41794267
195	0xbecfef35	-0.40612188
196	0x3e8ad133	0.2711273
197	0x3ebde867	0.3709137
198	0x3f1841f5	0.5947564
199	0xbf0d0e34	-0.550998
200	0x3e42cf07	0.19024287
201	0xbeda93b9	-0.42690828
202	0x3efc5f15	0.49291292
203	0xbe655532	-0.2239578
204	0x3eb96d2f	0.36216113
205	0xbdd72464	-0.10504988
206	0xbda27c24	-0.07933834
207	0xbc96e9ae	-0.018421974
208	0x3dc900f5	0.09814636
209	0x3e8b58a4	0.27216065
210	0x3e14d7b0	0.14535403
211	0x3da055b4	0.078288466
212	0xbf334e03	-0.7004091
213	0x3e9ed13b	0.31019005
214	0x3ea6b8d6	0.32562894
215	0x3e87e1fb	0.26539597
216	0x3ee18045	0.44043174
217	0xbf155cde	-0.5834483
218	0xbe250893	-0.16116552
219	0x3f103c7c	0.5634229
220	0xbf0ff731	-0.5623656
221	0x3f3c0ff0	0.7346182
222	0xbee87da8	-0.45408368
223	0xbed039bb	-0.40669045
224	0x3e908394	0.28225386
225	0xbed46344	-0.41481984
226	0xbe077224	-0.13227135
227	0x3ed70c8c	0.4200176
228	0x3ef27ea9	0.4736226
229	0x3edf3e1e	0.4360208
230	0xbe164611	-0.14675166
231	0xbee5c2c9	-0.44875172
232	0x3f1186f2	0.56846535
233	0xbdfbe28e	-0.12299071
234	0xbe733e42	-0.23754218
235	0x3e101ee7	0.14074288
236	0xbeceb900	-0.4037552
237	0x3ed923fb	0.42410263
238	0x3e85c6e9	0.2612832
239	0xbf054065	-0.52051383
240	0xbef2cce8	-0.47421956
241	0xbd4f267d	-0.050573815
242	0x3e785265	0.24250181
243	0x3db0b73f	0.086287014
244	0xbe9a38ab	-0.3012136
245	0xbd77689e	-0.060402505
246	0xbf0aec6e	-0.54267013
247	0xbed0ebc1	-0.40804866
248	0xbec4c7ad	-0.3843359
249	0x3efa6f46	0.4891302
250	0x3ec8f88c	0.39252126
251	0xbe8cd358	-0.27504992
252	0x3dca1110	0.09866536
253	0x3e5e7cd2	0.21727303
254	0x3de74308	0.11292082
255	0xbea4e788	-0.32207894

fc1.bias f4 [256]
0	0xbe9a5c7a	-0.3014868
1	0x3d85a3a2	0.06525351
2	0xbee2d755	-0.4430491
3	0x3e88dd41	0.26731303
4	0xbf1db62d	-0.61606103
5	0x3f0a37b9	0.53991276
6	0x3eb17595	0.3466002
7	0xbe5303cc	-0.20606917
8	0x3daed7fb	0.08537289
9	0xbebfe6b2	-0.37480694
10	0xbee9284b	-0.45538554
11	0xbe95b5c6	-0.29240245
12	0xbf013fd1	-0.50488
13	0x3e77dc5c	0.24205154
14	0xbeba8396	-0.36428517
15	0xbe305fc3	-0.1722403
16	0xbee287af	-0.44244143
17	0xbeb9b761	-0.3627272
18	0xbf2dde95	-0.6791776
19	0xbed4768b	-0.4149669
20	0x3f28c875	0.65930873
21	0x3c67da47	0.0141511625
22	0xbf0cf553	-0.55061835
23	0xbdc5598a	-0.09636219
24	0xbe2c0bac	-0.16801327
25	0x3e8ed89e	0.2789964
26	0x3f4b6b17	0.7946028
27	0x3e0ec315	0.13941605
28	0x3e622d2f	0.22087549
29	0xbed523f1	-0.41628984
30	0xbde7ec2b	-0.11324342
31	0xbe43d4fc	-0.19124216
32	0xbd8fd208	-0.07022482
33	0x3f3698a7	0.7132668
34	0x3e5505f4	0.20803052
35	0x3f3be8a8	0.7340188
36	0xbf04db2d	-0.51896936
37	0xbe7a6493	-0.24452429
38	0x3e209329	0.15681137
39	0x3e68da2b	0.22739474
40	0xbf07dd88	-0.53072405
41	0xbe912c8f	-0.28354308
42	0x3dab8582	0.08375074
43	0xbf1925f6	-0.5982355
44	0xbd2b8bbd	-0.04188131
45	0xbe5d6f03	-0.21624379
46	0xbe1932bc	-0.1496076
47	0x3e9e88d8	0.30963778
48	0x3e52f9e0	0.20603132
49	0x3f1971ae	0.59939086
50	0x3eeb7cf7	0.45993778
51	0xbc8157e7	-0.015788985
52	0x3ef1aff0	0.47204542
53	0x3eeb40f7	0.45948002
54	0xbf130e28	-0.57443476
55	0x3db72f0d	0.08944521
56	0x3d8a8d4c	0.067652315
57	0xbee9eae2	-0.45687014
58	0xbea1e81f	-0.31622407
59	0xbe0b9a6f	-0.1363313
60	0xbecedafb	-0.40401444
61	0xbe3468fd	-0.17618175
62	0x3e46f204	0.19428259
63	0x3f3b346c	0.73126864
64	0x3d33a205	0.043855686
65	0xbf0f21a1	-0.5591069
66	0x3d83131b	0.064001285
67	0xbe32e3e4	-0.17469746
68	0x3eaecc77	0.3414037
69	0xbf0ed15b	-0.557882
70	0xbe8d749e	-0.27628034
71	0x3ea6f66c	0.3260988
72	0xbc3f0195	-0.011658092
73	0xbf06eafb	-0.527023
74	0xbefff70e	-0.49993175
75	0xbbcb321b	-0.0062010414
76	0x3d857d11	0.06517995
77	0xbef568b6	-0.4793145
78	0xbef75ca4	-0.48312867
79	0xbe351761	-0.176847
80	0xbdf27f96	-0.11840741
81	0x3ea85738	0.32879043
82	0xbf0f35cb	-0.55941457
83	0xbe8e1271	-0.27748445
84	0xbf11c00b	-0.5693366
85	0x3dfa5ddb	0.12224933
86	0xbe9707cd	-0.2949814
87	0xbd110aed	-0.03541081
88	0xbef749da	-0.48298532
89	0xbee88a27	-0.45417902
90	0xbf07d7ee	-0.5306386
91	0xbf399615	-0.7249463
92	0x3eba9ad6	0.36446255
93	0xbda93759	-0.0826251
94	0xbf16e2b4	-0.5893967
95	0x3ecf2340	0.4045658
96	0xbe06218c	-0.13098735
97	0x3e88b5bf	0.2670116
98	0xbe374491	-0.1789725
99	0xbef750fa	-0.48303968
100	0x3e01d85d	0.12680192
101	0x3eb811d2	0.35951096
102	0xbf101c80	-0.5629349
103	0xbe259fc1	-0.16174223
104	0x3debab0c	0.11507234
105	0x3d87b645	0.06626562
106	0xbe439f8e	-0.19103834
107	0xbe37c612	-0.17946652
108	0xbf1140ca	-0.56739485
109	0x3cd3576d	0.025798524
110	0xbf19d1ec	-0.6008594
111	0xbef43dd5	-0.47703424
112	0xbe3dcf02	-0.18535998
113	0xbed1fd4c	-0.41013563
114	0x3ec6ede7	0.3885338
115	0x3ec7ddf8	0.39036536
116	0x3ee5bbe4	0.44869912
117	0xbeda0ee5	-0.4258949
118	0x3e2899c7	0.16464911
119	0x3eb4875f	0.3525953
120	0x3bd4393d	0.00647655
121	0x3eebdd4d	0.46067277
122	0x3ea743bb	0.32668862
123	0x3ee22e22	0.44175822
124	0x3e635236	0.2219933
125	0x3daa2550	0.08307898
126	0xbed294a2	-0.41129023
127	0xbea4cf60	-0.32189465
128	0xbe8c2bae	-0.27377075
129	0x3ea77660	0.327075
130	0xbe01c98e	-0.12674543
131	0x3e2d9704	0.16952139
132	0xbf3ed255	-0.7453969
133	0xbe883fe7	-0.26611254
134	0xbe26c785	-0.16287048
135	0xbebebc0e	-0.3725285
136	0x3e226478	0.15858638
137	0xbf2ef84a	-0.6834761
138	0xbe877e22	-0.2646342
139	0xbe894c1f	-0.26815888
140	0xbf05ce30	-0.5226774
141	0x3e2d6d9c	0.16936344
142	0xbe3c1d61	-0.18370582
143	0x3e51d1ad	0.20490141
144	0x3edae374	0.42751658
145	0x3f3dc729	0.7413202
146	0xbdaf1788	-0.0854941
147	0x3dd320d8	0.10308999
148	0x3f081b8f	0.5316705
149	0xbdaba4e9	-0.083810635
150	0xbe61bfdc	-0.22045845
151	0xbcad022c	-0.0211192
152	0x3dbf8fa9	0.09353573
153	0x3f07a1f6	0.5298151
154	0xbf3fee20	-0.74972725
155	0x3e60abbb	0.2194051
156	0x3e855e13	0.26048335
157	0xbeb808f7	-0.3594434
158	0x3c24b107	0.010051972
159	0x3e6fe421	0.23426868
160	0x3c78f9cb	0.015196274
161	0x3ee70db4	0.45127642
162	0x3e735af5	0.23765166
163	0xbf31e83e	-0.69495
164	0xbe2c5ec4	-0.16833025
165	0x3e98c286	0.2983591
166	0xbe8e2e41	-0.27769664
167	0x3e7c2afa	0.2462577
168	0x3e084811	0.13308741
169	0xbdbfd8e1	-0.09367538
170	0x3b867350	0.004103102
171	0x3db53a20	0.08848977
172	0xbeca48a3	-0.39508542
173	0x3ed62dd4	0.4183184
174	0x3e5192ae	0.2046611
175	0x3ea5e05b	0.32397732
176	0x3f13b1b9	0.5769306
177	0xbe3c1bbb	-0.18369953
178	0xbed0bcac	-0.40768945
179	0x3cd7f7a3	0.0263632
180	0xbe93abc9	-0.28842
181	0x3e50b3f0	0.2038114
182	0x3f2d194c	0.67616725
183	0xbf0c7f78	-0.54882
184	0xbe2493e8	-0.16072047
185	0x3f197b90	0.59954166
186	0xbeebfab4	-0.4608971
187	0xbdcc0a80	-0.0996294
188	0x3edd289a	0.4319504
189	0x3ece8c8f	0.40341613
190	0xbdf49a03	-0.11943438
191	0xbe7efcf4	-0.24901181
192	0xbe608d37	-0.21928869
193	0xbf048992	-0.51772416
194	0xbec5a867	-0.38605043
195	0xbf0a7b03	-0.5409395
196	0x3ef58861	0.4795561
197	0x3e8369e3	0.25666723
198	0x3ebf9a59	0.37422445
199	0xbe147eed	-0.14501543
200	0x3ea20532	0.3164459
201	0xbe8297cf	-0.25506446
202	0x3e8fe9ed	0.2810816
203	0xbe724674	-0.23659688
204	0xbe8b0e02	-0.27159125
205	0xbec2860e	-0.379929
206	0xbebb8bfd	-0.3663024
207	0xbf0749ca	-0.5284697
208	0x3cb6fe26	0.022337984
209	0xbee0ba5d	-0.43892184
210	0x3d845361	0.06461216
211	0x3ebc78df	0.36810967
212	0xbdad4f10	-0.084623456
213	0x3e8f5c96	0.28000325
214	0xbd69def9	-0.05709741
215	0x3e30e156	0.17273459
216	0xbebea31c	-0.37233818
217	0xbdc7c984	-0.09755233
218	0xbe4501fb	-0.19239037
219	0x3e8ab231	0.27089074
220	0xbf04aa68	-0.5182252
221	0xbea62696	-0.32451314
222	0xbe0826be	-0.13296029
223	0x3f3bb393	0.73320884
224	0x3ec8021a	0.39064103
225	0xbf10abe0	-0.5651226
226	0xbf1f5f83	-0.62255114
227	0x3ea6a536	0.3254792
228	0x3dac51e4	0.08414057
229	0xbefd2fab	-0.4945043
230	0xbe90cf28	-0.28283048
231	0x3e813bc7	0.2524092
232	0xbeaf423e	-0.34230226
233	0xbf167ba5	-0.58782417
234	0xbeb6829c	-0.35646522
235	0xbdfeb3f6	-0.124366686
236	0xbe72428c	-0.23658198
237	0x3eb6a586	0.3567316
238	0x3e8ded77	0.27720234
239	0xbef765a1	-0.48319724
240	0xbe91adc8	-0.28452897
241	0xbee43b2e	-0.445764
242	0x3e49a36a	0.19691244
243	0x3f493a32	0.78604424
244	0x3f0fa8c8	0.56116915
245	0x3dc06414	0.093940884
246	0xbe6b2487	-0.22963153
247	0xbc6bce4d	-0.014392448
248	0x3e554c41	0.2082987
249	0xbf454dca	-0.7707182
250	0xbe19817e	-0.14990804
251	0xbef04859	-0.46930197
252	0xbf5902d7	-0.8476996
253	0xbc9e14ef	-0.019297091
254	0xbebb179e	-0.36541456
255	0xbebb40c3	-0.36572847

fc2.weight f4 [64, 256]
0	0x3e320742	0.17385581
1	0x3e5f8e53	0.21831636
2	0x3c1c4350	0.009537533
3	0xbe1fa6a3	-0.1559091
4	0x3e92c092	0.28662544
5	0xbe374ac1	-0.1789961
6	0xbc0f0b4e	-0.008730723
7	0xbcac9d20	-0.021071017
8	0x3d3c76ae	0.04601162
9	0x3eabc934	0.33551943
10	0x3d27e694	0.04099138
11	0xbc8f16f8	-0.017467007
12	0x3d99dcee	0.07512842
13	0xbebe4c38	-0.37167525
14	0x3d83decf	0.06438982
15	0x3e2643e0	0.1623683
16	0xbd47c9c4	-0.048776403
17	0x3d40ff06	0.04711821
18	0x3c980a35	0.018559555
19	0x3d5e3f9c	0.05425988
20	0xbe9e8d97	-0.309674
21	0x3e0b41ed	0.13599367
22	0x3d199c6a	0.037502684
23	0x3c6d03c8	0.014466234
24	0x3d5fc8f8	0.054635018
25	0xbcc24a0d	-0.02371695
26	0xbf27f00e	-0.6560067
27	0xbd6b5076	-0.05744978
28	0x3e015a05	0.12631996
29	0x3df187a1	0.11793447
30	0x3e866e22	0.262559
31	0xbeca52f5	-0.39516416
32	0x3d635d68	0.055509
33	0xbe2a7365	-0.16645582
34	0xbd1cc072	-0.038269468
35	0xbeda5792	-0.42644936
36	0x3dfd66a1	0.123730905
37	0x3d65ea90	0.0561319
38	0xbdc26465	-0.09491805
39	0x3dc71ce8	0.0972231
40	0xbd6ec8f2	-0.058297105
41	0xbbea5df0	-0.0071523115
42	0xbb588840	-0.0033040196
43	0x3e2b66f5	0.16738494
44	0xbd252015	-0.0403138
45	0x3cf80105	0.030273924
46	0x3d66387a	0.056206204
47	0x3d66b6aa	0.056326546
48	0xbcc3bc25	-0.023893425
49	0xbd34a3fb	-0.044101696
50	0xbe5615e0	-0.20906782
51	0xbd47ec96	-0.04880961
52	0xbc8c6228	-0.017136648
53	0x3d788a34	0.060678676
54	0x3d88bac4	0.06676248
55	0x3d8e9cad	0.06963477
56	0x3d70d5f4	0.05879779
57	0x3dd53735	0.104109205
58	0x3da11a07	0.078662924
59	0x3d2a1c18	0.0415307
60	0x3d700dd2	0.05860693
61	0x3c2f9b18	0.01071813
62	0xbd4f05ce	-0.050542645
63	0xbeca1d28	-0.3947537
64	0xbd0444fe	-0.03229236
65	0x3d534bd8	0.051586002
66	0x3e06557f	0.13118552
67	0x3c95d9ac	0.01829227
68	0xbd08ca38	-0.033395976
69	0xbd3c8b92	-0.046031542
70	0x3de36d7d	0.111048676
71	0xbc27ba68	-0.010237314
72	0x3d70e3f9	0.05881116
73	0x3e6b0920	0.229527
74	0xbc75d620	-0.015004665
75	0x3a772300	0.00094275177
76	0x3d10c20f	0.03534132
77	0x3cc502c8	0.024049178
78	0xbd43e2c0	-0.047823668
79	0x3d00b6c8	0.031424314
80	0xbcfdbbb0	-0.030973285
81	0x3ce3972b	0.027782043
82	0x3cfd8898	0.030948922
83	0x3d839965	0.06425742
84	0x3e220dad	0.1582553
85	0xbeb0d04e	-0.34533924
86	0xbd7fd198	-0.062455744
87	0x3de3ba68	0.111195385
88	0xbd2fa9da	-0.042886592
89	0x3c08bef0	0.008346304
90	0x3dcb3364	0.09921911
91	0x3e85debe	0.261465
92	0xbd2ee7ac	-0.04270141
93	0xbd7ad1a2	-0.061235078
94	0x3da80cd5	0.082055725
95	0x3c250308	0.0100715235
96	0x3d3b8802	0.045784004
97	0x3a3edf02	0.00072811556
98	0x3d45284c	0.048134133
99	0x3ca19fe8	0.01972957
100	0xbc9251d0	-0.017861277
101	0xbc588480	-0.013215184
102	0xbd0bffdc	-0.034179553
103	0x3db8fa0e	0.09032069
104	0xbd320866	-0.04346504
105	0x3cb00760	0.021487892
106	0x3da6a5a6	0.08137064
107	0x3d593bb4	0.053035453
108	0x3e2d211d	0.16907163
109	0x3e5fc320	0.21851778
110	0x3d32a558	0.043614715
111	0xbba73810	-0.0051031187
112	0x3d69b21e	0.05705463
113	0x3d3903f3	0.045169782
114	0xbee0c729	-0.43901947
115	0x3d425922	0.047448285
116	0xbd78feb8	-0.060789794
117	0x3e95a4b3	0.29227218
118	0x3d7169ad	0.05893867
119	0xbcb95217	-0.022622151
120	0x3c288770	0.010286197
121	0xbe3bad16	-0.18327746
122	0xbd220fc0	-0.0395658
123	0xbce79588	-0.028269544
124	0xbc6826d1	-0.014169411
125	0x3d4543fb	0.048160534
126	0x3d2f71b5	0.04283305
127	0x3be0c320	0.006859198
128	0xbd26929c	-0.04066716
129	0xbcf88b39	-0.030339824
130	0xbb330270	-0.0027314685
131	0xbea7ee70	-0.327991
132	0x3e2ac7eb	0.16677825
133	0x3e1d4753	0.1535924
134	0xbd0e57fe	-0.034751885
135	0xbc88667c	-0.01665043
136	0xba2b8ae9	-0.00065438316
137	0x3e18999c	0.14902347
138	0x3dcd352f	0.100199096
139	0x3dcac38b	0.09900578
140	0xbcbe553c	-0.023234002
141	0x3db71d6d	0.089411594
142	0xbd39305c	-0.045212135
143	0xbc101724	-0.00879458
144	0xbdfc7ff2	-0.12329091
145	0xbf0f77a1	-0.56041914
146	0x3cd56d11	0.026052983
147	0x3dc2ace6	0.09505634
148	0xbca7a55a	-0.020464588
149	0x3db3b73e	0.08775185
150	0x3c840b25	0.016118595
151	0xbdce15c3	-0.100627445
152	0x3cd26610	0.025683433
153	0xbea9564e	-0.33073658
154	0x3dd8b258	0.10580891
155	0x3d3159a3	0.043298375
156	0xbf01bf00	-0.5068207
157	0xbeb219d9	-0.34785345
158	0x3d4524eb	0.04813091
159	0x3cbf1c07	0.023328794
160	0x3df52a6c	0.11970982
161	0x3ba7a450	0.005116023
162	0xbeeca90b	-0.4622272
163	0x3e1c9bdd	0.15293832
164	0x3e6fe104	0.2342568
165	0xba05fb14	-0.0005110961
166	0x3d5c80a8	0.053833634
167	0x3d1f2f9c	0.038863763
168	0xbafac5c0	-0.001913242
169	0xbce4aef0	-0.027915448
170	0x3b87c360	0.0041431636
171	0x3d8ceda3	0.06881263
172	0x3d222ba6	0.039592408
173	0x3cccc505	0.02499629
174	0x3d06f4a9	0.03294817
175	0x3ccb48e0	0.024815023
176	0x3cc0e970	0.023548812
177	0x3d93fa94	0.07225528
178	0x3cf89edc	0.030349188
179	0x3ca31db4	0.019911624
180	0x3e577c13	0.21043424
181	0xbd7096a4	-0.058737412
182	0xbec38061	-0.38183883
183	0x3e12b0e0	0.14325285
184	0x3dd5489d	0.104142405
185	0xbde156f1	-0.11002911
186	0x3d2cbe94	0.042173937
187	0x3cae225c	0.021256618
188	0xbd62391b	-0.05523024
189	0x3b731b20	0.0037095025
190	0x3df98aeb	0.121846996
191	0x3d1379a4	0.036004677
192	0x3ebda99e	0.3704347
193	0xbcca7244	-0.02471269
194	0xbe8259b3	-0.2545906
195	0xbd4fa9a4	-0.05069889
196	0xbce13b39	-0.02749406
197	0xbd031c33	-0.032009315
198	0xbde31cf9	-0.110895105
199	0x3d11bc92	0.035580225
200	0x3d421185	0.04737999
201	0x3e0a7ba7	0.13523732
202	0xbcb15178	-0.021645293
203	0x3d898f57	0.06716793
204	0xbcc2c74c	-0.023776673
205	0x3cbe5311	0.023232969
206	0x3de39ce7	0.11113911
207	0x3d30f468	0.043201834
208	0x3d6994cb	0.057026666
209	0x3de0dc49	0.10979516
210	0x3de9e957	0.11421459
211	0xbc9b411c	-0.018951945
212	0x3d98959b	0.0745041
213	0xbc89d90c	-0.016827129
214	0x3c2ec8df	0.010668009
215	0x3da60610	0.08106625
216	0x3c0c0a40	0.008547366
217	0x3e13bfac	0.14428586
218	0x3cd29458	0.025705501
219	0xbc856bfb	-0.01628684
220	0xbcb99ca8	-0.022657707
221	0xbd32cdfe	-0.04365348
222	0x3e1f7a12	0.1557391
223	0xbf0e56d4	-0.5560124
224	0xbd4b9c72	-0.049709745
225	0x3e585e51	0.21129729
226	0x3e9fcb65	0.31209865
227	0x3db31a6d	0.08745275
228	0x3d30467c	0.04303597
229	0xbd4443a0	-0.047916055
230	0x3e504f68	0.20342791
231	0x3d22f454	0.03978379
232	0x3e95ce7c	0.29259098
233	0x3e59a744	0.21255213
234	0x3d3aab72	0.04557366
235	0xbeb87539	-0.36026934
236	0x3e40d798	0.18832242
237	0xbdcd9d4d	-0.10039768
238	0xbcd5c0d8	-0.026092932
239	0x3da9ede6	0.08297329
240	0x3dc934e1	0.09824539
241	0xbba1c9f0	-0.004937403
242	0x3dd1685b	0.10224982
243	0xbda997f4	-0.08280936
244	0xbd05dd7c	-0.032681927
245	0x3c8afea1	0.01696712
246	0x3e13db1e	0.14439055
247	0xba94bec0	-0.0011348352
248	0x3d28b834	0.041191295
249	0x3e0694c4	0.13142687
250	0xbc9e4289	-0.019318836
251	0xbcfd57d4	-0.030925669
252	0x3d67bf5a	0.05657897
253	0xbd595a94	-0.053064898
254	0x3e6aa7fa	0.2291564
255	0xbd1e2fe6	-0.0386199

fc2.bias f4 [64]
0	0xbdcfcf7b	-0.10146996
1	0xbcdce666	-0.026965331
2	0xbcb16724	-0.021655627
3	0x3cdb9954	0.026806511
4	0xbd8cb215	-0.06869904
5	0x3c93cd70	0.018042296
6	0x3d4d67ee	0.050147943
7	0x3d5a4c90	0.053295672
8	0xbe08fea6	-0.1337839
9	0x3c374570	0.011185989
10	0x3d00007a	0.031250454
11	0xbd24c3ac	-0.04022567
12	0xbc380578	-0.011231773
13	0xbe30ff72	-0.17284945
14	0xbdcfe767	-0.10151558
15	0x3caac044	0.020843633
16	0x3d4c013a	0.049805857
17	0xbde83b37	-0.11339419
18	0xbe27784b	-0.16354482
19	0xbe085cec	-0.13316697
20	0xbe1b9b94	-0.15196067
21	0xbce0781b	-0.02740102
22	0x3c53e7f8	0.012933724
23	0xbe1fc27f	-0.15601538
24	0x3bd5d400	0.0065255165
25	0x3c52c9c0	0.012865484
26	0xbd152508	-0.03641227
27	0x3bda5ac0	0.0066636503
28	0xbd678d69	-0.056531344
29	0x3d236eff	0.039900776
30	0xbd58a1dc	-0.052888736
31	0xbb81ceb0	-0.0039614066
32	0xbb2bf757	-0.0026239955
33	0xbd549b3d	-0.05190586
34	0xbdcae105	-0.099062
35	0xbceeb06c	-0.029136859
36	0xbd241622	-0.04006017
37	0xbca1fe44	-0.019774564
38	0xbda36012	-0.07977308
39	0xba52f500	-0.0008047372
40	0xbd5fc024	-0.0546266
41	0xbd73de25	-0.059538025
42	0x3d6dbc04	0.058040634
43	0x3d348432	0.044071384
44	0xbe2257d0	-0.1585381
45	0x3c9fa1d4	0.019486345
46	0xbe0ef98b	-0.1396238
47	0xbe1c9045	-0.1528941
48	0xbc765e7c	-0.015037175
49	0x3d0a1888	0.0337148
50	0x3c3cda60	0.011526674
51	0xbe4b68ed	-0.19864245
52	0xbd1f4507	-0.03888419
53	0x3d03e1d2	0.03219778
54	0x3ccc238d	0.024919296
55	0x3ce3db80	0.027814627
56	0xbd15be73	-0.03655858
57	0xbe175fcd	-0.14782639
58	0xba81eb7b	-0.0009912098
59	0xbd1185d0	-0.035528004
60	0xbd8fb0aa	-0.07016118
61	0x3cd00544	0.025393136
62	0x3d0ce110	0.034394324
63	0xbdd61443	-0.10453083

fc3.weight f4 [2, 64]
0	0xbe33f36a	-0.17573324
1	0x3db7c086	0.08972268
2	0x3df0bd70	0.11754882
3	0xbcd381a0	-0.025818646
4	0xbe78954a	-0.242757
5	0xbc9009b0	-0.017582744
6	0x3c1b15d0	0.00946565
7	0xbd57c4ac	-0.052677795
8	0xbe12643c	-0.14296049
9	0x3d33b978	0.04387805
10	0xbd8901e0	-0.06689811
11	0x3d06cec4	0.03291203
12	0x3d18ac84	0.0372739
13	0xbe0fe49c	-0.14052051
14	0xbe55df59	-0.20885982
15	0x3c62bb15	0.013838549
16	0xbc896f80	-0.0167768
17	0xbe8b0eba	-0.27159673
18	0xbe86ad2c	-0.26303995
19	0xbec49706	-0.38396472
20	0xbeb1cd3e	-0.347269
21	0xbc8ec2e3	-0.017426914
22	0x3d14b688	0.036306888
23	0xbe66e688	-0.22548878
24	0xbdaf30ac	-0.08554205
25	0xbdc72dfa	-0.09725566
26	0xbd7c1ee8	-0.061552912
27	0x3d6aa8c8	0.05728987
28	0xbd88199a	-0.06645508
29	0xbd425780	-0.047446728
30	0x3d743928	0.05962482
31	0x3d2db528	0.042409092
32	0x3cbc9213	0.023018872
33	0x3ca72e7a	0.020407904
34	0xbe71adb9	-0.23601426
35	0xbd91e4e6	-0.07123737
36	0x3d583741	0.05278707
37	0x3d5bd164	0.053666487
38	0xbe2165b7	-0.15761457
39	0xbd800a56	-0.062519714
40	0xbdbfeaca	-0.09370954
41	0xbd870af6	-0.065938875
42	0xbd9225f0	-0.07136142
43	0x3d88bf5e	0.066771254
44	0xbe994d74	-0.29941905
45	0x3db2e003	0.08734133
46	0xbea8d26d	-0.32973042
47	0xbdefc77e	-0.11707972
48	0x3dde38bc	0.10850665
49	0xbc2a6cab	-0.010401885
50	0x3cef00c1	0.029175164
51	0xbe90a38d	-0.2824978
52	0x3d3bf590	0.045888484
53	0x3ddcd608	0.10783011
54	0xbb4644ab	-0.0030253332
55	0x3cd4dac8	0.02598323
56	0x3b7265d4	0.0036986964
57	0xbe19d180	-0.15021324
58	0x3d1827b3	0.037147235
59	0x3d81fdfc	0.06347272
60	0xbe993799	-0.2992523
61	0xbd92427c	-0.07141587
62	0xbdffbba6	-0.12486963
63	0xbe80817c	-0.2509879
64	0xbe6b57c9	-0.22982706
65	0xbe0c8967	-0.1372429
66	0x3da354b6	0.07975142
67	0xbc379ce0	-0.0112068355
68	0xbe71995d	-0.2359366
69	0x3dce95e2	0.10087182
70	0xbda5e50a	-0.08100326
71	0x3dae3166	0.08505516
72	0xbe929ee9	-0.28636864
73	0x3dbba2aa	0.09161885
74	0x3d1eb31e	0.03874504
75	0x3d8cbdf2	0.06872167
76	0x3c93f238	0.018059835
77	0xbe878365	-0.26467434
78	0xbe36208c	-0.17785853
79	0x3b5618aa	0.003266851
80	0xbd41f56c	-0.047353193
81	0xbdf4d705	-0.11955074
82	0xbe199920	-0.14999819
83	0xbc3c9258	-0.0115095
84	0xbc0f5960	-0.008749336
85	0xbc821cd0	-0.01588288
86	0x3b804200	0.003914118
87	0xbe4d756c	-0.20064324
88	0x3df483a8	0.11939174
89	0xbdb57c64	-0.08861616
90	0x3d86af6c	0.06576428
91	0x3d679310	0.056536734
92	0xbc48d46e	-0.012257678
93	0x3dc83ee5	0.09777621
94	0x3d894c98	0.06704062
95	0xbdf91ef6	-0.121641085
96	0xbd654e16	-0.05598267
97	0x3d82e262	0.06390835
98	0xbdf4510f	-0.11929523
99	0x3d0abd9c	0.03387223
100	0x3ddee868	0.10884172
101	0x3c9478eb	0.018124064
102	0xbe7646e2	-0.24050477
103	0xbd9f3210	-0.077732205
104	0xbdde5512	-0.108560696
105	0x3c994678	0.01871036
106	0xbdad02d6	-0.084478065
107	0xbce95f48	-0.028487816
108	0xbcfe85ae	-0.031069603
109	0x3d47d5b6	0.048787795
110	0xbc93ece4	-0.018057294
111	0xbea88f31	-0.32921746
112	0x3dcabe18	0.09899539
113	0x3cfaea5c	0.03062933
114	0x3d35bb31	0.044367973
115	0xbdbe904b	-0.093048654
116	0x3ddc1647	0.107464366
117	0x3de375ae	0.1110643
118	0xbc50e7f7	-0.012750617
119	0xbdccee62	-0.100064054
120	0x3d8c6a9f	0.06856274
121	0xbe8a78d7	-0.27045318
122	0xbc999d0a	-0.01875164
123	0xbbba2c46	-0.0056815473
124	0xbdf29b39	-0.118460126
125	0xbc78a690	-0.01517643
126	0xbdfe184c	-0.12406978
127	0xbdcb1101	-0.099153526

fc3.bias f4 [2]
0	0x3efd280f	0.49444625
1	0x3eec360d	0.46134987
