checkpoints/dubins3d-discrete-v0__hj_dqn__1__1638911828_evalFalse/dqn_checkpoint_10293.pth (torch, 72343 bytes, 6 tensors)

fc1.weight f4 [256, 3]
0	0x3ebb5537	0.3658845
1	0xbeb96395	-0.36208788
2	0xbccd7b88	-0.025083318
3	0x3ec5ecb4	0.38657153
4	0xbf1ac63c	-0.6045873
5	0x3f0f310b	0.5593421
6	0xbdf3409a	-0.11877556
7	0x3e9662ea	0.2937234
8	0x3da46023	0.08026149
9	0xbd186c3c	-0.037212595
10	0x3e4747c7	0.19460975
11	0xbe9c8dd7	-0.30576965
12	0x3eb1bae8	0.3471291
13	0xbe4723a1	-0.19447185
14	0x3de37f2d	0.11108241
15	0xbd938561	-0.072031744
16	0x3df18ce8	0.11794454
17	0xbea13e4d	-0.31492844
18	0x3ef87c6c	0.48532426
19	0x3d0dfc9e	0.034664743
20	0xbe7472ba	-0.2387189
21	0xbeb28872	-0.34869725
22	0xbdc630e4	-0.09677294
23	0xbe7f02f1	-0.24903466
24	0xbe3d7388	-0.18501103
25	0x3ce276a0	0.027644455
26	0x3eb037a4	0.3441745
27	0x3ef9ae55	0.48765817
28	0xbf07c6ec	-0.53037906
29	0x3ef4343e	0.47696108
30	0x3e3729bc	0.17887014
31	0x3efbfa3a	0.49214345
32	0x3eb7349d	0.35782328
33	0xbf06aaec	-0.52604556
34	0xbf0c87f4	-0.5489495
35	0xbe8e9438	-0.27847457
36	0x3f0db15b	0.5534875
37	0xbe5970c9	-0.2123443
38	0x3ebed96f	0.37275264
39	0xbecf936c	-0.4054216
40	0x3f304766	0.68858945
41	0xbd43f927	-0.047845032
42	0x3ecea943	0.4036351
43	0xbe422dfe	-0.18962857
44	0xbe184490	-0.14869905
45	0x3eb7833a	0.35842305
46	0xbed4a80d	-0.41534463
47	0x3e744265	0.23853453
48	0xbe2ab716	-0.16671404
49	0xbd81a218	-0.06329745
50	0xbf0e1843	-0.5550577
51	0xbe8cf032	-0.27527004
52	0x3ea06788	0.31328988
53	0xbe0fb57b	-0.14034073
54	0x3f21d810	0.6322031
55	0x3ebf9cd8	0.3742435
56	0xbb08e552	-0.0020888639
57	0xbec54f6b	-0.38537154
58	0x3eb402e1	0.35158446
59	0x3e377c35	0.17918475
60	0xbedef6f5	-0.43547788
61	0x3f0b9584	0.5452502
62	0x3f0c5ead	0.54831964
63	0x3f13a7f1	0.57678133
64	0xbedaed3b	-0.42759117
65	0xbca429b6	-0.02003942
66	0xbc373e93	-0.011184352
67	0x3dacb348	0.08432633
68	0xbee056ba	-0.43816167
69	0xbed1c449	-0.40970066
70	0x3ea0cf3f	0.31408116
71	0xbe0aa219	-0.13538398
72	0x3ea3d368	0.31997228
73	0xbda09665	-0.078411855
74	0x3e894e9c	0.26817787
75	0x3dfee3d6	0.124458
76	0x3dea6f30	0.114469886
77	0x3cd44ee8	0.025916532
78	0xbeea5e3e	-0.45775026
79	0x3f0c2e5a	0.54758227
80	0xbde4d01f	-0.111725084
81	0xbedf090e	-0.43561596
82	0x3d0fd0c3	0.0351112
83	0xbdc97de1	-0.098384626
84	0x3ecad4df	0.39615533
85	0xbee61d61	-0.4494429
86	0xbf087cb9	-0.5331531
87	0x3ef2fd1a	0.47458726
88	0xbe4217bb	-0.18954365
89	0x3ef583f5	0.47952238
90	0x3eaad2be	0.3336391
91	0xbed93a27	-0.4242718
92	0x3e59c841	0.21267797
93	0x3e8d5bd8	0.27609134
94	0xbeddd300	-0.43325043
95	0xbf20557c	-0.6263044
96	0x3e525c79	0.20543088
97	0xbd2e849f	-0.042606946
98	0xbea698d6	-0.3253848
99	0xbe0f56d5	-0.13997968
100	0x3f0ce221	0.55032545
101	0xbf0d3800	-0.55163574
102	0x3eb34852	0.35016114
103	0x3e0aa2eb	0.13538711
104	0xbf03d0d8	-0.51490545
105	0xbf0a7e2c	-0.54098773
106	0x3f3853ba	0.72002757
107	0x3e9c834f	0.3056893
108	0x3ecfb7ff	0.40570065
109	0xbcd1b61b	-0.02559953
110	0x3e89e55a	0.26932794
111	0x3eebafa9	0.46032456
112	0x3ee1b482	0.4408303
113	0xbee4f810	-0.44720507
114	0x3dad4eff	0.08462333
115	0x3ec207c6	0.37896556
116	0x3e5a00f2	0.21289423
117	0x3ec28aff	0.3799667
118	0xbf1276da	-0.57212603
119	0xbec3ffd3	-0.38281116
120	0xbeb2c5c3	-0.34916505
121	0x3d948b6d	0.07253156
122	0x3f134f09	0.57542473
123	0xbebab9b5	-0.36469808
124	0x3e9d8579	0.30765894
125	0xbea39ce9	-0.3195565
126	0xbf0af728	-0.5428338
127	0xbdfb4f4b	-0.12270983
128	0x3eaa516b	0.33265242
129	0x3f103e3b	0.56344956
130	0xbf02679c	-0.50939345
131	0x3e870c9d	0.2637681
132	0x3ec4a5b3	0.38407668
133	0x3e460634	0.19338304
134	0x3e776476	0.24159417
135	0x3ee3352a	0.44376498
136	0x3e861028	0.261842
137	0x3dc390cf	0.095491044
138	0xbeca23b7	-0.39480373
139	0xbef83c44	-0.4848348
140	0xbe877398	-0.2645538
141	0xbd89afeb	-0.06723007
142	0xbeb530d3	-0.35388812
143	0x3e584b8d	0.2112257
144	0x3e57534f	0.21027873
145	0xbe808b28	-0.25106168
146	0x3e6f1bf7	0.23350511
147	0x3e3a713f	0.18207262
148	0x3e8da2ef	0.2766337
149	0x3e14fe12	0.14550045
150	0xbe63a181	-0.22229578
151	0x3f23ae27	0.6393761
152	0xbe8fb61a	-0.2806862
153	0xbca27df1	-0.019835444
154	0xbf0b81ce	-0.5449494
155	0xbebe414e	-0.371592
156	0xbeacb147	-0.33729002
157	0xbe7cdf66	-0.24694595
158	0x3ed22a3c	0.41047847
159	0xbe4131f4	-0.18866712
160	0xbedce618	-0.43144298
161	0x3e63777a	0.22213545
162	0x3df2a549	0.11847932
163	0x3e35e726	0.17763957
164	0xbe898f91	-0.26867345
165	0x3e47c48e	0.19508573
166	0xbe9e4a7e	-0.30916208
167	0xbe0db7a7	-0.13839589
168	0xbeeb925d	-0.46010104
169	0xbe86b976	-0.2631337
170	0xbe350fc6	-0.17681798
171	0x3e9a976d	0.30193654
172	0x3c17e194	0.009270091
173	0x3e593674	0.21212178
174	0x3f1be94c	0.6090286
175	0x3ef14536	0.47123116
176	0x3eb65198	0.35609126
177	0x3c969be2	0.018384878
178	0xbecc7ef0	-0.39940596
179	0x3ee70451	0.4512048
180	0xbe13d6d3	-0.14437418
181	0xbd3f2f6d	-0.046676088
182	0xbefea976	-0.49738663
183	0xbde98f7a	-0.11404319
184	0xbebea91a	-0.3723839
185	0x3f07d0da	0.5305306
186	0xbeff8e28	-0.49913144
187	0xbee66aee	-0.45003456
188	0xbca099fa	-0.019604672
189	0xbe7d5b80	-0.24741936
190	0x3ec9b8b4	0.3939873
191	0xbeb2718a	-0.34852248
192	0xbe8ad75a	-0.27117425
193	0x3d05f02f	0.03269976
194	0x3ed5fc95	0.41794267
195	0xbecfef35	-0.40612188
196	0x3e8ad133	0.2711273
197	0x3ebde867	0.3709137
198	0x3f19355d	0.5984705
199	0xbf0c9ba0	-0.54924965
200	0x3e39c433	0.1814125
201	0xbeda93b9	-0.42690828
202	0x3efc5f15	0.49291292
203	0xbe655532	-0.2239578
204	0x3ec197d1	0.3781114
205	0xbdbd2ffa	-0.092376664
206	0xbda722fb	-0.08160969
207	0xbc96e9ae	-0.018421974
208	0x3dc900f5	0.09814636
209	0x3e8b58a4	0.27216065
210	0x3e0ffa0f	0.14060234
211	0x3d91121e	0.07083534
212	0xbf29b626	-0.6629356
213	0x3eaff1b2	0.34364086
214	0x3eb3fe06	0.35154742
215	0x3e8578c9	0.26068714
216	0x3ee22b41	0.44173625
217	0xbf159840	-0.5843544
218	0xbe25cd6c	-0.16191643
219	0x3f11098f	0.5665521
220	0xbf0f8fdd	-0.5607889
221	0x3f367fe3	0.7128889
222	0xbee87da8	-0.45408368
223	0xbed039bb	-0.40669045
224	0x3e908394	0.28225386
225	0xbed46344	-0.41481984
226	0xbe077224	-0.13227135
227	0x3ed70c8c	0.4200176
228	0x3efa3eaf	0.4887595
229	0x3ee51da2	0.4474917
230	0xbe1fbbf4	-0.15599042
231	0xbee5c2c9	-0.44875172
232	0x3f1186f2	0.56846535
233	0xbdfbe28e	-0.12299071
234	0xbe733e42	-0.23754218
235	0x3e101ee7	0.14074288
236	0xbeceb900	-0.4037552
237	0x3edc07d6	0.42974728
238	0x3e8742f1	0.2641826
239	0xbf0461f4	-0.51711965
240	0xbef2cce8	-0.47421956
241	0xbd4f267d	-0.050573815
242	0x3e785265	0.24250181
243	0x3dc1de97	0.09466284
244	0xbe948ee7	-0.29015276
245	0xbd003bd3	-0.031307053
246	0xbf0aec6e	-0.54267013
247	0xbed0ebc1	-0.40804866
248	0xbec4c7ad	-0.3843359
249	0x3eff1cb3	0.49826583
250	0x3ecbdf82	0.3981896
251	0xbe8bf35a	-0.273341
252	0x3dd1f7cc	0.10252342
253	0x3e60cb8f	0.21952651
254	0x3dbaa52d	0.09113536
255	0xbe9d7218	-0.3075111

fc1.bias f4 [256]
0	0xbe9502ff	-0.29103848
1	0x3d9ecd11	0.07753957
2	0xbee2d755	-0.4430491
3	0x3e853ce5	0.2602302
4	0xbf1ae33e	-0.60502994
5	0x3f07e638	0.5308566
6	0x3ebb178b	0.365414
7	0xbe5303cc	-0.20606917
8	0x3daed7fb	0.08537289
9	0xbeba1b23	-0.3634883
10	0xbedafa1b	-0.4276894
11	0xbe95b5c6	-0.29240245
12	0xbefb9645	-0.49138084
13	0x3e789a0a	0.24277511
14	0xbeb456f1	-0.3522258
15	0xbe24b2b1	-0.1608379
16	0xbee287af	-0.44244143
17	0xbeb9b761	-0.3627272
18	0xbf2a227b	-0.66458863
19	0xbed4768b	-0.4149669
20	0x3f29d307	0.6633763
21	0x3cd23f46	0.025664937
22	0xbf0cf553	-0.55061835
23	0xbdc5598a	-0.09636219
24	0xbe1cb235	-0.15302356
25	0x3e92bcba	0.28659612
26	0x3f4bc2c6	0.79594076
27	0x3e0ec315	0.13941605
28	0x3e67fcc2	0.22655013
29	0xbecd8507	-0.40140554
30	0xbdd2a22d	-0.10284839
31	0xbe570432	-0.20997694
32	0xbd83c203	-0.06433489
33	0x3f345d70	0.70455074
34	0x3e5d1cd8	0.21593034
35	0x3f3d78ec	0.7401264
36	0xbf011cc7	-0.50434536
37	0xbe692402	-0.22767642
38	0x3e2e3945	0.17014034
39	0x3e6ddb44	0.23228174
40	0xbf07dd88	-0.53072405
41	0xbe912c8f	-0.28354308
42	0x3dab8582	0.08375074
43	0xbf161959	-0.5863243
44	0xbc03eb64	-0.008051727
45	0xbe4c7303	-0.19965748
46	0xbe1932bc	-0.1496076
47	0x3e9e88d8	0.30963778
48	0x3e638ed2	0.2222245
49	0x3f1b1153	0.6057331
50	0x3ee78fb6	0.4522683
51	0xbc8157e7	-0.015788985
52	0x3ef1aff0	0.47204542
53	0x3eeb40f7	0.45948002
54	0xbf0faf5a	-0.5612694
55	0x3dc1fd67	0.09472161
56	0x3d8a8d4c	0.067652315
57	0xbee24795	-0.44195238
58	0xbe978df7	-0.29600498
59	0xbe0b9a6f	-0.1363313
60	0xbecedafb	-0.40401444
61	0xbe3468fd	-0.17618175
62	0x3e46f204	0.19428259
63	0x3f38bf5e	0.72167003
64	0x3d33a205	0.043855686
65	0xbf0f21a1	-0.5591069
66	0x3d9bac93	0.07601275
67	0xbe32e3e4	-0.17469746
68	0x3eb7aca8	0.35873914
69	0xbf0ed15b	-0.557882
70	0xbe8eeb26	-0.2791378
71	0x3eb42133	0.3518158
72	0xbb45947c	-0.0030148318
73	0xbf039da9	-0.51412445
74	0xbefff70e	-0.49993175
75	0xbbcb321b	-0.0062010414
76	0x3dac1172	0.08401765
77	0xbef568b6	-0.4793145
78	0xbef75ca4	-0.48312867
79	0xbe2939bc	-0.1652593
80	0xbdf27f96	-0.11840741
81	0x3eab918a	0.33509475
82	0xbf0f35cb	-0.55941457
83	0xbe8603db	-0.26174816
84	0xbf0d7aa6	-0.5526527
85	0x3df964c5	0.121774234
86	0xbe9707cd	-0.2949814
87	0xbcb601b0	-0.022217602
88	0xbef749da	-0.48298532
89	0xbee88a27	-0.45417902
90	0xbf03d6ab	-0.5149943
91	0xbf3709fd	-0.71499616
92	0x3eba9ad6	0.36446255
93	0xbda93759	-0.0826251
94	0xbf1399fb	-0.5765683
95	0x3ecf2340	0.4045658
96	0xbe06218c	-0.13098735
97	0x3e88b5c4	0.26701176
98	0xbe374491	-0.1789725
99	0xbef750fa	-0.48303968
100	0x3e01d85d	0.12680192
101	0x3eb811d2	0.35951096
102	0xbf101c80	-0.5629349
103	0xbe17df0e	-0.14831182
104	0x3debab0c	0.11507234
105	0x3d87b645	0.06626562
106	0xbe36e976	-0.17862496
107	0xbe37c612	-0.17946652
108	0xbf0eddb3	-0.55807036
109	0x3d0aadca	0.033857144
110	0xbf150c26	-0.5822166
111	0xbef43dd5	-0.47703424
112	0xbe3dcf02	-0.18535998
113	0xbed1fd4c	-0.41013563
114	0x3eca7f34	0.39550173
115	0x3ec7ddf8	0.39036536
116	0x3ee5bbe4	0.44869912
117	0xbed568f5	-0.41681638
118	0x3e3f5e85	0.186884
119	0x3eb73a41	0.35786632
120	0x3bd4393d	0.00647655
121	0x3ee81471	0.45328096
122	0x3ea743bb	0.32668862
123	0x3ee22e22	0.44175822
124	0x3e7c0c22	0.24614003
125	0x3dc636ff	0.096784584
126	0xbecc65f3	-0.3992153
127	0xbea4cf60	-0.32189465
128	0xbe8c2bae	-0.27377075
129	0x3ea9bfed	0.3315424
130	0xbe00c836	-0.12576374
131	0x3e327a27	0.1742941
132	0xbf3aecaa	-0.7301737
133	0xbe819b54	-0.25313818
134	0xbe26c785	-0.16287048
135	0xbebebc0e	-0.3725285
136	0x3e30f1e4	0.17279774
137	0xbf2c4d64	-0.6730559
138	0xbe84f8b8	-0.25971007
139	0xbe83ebce	-0.25765842
140	0xbf05ce30	-0.5226774
141	0x3e3e6115	0.18591721
142	0xbe3c1d61	-0.18370582
143	0x3e38383e	0.17990205
144	0x3ed9d0f8	0.42542243
145	0x3f3eea64	0.745764
146	0xbd9b5e53	-0.0758635
147	0x3ded0bba	0.11574502
148	0x3f061f25	0.5239127
149	0xbd9dc386	-0.07703309
150	0xbe40f61c	-0.18843883
151	0xbcb48531	-0.022036167
152	0x3dbf8fa9	0.09353573
153	0x3f0505a9	0.5196176
154	0xbf3c6f3b	-0.73607224
155	0x3e69357a	0.22774306
156	0x3e775185	0.24152191
157	0xbeb50cf6	-0.3536145
158	0x3ca62241	0.020280005
159	0x3e73e8cb	0.23819272
160	0x3cd66035	0.026168922
161	0x3ee67b25	0.45015827
162	0x3e7cbec4	0.24682146
163	0xbf2e5224	-0.68094087
164	0xbe217cb7	-0.15770231
165	0x3e9d8fd5	0.30773798
166	0xbe8e2e41	-0.27769664
167	0x3e7c2afa	0.2462577
168	0x3e084811	0.13308741
169	0xbdbfd8e1	-0.09367538
170	0x3b867350	0.004103102
171	0x3dca6684	0.098828346
172	0xbeca48a3	-0.39508542
173	0x3ed4a9ff	0.41535947
174	0x3e5aa860	0.21353292
175	0x3ea5e05b	0.32397732
176	0x3f13b1b9	0.5769306
177	0xbe2565da	-0.16152135
178	0xbed0bcac	-0.40768945
179	0x3cd7f7a3	0.0263632
180	0xbe8e9628	-0.27848935
181	0x3e50b3f0	0.2038114
182	0x3f2b73e2	0.669737
183	0xbf09e196	-0.5385984
184	0xbe1b512f	-0.15167688
185	0x3f179414	0.59210324
186	0xbeebfab4	-0.4608971
187	0xbdcc0a80	-0.0996294
188	0x3eddb43a	0.43301564
189	0x3ece8c8f	0.40341613
190	0xbde2e8bf	-0.11079549
191	0xbe7efcf4	-0.24901181
192	0xbe5293be	-0.20564172
193	0xbf048992	-0.51772416
194	0xbec1792e	-0.37787765
195	0xbf0a7b03	-0.5409395
196	0x3ef857ec	0.4850458
197	0x3e915405	0.28384414
198	0x3ebc24ae	0.36746734
199	0xbe147eed	-0.14501543
200	0x3eab97b6	0.33514184
201	0xbe7cea50	-0.24698758
202	0x3e95ca84	0.2925607
203	0xbe67c2f1	-0.22632958
204	0xbe8b0e02	-0.27159125
205	0xbeb9606b	-0.36206374
206	0xbeb334ac	-0.35001123
207	0xbf0749ca	-0.5284697
208	0x3d221598	0.039571375
209	0xbed9650e	-0.4245991
210	0x3d9ceae3	0.076619886
211	0x3ebc78df	0.36810967
212	0xbdb5a26d	-0.08868871
213	0x3e8f5c96	0.28000325
214	0xbcfbff2c	-0.030761324
215	0x3e3ef237	0.18647085
216	0xbebea31c	-0.37233818
217	0xbdb73c26	-0.08947019
218	0xbe4501fb	-0.19239037
219	0x3e9360cc	0.28784788
220	0xbf04aa68	-0.5182252
221	0xbea62696	-0.32451314
222	0xbdfd2e2b	-0.123623215
223	0x3f3da86d	0.7408512
224	0x3ec8021a	0.39064103
225	0xbf0e6caf	-0.5563459
226	0xbf1c30bc	-0.6101186
227	0x3eaa92e3	0.3331519
228	0x3dac51e4	0.08414057
229	0xbefd2fab	-0.4945043
230	0xbe8cbee3	-0.27489385
231	0x3e813bc7	0.2524092
232	0xbea834ae	-0.3285269
233	0xbf13f3db	-0.5779397
234	0xbeb6829c	-0.35646522
235	0xbe028ee7	-0.12749825
236	0xbe681a4b	-0.2266628
237	0x3eb1c6f4	0.34722102
238	0x3e8ded77	0.27720234
239	0xbef2c84d	-0.47418442
240	0xbe898852	-0.26861817
241	0xbee43b2e	-0.445764
242	0x3e53495c	0.20633453
243	0x3f47d9e6	0.7806686
244	0x3f0fa8c8	0.56116915
245	0x3dcc3f18	0.09972972
246	0xbe63f5ca	-0.2226173
247	0xbc6bce4d	-0.014392448
248	0x3e554c41	0.2082987
249	0xbf414760	-0.75499535
250	0xbdff601a	-0.12469502
251	0xbef04859	-0.46930197
252	0xbf552fe2	-0.8327619
253	0xbc9e14ef	-0.019297091
254	0xbeb5c3ca	-0.35500938
255	0xbebb40c3	-0.36572847

fc2.weight f4 [64, 256]
0	0x3e32ff3f	0.17480181
1	0x3e6e5977	0.23276316
2	0x3c1c4350	0.009537533
3	0xbe28fa9a	-0.16501847
4	0x3e908d80	0.28232956
5	0xbe3bc3a3	-0.18336348
6	0xbc3272dc	-0.010891642
7	0xbcac9d20	-0.021071017
8	0x3d3c76ae	0.04601162
9	0x3eae469d	0.3403825
10	0x3d13c459	0.036075924
11	0xbc8f16f8	-0.017467007
12	0x3d953c39	0.07286877
13	0xbeb618b6	-0.35565728
14	0x3d7cc9a7	0.06171575
15	0x3e2b94c0	0.16755962
16	0xbd47c9c4	-0.048776403
17	0x3d40ff06	0.04711821
18	0x3c5833a2	0.013195904
19	0x3d5e3f9c	0.05425988
20	0xbe98534e	-0.29751056
21	0x3e0b3633	0.13594894
22	0x3d199c6a	0.037502684
23	0x3c6d03c8	0.014466234
24	0x3d5d8e5a	0.054090835
25	0xbcdaed76	-0.026724558
26	0xbf1f6429	-0.6226221
27	0xbd6b5076	-0.05744978
28	0x3e02016b	0.12695853
29	0x3deee195	0.1166412
30	0x3e8a4c52	0.27011353
31	0xbec6f00a	-0.3885501
32	0x3d56f549	0.052480016
33	0xbe2faae1	-0.17155029
34	0xbd2aa800	-0.041664124
35	0xbed0976b	-0.40740523
36	0x3df6c35e	0.12048982
37	0x3d5187de	0.051154964
38	0xbdcb66e1	-0.09931732
39	0x3dce1b82	0.100638404
40	0xbd6ec8f2	-0.058297105
41	0xbbea5df0	-0.0071523115
42	0xbb588840	-0.0033040196
43	0x3e2b3069	0.16717686
44	0xbd2d7f8d	-0.04235797
45	0x3cdb5d94	0.02677802
46	0x3d66387a	0.056206204
47	0x3d66b6aa	0.056326546
48	0xbc95a383	-0.018266445
49	0xbd3f4208	-0.04669383
50	0xbe5d961b	-0.21639292
51	0xbd47ec96	-0.04880961
52	0xbc8c6228	-0.017136648
53	0x3d788a34	0.060678676
54	0x3d708d6c	0.05872862
55	0x3d9a73fa	0.07541652
56	0x3d70d5f4	0.05879779
57	0x3dceb273	0.1009263
58	0x3d996296	0.07489507
59	0x3d2a1c18	0.0415307
60	0x3d700dd2	0.05860693
61	0x3c2f9b18	0.01071813
62	0xbd4f05ce	-0.050542645
63	0xbecc3570	-0.3988452
64	0xbd0444fe	-0.03229236
65	0x3d534bd8	0.051586002
66	0x3e07e2b7	0.13270079
67	0x3c95d9ac	0.01829227
68	0xbd0c9756	-0.034324013
69	0xbd3c8b92	-0.046031542
70	0x3dd02364	0.10163
71	0xbc556c92	-0.013026373
72	0x3d7dd8e1	0.06197441
73	0x3e6e5af6	0.23276886
74	0xbc75d620	-0.015004665
75	0x3a772300	0.00094275177
76	0x3d01c002	0.031677254
77	0x3cc502c8	0.024049178
78	0xbd43e2c0	-0.047823668
79	0x3cdb835f	0.026796041
80	0xbcfdbbb0	-0.030973285
81	0x3d272373	0.04080529
82	0x3cfd8898	0.030948922
83	0x3d7475c2	0.059682615
84	0x3e18b1a6	0.14911518
85	0xbeab4c36	-0.33456582
86	0xbd7fd198	-0.062455744
87	0x3de81015	0.113311924
88	0xbd2fa9da	-0.042886592
89	0x3c08bef0	0.008346304
90	0x3dc22bb1	0.0948099
91	0x3e83abeb	0.257171
92	0xbd2ee7ac	-0.04270141
93	0xbd7ad1a2	-0.061235078
94	0x3d9e4ad1	0.07729114
95	0x3c250308	0.0100715235
96	0x3d3b8802	0.045784004
97	0x3a3edf02	0.00072811556
98	0x3d45284c	0.048134133
99	0x3ca19fe8	0.01972957
100	0xbc9251d0	-0.017861277
101	0xbc588480	-0.013215184
102	0xbd0bffdc	-0.034179553
103	0x3db502d9	0.08838434
104	0xbd320866	-0.04346504
105	0x3cb00760	0.021487892
106	0x3d9f7604	0.077861816
107	0x3d593bb4	0.053035453
108	0x3e2824a8	0.16420233
109	0x3e657c7f	0.22410773
110	0x3d25c66a	0.040472426
111	0xbba73810	-0.0051031187
112	0x3d69b21e	0.05705463
113	0x3d3903f3	0.045169782
114	0xbed8ac9d	-0.42319193
115	0x3d425922	0.047448285
116	0xbd78feb8	-0.060789794
117	0x3e93d919	0.2887657
118	0x3d696d9e	0.056989305
119	0xbcda128a	-0.026620168
120	0x3c288770	0.010286197
121	0xbe418df3	-0.18901806
122	0xbd220fc0	-0.0395658
123	0xbce79588	-0.028269544
124	0x3c309485	0.010777597
125	0x3d87688c	0.066117376
126	0x3d1ef900	0.038811684
127	0x3be0c320	0.006859198
128	0xbd26929c	-0.04066716
129	0xbcf0776a	-0.029353816
130	0xbc440275	-0.011963476
131	0xbea288b4	-0.3174492
132	0x3e26a530	0.16273952
133	0x3e23a2f9	0.15980138
134	0xbd0e57fe	-0.034751885
135	0xbc88667c	-0.01665043
136	0x3a5ed3ce	0.0008500189
137	0x3e10330d	0.14081974
138	0x3dc0b49b	0.09409448
139	0x3dc990a6	0.098420426
140	0xbcbe553c	-0.023234002
141	0x3db51430	0.08841741
142	0xbd39305c	-0.045212135
143	0xbc66cb90	-0.014086619
144	0xbe01f1ab	-0.12689845
145	0xbf099ea1	-0.53757674
146	0x3caf7b12	0.02142099
147	0x3dd5bb02	0.104360595
148	0xbcccac68	-0.024984553
149	0x3db24ad1	0.08705676
150	0x3c73887e	0.014864085
151	0xbdde582a	-0.1085666
152	0x3cd26610	0.025683433
153	0xbeae8e81	-0.34093097
154	0x3dcc9c48	0.09990746
155	0x3d4efc2d	0.050533462
156	0xbf002560	-0.5005703
157	0xbeae8aa0	-0.34090137
158	0x3d33bb05	0.043879528
159	0x3ca0bd35	0.019621471
160	0x3e01fea1	0.1269479
161	0x397accae	0.00023918107
162	0xbee486f2	-0.44634205
163	0x3e154da1	0.14580394
164	0x3e746b27	0.23869
165	0xbb88aa38	-0.0041706823
166	0x3d5c80a8	0.053833634
167	0x3d1f2f9c	0.038863763
168	0xbafac5c0	-0.001913242
169	0xbce4aef0	-0.027915448
170	0x3b87c360	0.0041431636
171	0x3d84ec95	0.06490437
172	0x3d222ba6	0.039592408
173	0x3cefcb07	0.029271616
174	0x3d0b0b63	0.033946406
175	0x3ccb48e0	0.024815023
176	0x3cc0e970	0.023548812
177	0x3d8efa2c	0.0698131
178	0x3cf89edc	0.030349188
179	0x3ca31db4	0.019911624
180	0x3e57cb36	0.21073613
181	0xbd7096a4	-0.058737412
182	0xbebb3f0b	-0.36571535
183	0x3e0d9a48	0.13828385
184	0x3dd71d4c	0.10503635
185	0xbdeae4ef	-0.11469447
186	0x3d2cbe94	0.042173937
187	0x3cae225c	0.021256618
188	0xbd69b33f	-0.057055708
189	0x3b731b20	0.0037095025
190	0x3df6a22a	0.12042649
191	0x3d1379a4	0.036004677
192	0x3ec50fca	0.3848861
193	0xbcca7244	-0.02471269
194	0xbe7e94f1	-0.24861504
195	0xbd4fa9a4	-0.05069889
196	0xbcff780b	-0.03118517
197	0xbd0cdba6	-0.03438916
198	0xbdf0aadc	-0.11751339
199	0x3d11bc92	0.035580225
200	0x3d45b30d	0.04826646
201	0x3e089571	0.13338257
202	0xbcd2d076	-0.025734168
203	0x3d857bc9	0.06517751
204	0xbcc2c74c	-0.023776673
205	0x3ca695e5	0.020335147
206	0x3ddd1b2f	0.107962005
207	0x3d30f468	0.043201834
208	0x3d595b0d	0.05306535
209	0x3de2c032	0.110718146
210	0x3de9c89e	0.11415218
211	0xbc9b411c	-0.018951945
212	0x3d9303a8	0.07178432
213	0xbc89d90c	-0.016827129
214	0x3bfe7c9e	0.0077663204
215	0x3dca18b7	0.09867995
216	0x3c0c0a40	0.008547366
217	0x3e1574b7	0.14595304
218	0x3cd29458	0.025705501
219	0xbc89babf	-0.01681268
220	0xbcb99ca8	-0.022657707
221	0xbd32cdfe	-0.04365348
222	0x3e1e2e30	0.15447307
223	0xbf057fd9	-0.52148205
224	0xbd4b9c72	-0.049709745
225	0x3e52a1a8	0.2056948
226	0x3ea0203d	0.31274596
227	0x3db6f9eb	0.08934387
228	0x3d30467c	0.04303597
229	0xbd4443a0	-0.047916055
230	0x3e4e9d71	0.20177247
231	0x3d22f454	0.03978379
232	0x3e9a6baf	0.3016028
233	0x3e566ff7	0.20941149
234	0x3d3aab72	0.04557366
235	0xbeb508f0	-0.3535838
236	0x3e42848a	0.18995872
237	0xbddef65c	-0.10886833
238	0xbcd5c0d8	-0.026092932
239	0x3d9d862e	0.07691608
240	0x3dc19b4c	0.09453449
241	0xbba1c9f0	-0.004937403
242	0x3dee97af	0.11650025
243	0xbdaec780	-0.08534145
244	0xbd05dd7c	-0.032681927
245	0x3c4f54c5	0.012654488
246	0x3e11ad27	0.14226209
247	0xba94bec0	-0.0011348352
248	0x3d28b834	0.041191295
249	0x3e004fe3	0.12530474
250	0xbcb7c81c	-0.022434287
251	0xbcfd57d4	-0.030925669
252	0x3d4ad802	0.049522407
253	0xbd595a94	-0.053064898
254	0x3e6afc9a	0.22947922
255	0xbd1e2fe6	-0.0386199

fc2.bias f4 [64]
0	0xbdc70d0f	-0.097192876
1	0xbcdce666	-0.026965331
2	0xbcb16724	-0.021655627
3	0x3cdb9954	0.026806511
4	0xbd7bb441	-0.0614512
5	0x3c93cd70	0.018042296
6	0x3d4d67ee	0.050147943
7	0x3d5a4c90	0.053295672
8	0xbe0741c8	-0.13208687
9	0x3c374570	0.011185989
10	0x3d00007a	0.031250454
11	0xbd24c3ac	-0.04022567
12	0xbc380578	-0.011231773
13	0xbe2f672d	-0.17129202
14	0xbdc05e03	-0.09392931
15	0x3caac044	0.020843633
16	0x3d4c013a	0.049805857
17	0xbdd00307	-0.101568274
18	0xbe1e3bbf	-0.15452479
19	0xbdf7c32c	-0.12097773
20	0xbe0f24d6	-0.13978896
21	0xbce0781b	-0.02740102
22	0x3c53e7f8	0.012933724
23	0xbe194f8b	-0.1497175
24	0x3bd5d400	0.0065255165
25	0x3c52c9c0	0.012865484
26	0xbd152508	-0.03641227
27	0x3bda5ac0	0.0066636503
28	0xbd678d69	-0.056531344
29	0x3d236eff	0.039900776
30	0xbd58a1dc	-0.052888736
31	0xbb81ceb0	-0.0039614066
32	0xbb2bf757	-0.0026239955
33	0xbd549b3d	-0.05190586
34	0xbdb097fc	-0.08622739
35	0x3c372630	0.011178538
36	0xbd241622	-0.04006017
37	0xbca1fe44	-0.019774564
38	0xbd9c61c4	-0.07635835
39	0xba52f500	-0.0008047372
40	0xbd5fc024	-0.0546266
41	0xbd73de25	-0.059538025
42	0x3d6dbc04	0.058040634
43	0x3d348432	0.044071384
44	0xbe14cb0d	-0.14530583
45	0x3c9fa1d4	0.019486345
46	0xbe050473	-0.12989978
47	0xbe1d3256	-0.15351233
48	0xbc765e7c	-0.015037175
49	0x3d0a1888	0.0337148
50	0x3c3cda60	0.011526674
51	0xbe3ee233	-0.18640976
52	0xbd1f4507	-0.03888419
53	0x3d03e1d2	0.03219778
54	0x3ccc238d	0.024919296
55	0x3ce3db80	0.027814627
56	0xbd15be73	-0.03655858
57	0xbe147756	-0.14498648
58	0xba81eb7b	-0.0009912098
59	0xbd1185d0	-0.035528004
60	0xbd72450e	-0.059147887
61	0x3cd00544	0.025393136
62	0x3d0ce110	0.034394324
63	0xbdbbde6f	-0.09173285

fc3.weight f4 [2, 64]
0	0xbe31c444	-0.17360026
1	0x3db7c086	0.08972268
2	0x3df0bd70	0.11754882
3	0xbcd381a0	-0.025818646
4	0xbe75bd14	-0.23997909
5	0xbc9009b0	-0.017582744
6	0x3c1b15d0	0.00946565
7	0xbd57c4ac	-0.052677795
8	0xbe122eda	-0.14275685
9	0x3d33b978	0.04387805
10	0xbd8901e0	-0.06689811
11	0x3d06cec4	0.03291203
12	0x3d18ac84	0.0372739
13	0xbe0fcb26	-0.14042339
14	0xbe522a82	-0.20524028
15	0x3c62bb15	0.013838549
16	0xbc896f80	-0.0167768
17	0xbe87d8ee	-0.26532692
18	0xbe842222	-0.2580729
19	0xbeb8b902	-0.3607865
20	0xbea60796	-0.32427663
21	0xbc8ec2e3	-0.017426914
22	0x3d14b688	0.036306888
23	0xbe63d349	-0.22248568
24	0xbdaf30ac	-0.08554205
25	0xbdc72dfa	-0.09725566
26	0xbd7c1ee8	-0.061552912
27	0x3d6aa8c8	0.05728987
28	0xbd88199a	-0.06645508
29	0xbd425780	-0.047446728
30	0x3d743928	0.05962482
31	0x3d2db528	0.042409092
32	0x3cbc9213	0.023018872
33	0x3ca72e7a	0.020407904
34	0xbe6b6fae	-0.22991821
35	0x3bbb86e0	0.0057228655
36	0x3d583741	0.05278707
37	0x3d5bd164	0.053666487
38	0xbe1f84f7	-0.15578066
39	0xbd800a56	-0.062519714
40	0xbdbfeaca	-0.09370954
41	0xbd870af6	-0.065938875
42	0xbd9225f0	-0.07136142
43	0x3d88bf5e	0.066771254
44	0xbe8e16d4	-0.2775179
45	0x3db2e003	0.08734133
46	0xbea19232	-0.3155685
47	0xbdf0b7b5	-0.11753789
48	0x3dde38bc	0.10850665
49	0xbc2a6cab	-0.010401885
50	0x3cef00c1	0.029175164
51	0xbe8ad4f2	-0.2711559
52	0x3d3bf590	0.045888484
53	0x3ddcd608	0.10783011
54	0xbb4644ab	-0.0030253332
55	0x3cd4dac8	0.02598323
56	0x3b7265d4	0.0036986964
57	0xbe187041	-0.14886571
58	0x3d1827b3	0.037147235
59	0x3d81fdfc	0.06347272
60	0xbe95dffa	-0.29272443
61	0xbd92427c	-0.07141587
62	0xbdffbba6	-0.12486963
63	0xbe78d5fb	-0.24300377
64	0xbe6b9f9c	-0.23010105
65	0xbe0c8967	-0.1372429
66	0x3da354b6	0.07975142
67	0xbc379ce0	-0.0112068355
68	0xbe71acb5	-0.23601039
69	0x3dce95e2	0.10087182
70	0xbda5e50a	-0.08100326
71	0x3dae3166	0.08505516
72	0xbe91844c	-0.28421247
73	0x3dbba2aa	0.09161885
74	0x3d1eb31e	0.03874504
75	0x3d8cbdf2	0.06872167
76	0x3c93f238	0.018059835
77	0xbe8666a2	-0.26250178
78	0xbe38773a	-0.18014231
79	0x3b5618aa	0.003266851
80	0xbd41f56c	-0.047353193
81	0xbdfc4bfa	-0.12319179
82	0xbe1c6844	-0.15274149
83	0xbd0b9714	-0.034079626
84	0xbcfda85f	-0.030964075
85	0xbc821cd0	-0.01588288
86	0x3b804200	0.003914118
87	0xbe4dd0f2	-0.20099238
88	0x3df483a8	0.11939174
89	0xbdb57c64	-0.08861616
90	0x3d86af6c	0.06576428
91	0x3d679310	0.056536734
92	0xbc48d46e	-0.012257678
93	0x3dc83ee5	0.09777621
94	0x3d894c98	0.06704062
95	0xbdf91ef6	-0.121641085
96	0xbd654e16	-0.05598267
97	0x3d82e262	0.06390835
98	0xbdfc80b9	-0.123292394
99	0xbca0b2d0	-0.019616514
100	0x3ddee868	0.10884172
101	0x3c9478eb	0.018124064
102	0xbe75ce9b	-0.24004595
103	0xbd9f3210	-0.077732205
104	0xbdde5512	-0.108560696
105	0x3c994678	0.01871036
106	0xbdad02d6	-0.084478065
107	0xbce95f48	-0.028487816
108	0xbd5c4dac	-0.05378501
109	0x3d47d5b6	0.048787795
110	0xbcf8c98f	-0.030369548
111	0xbea70abd	-0.3262538
112	0x3dcabe18	0.09899539
113	0x3cfaea5c	0.03062933
114	0x3d35bb31	0.044367973
115	0xbdd43236	-0.103611395
116	0x3ddc1647	0.107464366
117	0x3de375ae	0.1110643
118	0xbc50e7f7	-0.012750617
119	0xbdccee62	-0.100064054
120	0x3d8c6a9f	0.06856274
121	0xbe8a098b	-0.26960406
122	0xbc999d0a	-0.01875164
123	0xbbba2c46	-0.0056815473
124	0xbdfbb06b	-0.122895084
125	0xbc78a690	-0.01517643
126	0xbdfe184c	-0.12406978
127	0xbdd86502	-0.10566141

fc3.bias f4 [2]
0	0x3ecbe0bb	0.39819893
1	0x3ebc9a6f	0.36836573
