checkpoints/dubins3d-discrete-v0__hj_dqn__1__1638911828_evalFalse/dqn_checkpoint_10296.pth (torch, 72343 bytes, 6 tensors)

fc1.weight f4 [256, 3]
0	0x3eb938b2	0.36176068
1	0xbebb4467	-0.36575624
2	0xbcbeacb2	-0.023275707
3	0x3ec3ca5d	0.38240328
4	0xbf1bbd6a	-0.608359
5	0x3f0fec0c	0.56219554
6	0xbdf3409a	-0.11877556
7	0x3e9662ea	0.2937234
8	0x3da46023	0.08026149
9	0xbd055fe8	-0.032562166
10	0x3e4b9324	0.19880348
11	0xbe9de4fd	-0.30838767
12	0x3eaf5e70	0.34251738
13	0xbe4b71e3	-0.19867663
14	0x3de8029e	0.11328624
15	0xbd898110	-0.0671407
16	0x3dfaa9aa	0.12239392
17	0xbea2b88c	-0.31781423
18	0x3ef773fb	0.48330674
19	0x3d07980f	0.033104
20	0xbe745f41	-0.23864461
21	0xbeb28872	-0.34869725
22	0xbdc630e4	-0.09677294
23	0xbe7f02f1	-0.24903466
24	0xbe3d7388	-0.18501103
25	0x3ce276a0	0.027644455
26	0x3eb037a4	0.3441745
27	0x3ef76724	0.48320878
28	0xbf08d082	-0.5344316
29	0x3ef57b4c	0.4794563
30	0x3e31f93e	0.17380235
31	0x3ef9d9fc	0.4879912
32	0x3eb91d48	0.36155152
33	0xbf06aaec	-0.52604556
34	0xbf0c87f4	-0.5489495
35	0xbe8e9438	-0.27847457
36	0x3f0c8735	0.5489381
37	0xbe5d9b8f	-0.21641372
38	0x3ec02c61	0.37533858
39	0xbecef749	-0.4042304
40	0x3f30ddc9	0.6908842
41	0xbd3b2559	-0.045689914
42	0x3ecc91ef	0.39955088
43	0xbe45df0e	-0.1932337
44	0xbe1667be	-0.14688012
45	0x3eb5542d	0.35415784
46	0xbed699ca	-0.41914207
47	0x3e767ab1	0.2407024
48	0xbe2ab716	-0.16671404
49	0xbd81a218	-0.06329745
50	0xbf0e1843	-0.5550577
51	0xbe8cf032	-0.27527004
52	0x3ea06788	0.31328988
53	0xbe0fb57b	-0.14034073
54	0x3f20b78e	0.6278008
55	0x3ebdabaf	0.37045047
56	0xb70101cb	-7.689417e-06
57	0xbec54f6b	-0.38537154
58	0x3eb402e1	0.35158446
59	0x3e377c35	0.17918475
60	0xbeddfd3f	-0.43357274
61	0x3f0c5977	0.5482401
62	0x3f0ceac6	0.55045736
63	0x3f12a5cb	0.5728423
64	0xbedcb228	-0.43104672
65	0xbc95fa3b	-0.018307796
66	0xbc373e93	-0.011184352
67	0x3dacb348	0.08432633
68	0xbee056ba	-0.43816167
69	0xbed1c449	-0.40970066
70	0x3ea0cf3f	0.31408116
71	0xbe0aa219	-0.13538398
72	0x3ea18cef	0.31552836
73	0xbda88c2d	-0.082298614
74	0x3e8a9253	0.27064762
75	0x3e024b2a	0.12723985
76	0x3dee398e	0.116320714
77	0x3cc8e69e	0.02452403
78	0xbee7c46d	-0.45267048
79	0x3f0db7dc	0.5535867
80	0xbde158f7	-0.11003297
81	0xbedf090e	-0.43561596
82	0x3d0fd0c3	0.0351112
83	0xbdc97de1	-0.098384626
84	0x3ec9903b	0.39367852
85	0xbee7326f	-0.45155665
86	0xbf088aaa	-0.53336585
87	0x3ef0aa50	0.47004938
88	0xbe464032	-0.19360426
89	0x3ef71749	0.48259953
90	0x3ea8ae38	0.32945418
91	0xbedb2bff	-0.42807004
92	0x3e5bca73	0.21463947
93	0x3e8ff628	0.2811749
94	0xbedc172c	-0.4298643
95	0xbf21bc0c	-0.6317756
96	0x3e500d23	0.20317511
97	0xbd36083c	-0.044441447
98	0xbea72a8d	-0.3264965
99	0xbe0aa2e9	-0.13538708
100	0x3f0df28e	0.55448234
101	0xbf0dfe6a	-0.5546633
102	0x3eb2a6a1	0.34892753
103	0x3e099b30	0.13438106
104	0xbf042b8d	-0.51628953
105	0xbf0a4da8	-0.54024744
106	0x3f38d206	0.7219547
107	0x3e9dc83c	0.3081683
108	0x3ecd31e0	0.40077114
109	0xbcf6072c	-0.030032717
110	0x3e8b1f51	0.2717233
111	0x3ee9f237	0.45692608
112	0x3ee065ff	0.43827817
113	0xbee4c86e	-0.44684166
114	0x3db21ef6	0.086973116
115	0x3ec2fceb	0.38083586
116	0x3e5aa750	0.21352887
117	0x3ec13040	0.37732124
118	0xbf1310fd	-0.574478
119	0xbec42e00	-0.38316345
120	0xbeb2c5c3	-0.34916505
121	0x3d948b6d	0.07253156
122	0x3f134f09	0.57542473
123	0xbebab9b5	-0.36469808
124	0x3e9d8579	0.30765894
125	0xbea39ce9	-0.3195565
126	0xbf0af728	-0.5428338
127	0xbdfb4f4b	-0.12270983
128	0x3eaa516b	0.33265242
129	0x3f0f1615	0.5589307
130	0xbf0372ad	-0.51346856
131	0x3e8848de	0.26618093
132	0x3ec1e321	0.37868598
133	0x3e422694	0.18960029
134	0x3e783842	0.2424021
135	0x3ee0e6ab	0.43925986
136	0x3e842c74	0.25815165
137	0x3dc602f3	0.09668531
138	0xbeca23b7	-0.39480373
139	0xbef83c44	-0.4848348
140	0xbe877398	-0.2645538
141	0xbd89afeb	-0.06723007
142	0xbeb530d3	-0.35388812
143	0x3e584b8d	0.2112257
144	0x3e53e4fb	0.20692818
145	0xbe81f95b	-0.25385556
146	0x3e711244	0.23542124
147	0x3e3e6136	0.1859177
148	0x3e8f3f20	0.27977848
149	0x3e144648	0.14479935
150	0xbe5f2c51	-0.21794249
151	0x3f24afb8	0.64330626
152	0xbe90e06d	-0.28296223
153	0xbca27df1	-0.019835444
154	0xbf0b81ce	-0.5449494
155	0xbebe414e	-0.371592
156	0xbeacb147	-0.33729002
157	0xbe7cdf66	-0.24694595
158	0x3ed22a3c	0.41047847
159	0xbe4131f4	-0.18866712
160	0xbedce618	-0.43144298
161	0x3e63777a	0.22213545
162	0x3de68506	0.11255841
163	0x3e30c765	0.17263563
164	0xbe899d83	-0.26877984
165	0x3e452580	0.19252586
166	0xbe9f680e	-0.31134075
167	0xbe0d991c	-0.13827938
168	0xbeeb925d	-0.46010104
169	0xbe86b976	-0.2631337
170	0xbe350fc6	-0.17681798
171	0x3e981733	0.297052
172	0x3ba0d40a	0.0049080895
173	0x3e5bde46	0.2147151
174	0x3f1aa535	0.60408336
175	0x3eef2a73	0.46712074
176	0x3eb7531a	0.3580559
177	0x3c969be2	0.018384878
178	0xbecc7ef0	-0.39940596
179	0x3ee70451	0.4512048
180	0xbe13d6d3	-0.14437418
181	0xbd3f2f6d	-0.046676088
182	0xbefea976	-0.49738663
183	0xbde98f7a	-0.11404319
184	0xbebea91a	-0.3723839
185	0x3f07d0da	0.5305306
186	0xbeff8e28	-0.49913144
187	0xbee66aee	-0.45003456
188	0xbca099fa	-0.019604672
189	0xbe78bab2	-0.24289969
190	0x3ecbce6a	0.3980592
191	0xbeb3c970	-0.35114622
192	0xbe8ad75a	-0.27117425
193	0x3d05f02f	0.03269976
194	0x3ed5fc95	0.41794267
195	0xbecfef35	-0.40612188
196	0x3e8ad133	0.2711273
197	0x3ebde867	0.3709137
198	0x3f182720	0.594347
199	0xbf0d8b7e	-0.55290973
200	0x3e3b7c92	0.18309239
201	0xbeda93b9	-0.42690828
202	0x3efc5f15	0.49291292
203	0xbe655532	-0.2239578
204	0x3ec07259	0.3758724
205	0xbdc0bb51	-0.09410728
206	0xbda66df7	-0.08126443
207	0xbc96e9ae	-0.018421974
208	0x3dc900f5	0.09814636
209	0x3e8b58a4	0.27216065
210	0x3e0ec7fc	0.13943475
211	0x3d8ee2ef	0.06976878
212	0xbf2a6d30	-0.66572857
213	0x3eb0392d	0.34418622
214	0x3eb40833	0.35162506
215	0x3e855dc3	0.26048097
216	0x3ee0555e	0.4381513
217	0xbf166739	-0.58751255
218	0xbe24d3ce	-0.16096422
219	0x3f0fdc0b	0.56195134
220	0xbf10a0b4	-0.56495214
221	0x3f3747e3	0.71594065
222	0xbee87da8	-0.45408368
223	0xbed039bb	-0.40669045
224	0x3e908394	0.28225386
225	0xbed46344	-0.41481984
226	0xbe077224	-0.13227135
227	0x3ed70c8c	0.4200176
228	0x3ef8a6d1	0.4856477
229	0x3ee3f2bd	0.44521132
230	0xbe1ea500	-0.1549263
231	0xbee5c2c9	-0.44875172
232	0x3f1186f2	0.56846535
233	0xbdfbe28e	-0.12299071
234	0xbe733e42	-0.23754218
235	0x3e101ee7	0.14074288
236	0xbeceb900	-0.4037552
237	0x3eda3da7	0.42625162
238	0x3e85cff3	0.26135215
239	0xbf045008	-0.5168462
240	0xbef2cce8	-0.47421956
241	0xbd4f267d	-0.050573815
242	0x3e785265	0.24250181
243	0x3dc61dbf	0.09673642
244	0xbe93b4a0	-0.28848743
245	0xbd096be6	-0.033550166
246	0xbf0aec6e	-0.54267013
247	0xbed0ebc1	-0.40804866
248	0xbec4c7ad	-0.3843359
249	0x3efd0d5d	0.49424258
250	0x3eca4606	0.3950655
251	0xbe8bb54d	-0.2728676
252	0x3dc5e98d	0.09663687
253	0x3e5b0b7e	0.21391103
254	0x3dc0886f	0.09401023
255	0xbe9d6d62	-0.30747515

fc1.bias f4 [256]
0	0xbe976374	-0.29568064
1	0x3d94fb52	0.07274498
2	0xbee2d755	-0.4430491
3	0x3e87fcce	0.26560062
4	0xbf1c3cfc	-0.61030555
5	0x3f0958f1	0.5365134
6	0x3eba1ab5	0.363485
7	0xbe5303cc	-0.20606917
8	0x3daed7fb	0.08537289
9	0xbebcb9bd	-0.36860457
10	0xbeddd800	-0.43328857
11	0xbe95b5c6	-0.29240245
12	0xbefe3a88	-0.4965403
13	0x3e7b0894	0.24514991
14	0xbeb6ae49	-0.35679844
15	0xbe29a1ec	-0.16565675
16	0xbee287af	-0.44244143
17	0xbeb9b761	-0.3627272
18	0xbf2b6213	-0.66946524
19	0xbed4768b	-0.4149669
20	0x3f2a9f30	0.6664915
21	0x3cae4d7f	0.021277187
22	0xbf0cf553	-0.55061835
23	0xbdc5598a	-0.09636219
24	0xbe21cb4b	-0.15800206
25	0x3e944658	0.28959918
26	0x3f4d5ea4	0.80222535
27	0x3e0ec315	0.13941605
28	0x3e654776	0.22390541
29	0xbed02925	-0.4065639
30	0xbddc6a58	-0.10762471
31	0xbe51d092	-0.2048972
32	0xbd887094	-0.066620976
33	0x3f35ba03	0.70986956
34	0x3e5be9b8	0.21475875
35	0x3f3dfe9e	0.7421664
36	0xbf028a6d	-0.5099247
37	0xbe6c9998	-0.23105466
38	0x3e30f19d	0.17279668
39	0x3e6adb3e	0.22935197
40	0xbf07dd88	-0.53072405
41	0xbe912c8f	-0.28354308
42	0x3dab8582	0.08375074
43	0xbf176a80	-0.5914688
44	0xbc58953f	-0.013219177
45	0xbe515c64	-0.204454
46	0xbe1932bc	-0.1496076
47	0x3e9e88d8	0.30963778
48	0x3e5fd9b3	0.2186039
49	0x3f1c2f9f	0.61010164
50	0x3eea1f3b	0.45726952
51	0xbc8157e7	-0.015788985
52	0x3ef1aff0	0.47204542
53	0x3eeb40f7	0.45948002
54	0xbf114bf4	-0.5675652
55	0x3dbc4f79	0.09194846
56	0x3d8a8d4c	0.067652315
57	0xbee51b6f	-0.44747493
58	0xbe9a4912	-0.30133873
59	0xbe0b9a6f	-0.1363313
60	0xbecedafb	-0.40401444
61	0xbe3468fd	-0.17618175
62	0x3e46f204	0.19428259
63	0x3f3a1303	0.7268526
64	0x3d33a205	0.043855686
65	0xbf0f21a1	-0.5591069
66	0x3d923f51	0.07140983
67	0xbe32e3e4	-0.17469746
68	0x3eb68c8f	0.35654113
69	0xbf0ed15b	-0.557882
70	0xbe8f8889	-0.28033856
71	0x3eb46fa2	0.3524142
72	0xbbe55fb1	-0.0069999327
73	0xbf04f7be	-0.51940525
74	0xbefff70e	-0.49993175
75	0xbbcb321b	-0.0062010414
76	0x3da5b4f7	0.08091157
77	0xbef568b6	-0.4793145
78	0xbef75ca4	-0.48312867
79	0xbe2cf4fc	-0.16890329
80	0xbdf27f96	-0.11840741
81	0x3eaca2db	0.33718
82	0xbf0f35cb	-0.55941457
83	0xbe882038	-0.2658708
84	0xbf0f3f95	-0.55956393
85	0x3dfc1a91	0.12309755
86	0xbe9707cd	-0.2949814
87	0xbce00c3d	-0.027349586
88	0xbef749da	-0.48298532
89	0xbee88a27	-0.45417902
90	0xbf056243	-0.5210306
91	0xbf384c24	-0.7199118
92	0x3eba9ad6	0.36446255
93	0xbda93759	-0.0826251
94	0xbf14e532	-0.58162224
95	0x3ecf2340	0.4045658
96	0xbe06218c	-0.13098735
97	0x3e88b5c4	0.26701176
98	0xbe374491	-0.1789725
99	0xbef750fa	-0.48303968
100	0x3e01d85d	0.12680192
101	0x3eb811d2	0.35951096
102	0xbf101c80	-0.5629349
103	0xbe1c739c	-0.15278476
104	0x3debab0c	0.11507234
105	0x3d87b645	0.06626562
106	0xbe3b737b	-0.18305771
107	0xbe37c612	-0.17946652
108	0xbf101890	-0.5628748
109	0x3cf3a262	0.029740516
110	0xbf16a8fc	-0.588516
111	0xbef43dd5	-0.47703424
112	0xbe3dcf02	-0.18535998
113	0xbed1fd4c	-0.41013563
114	0x3ecb3d65	0.39695278
115	0x3ec7ddf8	0.39036536
116	0x3ee5bbe4	0.44869912
117	0xbed7dbbc	-0.42159832
118	0x3e3ae217	0.18250309
119	0x3eb9a6ee	0.3626017
120	0x3bd4393d	0.00647655
121	0x3eeaa28b	0.45827135
122	0x3ea743bb	0.32668862
123	0x3ee22e22	0.44175822
124	0x3e77e044	0.24206644
125	0x3dbcb2ff	0.09213828
126	0xbeced92c	-0.40400064
127	0xbea4cf60	-0.32189465
128	0xbe8c2bae	-0.27377075
129	0x3ea998a8	0.3312428
130	0xbdfba2b5	-0.12286893
131	0x3e347d82	0.17626002
132	0xbf3c6698	-0.73594046
133	0xbe8453f2	-0.25845295
134	0xbe26c785	-0.16287048
135	0xbebebc0e	-0.3725285
136	0x3e2d603a	0.16931239
137	0xbf2d8ef2	-0.6779624
138	0xbe86438d	-0.26223412
139	0xbe863b1c	-0.26216972
140	0xbf05ce30	-0.5226774
141	0x3e39eb62	0.18156198
142	0xbe3c1d61	-0.18370582
143	0x3e3d22ff	0.18470381
144	0x3edc85fe	0.43070978
145	0x3f3f8087	0.7480549
146	0xbd9efab6	-0.07762663
147	0x3de349a2	0.11098029
148	0x3f077eef	0.5292806
149	0xbda5269e	-0.08064006
150	0xbe467425	-0.19380243
151	0xbc982d8f	-0.018576412
152	0x3dbf8fa9	0.09353573
153	0x3f065da1	0.52486616
154	0xbf3dc34e	-0.74126136
155	0x3e65c470	0.22438216
156	0x3e7c2cd9	0.24626483
157	0xbeb3214b	-0.34986338
158	0x3c8d115d	0.017220194
159	0x3e741725	0.23836954
160	0x3cb29c25	0.021802971
161	0x3ee92e1f	0.45543
162	0x3e8014b7	0.25015804
163	0xbf2faa07	-0.68618816
164	0xbe265c84	-0.1624623
165	0x3e9d7bb8	0.30758452
166	0xbe8e2e41	-0.27769664
167	0x3e7c2afa	0.2462577
168	0x3e084811	0.13308741
169	0xbdbfd8e1	-0.09367538
170	0x3b867350	0.004103102
171	0x3dc4e222	0.09613444
172	0xbeca48a3	-0.39508542
173	0x3ed4c619	0.41557387
174	0x3e57a709	0.21059813
175	0x3ea5e05b	0.32397732
176	0x3f13b1b9	0.5769306
177	0xbe2a5c32	-0.16636732
178	0xbed0bcac	-0.40768945
179	0x3cd7f7a3	0.0263632
180	0xbe90ebca	-0.28304893
181	0x3e50b3f0	0.2038114
182	0x3f2bf8b5	0.6717637
183	0xbf0b2158	-0.54347754
184	0xbe1fa1f0	-0.15589118
185	0x3f18f146	0.59743154
186	0xbeebfab4	-0.4608971
187	0xbdcc0a80	-0.0996294
188	0x3ede5778	0.43426108
189	0x3ece8c8f	0.40341613
190	0xbdea528b	-0.11441525
191	0xbe7efcf4	-0.24901181
192	0xbe57c90f	-0.21072792
193	0xbf048992	-0.51772416
194	0xbec07fcd	-0.37597504
195	0xbf0a7b03	-0.5409395
196	0x3efa6cfc	0.48911273
197	0x3e919452	0.28433472
198	0x3ebea49f	0.3723497
199	0xbe147eed	-0.14501543
200	0x3ea93c8e	0.33054012
201	0xbe808b2c	-0.2510618
202	0x3e95ca7b	0.29256043
203	0xbe6c5e57	-0.23082863
204	0xbe8b0e02	-0.27159125
205	0xbebc2138	-0.36744094
206	0xbeb5d74a	-0.35515815
207	0xbf0749ca	-0.5284697
208	0x3d16109b	0.03663693
209	0xbedc3f6f	-0.43017146
210	0x3d93facc	0.0722557
211	0x3ebc78df	0.36810967
212	0xbdb6e2b3	-0.08929958
213	0x3e8f5c96	0.28000325
214	0xbd0f2e35	-0.034956176
215	0x3e39f338	0.18159187
216	0xbebea31c	-0.37233818
217	0xbdbfc656	-0.093640015
218	0xbe4501fb	-0.19239037
219	0x3e91315b	0.28357968
220	0xbf04aa68	-0.5182252
221	0xbea62696	-0.32451314
222	0xbe02b7f1	-0.1276548
223	0x3f3e8549	0.74422127
224	0x3ec8021a	0.39064103
225	0xbf0f9e56	-0.56100976
226	0xbf1d91e5	-0.6155074
227	0x3ea8c99a	0.3296631
228	0x3dac51e4	0.08414057
229	0xbefd2fab	-0.4945043
230	0xbe8eeb69	-0.2791398
231	0x3e813bc7	0.2524092
232	0xbeaaee73	-0.33385047
233	0xbf152be1	-0.5827008
234	0xbeb6829c	-0.35646522
235	0xbdff345d	-0.124611594
236	0xbe6cd679	-0.2312869
237	0x3eb48708	0.3525927
238	0x3e8ded77	0.27720234
239	0xbef51788	-0.47869515
240	0xbe8c1b9a	-0.27364808
241	0xbee43b2e	-0.445764
242	0x3e501040	0.20318699
243	0x3f490f97	0.78539413
244	0x3f0fa8c8	0.56116915
245	0x3dcaef0c	0.09908876
246	0xbe67f438	-0.22651756
247	0xbc6bce4d	-0.014392448
248	0x3e554c41	0.2082987
249	0xbf42bc9a	-0.76069033
250	0xbe04c131	-0.12964322
251	0xbef04859	-0.46930197
252	0xbf5699af	-0.8382825
253	0xbc9e14ef	-0.019297091
254	0xbeb825e3	-0.35966405
255	0xbebb40c3	-0.36572847

fc2.weight f4 [64, 256]
0	0x3e302969	0.17203297
1	0x3e6a419f	0.22876595
2	0x3c1c4350	0.009537533
3	0xbe2cfc9c	-0.16893238
4	0x3e8f1547	0.2794592
5	0xbe40502a	-0.1878058
6	0xbc714393	-0.014725584
7	0xbcac9d20	-0.021071017
8	0x3d3c76ae	0.04601162
9	0x3eac7bf9	0.33688334
10	0x3d06b15c	0.032883987
11	0xbc8f16f8	-0.017467007
12	0x3d8dcaf1	0.069234736
13	0xbeb7355e	-0.35782903
14	0x3d6ff304	0.058581367
15	0x3e28502a	0.1643683
16	0xbd47c9c4	-0.048776403
17	0x3d40ff06	0.04711821
18	0x3c1abffb	0.009445186
19	0x3d5e3f9c	0.05425988
20	0xbe99689c	-0.29962623
21	0x3e074afb	0.13212197
22	0x3d199c6a	0.037502684
23	0x3c6d03c8	0.014466234
24	0x3d4e9637	0.050436225
25	0xbcf79f2c	-0.030227266
26	0xbf209be1	-0.6273785
27	0xbd6b5076	-0.05744978
28	0x3dfd1913	0.12358298
29	0x3de77658	0.11301869
30	0x3e88797e	0.2665519
31	0xbec8fc14	-0.3925482
32	0x3d49e732	0.04929275
33	0xbe33b139	-0.17548074
34	0xbd3a1259	-0.045427654
35	0xbed21181	-0.4102898
36	0x3defc145	0.11706785
37	0x3d426152	0.047456093
38	0xbdd29df5	-0.10284034
39	0x3dc7e23d	0.097599484
40	0xbd6ec8f2	-0.058297105
41	0xbbea5df0	-0.0071523115
42	0xbb588840	-0.0033040196
43	0x3e285e08	0.1644212
44	0xbd3b8569	-0.045781527
45	0x3cbcaecd	0.02303257
46	0x3d66387a	0.056206204
47	0x3d66b6aa	0.056326546
48	0xbcb36b5f	-0.021901784
49	0xbd4f14f4	-0.05055709
50	0xbe613cd2	-0.21995857
51	0xbd47ec96	-0.04880961
52	0xbc8c6228	-0.017136648
53	0x3d788a34	0.060678676
54	0x3d6ad489	0.057331596
55	0x3d948d93	0.07253566
56	0x3d70d5f4	0.05879779
57	0x3dc7efb2	0.09762515
58	0x3d919e93	0.07110324
59	0x3d2a1c18	0.0415307
60	0x3d700dd2	0.05860693
61	0x3c2f9b18	0.01071813
62	0xbd4f05ce	-0.050542645
63	0xbece5000	-0.4029541
64	0xbd0444fe	-0.03229236
65	0x3d534bd8	0.051586002
66	0x3e03fa21	0.12888385
67	0x3c95d9ac	0.01829227
68	0xbd1c57d0	-0.038169682
69	0xbd3c8b92	-0.046031542
70	0x3dcb0943	0.09913876
71	0xbc889fa7	-0.01667769
72	0x3d71ecb6	0.059063636
73	0x3e6b37e8	0.22970545
74	0xbc75d620	-0.015004665
75	0x3a772300	0.00094275177
76	0x3ce42773	0.027850842
77	0x3cc502c8	0.024049178
78	0xbd43e2c0	-0.047823668
79	0x3cbce5d5	0.023058811
80	0xbcfdbbb0	-0.030973285
81	0x3d179041	0.037002806
82	0x3cfd8898	0.030948922
83	0x3d653743	0.055960905
84	0x3e15e935	0.14639743
85	0xbeac84a7	-0.33694956
86	0xbd7fd198	-0.062455744
87	0x3ddffbc1	0.1093669
88	0xbd2fa9da	-0.042886592
89	0x3c08bef0	0.008346304
90	0x3dbc8549	0.092051096
91	0x3e824e3e	0.2545032
92	0xbd2ee7ac	-0.04270141
93	0xbd7ad1a2	-0.061235078
94	0x3d973665	0.07383422
95	0x3c250308	0.0100715235
96	0x3d3b8802	0.045784004
97	0x3a3edf02	0.00072811556
98	0x3d45284c	0.048134133
99	0x3ca19fe8	0.01972957
100	0xbc9251d0	-0.017861277
101	0xbc588480	-0.013215184
102	0xbd0bffdc	-0.034179553
103	0x3dad5224	0.08462933
104	0xbd320866	-0.04346504
105	0x3cb00760	0.021487892
106	0x3d97d0b7	0.07412856
107	0x3d593bb4	0.053035453
108	0x3e254461	0.16139366
109	0x3e61edc2	0.22063354
110	0x3d191f83	0.037383568
111	0xbba73810	-0.0051031187
112	0x3d69b21e	0.05705463
113	0x3d3903f3	0.045169782
114	0xbed9f04e	-0.4256615
115	0x3d425922	0.047448285
116	0xbd78feb8	-0.060789794
117	0x3e9257a4	0.2858249
118	0x3d59b39c	0.053149804
119	0xbcf74b6b	-0.03018733
120	0x3c288770	0.010286197
121	0xbe45d1e2	-0.19318345
122	0xbd220fc0	-0.0395658
123	0xbce79588	-0.028269544
124	0x3b4af27f	0.0030967293
125	0x3d774ab1	0.060373966
126	0x3d10c8e6	0.03534784
127	0x3be0c320	0.006859198
128	0xbd26929c	-0.04066716
129	0xbd06f92c	-0.032952473
130	0xbc76e782	-0.015069844
131	0xbea36da0	-0.31919575
132	0x3e230dd0	0.15923238
133	0x3e205e88	0.15661061
134	0xbd0e57fe	-0.034751885
135	0xbc88667c	-0.01665043
136	0xbb306a64	-0.0026918883
137	0x3e0d1b5d	0.1377997
138	0x3dba1821	0.090866335
139	0x3dc2c001	0.09509278
140	0xbcbe553c	-0.023234002
141	0x3dacebde	0.084434256
142	0xbd39305c	-0.045212135
143	0xbc86eb5f	-0.016469656
144	0xbe05e1a7	-0.13074361
145	0xbf0a856b	-0.5410983
146	0x3c928430	0.017885298
147	0x3dcf3738	0.10117954
148	0xbceb4117	-0.02871756
149	0x3dac1c24	0.08403805
150	0x3c3f52f7	0.011677495
151	0xbde44287	-0.111455016
152	0x3cd26610	0.025683433
153	0xbeb09fae	-0.34496826
154	0x3dc59446	0.096474215
155	0x3d41f042	0.04734827
156	0xbf011fb1	-0.5043898
157	0xbeaff89d	-0.34369364
158	0x3d240bea	0.040050425
159	0x3c829e64	0.015944667
160	0x3dfd29c2	0.1236148
161	0xbb64e2ad	-0.0034925148
162	0xbee623c2	-0.44949156
163	0x3e122e8e	0.14275572
164	0x3e710979	0.2353877
165	0xbc026e58	-0.007960878
166	0x3d5c80a8	0.053833634
167	0x3d1f2f9c	0.038863763
168	0xbafac5c0	-0.001913242
169	0xbce4aef0	-0.027915448
170	0x3b87c360	0.0041431636
171	0x3d7a2e59	0.061079357
172	0x3d222ba6	0.039592408
173	0x3cd0abbb	0.025472512
174	0x3cf82486	0.030290853
175	0x3ccb48e0	0.024815023
176	0x3cc0e970	0.023548812
177	0x3d888c5d	0.06667397
178	0x3cf89edc	0.030349188
179	0x3ca31db4	0.019911624
180	0x3e5496dd	0.20760675
181	0xbd7096a4	-0.058737412
182	0xbebc3b8c	-0.3676418
183	0x3e0a856c	0.13527459
184	0x3dd0f795	0.102034725
185	0xbdf2c3c9	-0.11853749
186	0x3d2cbe94	0.042173937
187	0x3cae225c	0.021256618
188	0xbd78dfd0	-0.06076032
189	0x3b731b20	0.0037095025
190	0x3df03b84	0.11730102
191	0x3d1379a4	0.036004677
192	0x3ec2fa4d	0.3808159
193	0xbcca7244	-0.02471269
194	0xbe8021a4	-0.25025666
195	0xbd4fa9a4	-0.05069889
196	0xbd0f10ca	-0.03492812
197	0xbd1aeebd	-0.037825335
198	0xbdf80fbf	-0.12112378
199	0x3d11bc92	0.035580225
200	0x3d355fd9	0.04428086
201	0x3e056fd9	0.13030948
202	0xbcf1f5b4	-0.029536106
203	0x3d7d97e1	0.06191242
204	0xbcc2c74c	-0.023776673
205	0x3c88f932	0.016720388
206	0x3dd586f9	0.104261346
207	0x3d30f468	0.043201834
208	0x3d49e645	0.049291868
209	0x3ddbd236	0.10733454
210	0x3de1d6e5	0.11027316
211	0xbc9b411c	-0.018951945
212	0x3d8dee91	0.069302686
213	0xbc89d90c	-0.016827129
214	0x3b83c466	0.0040212153
215	0x3dc23cec	0.09484276
216	0x3c0c0a40	0.008547366
217	0x3e1212b4	0.14264947
218	0x3cd29458	0.025705501
219	0xbcaa272d	-0.020770634
220	0xbcb99ca8	-0.022657707
221	0xbd32cdfe	-0.04365348
222	0x3e1ab6c9	0.1510879
223	0xbf06b3e7	-0.5261826
224	0xbd4b9c72	-0.049709745
225	0x3e4fa549	0.20277895
226	0x3e9eb275	0.30995527
227	0x3daf7053	0.08566346
228	0x3d30467c	0.04303597
229	0xbd4443a0	-0.047916055
230	0x3e4b7e70	0.19872451
231	0x3d22f454	0.03978379
232	0x3e98c223	0.29835615
233	0x3e5371e9	0.20648922
234	0x3d3aab72	0.04557366
235	0xbeb65f7f	-0.35619733
236	0x3e3f64f4	0.18690854
237	0xbde684e0	-0.11255813
238	0xbcd5c0d8	-0.026092932
239	0x3d97eecb	0.07418593
240	0x3db9ec84	0.09078315
241	0xbba1c9f0	-0.004937403
242	0x3de8208c	0.11334333
243	0xbdb66149	-0.089052744
244	0xbd05dd7c	-0.032681927
245	0x3c1343a5	0.008988296
246	0x3e0e991c	0.13925594
247	0xba94bec0	-0.0011348352
248	0x3d28b834	0.041191295
249	0x3df9d858	0.121994674
250	0xbcd4e7c4	-0.02598942
251	0xbcfd57d4	-0.030925669
252	0x3d3d848a	0.046268977
253	0xbd595a94	-0.053064898
254	0x3e67e7a8	0.22646964
255	0xbd1e2fe6	-0.0386199

fc2.bias f4 [64]
0	0xbdd05b69	-0.10173685
1	0xbcdce666	-0.026965331
2	0xbcb16724	-0.021655627
3	0x3cdb9954	0.026806511
4	0xbd859523	-0.06522586
5	0x3c93cd70	0.018042296
6	0x3d4d67ee	0.050147943
7	0x3d5a4c90	0.053295672
8	0xbe0b79a0	-0.13620615
9	0x3c374570	0.011185989
10	0x3d00007a	0.031250454
11	0xbd24c3ac	-0.04022567
12	0xbc380578	-0.011231773
13	0xbe335c4a	-0.17515674
14	0xbdc8c489	-0.09803111
15	0x3caac044	0.020843633
16	0x3d4c013a	0.049805857
17	0xbdd74d31	-0.1051277
18	0xbe224e30	-0.15850139
19	0xbdfd0da0	-0.123561144
20	0xbe128290	-0.14307618
21	0xbce0781b	-0.02740102
22	0x3c53e7f8	0.012933724
23	0xbe1d4632	-0.15358809
24	0x3bd5d400	0.0065255165
25	0x3c52c9c0	0.012865484
26	0xbd152508	-0.03641227
27	0x3bda5ac0	0.0066636503
28	0xbd678d69	-0.056531344
29	0x3d236eff	0.039900776
30	0xbd58a1dc	-0.052888736
31	0xbb81ceb0	-0.0039614066
32	0xbb2bf757	-0.0026239955
33	0xbd549b3d	-0.05190586
34	0xbdb8b6a8	-0.09019214
35	0x3c372630	0.011178538
36	0xbd241622	-0.04006017
37	0xbca1fe44	-0.019774564
38	0xbda59394	-0.08084789
39	0xba52f500	-0.0008047372
40	0xbd5fc024	-0.0546266
41	0xbd73de25	-0.059538025
42	0x3d6dbc04	0.058040634
43	0x3d348432	0.044071384
44	0xbe184cd1	-0.14873053
45	0x3c9fa1d4	0.019486345
46	0xbe073772	-0.13204744
47	0xbe211961	-0.15732338
48	0xbc765e7c	-0.015037175
49	0x3d0a1888	0.0337148
50	0x3c3cda60	0.011526674
51	0xbe429126	-0.19000682
52	0xbd1f4507	-0.03888419
53	0x3d03e1d2	0.03219778
54	0x3ccc238d	0.024919296
55	0x3ce3db80	0.027814627
56	0xbd15be73	-0.03655858
57	0xbe18ce60	-0.14922476
58	0xba81eb7b	-0.0009912098
59	0xbd1185d0	-0.035528004
60	0xbd80132f	-0.06253659
61	0x3cd00544	0.025393136
62	0x3d0ce110	0.034394324
63	0xbdc3ca1e	-0.09560035

fc3.weight f4 [2, 64]
0	0xbe3153c2	-0.17317107
1	0x3db7c086	0.08972268
2	0x3df0bd70	0.11754882
3	0xbcd381a0	-0.025818646
4	0xbe75461b	-0.23952524
5	0xbc9009b0	-0.017582744
6	0x3c1b15d0	0.00946565
7	0xbd57c4ac	-0.052677795
8	0xbe118a06	-0.14212808
9	0x3d33b978	0.04387805
10	0xbd8901e0	-0.06689811
11	0x3d06cec4	0.03291203
12	0x3d18ac84	0.0372739
13	0xbe0f2f29	-0.13982834
14	0xbe51c628	-0.20485747
15	0x3c62bb15	0.013838549
16	0xbc896f80	-0.0167768
17	0xbe87bd8f	-0.2651181
18	0xbe83fdbf	-0.2577953
19	0xbeb96c5d	-0.36215487
20	0xbea6b77a	-0.32561857
21	0xbc8ec2e3	-0.017426914
22	0x3d14b688	0.036306888
23	0xbe636b4a	-0.22208896
24	0xbdaf30ac	-0.08554205
25	0xbdc72dfa	-0.09725566
26	0xbd7c1ee8	-0.061552912
27	0x3d6aa8c8	0.05728987
28	0xbd88199a	-0.06645508
29	0xbd425780	-0.047446728
30	0x3d743928	0.05962482
31	0x3d2db528	0.042409092
32	0x3cbc9213	0.023018872
33	0x3ca72e7a	0.020407904
34	0xbe6b34ce	-0.22969362
35	0x3bbb86e0	0.0057228655
36	0x3d583741	0.05278707
37	0x3d5bd164	0.053666487
38	0xbe1f0fd5	-0.15533383
39	0xbd800a56	-0.062519714
40	0xbdbfeaca	-0.09370954
41	0xbd870af6	-0.065938875
42	0xbd9225f0	-0.07136142
43	0x3d88bf5e	0.066771254
44	0xbe8ec8cd	-0.27887574
45	0x3db2e003	0.08734133
46	0xbea1e16f	-0.31617305
47	0xbdef7ceb	-0.11693748
48	0x3dde38bc	0.10850665
49	0xbc2a6cab	-0.010401885
50	0x3cef00c1	0.029175164
51	0xbe8af466	-0.27139586
52	0x3d3bf590	0.045888484
53	0x3ddcd608	0.10783011
54	0xbb4644ab	-0.0030253332
55	0x3cd4dac8	0.02598323
56	0x3b7265d4	0.0036986964
57	0xbe17eef4	-0.14837247
58	0x3d1827b3	0.037147235
59	0x3d81fdfc	0.06347272
60	0xbe95c80f	-0.29254195
61	0xbd92427c	-0.07141587
62	0xbdffbba6	-0.12486963
63	0xbe78c13d	-0.24292465
64	0xbe698097	-0.2280296
65	0xbe0c8967	-0.1372429
66	0x3da354b6	0.07975142
67	0xbc379ce0	-0.0112068355
68	0xbe6fa676	-0.23403344
69	0x3dce95e2	0.10087182
70	0xbda5e50a	-0.08100326
71	0x3dae3166	0.08505516
72	0xbe905cae	-0.2819571
73	0x3dbba2aa	0.09161885
74	0x3d1eb31e	0.03874504
75	0x3d8cbdf2	0.06872167
76	0x3c93f238	0.018059835
77	0xbe855b95	-0.26046434
78	0xbe365274	-0.17804891
79	0x3b5618aa	0.003266851
80	0xbd41f56c	-0.047353193
81	0xbdf812b1	-0.1211294
82	0xbe1a552c	-0.15071553
83	0xbcfcd2a8	-0.030862167
84	0xbce36dce	-0.02776232
85	0xbc821cd0	-0.01588288
86	0x3b804200	0.003914118
87	0xbe4bd87d	-0.19906802
88	0x3df483a8	0.11939174
89	0xbdb57c64	-0.08861616
90	0x3d86af6c	0.06576428
91	0x3d679310	0.056536734
92	0xbc48d46e	-0.012257678
93	0x3dc83ee5	0.09777621
94	0x3d894c98	0.06704062
95	0xbdf91ef6	-0.121641085
96	0xbd654e16	-0.05598267
97	0x3d82e262	0.06390835
98	0xbdf818b7	-0.12114089
99	0xbca0b2d0	-0.019616514
100	0x3ddee868	0.10884172
101	0x3c9478eb	0.018124064
102	0xbe7398d1	-0.23788764
103	0xbd9f3210	-0.077732205
104	0xbdde5512	-0.108560696
105	0x3c994678	0.01871036
106	0xbdad02d6	-0.084478065
107	0xbce95f48	-0.028487816
108	0xbd4efdcb	-0.050535005
109	0x3d47d5b6	0.048787795
110	0xbce5ca2a	-0.0280505
111	0xbea5dfe9	-0.32397392
112	0x3dcabe18	0.09899539
113	0x3cfaea5c	0.03062933
114	0x3d35bb31	0.044367973
115	0xbdceb815	-0.100937046
116	0x3ddc1647	0.107464366
117	0x3de375ae	0.1110643
118	0xbc50e7f7	-0.012750617
119	0xbdccee62	-0.100064054
120	0x3d8c6a9f	0.06856274
121	0xbe88f189	-0.26746777
122	0xbc999d0a	-0.01875164
123	0xbbba2c46	-0.0056815473
124	0xbdf76b7d	-0.12081049
125	0xbc78a690	-0.01517643
126	0xbdfe184c	-0.12406978
127	0xbdd3941e	-0.103309855

fc3.bias f4 [2]
0	0x3ed02492	0.406529
1	0x3ec1212c	0.3772062
