checkpoints/dubins3d-discrete-v0__hj_dqn__1__1638911828_evalFalse/dqn_checkpoint_10418.pth (torch, 72343 bytes, 6 tensors)

fc1.weight f4 [256, 3]
0	0x3ebc7adc	0.36812484
1	0xbeb7e35d	-0.35915652
2	0xbcac267d	-0.021014446
3	0x3ec665ed	0.38749638
4	0xbf1b088e	-0.6055993
5	0x3f17340c	0.5906379
6	0xbdf3409a	-0.11877556
7	0x3e9662ea	0.2937234
8	0x3da46023	0.08026149
9	0xbd41c9f5	-0.04731174
10	0x3e3d175b	0.1846594
11	0xbea512d2	-0.3224092
12	0x3eb3c64d	0.3511223
13	0xbe42762b	-0.1899039
14	0x3def4a26	0.116840646
15	0xbda52dd4	-0.08065382
16	0x3de0a1bc	0.109683484
17	0xbeaa9b03	-0.3332139
18	0x3eea47c7	0.45757887
19	0x3c5a6a64	0.01333103
20	0xbe7e32ac	-0.24824017
21	0xbeb28872	-0.34869725
22	0xbdc630e4	-0.09677294
23	0xbe7f02f1	-0.24903466
24	0xbe3d7388	-0.18501103
25	0x3ce276a0	0.027644455
26	0x3eb037a4	0.3441745
27	0x3efb3ace	0.49068302
28	0xbf072b93	-0.52800864
29	0x3efcb757	0.49358627
30	0x3e22819b	0.15869753
31	0x3eedc670	0.46440458
32	0x3ed70c3e	0.42001528
33	0xbf06aaec	-0.52604556
34	0xbf0c87f4	-0.5489495
35	0xbe8e9438	-0.27847457
36	0x3f0da077	0.55322975
37	0xbe5ab43e	-0.2135782
38	0x3ec8a39f	0.39187333
39	0xbed41e69	-0.4142945
40	0x3f3517e4	0.7073958
41	0xbc678ce8	-0.014132716
42	0x3ece377c	0.40276706
43	0xbe427434	-0.1898964
44	0xbe147c16	-0.1450046
45	0x3eb859c1	0.36005977
46	0xbed40a41	-0.41414073
47	0x3e808c99	0.25107267
48	0xbe2ab716	-0.16671404
49	0xbd81a218	-0.06329745
50	0xbf0e1843	-0.5550577
51	0xbe8cf032	-0.27527004
52	0x3ea06788	0.31328988
53	0xbe0fb57b	-0.14034073
54	0x3f211eb9	0.62937504
55	0x3ebde58d	0.37089196
56	0x3c1d47e1	0.009599657
57	0xbec54f6b	-0.38537154
58	0x3eb402e1	0.35158446
59	0x3e377c35	0.17918475
60	0xbeec4604	-0.46147168
61	0x3f0c807f	0.5488357
62	0x3f0d725e	0.55252635
63	0x3f1366d0	0.57578754
64	0xbedb6874	-0.4285313
65	0xbc5c5f06	-0.01345039
66	0xbc373e93	-0.011184352
67	0x3dacb348	0.08432633
68	0xbee056ba	-0.43816167
69	0xbed1c449	-0.40970066
70	0x3ea0cf3f	0.31408116
71	0xbe0aa219	-0.13538398
72	0x3ea1cdd6	0.31602353
73	0xbdabcad8	-0.08388299
74	0x3e94c4ea	0.29056484
75	0x3dc4c672	0.09608163
76	0x3db6a178	0.089175165
77	0x3c52c424	0.012864146
78	0xbefb0f51	-0.49035123
79	0x3f0c8e84	0.5490496
80	0xbd8dfdb5	-0.069331564
81	0xbedf090e	-0.43561596
82	0x3d0fd0c3	0.0351112
83	0xbdc97de1	-0.098384626
84	0x3ecaaf01	0.39586642
85	0xbee3de38	-0.44505477
86	0xbf10742b	-0.5642726
87	0x3ef1e3df	0.47244164
88	0xbe4692d6	-0.19391951
89	0x3f0321b7	0.5122332
90	0x3eac44b7	0.33646175
91	0xbed7a468	-0.4211762
92	0x3e615954	0.22006732
93	0x3e9087c6	0.28228587
94	0xbeea948f	-0.45816466
95	0xbf25487b	-0.6456372
96	0x3e4e6539	0.20155801
97	0xbd1b9e6d	-0.037992883
98	0xbec146fa	-0.37749463
99	0xbe178592	-0.14797047
100	0x3f0b34ad	0.5437725
101	0xbf140e63	-0.5783445
102	0x3ead063a	0.33793813
103	0x3e081c3b	0.13292019
104	0xbf10307e	-0.56323993
105	0xbf142d82	-0.5788194
106	0x3f36d578	0.7141948
107	0x3e9ae312	0.30251366
108	0x3ecf6ea1	0.4051409
109	0xbcd974ab	-0.02654489
110	0x3e8ff72d	0.28118268
111	0x3ee38bf1	0.44442704
112	0x3edc0b3c	0.4297732
113	0xbeedc720	-0.46440983
114	0x3d59291e	0.053017728
115	0x3eaf02b3	0.34181747
116	0x3e81d12a	0.25354892
117	0x3ec3ded1	0.38255933
118	0xbf104ee8	-0.563704
119	0xbed6eb2c	-0.41976297
120	0xbeb2c5c3	-0.34916505
121	0x3d948b6d	0.07253156
122	0x3f134f09	0.57542473
123	0xbebab9b5	-0.36469808
124	0x3e9d8579	0.30765894
125	0xbea39ce9	-0.3195565
126	0xbf0af728	-0.5428338
127	0xbdfb4f4b	-0.12270983
128	0x3eaa516b	0.33265242
129	0x3f10cc16	0.5656141
130	0xbf01f4dc	-0.5076425
131	0x3e8e171d	0.2775201
132	0x3eb1b346	0.34707087
133	0x3e2674d9	0.16255511
134	0x3e77a565	0.24184187
135	0x3edf14ae	0.43570465
136	0x3e829445	0.25503746
137	0x3dbb6aa6	0.09151201
138	0xbeca23b7	-0.39480373
139	0xbef83c44	-0.4848348
140	0xbe877398	-0.2645538
141	0xbd89afeb	-0.06723007
142	0xbeb530d3	-0.35388812
143	0x3e584b8d	0.2112257
144	0x3e4a85b6	0.19777569
145	0xbe885cd2	-0.26633316
146	0x3e877e4b	0.2646354
147	0x3e1ce64b	0.15322225
148	0x3e79098a	0.24320045
149	0x3e2f56fe	0.17123029
150	0xbe6c13d6	-0.23054442
151	0x3f218534	0.63093877
152	0xbe95436c	-0.29153
153	0xbca27df1	-0.019835444
154	0xbf0b81ce	-0.5449494
155	0xbebe414e	-0.371592
156	0xbeacb147	-0.33729002
157	0xbe7cdf66	-0.24694595
158	0x3ed22a3c	0.41047847
159	0xbe4131f4	-0.18866712
160	0xbedce618	-0.43144298
161	0x3e63777a	0.22213545
162	0x3dfab50b	0.122415625
163	0x3e4374dd	0.19087549
164	0xbeab94a6	-0.33511847
165	0x3e497156	0.1967214
166	0xbe9b6b49	-0.3035529
167	0xbe234a03	-0.15946202
168	0xbeeb925d	-0.46010104
169	0xbe86b976	-0.2631337
170	0xbe350fc6	-0.17681798
171	0x3e99cfe2	0.30041414
172	0x3bd82f4b	0.0065974346
173	0x3e6a7a22	0.22898152
174	0x3f18e218	0.5971999
175	0x3eea4e11	0.45762685
176	0x3ebcd60f	0.36882064
177	0x3c969be2	0.018384878
178	0xbecc7ef0	-0.39940596
179	0x3ee70451	0.4512048
180	0xbe13d6d3	-0.14437418
181	0xbd3f2f6d	-0.046676088
182	0xbefea976	-0.49738663
183	0xbde98f7a	-0.11404319
184	0xbebea91a	-0.3723839
185	0x3f07d0da	0.5305306
186	0xbeff8e28	-0.49913144
187	0xbee66aee	-0.45003456
188	0xbca099fa	-0.019604672
189	0xbe81db43	-0.25362596
190	0x3ec6c9dc	0.3882588
191	0xbebb4a30	-0.36580038
192	0xbe8ad75a	-0.27117425
193	0x3d05f02f	0.03269976
194	0x3ed5fc95	0.41794267
195	0xbecfef35	-0.40612188
196	0x3e8ad133	0.2711273
197	0x3ebde867	0.3709137
198	0x3f18ee86	0.5973896
199	0xbf0cb3ff	-0.5496215
200	0x3e3e8ae7	0.18607675
201	0xbeda93b9	-0.42690828
202	0x3efc5f15	0.49291292
203	0xbe655532	-0.2239578
204	0x3eb6a84a	0.3567527
205	0xbddcfb1c	-0.10790083
206	0xbda8bf79	-0.082396455
207	0xbc96e9ae	-0.018421974
208	0x3dc900f5	0.09814636
209	0x3e8b58a4	0.27216065
210	0x3e16eee2	0.14739564
211	0x3db824fd	0.0899143
212	0xbf417038	-0.7556186
213	0x3e923c21	0.285615
214	0x3e9bc466	0.30423278
215	0x3e897ba8	0.26852155
216	0x3ee32bd7	0.44369385
217	0xbf145e6f	-0.57956594
218	0xbe3180bf	-0.17334269
219	0x3f1163e4	0.56793046
220	0xbf0fb7f3	-0.5614006
221	0x3f3dd064	0.74146104
222	0xbee87da8	-0.45408368
223	0xbed039bb	-0.40669045
224	0x3e908394	0.28225386
225	0xbed46344	-0.41481984
226	0xbe077224	-0.13227135
227	0x3ed70c8c	0.4200176
228	0x3eef83eb	0.46780333
229	0x3edbd119	0.42932966
230	0xbe16f421	-0.14741565
231	0xbee5c2c9	-0.44875172
232	0x3f1186f2	0.56846535
233	0xbdfbe28e	-0.12299071
234	0xbe733e42	-0.23754218
235	0x3e101ee7	0.14074288
236	0xbeceb900	-0.4037552
237	0x3ed932f8	0.424217
238	0x3e8637e1	0.26214507
239	0xbf0a600e	-0.5405282
240	0xbef2cce8	-0.47421956
241	0xbd4f267d	-0.050573815
242	0x3e785265	0.24250181
243	0x3da1068a	0.07862575
244	0xbe9fcb52	-0.3120981
245	0xbdab9704	-0.08378413
246	0xbf0aec6e	-0.54267013
247	0xbed0ebc1	-0.40804866
248	0xbec4c7ad	-0.3843359
249	0x3ef9ee38	0.4881456
250	0x3ec92134	0.39283144
251	0xbe95a079	-0.29223993
252	0x3ddb02e8	0.10693914
253	0x3e6171ae	0.22016022
254	0x3dd1657d	0.102244355
255	0xbea51845	-0.3224508

fc1.bias f4 [256]
0	0xbe9eb19d	-0.30994883
1	0x3d718027	0.058960106
2	0xbee2d755	-0.4430491
3	0x3e8be861	0.2732573
4	0xbf1fec21	-0.6246968
5	0x3f0beaa8	0.5465493
6	0x3eab6897	0.33478233
7	0xbe5303cc	-0.20606917
8	0x3daed7fb	0.08537289
9	0xbec3e923	-0.38263807
10	0xbeef7e0f	-0.46775863
11	0xbe95b5c6	-0.29240245
12	0xbf039738	-0.51402617
13	0x3e8936d1	0.26799634
14	0xbebfbb92	-0.37447792
15	0xbe38b6e3	-0.18038516
16	0xbee287af	-0.44244143
17	0xbeb9b761	-0.3627272
18	0xbf307505	-0.6892856
19	0xbed4768b	-0.4149669
20	0x3f2c43d5	0.67291003
21	0x3b9eb1a0	0.004842952
22	0xbf0cf553	-0.55061835
23	0xbdc5598a	-0.09636219
24	0xbe366aee	-0.17814228
25	0x3e8d6385	0.2761499
26	0x3f4dad67	0.80342716
27	0x3e0ec315	0.13941605
28	0x3e59c2cd	0.21265717
29	0xbed97f1b	-0.42479786
30	0xbdf861f8	-0.12128061
31	0xbe5106a1	-0.20412685
32	0xbda7475d	-0.08167908
33	0x3f3814e2	0.71906865
34	0x3e4acec7	0.19805442
35	0x3f3d6280	0.73978424
36	0xbf076e95	-0.5290311
37	0xbe84e5ea	-0.2595666
38	0x3e1fc155	0.15601094
39	0x3e60b675	0.21944602
40	0xbf07dd88	-0.53072405
41	0xbe912c8f	-0.28354308
42	0x3dab8582	0.08375074
43	0xbf1b57f6	-0.6068109
44	0xbd7930b8	-0.060837477
45	0xbe6ac7b2	-0.2292774
46	0xbe1932bc	-0.1496076
47	0x3e9e88d8	0.30963778
48	0x3e4a8d7d	0.19780536
49	0x3f19f28a	0.6013571
50	0x3eeebb2f	0.46627185
51	0xbc8157e7	-0.015788985
52	0x3ef1aff0	0.47204542
53	0x3eeb40f7	0.45948002
54	0xbf16ddaf	-0.5893201
55	0x3da9ae79	0.08285231
56	0x3d8a8d4c	0.067652315
57	0xbeef36fb	-0.46721634
58	0xbea8da41	-0.32979015
59	0xbe0b9a6f	-0.1363313
60	0xbecedafb	-0.40401444
61	0xbe3468fd	-0.17618175
62	0x3e46f204	0.19428259
63	0x3f3cfa07	0.7381901
64	0x3d33a205	0.043855686
65	0xbf0f21a1	-0.5591069
66	0x3d5eb175	0.054368455
67	0xbe32e3e4	-0.17469746
68	0x3eaa3699	0.3324478
69	0xbf0ed15b	-0.557882
70	0xbe916db5	-0.28404012
71	0x3e9e697a	0.30939847
72	0xbca54a54	-0.020177044
73	0xbf08ea5a	-0.5348259
74	0xbefff70e	-0.49993175
75	0xbbcb321b	-0.0062010414
76	0x3d511c7c	0.051052555
77	0xbef568b6	-0.4793145
78	0xbef75ca4	-0.48312867
79	0xbe41a1c6	-0.18909368
80	0xbdf27f96	-0.11840741
81	0x3ea4bd2f	0.32175586
82	0xbf0f35cb	-0.55941457
83	0xbe95aaa1	-0.29231742
84	0xbf13d9f3	-0.5775444
85	0x3e118e7a	0.14214507
86	0xbe9707cd	-0.2949814
87	0xbd361c28	-0.044460446
88	0xbef749da	-0.48298532
89	0xbee88a27	-0.45417902
90	0xbf0a7530	-0.54085064
91	0xbf3bf563	-0.73421305
92	0x3eba9ad6	0.36446255
93	0xbda93759	-0.0826251
94	0xbf199d66	-0.60005796
95	0x3ecf2340	0.4045658
96	0xbe06218c	-0.13098735
97	0x3e88b5ce	0.26701206
98	0xbe374491	-0.1789725
99	0xbef750fa	-0.48303968
100	0x3e01d85d	0.12680192
101	0x3eb811d2	0.35951096
102	0xbf101c80	-0.5629349
103	0xbe2fefe3	-0.17181353
104	0x3debab0c	0.11507234
105	0x3d87b645	0.06626562
106	0xbe4f41a2	-0.2023988
107	0xbe37c612	-0.17946652
108	0xbf13909f	-0.5764255
109	0x3c9179ee	0.017758336
110	0xbf1c38d2	-0.610242
111	0xbef43dd5	-0.47703424
112	0xbe3dcf02	-0.18535998
113	0xbed1fd4c	-0.41013563
114	0x3ed3221f	0.4123697
115	0x3ec7ddf8	0.39036536
116	0x3ee5bbe4	0.44869912
117	0xbede9deb	-0.43479857
118	0x3e1d218e	0.15344831
119	0x3eb3daaf	0.3512778
120	0x3bd4393d	0.00647655
121	0x3eef0a69	0.4668763
122	0x3ea743bb	0.32668862
123	0x3ee22e22	0.44175822
124	0x3e6271d5	0.22113736
125	0x3da92952	0.08259834
126	0xbed7b5e4	-0.4213096
127	0xbea4cf60	-0.32189465
128	0xbe8c2bae	-0.27377075
129	0x3ea4afe1	0.32165435
130	0xbe069385	-0.13142212
131	0x3e443aee	0.19163105
132	0xbf4154d8	-0.75520086
133	0xbe8c6e68	-0.27427983
134	0xbe26c785	-0.16287048
135	0xbebebc0e	-0.3725285
136	0x3e187cf6	0.14891419
137	0xbf31b8c9	-0.69422585
138	0xbe8db901	-0.2768021
139	0xbe8e03e6	-0.2773735
140	0xbf05ce30	-0.5226774
141	0x3e23f390	0.1601088
142	0xbe3c1d61	-0.18370582
143	0x3e5678a6	0.20944461
144	0x3eddc977	0.43317768
145	0x3f3f65f5	0.7476495
146	0xbdce9234	-0.1008648
147	0x3dc34483	0.09534552
148	0x3f08c574	0.5342629
149	0xbdbd31af	-0.09237992
150	0xbe6dd10d	-0.23224278
151	0xbca78a6c	-0.020451747
152	0x3dbf8fa9	0.09353573
153	0x3f096145	0.53664047
154	0xbf4278be	-0.7596549
155	0x3e59275e	0.21206424
156	0x3e79c0b1	0.24389912
157	0xbead5bb0	-0.33859015
158	0xbb6fc89e	-0.0036588083
159	0x3e67e1f5	0.2264479
160	0x3bf1f158	0.0073835067
161	0x3ee84ab5	0.45369497
162	0x3e806e17	0.25083992
163	0xbf346865	-0.70471793
164	0xbe34bf6b	-0.17651145
165	0x3e948736	0.29009408
166	0xbe8e2e41	-0.27769664
167	0x3e7c2afa	0.2462577
168	0x3e084811	0.13308741
169	0xbdbfd8e1	-0.09367538
170	0x3b867350	0.004103102
171	0x3d9df3ec	0.0771254
172	0xbeca48a3	-0.39508542
173	0x3ed5cf49	0.4175971
174	0x3e48e9d3	0.19620447
175	0x3ea5e05b	0.32397732
176	0x3f13b1b9	0.5769306
177	0xbe4b8217	-0.19873844
178	0xbed0bcac	-0.40768945
179	0x3cd7f7a3	0.0263632
180	0xbe98039f	-0.29690263
181	0x3e50b3f0	0.2038114
182	0x3f30d739	0.69078404
183	0xbf0f108c	-0.55884624
184	0xbe2d28b1	-0.16910054
185	0x3f1a4a60	0.6026974
186	0xbeebfab4	-0.4608971
187	0xbdcc0a80	-0.0996294
188	0x3eda8099	0.42676237
189	0x3ece8c8f	0.40341613
190	0xbe04795a	-0.12936917
191	0xbe7efcf4	-0.24901181
192	0xbe6d30b9	-0.23163117
193	0xbf048992	-0.51772416
194	0xbec068fd	-0.375801
195	0xbf0a7b03	-0.5409395
196	0x3ef334ab	0.4750112
197	0x3e79aee5	0.24383123
198	0x3ec22d2c	0.37925088
199	0xbe147eed	-0.14501543
200	0x3e9cc162	0.3061629
201	0xbe86e0dc	-0.2634343
202	0x3e8a6b7b	0.27035126
203	0xbe7d6ea8	-0.24749243
204	0xbe8b0e02	-0.27159125
205	0xbec81fe8	-0.39086843
206	0xbec1446e	-0.3774752
207	0xbf0749ca	-0.5284697
208	0x3be4d82c	0.0069837775
209	0xbee53c91	-0.4477277
210	0x3d631e7f	0.055449005
211	0x3ebc78df	0.36810967
212	0xbd8fb0fa	-0.070161775
213	0x3e8f5c96	0.28000325
214	0xbd8b711c	-0.06808683
215	0x3e2a4979	0.1662959
216	0xbebea31c	-0.37233818
217	0xbdd8e7d2	-0.10591091
218	0xbe4501fb	-0.19239037
219	0x3e84f282	0.2596627
220	0xbf04aa68	-0.5182252
221	0xbea62696	-0.32451314
222	0xbe112eab	-0.14177959
223	0x3f431204	0.76199365
224	0x3ec8021a	0.39064103
225	0xbf12f0d5	-0.5739873
226	0xbf216c9f	-0.6305637
227	0x3ea19e12	0.3156591
228	0x3dac51e4	0.08414057
229	0xbefd2fab	-0.4945043
230	0xbe95560c	-0.2916721
231	0x3e813bc7	0.2524092
232	0xbeb2c746	-0.3491766
233	0xbf18beec	-0.59666324
234	0xbeb6829c	-0.35646522
235	0xbdd86afe	-0.10567282
236	0xbe7b21ac	-0.24524564
237	0x3eb92e95	0.36168352
238	0x3e8ded77	0.27720234
239	0xbefceb68	-0.4939835
240	0xbe97e4b5	-0.29666677
241	0xbee43b2e	-0.445764
242	0x3e441f4d	0.19152565
243	0x3f4acbb7	0.79217094
244	0x3f0fa8c8	0.56116915
245	0x3da81bd9	0.082084365
246	0xbe740b81	-0.23832513
247	0xbc6bce4d	-0.014392448
248	0x3e554c41	0.2082987
249	0xbf481645	-0.7815898
250	0xbe2c1abe	-0.16807076
251	0xbef04859	-0.46930197
252	0xbf5bf91a	-0.85926974
253	0xbc9e14ef	-0.019297091
254	0xbebf5d22	-0.37375742
255	0xbebb40c3	-0.36572847

fc2.weight f4 [64, 256]
0	0x3e3a38cd	0.1818573
1	0x3e4f092e	0.20218346
2	0x3c1c4350	0.009537533
3	0xbe15ea6c	-0.14640206
4	0x3e9bd17f	0.3043327
5	0xbe353bb0	-0.1769855
6	0xbb883e79	-0.004157838
7	0xbcac9d20	-0.021071017
8	0x3d3c76ae	0.04601162
9	0x3eabe402	0.33572394
10	0x3d412299	0.047152136
11	0xbc8f16f8	-0.017467007
12	0x3da6c9c5	0.08143953
13	0xbecf0c51	-0.40439084
14	0x3d97e3a5	0.074164666
15	0x3e25f7c3	0.16207795
16	0xbd47c9c4	-0.048776403
17	0x3d40ff06	0.04711821
18	0x3ce5fbf8	0.02807425
19	0x3d5e3f9c	0.05425988
20	0xbeae3e88	-0.34032083
21	0x3e0f8efa	0.14019385
22	0x3d199c6a	0.037502684
23	0x3c6d03c8	0.014466234
24	0x3d6c38b4	0.057671264
25	0xbcae5a3a	-0.021283258
26	0xbf3ba72d	-0.73301965
27	0xbd6b5076	-0.05744978
28	0x3e0789eb	0.13236205
29	0x3df9eea2	0.12203719
30	0x3e856829	0.2605603
31	0xbecf7009	-0.40515164
32	0x3d8659fc	0.06560132
33	0xbe24ff8d	-0.1611311
34	0xbcfd97cb	-0.03095617
35	0xbeefec5f	-0.46860024
36	0x3e06b236	0.1315392
37	0x3d85a24e	0.06525098
38	0xbdbce9b3	-0.09224262
39	0x3dce4138	0.10071033
40	0xbd6ec8f2	-0.058297105
41	0xbbea5df0	-0.0071523115
42	0xbb588840	-0.0033040196
43	0x3e335ba3	0.17515425
44	0xbd16e620	-0.036840558
45	0x3d160881	0.036629204
46	0x3d66387a	0.056206204
47	0x3d66b6aa	0.056326546
48	0xbcf95254	-0.030434765
49	0xbd2f5534	-0.042805865
50	0xbe508ebf	-0.20366953
51	0xbd47ec96	-0.04880961
52	0xbc8c6228	-0.017136648
53	0x3d788a34	0.060678676
54	0x3db9b0c4	0.090669185
55	0x3d91a059	0.07110662
56	0x3d70d5f4	0.05879779
57	0x3de5f242	0.11227848
58	0x3dad28bc	0.08455035
59	0x3d2a1c18	0.0415307
60	0x3d700dd2	0.05860693
61	0x3c2f9b18	0.01071813
62	0xbd4f05ce	-0.050542645
63	0xbeca92ff	-0.39565274
64	0xbd0444fe	-0.03229236
65	0x3d534bd8	0.051586002
66	0x3e082ff3	0.13299541
67	0x3c95d9ac	0.01829227
68	0xbcfa6b69	-0.030568795
69	0xbd3c8b92	-0.046031542
70	0x3e0a5264	0.13507992
71	0xbbf54024	-0.007484453
72	0x3d8000b8	0.06250137
73	0x3e6ac0a8	0.22925055
74	0xbc75d620	-0.015004665
75	0x3a772300	0.00094275177
76	0x3d29ade0	0.041425586
77	0x3cc502c8	0.024049178
78	0xbd43e2c0	-0.047823668
79	0x3d27dc92	0.040981837
80	0xbcfdbbb0	-0.030973285
81	0x3b694e60	0.0035599694
82	0x3cfd8898	0.030948922
83	0x3d94e483	0.07270148
84	0x3e37111f	0.17877625
85	0xbec1d977	-0.37861225
86	0xbd7fd198	-0.062455744
87	0x3de1b06b	0.11019977
88	0xbd2fa9da	-0.042886592
89	0x3c08bef0	0.008346304
90	0x3de184da	0.110116675
91	0x3e8dd180	0.27698898
92	0xbd2ee7ac	-0.04270141
93	0xbd7ad1a2	-0.061235078
94	0x3dbebca6	0.093133256
95	0x3c250308	0.0100715235
96	0x3d3b8802	0.045784004
97	0x3a3edf02	0.00072811556
98	0x3d45284c	0.048134133
99	0x3ca19fe8	0.01972957
100	0xbc9251d0	-0.017861277
101	0xbc588480	-0.013215184
102	0xbd0bffdc	-0.034179553
103	0x3dc5b2a3	0.09653213
104	0xbd320866	-0.04346504
105	0x3cb00760	0.021487892
106	0x3db70acf	0.089376085
107	0x3d593bb4	0.053035453
108	0x3e3f9382	0.18708614
109	0x3e61a6a1	0.2203622
110	0x3d465569	0.048421297
111	0xbba73810	-0.0051031187
112	0x3d69b21e	0.05705463
113	0x3d3903f3	0.045169782
114	0xbef31b46	-0.47481745
115	0x3d425922	0.047448285
116	0xbd78feb8	-0.060789794
117	0x3e9e579e	0.30926222
118	0x3d7a5227	0.061113503
119	0xbc92beca	-0.017913241
120	0x3c288770	0.010286197
121	0xbe39074c	-0.1806919
122	0xbd220fc0	-0.0395658
123	0xbce79588	-0.028269544
124	0xbd893c05	-0.06700901
125	0x3c9d1c7c	0.019178621
126	0x3d5b4341	0.053530935
127	0x3be0c320	0.006859198
128	0xbd26929c	-0.04066716
129	0xbce4f81a	-0.027950335
130	0x3c2a394f	0.01038964
131	0xbeb49add	-0.352744
132	0x3e32220b	0.17395799
133	0x3e18e97c	0.14932817
134	0xbd0e57fe	-0.034751885
135	0xbc88667c	-0.01665043
136	0x3a0fc96a	0.000548503
137	0x3e2c34a5	0.16816957
138	0x3deb5f15	0.11492745
139	0x3dd9fcce	0.10643922
140	0xbcbe553c	-0.023234002
141	0x3dbbc846	0.091690585
142	0xbd39305c	-0.045212135
143	0x3c184cf1	0.009295688
144	0xbdfc4b14	-0.123190075
145	0xbf1cca0b	-0.61245793
146	0x3d11f182	0.03563071
147	0x3dafd52a	0.0858558
148	0xbc5b0e29	-0.013370075
149	0x3dc798b5	0.097459234
150	0x3c54ed1c	0.012995984
151	0xbdc2cb63	-0.09511449
152	0x3cd26610	0.025683433
153	0xbea350ba	-0.31897527
154	0x3df1f10a	0.11813553
155	0x3d259ba5	0.040431637
156	0xbf044928	-0.5167413
157	0xbec33ef1	-0.38133958
158	0x3d67bfb0	0.05657929
159	0x3cfff58f	0.031245021
160	0x3dee1261	0.11624599
161	0x3c44e64a	0.012017796
162	0xbf00fc60	-0.50385094
163	0x3e2cb9b4	0.16867715
164	0x3e717a50	0.23581815
165	0x3bc2c074	0.0059433524
166	0x3d5c80a8	0.053833634
167	0x3d1f2f9c	0.038863763
168	0xbafac5c0	-0.001913242
169	0xbce4aef0	-0.027915448
170	0x3b87c360	0.0041431636
171	0x3d9dca23	0.0770457
172	0x3d222ba6	0.039592408
173	0x3ce4d6e7	0.027934505
174	0x3d15d15e	0.03657662
175	0x3ccb48e0	0.024815023
176	0x3cc0e970	0.023548812
177	0x3d9e5845	0.0773168
178	0x3cf89edc	0.030349188
179	0x3ca31db4	0.019911624
180	0x3e6059b3	0.21909218
181	0xbd7096a4	-0.058737412
182	0xbed3998f	-0.41328093
183	0x3e222f9b	0.15838473
184	0x3de4a2df	0.11163878
185	0xbdd38a71	-0.1032914
186	0x3d2cbe94	0.042173937
187	0x3cae225c	0.021256618
188	0xbd4ba9fa	-0.04972265
189	0x3b731b20	0.0037095025
190	0x3e05d7ad	0.13070555
191	0x3d1379a4	0.036004677
192	0x3eb4829c	0.35255897
193	0xbcca7244	-0.02471269
194	0xbe8b9e54	-0.27269232
195	0xbd4fa9a4	-0.05069889
196	0xbcb9ab6b	-0.022664746
197	0xbcf022b5	-0.029313425
198	0xbdd59d88	-0.10430437
199	0x3d11bc92	0.035580225
200	0x3d3cf9b1	0.04613656
201	0x3e17a7d6	0.14810118
202	0xbc738df2	-0.014865385
203	0x3d9d1674	0.07670298
204	0xbcc2c74c	-0.023776673
205	0x3ce9a790	0.028522283
206	0x3df12015	0.11773697
207	0x3d30f468	0.043201834
208	0x3d826f21	0.063688524
209	0x3de23f92	0.11047281
210	0x3df122a4	0.11774185
211	0xbc9b411c	-0.018951945
212	0x3dbb3617	0.09141176
213	0xbc89d90c	-0.016827129
214	0x3c6b3ddc	0.01435801
215	0x3d68753f	0.05675244
216	0x3c0c0a40	0.008547366
217	0x3e1b4dad	0.1516635
218	0x3cd29458	0.025705501
219	0xbc658827	-0.014009512
220	0xbcb99ca8	-0.022657707
221	0xbd32cdfe	-0.04365348
222	0x3e28371b	0.16427271
223	0xbf2096bd	-0.6273001
224	0xbd4b9c72	-0.049709745
225	0x3e6c120d	0.23053761
226	0x3ea26eaa	0.31725055
227	0x3db8c3eb	0.090217434
228	0x3d30467c	0.04303597
229	0xbd4443a0	-0.047916055
230	0x3e5ccaae	0.21561691
231	0x3d22f454	0.03978379
232	0x3e90e179	0.28297022
233	0x3e67de4e	0.22643396
234	0x3d3aab72	0.04557366
235	0xbeca17c3	-0.39471254
236	0x3e47178c	0.19442576
237	0xbdb50321	-0.088384874
238	0xbcd5c0d8	-0.026092932
239	0x3dcf71f2	0.10129155
240	0x3dd74f9a	0.1051323
241	0xbba1c9f0	-0.004937403
242	0x3db207c6	0.08692889
243	0xbdadec7b	-0.08492371
244	0xbd05dd7c	-0.032681927
245	0x3cd38da0	0.025824368
246	0x3e21d5f2	0.1580427
247	0xba94bec0	-0.0011348352
248	0x3d28b834	0.041191295
249	0x3e1325ac	0.1436984
250	0xbc66c2db	-0.014084543
251	0xbcfd57d4	-0.030925669
252	0x3d90e270	0.070744395
253	0xbd595a94	-0.053064898
254	0x3e72c86f	0.23709272
255	0xbd1e2fe6	-0.0386199

fc2.bias f4 [64]
0	0xbddf2916	-0.108965084
1	0xbcdce666	-0.026965331
2	0xbcb16724	-0.021655627
3	0x3cdb9954	0.026806511
4	0xbd94b577	-0.07261174
5	0x3c93cd70	0.018042296
6	0x3d4d67ee	0.050147943
7	0x3d5a4c90	0.053295672
8	0xbe12eceb	-0.1434819
9	0x3c374570	0.011185989
10	0x3d00007a	0.031250454
11	0xbd24c3ac	-0.04022567
12	0xbc380578	-0.011231773
13	0xbe3a6249	-0.18201555
14	0xbddac94c	-0.106829256
15	0x3caac044	0.020843633
16	0x3d4c013a	0.049805857
17	0xbdf03920	-0.11729646
18	0xbe2d4ad1	-0.16923071
19	0xbe0b3c00	-0.13597107
20	0xbe229229	-0.15876068
21	0xbce0781b	-0.02740102
22	0x3c53e7f8	0.012933724
23	0xbe25bb82	-0.1618481
24	0x3bd5d400	0.0065255165
25	0x3c52c9c0	0.012865484
26	0xbd152508	-0.03641227
27	0x3bda5ac0	0.0066636503
28	0xbd678d69	-0.056531344
29	0x3d236eff	0.039900776
30	0xbd58a1dc	-0.052888736
31	0xbb81ceb0	-0.0039614066
32	0xbb2bf757	-0.0026239955
33	0xbd549b3d	-0.05190586
34	0xbdd46d19	-0.10372371
35	0xbd28678b	-0.04111437
36	0xbd241622	-0.04006017
37	0xbca1fe44	-0.019774564
38	0xbdb373cf	-0.08762323
39	0xba52f500	-0.0008047372
40	0xbd5fc024	-0.0546266
41	0xbd73de25	-0.059538025
42	0x3c3448ec	0.011003714
43	0x3d348432	0.044071384
44	0xbe250c68	-0.16118014
45	0x3c9fa1d4	0.019486345
46	0xbe15eb3c	-0.14640516
47	0xbe27530b	-0.16340272
48	0xbc765e7c	-0.015037175
49	0x3d0a1888	0.0337148
50	0x3c3cda60	0.011526674
51	0xbe4e2131	-0.20129849
52	0xbd1f4507	-0.03888419
53	0x3d03e1d2	0.03219778
54	0x3ccc238d	0.024919296
55	0x3ce3db80	0.027814627
56	0xbd15be73	-0.03655858
57	0xbe20d1e9	-0.15705074
58	0xba81eb7b	-0.0009912098
59	0xbd1185d0	-0.035528004
60	0xbd966c29	-0.07344849
61	0x3cd00544	0.025393136
62	0x3d0ce110	0.034394324
63	0xbddbf5a8	-0.107402146

fc3.weight f4 [2, 64]
0	0xbe3d001d	-0.18457074
1	0x3db7c086	0.08972268
2	0x3df0bd70	0.11754882
3	0xbcd381a0	-0.025818646
4	0xbe812e49	-0.25230625
5	0xbc9009b0	-0.017582744
6	0x3c1b15d0	0.00946565
7	0xbd57c4ac	-0.052677795
8	0xbe197240	-0.14984989
9	0x3d33b978	0.04387805
10	0xbd8901e0	-0.06689811
11	0x3d06cec4	0.03291203
12	0x3d18ac84	0.0372739
13	0xbe16b0f6	-0.14715943
14	0xbe613fc9	-0.21996988
15	0x3c62bb15	0.013838549
16	0xbc896f80	-0.0167768
17	0xbe92d34e	-0.28676838
18	0xbe8d8af7	-0.27645084
19	0xbed843a6	-0.42239112
20	0xbec434f1	-0.3832164
21	0xbc8ec2e3	-0.017426914
22	0x3d14b688	0.036306888
23	0xbe7108bb	-0.23538487
24	0xbdaf30ac	-0.08554205
25	0xbdc72dfa	-0.09725566
26	0xbd7c1ee8	-0.061552912
27	0x3d6aa8c8	0.05728987
28	0xbd88199a	-0.06645508
29	0xbd425780	-0.047446728
30	0x3d743928	0.05962482
31	0x3d2db528	0.042409092
32	0x3cbc9213	0.023018872
33	0x3ca72e7a	0.020407904
34	0xbe8089d4	-0.25105155
35	0xbdb76c48	-0.089562
36	0x3d583741	0.05278707
37	0x3d5bd164	0.053666487
38	0xbe2a1203	-0.16608433
39	0xbd800a56	-0.062519714
40	0xbdbfeaca	-0.09370954
41	0xbd870af6	-0.065938875
42	0xbcafc310	-0.021455318
43	0x3d88bf5e	0.066771254
44	0xbeaaebe8	-0.33383107
45	0x3db2e003	0.08734133
46	0xbeb5f822	-0.35540873
47	0xbdfb1c1b	-0.1226122
48	0x3dde38bc	0.10850665
49	0xbc2a6cab	-0.010401885
50	0x3cef00c1	0.029175164
51	0xbe9c0b01	-0.30477145
52	0x3d3bf590	0.045888484
53	0x3ddcd608	0.10783011
54	0xbb4644ab	-0.0030253332
55	0x3cd4dac8	0.02598323
56	0x3b7265d4	0.0036986964
57	0xbe219382	-0.15778926
58	0x3d1827b3	0.037147235
59	0x3d81fdfc	0.06347272
60	0xbea137e1	-0.31487945
61	0xbd92427c	-0.07141587
62	0xbdffbba6	-0.12486963
63	0xbe89a735	-0.2688538
64	0xbe7bb226	-0.24579677
65	0xbe0c8967	-0.1372429
66	0x3da354b6	0.07975142
67	0xbc379ce0	-0.0112068355
68	0xbe8008cb	-0.25006709
69	0x3dce95e2	0.10087182
70	0xbda5e50a	-0.08100326
71	0x3dae3166	0.08505516
72	0xbe9d9172	-0.30775028
73	0x3dbba2aa	0.09161885
74	0x3d1eb31e	0.03874504
75	0x3d8cbdf2	0.06872167
76	0x3c93f238	0.018059835
77	0xbe91ac45	-0.28451744
78	0xbe404c94	-0.18779212
79	0x3b5618aa	0.003266851
80	0xbd41f56c	-0.047353193
81	0xbdfe5a72	-0.12419595
82	0xbe20e4d2	-0.15712288
83	0x3ce0dd8c	0.027449392
84	0x3c77683e	0.015100537
85	0xbc821cd0	-0.01588288
86	0x3b804200	0.003914118
87	0xbe5ad88f	-0.21371673
88	0x3df483a8	0.11939174
89	0xbdb57c64	-0.08861616
90	0x3d86af6c	0.06576428
91	0x3d679310	0.056536734
92	0xbc48d46e	-0.012257678
93	0x3dc83ee5	0.09777621
94	0x3d894c98	0.06704062
95	0xbdf91ef6	-0.121641085
96	0xbd654e16	-0.05598267
97	0x3d82e262	0.06390835
98	0xbdff51fb	-0.124668084
99	0x3d487ec3	0.048949014
100	0x3ddee868	0.10884172
101	0x3c9478eb	0.018124064
102	0xbe84812d	-0.25879803
103	0xbd9f3210	-0.077732205
104	0xbdde5512	-0.108560696
105	0x3c994678	0.01871036
106	0xbd11e85c	-0.035621986
107	0xbce95f48	-0.028487816
108	0xbc1ff8d7	-0.009763918
109	0x3d47d5b6	0.048787795
110	0xbb5d93bd	-0.0033809983
111	0xbeb50bd9	-0.35360602
112	0x3dcabe18	0.09899539
113	0x3cfaea5c	0.03062933
114	0x3d35bb31	0.044367973
115	0xbdb5514f	-0.08853399
116	0x3ddc1647	0.107464366
117	0x3de375ae	0.1110643
118	0xbc50e7f7	-0.012750617
119	0xbdccee62	-0.100064054
120	0x3d8c6a9f	0.06856274
121	0xbe93fbf6	-0.28903168
122	0xbc999d0a	-0.01875164
123	0xbbba2c46	-0.0056815473
124	0xbdf8f250	-0.121555924
125	0xbc78a690	-0.01517643
126	0xbdfe184c	-0.12406978
127	0xbdcda4b1	-0.10041178

fc3.bias f4 [2]
0	0x3f283c43	0.6571695
1	0x3f1d610e	0.6147622
