checkpoints/dubins3d-discrete-v0__hj_dqn__1__1638911828_evalFalse/dqn_checkpoint_10318.pth (torch, 72343 bytes, 6 tensors)

fc1.weight f4 [256, 3]
00000000: a324 bc3e 1025 b8be b081 c0bc a7cf c63e
00000010: b023 1abf ec08 113f 9a40 f3bd ea62 963e
00000020: 2360 a43d db66 30bd 34de 3f3e ae67 9ebe
00000030: dff1 b23e 419f 43be e0b6 e73d 89b2 9dbd
00000040: 77b7 e43d 9586 a3be 35e4 f13e 2ed8 c63c
00000050: 5bfa 74be 7288 b2be e430 c6bd f102 7fbe
00000060: 8873 3dbe a076 e23c a437 b03e eed9 fa3e
00000070: 02f2 06bf a864 f63e dde5 303e 35fc f83e
00000080: 1f1d bf3e ecaa 06bf f487 0cbf 3894 8ebe
00000090: 9dfd 0d3f 2c60 57be 2b6e c13e fc0b d5be
000000a0: c046 2f3f ed11 47bd bedc ce3e d8e5 40be
000000b0: 8e46 16be 8f5b b83e 6063 d3be e88e 773e
000000c0: 16b7 2abe 18a2 81bd 4318 0ebf 32f0 8cbe
000000d0: 8867 a03e 7bb5 0fbe a7bd 213f 47c4 bf3e
000000e0: 96ae dc3a 6b4f c5be e102 b43e 357c 373e
000000f0: 76b6 e3be 96e3 0a3f 49a9 0b3f 05bf 133f
00000100: 4a5e dabe e2c8 91bc 933e 37bc 48b3 ac3d
00000110: ba56 e0be 49c4 d1be 3fcf a03e 19a2 0abe
00000120: 63c3 a33e 1152 9fbd c936 8c3e 8013 e23d
00000130: b65f cf3d 400f c23c 42a3 f1be 1a97 0a3f
00000140: 3fea ebbd 0e09 dfbe c3d0 0f3d e17d c9bd
00000150: f643 ca3e 2e4f e6be bce2 09bf 905d f33e
00000160: cba9 40be 50ab f93e d3d1 ab3e f2c2 d7be
00000170: b7ea 5b3e cd6e 8e3e 1795 e1be 0ef8 20bf
00000180: e0a6 4e3e a2ca 37bd cb68 abbe 7062 14be
00000190: e155 0b3f ebd3 0ebf 3702 af3e d55c 043e
000001a0: 240b 06bf 21ff 0dbf 2fc7 363f 3e75 9b3e
000001b0: 2607 d03e bc64 c5bc dda3 8b3e f2f0 e73e
000001c0: b6d0 de3e ffcb e5be c00c 953d 8baa bb3e
000001d0: fa5e 633e e17f c23e ad42 12bf 61b6 c7be
000001e0: c3c5 b2be 6d8b 943d 094f 133f b5b9 babe
000001f0: 7985 9d3e e99c a3be 28f7 0abf 4b4f fbbd
00000200: 6b51 aa3e fabc 103f 6eac 01bf f3f0 883e
00000210: abc7 bb3e ed70 383e 8d8e 783e 04a2 e13e
00000220: 53f7 843e 4174 c43d b723 cabe 443c f8be
00000230: 9873 87be ebaf 89bd d330 b5be 8d4b 583e
00000240: 2696 533e e330 82be 387a 753e b1ca 2d3e
00000250: b28f 863e 24df 1a3e 3c24 68be 4c44 223f
00000260: 4d0e 91be f17d a2bc ce81 0bbf 4e41 bebe
00000270: 47b1 acbe 66df 7cbe 3c2a d23e f431 41be
00000280: 18e6 dcbe 7a77 633e d9d4 ef3d 80d8 353e
00000290: a92c 8fbe 6ec7 473e 5eed 9dbe 0ac0 11be
000002a0: 5d92 ebbe 76b9 86be c60f 35be 73e6 9a3e
000002b0: b388 2f3c 8d1f 5e3e 82dc 1a3f a086 ef3e
000002c0: 8b88 b83e e29b 963c f07e ccbe 5104 e73e
000002d0: d3d6 13be 6d2f 3fbd 76a9 febe 7a8f e9bd
000002e0: 1aa9 bebe dad0 073f 288e ffbe ee6a e6be
000002f0: fa99 a0bc 0e9a 80be b342 c73e 77ac b4be
00000300: 5ad7 8abe 2ff0 053d 95fc d53e 35ef cfbe
00000310: 33d1 8a3e 67e8 bd3e 0b46 193f 9a55 0cbf
00000320: 404b 3b3e b993 dabe 155f fc3e 3255 65be
00000330: 34a5 bc3e 4567 cdbd f758 a6bd aee9 96bc
00000340: f500 c93d a458 8b3e 492e 0e3e 5edf 8f3d
00000350: 3a55 2ebf b619 a43e 0ce4 aa3e 5bbc 863e
00000360: d2a0 e23e 4b24 15bf 2ecd 27be 4792 113f
00000370: f4cd 0ebf 304f 383f a87d e8be bb39 d0be
00000380: 9483 903e 4463 d4be 2472 07be 8c0c d73e
00000390: 7f49 f63e 240c e23e 6b4f 1cbe c9c2 e5be
000003a0: f286 113f 8ee2 fbbd 423e 73be e71e 103e
000003b0: 00b9 cebe f46b da3e e82d 863e ac3a 05bf
000003c0: e8cc f2be 7d26 4fbd 6552 783e f33a b03d
000003d0: 5a5b 99be 295f 36bd 6eec 0abf c1eb d0be
000003e0: adc7 c4be 19b9 fc3e 8736 ca3e da43 8dbe
000003f0: 756b d93d b929 643e 987d c03d ec22 a3be
0.36746702 -0.35965776 -0.02349934 0.388303 -0.60210705 0.5665424 -0.11877556 0.2937234
0.08026149 -0.04306684 0.18737108 -0.30938476 0.34950158 -0.1910372 0.113141775 -0.077000685
0.11167806 -0.31938615 0.4724442 0.024273004 -0.23923628 -0.34869725 -0.09677294 -0.24903466
-0.18501103 0.027644455 0.3441745 0.48994392 -0.52713025 0.4812367 0.17275186 0.4862992
0.37326905 -0.52604556 -0.5489495 -0.27847457 0.5546511 -0.2103278 0.37779364 -0.41610706
0.6846733 -0.04860108 0.40402788 -0.18837678 -0.14675352 0.36007354 -0.41286755 0.24175608
-0.16671404 -0.06329745 -0.5550577 -0.27527004 0.31328988 -0.14034073 0.6318001 0.37454435
0.0016836699 -0.38537154 0.35158446 0.17918475 -0.44475144 0.5425352 0.54555184 0.5771335
-0.42650062 -0.017795984 -0.011184352 0.08432633 -0.43816167 -0.40970066 0.31408116 -0.13538398
0.31985006 -0.07779325 0.27385548 0.110388756 0.10125677 0.023688912 -0.47194868 0.5413681
-0.11519288 -0.43561596 0.0351112 -0.098384626 0.39504975 -0.44982284 -0.53861594 0.4753232
-0.18814771 0.48763514 0.3355852 -0.4214092 0.21476255 0.2781891 -0.4405906 -0.628785
0.20180845 -0.04487098 -0.33478388 -0.14490676 0.54427916 -0.5579211 0.34181377 0.12926038
-0.5236075 -0.5546742 0.7139768 0.30362886 0.40630454 -0.024095885 0.27273455 0.45301014
0.4351861 -0.448822 0.072778225 0.3665355 0.222042 0.3798819 -0.5713299 -0.39006332
-0.34916505 0.07253156 0.57542473 -0.36469808 0.30765894 -0.3195565 -0.5428338 -0.12270983
0.33265242 0.56538355 -0.5065373 0.2674633 0.36675772 0.18011828 0.24273129 0.4406892
0.25969943 0.09592486 -0.39480373 -0.4848348 -0.2645538 -0.06723007 -0.35388812 0.2112257
0.20662746 -0.25427923 0.23972404 0.16971852 0.26281506 0.15124184 -0.22670072 0.6338546
-0.28331223 -0.019835444 -0.5449494 -0.371592 -0.33729002 -0.24694595 0.41047847 -0.18866712
-0.43144298 0.22213545 0.11710519 0.1775837 -0.2796376 0.1950967 -0.3084516 -0.14233413
-0.46010104 -0.2631337 -0.17681798 0.30253944 0.010713744 0.21691723 0.6049272 0.46782398
0.36041674 0.018384878 -0.39940596 0.4512048 -0.14437418 -0.046676088 -0.49738663 -0.11404319
-0.3723839 0.5305306 -0.49913144 -0.45003456 -0.019604672 -0.25117534 0.38918075 -0.3528783
-0.27117425 0.03269976 0.41794267 -0.40612188 0.2711273 0.3709137 0.598725 -0.5481812
0.18290424 -0.42690828 0.49291292 -0.2239578 0.3684479 -0.10029463 -0.081224374 -0.018421974
0.09814636 0.27216065 0.13884844 0.07025026 -0.68098795 0.32050866 0.3337711 0.2631558
0.4426332 -0.58258504 -0.16386864 0.56863827 -0.5578301 0.7199583 -0.45408368 -0.40669045
0.28225386 -0.41481984 -0.13227135 0.4200176 0.48102948 0.44149888 -0.1526467 -0.44875172
0.56846535 -0.12299071 -0.23754218 0.14074288 -0.4037552 0.42660487 0.262069 -0.5204265
-0.47421956 -0.050573815 0.24250181 0.08604994 -0.29952508 -0.044524346 -0.54267013 -0.40804866
-0.3843359 0.49359968 0.39494726 -0.2759083 0.10616199 0.22281541 0.09398955 -0.3186258

fc1.bias f4 [256]
00000000: 37a5 96be d707 983d 55d7 e2be 5b13 853e
00000010: 9aa8 1bbf dd1e 083f 44b1 b43e cc03 53be
00000020: fbd7 ae3d 29a5 bbbe b1fa e0be c6b5 95be
00000030: 79b5 fdbe f79f 753e 8285 b6be bd20 28be
00000040: af87 e2be 61b7 b9be f382 2bbf 8b76 d4be
00000050: b16a 293f f477 b03c 53f5 0cbf 8a59 c5bd
00000060: 3a05 22be 6adf 8d3e 5d7c 4a3f 15c3 0e3e
00000070: aa78 643e 10e1 cfbe 7eb3 d8bd f6fb 54be
00000080: f5c9 8dbd 2287 343f c969 553e f627 3c3f
00000090: c666 02bf d5f3 72be 0d46 253e 40ff 6a3e
000000a0: 88dd 07bf 8f2c 91be 8285 ab3d 75f6 16bf
000000b0: aa9d e1bc fb2a 54be bc32 19be d888 9e3e
000000c0: c534 5c3e 9425 193f 92f9 e73e e757 81bc
000000d0: f0af f13e f740 eb3e 687d 11bf ec9c bc3d
000000e0: 4c8d 8a3d 2bd7 e4be c140 9cbe 6f9a 0bbe
000000f0: fbda cebe fd68 34be 04f2 463e b42b 393f
00000100: 05a2 333d a121 0fbf 2aba 923d e4e3 32be
00000110: 2969 b23e 5bd1 0ebf beec 8fbe 14cd aa3e
00000120: ebf5 c8bb 2d7d 04bf 0ef7 ffbe 1b32 cbbb
00000130: 1d14 983d b668 f5be a45c f7be c6a3 2fbe
00000140: 967f f2bd 0532 a83e cb35 0fbf 9229 8abe
00000150: b769 0ebf 393d f33d cd07 97be 4cf5 d9bc
00000160: da49 f7be 278a e8be 741f 05bf b5cb 37bf
00000170: d69a ba3e 5937 a9bd b2ce 14bf 4023 cf3e
00000180: 8c21 06be c4b5 883e 9144 37be fa50 f7be
00000190: 5dd8 013e d211 b83e 801c 10bf 181e 1dbe
000001a0: 0cab eb3d 45b6 873d ad02 3dbe 12c6 37be
000001b0: 359f 0fbf b1f9 ff3c 25a6 16bf d53d f4be
000001c0: 02cf 3dbe 4cfd d1be 8886 c73e f8dd c73e
000001d0: e4bb e53e 3bda d6be cbdf 343e e3df b23e
000001e0: 3d39 d43b 6664 e83e bb43 a73e 222e e23e
000001f0: aae4 733e adf4 be3d 9892 cebe 60cf a4be
00000200: ae2b 8cbe e37c a73e 81e5 06be 6d00 303e
00000210: 1f31 3cbf f478 83be 85c7 26be 0ebc bebe
00000220: 9668 2a3e 0752 2dbf 7a99 87be 76a8 85be
00000230: 30ce 05bf 2bae 373e 611d 3cbe 5366 3e3e
00000240: e7ac d83e 5ca8 3d3f 6147 adbd 9f6f e53d
00000250: 82c1 053f 5d54 a3bd cd3b 4cbe 2b6a cabc
00000260: a98f bf3d f17a 053f 239a 3dbf a2e4 653e
00000270: 7b0b 7b3e c0da b6be 40da 643c 85af 6d3e
00000280: eebb b93c 2a0e e43e 7ab7 773e da87 2fbf
00000290: b8bb 24be 1542 993e 412e 8ebe fa2a 7c3e
000002a0: 1148 083e e1d8 bfbd 5073 863b 6379 bd3d
000002b0: a348 cabe 6abd d33e 6606 563e 5be0 a53e
000002c0: b9b1 133f a04d 30be acbc d0be a3f7 d73c
000002d0: c32f 90be f0b3 503e 3344 2b3f 0bd5 0abf
000002e0: 9560 1ebe f13f 173f b4fa ebbe 800a ccbd
000002f0: 026b db3e 8f8c ce3e 56c3 eabd f4fc 7ebe
00000300: f61f 57be 9289 04bf e356 c4be 037b 0abf
00000310: d0fd f33e ba59 873e 9201 bc3e ed7e 14be
00000320: 4fa4 a73e 63f2 7fbe edc1 903e 0848 6cbe
00000330: 020e 8bbe fdb8 bcbe f467 b6be ca49 07bf
00000340: a254 f43c 5189 dbbe 1d18 933d df78 bc3e
00000350: b5f7 bbbd 965c 8f3e 0e7e 2cbd 6fe9 3a3e
00000360: 1ca3 bebe 808b bcbd fb01 45be c076 8f3e
00000370: 68aa 04bf 9626 a6be 7318 02be 312d 3c3f
00000380: 1a02 c83e 4928 0fbf af08 1dbf dfbb a83e
00000390: e451 ac3d ab2f fdbe 9514 8ebe c73b 813e
000003a0: d696 aabe 8bb4 14bf 9c82 b6be d2b4 02be
000003b0: 6451 6bbe a200 b23e 77ed 8d3e 3da4 f4be
000003c0: 623b 8dbe 2e3b e4be dfa0 4f3e 6fc4 473f
000003d0: c8a8 0f3f 4113 bd3d cec4 66be 4dce 6bbc
000003e0: 414c 553e beca 42bf 8c3f 0ebe 5948 f0be
000003f0: 9e96 56bf ef14 9ebc 9653 b7be c340 bbbe
-0.29422924 0.0742337 -0.4430491 0.2599133 -0.6080414 0.53172094 0.35291493 -0.20606917
0.08537289 -0.36649445 -0.43941262 -0.29240245 -0.49552515 0.23986803 -0.35648733 -0.16418739
-0.44244143 -0.3627272 -0.6699669 -0.4149669 0.66178423 0.021541573 -0.55061835 -0.09636219
-0.15822306 0.27709514 0.79096013 0.13941605 0.22311655 -0.40601397 -0.105811104 -0.2079924
-0.06923286 0.70518696 0.20841135 0.73498476 -0.5093807 -0.23725827 0.16140004 0.22948933
-0.53072405 -0.28354308 0.08375074 -0.58969814 -0.027541 -0.20719521 -0.1496076 0.30963778
0.21504505 0.59822965 0.45307595 -0.015788985 0.47204542 0.45948002 -0.5683198 0.09209618
0.067652315 -0.4469541 -0.30518153 -0.1363313 -0.40401444 -0.17618175 0.19428259 0.7233231
0.043855686 -0.5591069 0.07164414 -0.17469746 0.34845856 -0.557882 -0.28110307 0.33359587
-0.0061328313 -0.51753503 -0.49993175 -0.0062010414 0.07425711 -0.4793145 -0.48312867 -0.17152318
-0.11840741 0.32850662 -0.55941457 -0.2698484 -0.5563006 0.11876912 -0.2949814 -0.026606224
-0.48298532 -0.45417902 -0.5200112 -0.7179521 0.36446255 -0.0826251 -0.5812789 0.4045658
-0.13098735 0.26701176 -0.1789725 -0.48303968 0.12680192 0.35951096 -0.5629349 -0.15343511
0.11507234 0.06626562 -0.18458052 -0.17946652 -0.56102306 0.031246992 -0.58847266 -0.47703424
-0.18535998 -0.41013563 0.38969827 0.39036536 0.44869912 -0.41963372 0.17663495 0.34936437
0.00647655 0.45389098 0.32668862 0.44175822 0.23817697 0.09324012 -0.40346217 -0.32189465
-0.27377075 0.32712469 -0.13173486 0.17187662 -0.7351245 -0.25678217 -0.16287048 -0.3725285
0.16641459 -0.6770329 -0.2648428 -0.26105088 -0.5226774 0.17937534 -0.18370582 0.18593721
0.42319414 0.7408502 -0.0846088 0.11202931 0.52248394 -0.079750754 -0.19944687 -0.024708828
0.09353573 0.5214072 -0.7406332 0.22450498 0.24516098 -0.35713768 0.0139680505 0.23211487
0.02267262 0.44542056 0.24191085 -0.6856667 -0.16087234 0.2993323 -0.27769664 0.2462577
0.13308741 -0.09367538 0.004103102 0.09251668 -0.39508542 0.4135545 0.20900878 0.32397732
0.5769306 -0.17217112 -0.40768945 0.0263632 -0.2816144 0.2038114 0.6690094 -0.5423133
-0.1546653 0.5908194 -0.4608971 -0.0996294 0.42855078 0.40341613 -0.114630386 -0.24901181
-0.21008286 -0.51772416 -0.3834754 -0.5409395 0.4765458 0.26435643 0.36719948 -0.14501543
0.32742545 -0.24994807 0.28272954 -0.23074353 -0.27159125 -0.36859885 -0.35626185 -0.5284697
0.029825512 -0.42878202 0.071823336 0.36810967 -0.09178106 0.28000325 -0.042112403 0.1825311
-0.37233818 -0.09206295 -0.19239037 0.28020287 -0.5182252 -0.32451314 -0.12704639 0.73506457
0.39064103 -0.55920845 -0.61341375 0.32955834 0.08414057 -0.4945043 -0.27750078 0.2524092
-0.33318204 -0.58087987 -0.35646522 -0.1276429 -0.22980267 0.34766108 0.27720234 -0.47781554
-0.27584368 -0.445764 0.20276211 0.7803411 0.56116915 0.09232188 -0.22536013 -0.014392448
0.2082987 -0.7609061 -0.13891429 -0.46930197 -0.83823574 -0.019297091 -0.35805959 -0.36572847

fc2.weight f4 [64, 256]
00000000: bb48 333e 496a 663e 5043 1c3c 8f1b 22be
00000010: 3cc5 913e fd47 37be 00b8 13bc 209d acbc
00000020: ae76 3c3d b203 ad3e 72f6 1c3d f816 8fbc
00000030: 8438 983d 56d0 babe 76c6 823d e014 293e
00000040: c4c9 47bd 06ff 403d 49c2 863c 9c3f 5e3d
00000050: 9135 9cbe 8f0b 0c3e 6a9c 193d c803 6d3c
00000060: 63f7 5e3d 62e9 c7bc 66c7 23bf 7650 6bbd
00000070: d918 033e 5d5e f03d 196d 883e 17b5 c7be
00000080: a437 613d 2cf4 2bbe c8cf 1fbd 8477 d6be
00000090: ae61 fa3d 4ddd 5e3d a9f2 c5bd 6164 cd3d
000000a0: f2c8 6ebd f05d eabb 4088 58bb c8d8 2b3e
000000b0: 9e21 28bd a601 ed3c 7a38 663d aab6 663d
000000c0: 6f50 acbc 9240 37bd 6014 59be 96ec 47bd
000000d0: 2862 8cbc 348a 783d 6965 803d b78b 963d
000000e0: f4d5 703d 51e1 d13d 26f2 9d3d 181c 2a3d
000000f0: d20d 703d 189b 2f3c ce05 4fbd ef89 cabe
00000100: fe44 04bd d84b 533d cfc5 073e acd9 953c
00000110: 19bd 07bd 928b 3cbd 6b99 dd3d 8f89 36bc
00000120: 83d8 7b3d ac71 6c3e 20d6 75bc 0023 773a
00000130: 06bd 0b3d c802 c53c c0e2 43bd 307a f53c
00000140: b0bb fdbc 0cf3 173d 9888 fd3c 4040 803d
00000150: f337 1b3e 5538 afbe 98d1 7fbd aa24 e63d
00000160: daa9 2fbd f0be 083c e16b c53d 9c58 853e
00000170: ace7 2ebd a2d1 7abd 6193 a43d 0803 253c
00000180: 0288 3b3d 02df 3e3a 4c28 453d e89f a13c
00000190: d051 92bc 8084 58bc dcff 0bbd 7d7d b83d
000001a0: 6608 32bd 6007 b03c 6e54 a43d b43b 593d
000001b0: b4dd 2b3e ef77 633e 859f 293d 1038 a7bb
000001c0: 1eb2 693d f303 393d d299 ddbe 2259 423d
000001d0: b8fe 78bd 3331 953e 2327 6e3d e95f c0bc
000001e0: 7087 283c 1b7d 3dbe c00f 22bd 8895 e7bc
000001f0: e05f b7bb 9238 5e3d 09a8 293d 20c3 e03b
00000200: 9c92 26bd 1197 eabc 3312 cbbb 02e5 a5be
00000210: 40ac 283e 5be5 1f3e fe57 0ebd 7c66 88bc
00000220: c5de 433a c757 153e e059 c93d 5037 cc3d
00000230: 3c55 bebc 2ce0 b63d 5c30 39bd b2de 15bc
00000240: 1db3 fdbd 8e1e 0dbf 8631 ca3c e47f cc3d
00000250: 1eb8 adbc 8be9 b53d aaf3 713c afe5 d5bd
00000260: 1066 d23c cacd aabe b5c8 d33d 32eb 433d
00000270: 6b8a 00bf 11be b1be 3af4 3f3d 1816 b93c
00000280: d22a fd3d 8b3e 7a3b 26d5 e9be e66e 193e
00000290: 6dca 723e 3a87 c2ba a880 5c3d 9c2f 1f3d
000002a0: c0c5 faba f0ae e4bc 60c3 873b 8cd4 8a3d
000002b0: a62b 223d 8691 ee3c 8203 0d3d e048 cb3c
000002c0: 70e9 c03c a080 913d dc9e f83c b41d a33c
000002d0: 26ca 583e a496 70bd bce1 bfbe fb14 113e
000002e0: 2bb8 d83d e692 e3bd 94be 2c3d 5c22 ae3c
000002f0: e08e 60bd 201b 733b 8569 fa3d a479 133d
00000300: 64ac bf3e 4472 cabc eb97 81be a4a9 4fbd
00000310: 0e0d e9bc 8129 05bd 161a e8bd 92bc 113d
00000320: 5367 443d 78fb 0a3e 443a bbbc 0dc5 883d
00000330: 4cc7 c2bc 2c7a b33c b03d e13d 68f4 303d
00000340: b7f7 633d dcd0 e03d 9933 eb3d 1c41 9bbc
00000350: c181 993d 0cd9 89bc b665 1b3c 58ad b53d
00000360: 400a 0c3c eed6 153e 5894 d23c 475d 83bc
00000370: a89c b9bc fecd 32bd dc23 203e 4374 0abf
00000380: 729c 4bbd dde9 563e e4ca 9f3e 4734 b73d
00000390: 7c46 303d a043 44bd 63e6 503e 54f4 223d
000003a0: c52a 973e f554 593e 72ab 3a3d e234 b8be
000003b0: bdaf 423e a3d8 d2bd d8c0 d5bc 26cd a53d
000003c0: dd45 c63d f0c9 a1bb 1716 e03d 05e3 abbd
000003d0: 7cdd 05bd 9fc0 813c 4f40 143e c0be 94ba
000003e0: 34b8 283d e5df 033e 10a1 a8bc d457 fdbc
000003f0: 21a3 5b3d 945a 59bd 9fdf 6b3e e62f 1ebd
0.17508213 0.22501482 0.009537533 -0.15830825 0.2847079 -0.17898555 -0.009016037 -0.021071017
0.04601162 0.33791882 0.038320966 -0.017467007 0.074326545 -0.36487073 0.0638551 0.1651187
-0.048776403 0.04711821 0.016450064 0.05425988 -0.30509618 0.13676284 0.037502684 0.014466234
0.054435145 -0.024403278 -0.6397613 -0.05744978 0.12802447 0.11736748 0.26645735 -0.39005348
0.054984704 -0.16792363 -0.039016515 -0.41888058 0.12225662 0.054410268 -0.096654244 0.100289114
-0.058297105 -0.0071523115 -0.0033040196 0.16781914 -0.041047685 0.02893145 0.056206204 0.056326546
-0.021034447 -0.044739313 -0.21199179 -0.04880961 -0.017136648 0.060678676 0.062693425 0.07350867
0.05879779 0.10248054 0.07712202 0.0415307 0.05860693 0.01071813 -0.050542645 -0.3955836
-0.03229236 0.051586002 0.13259052 0.01829227 -0.033139322 -0.046031542 0.10820278 -0.011141195
0.06148578 0.23090237 -0.015004665 0.00094275177 0.034115814 0.024049178 -0.047823668 0.02996549
-0.030973285 0.037097022 0.030948922 0.06262255 0.15158062 -0.34222665 -0.062455744 0.11237462
-0.042886592 0.008346304 0.09639717 0.26044166 -0.04270141 -0.061235078 0.08035923 0.0100715235
0.045784004 0.00072811556 0.048134133 0.01972957 -0.017861277 -0.013215184 -0.034179553 0.0900831
-0.04346504 0.021487892 0.08023916 0.053035453 0.16783792 0.2221372 0.041411895 -0.0051031187
0.05705463 0.045169782 -0.43281418 0.047448285 -0.060789794 0.291391 0.058142792 -0.023483234
0.010286197 -0.18504755 -0.0395658 -0.028269544 -0.005596146 0.05425317 0.041420016 0.006859198
-0.04066716 -0.028636487 -0.006197238 -0.32401282 0.16471958 0.15614836 -0.034751885 -0.01665043
0.0007471855 0.14584266 0.098315954 0.099714875 -0.023234002 0.08929476 -0.045212135 -0.009147333
-0.12387679 -0.5512475 0.024681818 0.09985331 -0.021205958 0.088824354 0.014767567 -0.10444199
0.025683433 -0.3336013 0.10341016 0.04783172 -0.5021121 -0.34715322 0.046863772 0.022593543
0.12361683 0.0038184251 -0.45670432 0.1498371 0.23710032 -0.0014841326 0.053833634 0.038863763
-0.001913242 -0.027915448 0.0041431636 0.06778821 0.039592408 0.029122125 0.034427173 0.024815023
0.023548812 0.071046114 0.030349188 0.019911624 0.21170864 -0.058737412 -0.3747691 0.1416816
0.10582002 -0.11112003 0.042173937 0.021256618 -0.054823756 0.0037095025 0.122271575 0.036004677
0.3743621 -0.02471269 -0.25311217 -0.05069889 -0.028448608 -0.032510284 -0.113331005 0.035580225
0.0479501 0.1357249 -0.022854932 0.066782095 -0.023776673 0.021908842 0.10998094 0.043201834
0.05565616 0.10977337 0.11484451 -0.018951945 0.07495452 -0.016827129 0.009484699 0.08870953
0.008547366 0.1463277 0.025705501 -0.016035689 -0.022657707 -0.04365348 0.1563868 -0.5408365
-0.049709745 0.2098765 0.3120948 0.08945518 0.04303597 -0.047916055 0.20400386 0.03978379
0.29524818 0.21223815 0.04557366 -0.35977846 0.19012351 -0.102952264 -0.026092932 0.080957696
0.09681294 -0.004937403 0.10941713 -0.0839291 -0.032681927 0.01583892 0.14477657 -0.0011348352
0.041191295 0.12878378 -0.020584613 -0.030925669 0.05362237 -0.053064898 0.23034523 -0.0386199

fc2.bias f4 [64]
00000000: baaf cabd 66e6 dcbc 2467 b1bc 5499 db3c
00000010: ad0d 83bd 70cd 933c ee67 4d3d 904c 5a3d
00000020: e81d 07be 7045 373c 7a00 003d acc3 24bd
00000030: 7805 38bc b91d 2fbe 3333 c5bd 44c0 aa3c
00000040: 3a01 4c3d 2fc9 d5bd b1a8 20be 2e16 fbbd
00000050: 16fb 12be 1b78 e0bc f8e7 533c 6305 1bbe
00000060: 00d4 d53b c0c9 523c 0825 15bd c05a da3b
00000070: 698d 67bd ff6e 233d dca1 58bd b0ce 81bb
00000080: 57f7 2bbb 3d9b 54bd ab87 b8bd 3026 373c
00000090: 2216 24bd 44fe a1bc a447 9ebd 00f5 52ba
000000a0: 24c0 5fbd 25de 73bd 04bc 6d3d 3284 343d
000000b0: 06aa 18be d4a1 9f3c be6c 04be a106 1cbe
000000c0: 7c5e 76bc 8818 0a3d 60da 3c3c b875 41be
000000d0: 0745 1fbd d2e1 033d 8d23 cc3c 80db e33c
000000e0: 73be 15bd 212c 15be 7beb 81ba d085 11bd
000000f0: 97b7 7cbd 4405 d03c 10e1 0c3d 4c6d c2bd
-0.098967984 -0.026965331 -0.021655627 0.026806511 -0.06399093 0.018042296 0.050147943 0.053295672
-0.13195002 0.011185989 0.031250454 -0.04022567 -0.011231773 -0.17101182 -0.09628906 0.020843633
0.049805857 -0.10438763 -0.1568935 -0.1226009 -0.14353594 -0.02740102 0.012933724 -0.15138774
0.0065255165 0.012865484 -0.03641227 0.0066636503 -0.056531344 0.039900776 -0.052888736 -0.0039614066
-0.0026239955 -0.05190586 -0.090102516 0.011178538 -0.04006017 -0.019774564 -0.07728508 -0.0008047372
-0.0546266 -0.059538025 0.058040634 0.044071384 -0.14908609 0.019486345 -0.12932107 -0.15236904
-0.015037175 0.0337148 0.011526674 -0.18892562 -0.03888419 0.03219778 0.024919296 0.027814627
-0.03655858 -0.14567615 -0.0009912098 -0.035528004 -0.061698522 0.025393136 0.034394324 -0.09493503

fc3.weight f4 [2, 64]
00000000: c34b 35be 86c0 b73d 70bd f03d a081 d3bc
00000010: b278 79be b009 90bc d015 1b3c acc4 57bd
00000020: cc67 15be 78b9 333d e001 89bd c4ce 063d
00000030: 84ac 183d 2ebe 12be c118 56be 15bb 623c
00000040: 806f 89bc 324e 8abe 9f56 86be 57c3 bebe
00000050: b507 acbe e3c2 8ebc 88b6 143d 969b 67be
00000060: ac30 afbd fa2d c7bd e81e 7cbd c8a8 6a3d
00000070: 9a19 88bd 8057 42bd 2839 743d 28b5 2d3d
00000080: 1392 bc3c 7a2e a73c 4252 70be e086 bb3b
00000090: 4137 583d 64d1 5b3d d22b 23be 560a 80bd
000000a0: caea bfbd f60a 87bd f025 92bd 5ebf 883d
000000b0: 41db 93be 03e0 b23d 8191 a5be ad03 f7bd
000000c0: bc38 de3d ab6c 2abc c100 ef3c 4669 8ebe
000000d0: 90f5 3b3d 08d6 dc3d ab44 46bb c8da d43c
000000e0: d465 723b 0be5 1bbe b327 183d fcfd 813d
000000f0: a15d 98be 7c42 92bd a6bb ffbd 557e 7ebe
00000100: ee8e 69be 6789 0cbe b654 a33d e09c 37bc
00000110: 1f27 70be e295 ce3d 0ae5 a5bd 6631 ae3d
00000120: 1dfb 90be aaa2 bb3d 1eb3 1e3d f2bd 8c3d
00000130: 38f2 933c 6cfd 85be 0fbd 35be aa18 563b
00000140: 6cf5 41bd 8bf3 f5bd c88b 19be 0865 abbc
00000150: 304b 93bc d01c 82bc 0042 803b bd1a 4cbe
00000160: a883 f43d 647c b5bd 6caf 863d 1093 673d
00000170: 6ed4 48bc e53e c83d 984c 893d f61e f9bd
00000180: 164e 65bd 62e2 823d 2bb7 f5bd d0b2 a0bc
00000190: 68e8 de3d eb78 943c b6f5 73be 1032 9fbd
000001a0: 1255 debd 7846 993c d602 adbd 485f e9bc
000001b0: 5e14 26bd b6d5 473d 44b9 babc c792 a6be
000001c0: 18be ca3d 5cea fa3c 31bb 353d c3e1 c5bd
000001d0: 4716 dc3d ae75 e33d f7e7 50bc 62ee ccbd
000001e0: 9f6a 8c3d 543d 89be 0a9d 99bc 462c babb
000001f0: a0a0 f4bd 90a6 78bc 4c18 febd 4bd1 cebd
-0.17704682 0.08972268 0.11754882 -0.025818646 -0.24362448 -0.017582744 0.00946565 -0.052677795
-0.14590377 0.04387805 -0.06689811 0.03291203 0.0372739 -0.1433036 -0.2090788 0.013838549
-0.0167768 -0.27012783 -0.26237962 -0.37258407 -0.3359963 -0.017426914 0.036306888 -0.22617945
-0.08554205 -0.09725566 -0.061552912 0.05728987 -0.06645508 -0.047446728 0.05962482 0.042409092
0.023018872 0.020407904 -0.23468879 0.0057228655 0.05278707 0.053666487 -0.15934685 -0.062519714
-0.09370954 -0.065938875 -0.07136142 0.066771254 -0.28878215 0.08734133 -0.32337573 -0.12061248
0.10850665 -0.010401885 0.029175164 -0.27814692 0.045888484 0.10783011 -0.0030253332 0.02598323
0.0036986964 -0.15224092 0.037147235 0.06347272 -0.29758933 -0.07141587 -0.12486963 -0.2485288
-0.2280843 -0.1372429 0.07975142 -0.0112068355 -0.23452424 0.10087182 -0.08100326 0.08505516
-0.28316584 0.09161885 0.03874504 0.06872167 0.018059835 -0.26169908 -0.17747901 0.003266851
-0.047353193 -0.12009343 -0.14994729 -0.020922199 -0.017980188 -0.01588288 0.003914118 -0.19932075
0.11939174 -0.08861616 0.06576428 0.056536734 -0.012257678 0.09777621 0.06704062 -0.121641085
-0.05598267 0.06390835 -0.11997827 -0.019616514 0.10884172 0.018124064 -0.238242 -0.077732205
-0.108560696 0.01871036 -0.084478065 -0.028487816 -0.040546767 0.048787795 -0.02279342 -0.32533857
0.09899539 0.03062933 0.044367973 -0.09662201 0.107464366 0.1110643 -0.012750617 -0.100064054
0.06856274 -0.26804602 -0.01875164 -0.0056815473 -0.11944699 -0.01517643 -0.12406978 -0.10098513

fc3.bias f4 [2]
00000000: f980 e43e dcc1 d63e
0.44629648 0.41944778
